…
I0427 16:20:19.159297 13425 solver.cpp:91] Creating training net from net file: ./unet_f1_3/unet_f1_3.prototxt
I0427 16:20:19.159955 13425 net.cpp:322] The NetState phase (0) differed from the phase (1) specified by a rule in layer loaddata
I0427 16:20:19.160362 13425 net.cpp:58] Initializing net from parameters: 
name: "unet_f1_3"
force_backward: true
state {
  phase: TRAIN
}
layer {
  name: "loaddata"
  type: "HDF5Data"
  top: "data"
  top: "label"
  include {
    phase: TRAIN
  }
  hdf5_data_param {
    source: "caffeHDF5_3.txt"
    batch_size: 5
  }
}
layer {
  name: "conv_d0a-b"
  type: "Convolution"
  bottom: "data"
  top: "d0b"
  param {
    lr_mult: 1
    decay_mult: 1
  }
  param {
    lr_mult: 2
    decay_mult: 0
  }
  convolution_param {
    num_output: 64
    pad: 0
    kernel_size: 3
    weight_filler {
      type: "xavier"
    }
    engine: CAFFE
  }
}
layer {
  name: "relu_d0b"
  type: "ReLU"
  bottom: "d0b"
  top: "d0b"
}
layer {
  name: "conv_d0b-c"
  type: "Convolution"
  bottom: "d0b"
  top: "d0c"
  param {
    lr_mult: 1
    decay_mult: 1
  }
  param {
    lr_mult: 2
    decay_mult: 0
  }
  convolution_param {
    num_output: 64
    pad: 0
    kernel_size: 3
    weight_filler {
      type: "xavier"
    }
    engine: CAFFE
  }
}
layer {
  name: "relu_d0c"
  type: "ReLU"
  bottom: "d0c"
  top: "d0c"
}
layer {
  name: "pool_d0c-1a"
  type: "Pooling"
  bottom: "d0c"
  top: "d1a"
  pooling_param {
    pool: MAX
    kernel_size: 2
    stride: 2
  }
}
layer {
  name: "conv_d1a-b"
  type: "Convolution"
  bottom: "d1a"
  top: "d1b"
  param {
    lr_mult: 1
    decay_mult: 1
  }
  param {
    lr_mult: 2
    decay_mult: 0
  }
  convolution_param {
    num_output: 128
    pad: 0
    kernel_size: 3
    weight_filler {
      type: "xavier"
    }
    engine: CAFFE
  }
}
layer {
  name: "relu_d1b"
  type: "ReLU"
  bottom: "d1b"
  top: "d1b"
}
layer {
  name: "conv_d1b-c"
  type: "Convolution"
  bottom: "d1b"
  top: "d1c"
  param {
    lr_mult: 1
    decay_mult: 1
  }
  param {
    lr_mult: 2
    decay_mult: 0
  }
  convolution_param {
    num_output: 128
    pad: 0
    kernel_size: 3
    weight_filler {
      type: "xavier"
    }
    engine: CAFFE
  }
}
layer {
  name: "relu_d1c"
  type: "ReLU"
  bottom: "d1c"
  top: "d1c"
}
layer {
  name: "pool_d1c-2a"
  type: "Pooling"
  bottom: "d1c"
  top: "d2a"
  pooling_param {
    pool: MAX
    kernel_size: 2
    stride: 2
  }
}
layer {
  name: "conv_d2a-b"
  type: "Convolution"
  bottom: "d2a"
  top: "d2b"
  param {
    lr_mult: 1
    decay_mult: 1
  }
  param {
    lr_mult: 2
    decay_mult: 0
  }
  convolution_param {
    num_output: 256
    pad: 0
    kernel_size: 3
    weight_filler {
      type: "xavier"
    }
    engine: CAFFE
  }
}
layer {
  name: "relu_d2b"
  type: "ReLU"
  bottom: "d2b"
  top: "d2b"
}
layer {
  name: "conv_d2b-c"
  type: "Convolution"
  bottom: "d2b"
  top: "d2c"
  param {
    lr_mult: 1
    decay_mult: 1
  }
  param {
    lr_mult: 2
    decay_mult: 0
  }
  convolution_param {
    num_output: 256
    pad: 0
    kernel_size: 3
    weight_filler {
      type: "xavier"
    }
    engine: CAFFE
  }
}
layer {
  name: "relu_d2c"
  type: "ReLU"
  bottom: "d2c"
  top: "d2c"
}
layer {
  name: "pool_d2c-3a"
  type: "Pooling"
  bottom: "d2c"
  top: "d3a"
  pooling_param {
    pool: MAX
    kernel_size: 2
    stride: 2
  }
}
layer {
  name: "conv_d3a-b"
  type: "Convolution"
  bottom: "d3a"
  top: "d3b"
  param {
    lr_mult: 1
    decay_mult: 1
  }
  param {
    lr_mult: 2
    decay_mult: 0
  }
  convolution_param {
    num_output: 512
    pad: 0
    kernel_size: 3
    weight_filler {
      type: "xavier"
    }
    engine: CAFFE
  }
}
layer {
  name: "relu_d3b"
  type: "ReLU"
  bottom: "d3b"
  top: "d3b"
}
layer {
  name: "conv_d3b-c"
  type: "Convolution"
  bottom: "d3b"
  top: "d3c"
  param {
    lr_mult: 1
    decay_mult: 1
  }
  param {
    lr_mult: 2
    decay_mult: 0
  }
  convolution_param {
    num_output: 512
    pad: 0
    kernel_size: 3
    weight_filler {
      type: "xavier"
    }
    engine: CAFFE
  }
}
layer {
  name: "relu_d3c"
  type: "ReLU"
  bottom: "d3c"
  top: "d3c"
}
layer {
  name: "dropout_d3c"
  type: "Dropout"
  bottom: "d3c"
  top: "d3c"
  include {
    phase: TRAIN
  }
  dropout_param {
    dropout_ratio: 0.5
  }
}
layer {
  name: "pool_d3c-4a"
  type: "Pooling"
  bottom: "d3c"
  top: "d4a"
  pooling_param {
    pool: MAX
    kernel_size: 2
    stride: 2
  }
}
layer {
  name: "conv_d4a-b"
  type: "Convolution"
  bottom: "d4a"
  top: "d4b"
  param {
    lr_mult: 1
    decay_mult: 1
  }
  param {
    lr_mult: 2
    decay_mult: 0
  }
  convolution_param {
    num_output: 1024
    pad: 0
    kernel_size: 3
    weight_filler {
      type: "xavier"
    }
    engine: CAFFE
  }
}
layer {
  name: "relu_d4b"
  type: "ReLU"
  bottom: "d4b"
  top: "d4b"
}
layer {
  name: "conv_d4b-c"
  type: "Convolution"
  bottom: "d4b"
  top: "d4c"
  param {
    lr_mult: 1
    decay_mult: 1
  }
  param {
    lr_mult: 2
    decay_mult: 0
  }
  convolution_param {
    num_output: 1024
    pad: 0
    kernel_size: 3
    weight_filler {
      type: "xavier"
    }
    engine: CAFFE
  }
}
layer {
  name: "relu_d4c"
  type: "ReLU"
  bottom: "d4c"
  top: "d4c"
}
layer {
  name: "dropout_d4c"
  type: "Dropout"
  bottom: "d4c"
  top: "d4c"
  include {
    phase: TRAIN
  }
  dropout_param {
    dropout_ratio: 0.5
  }
}
layer {
  name: "upconv_d4c_u3a"
  type: "Deconvolution"
  bottom: "d4c"
  top: "u3a"
  param {
    lr_mult: 1
    decay_mult: 1
  }
  param {
    lr_mult: 2
    decay_mult: 0
  }
  convolution_param {
    num_output: 512
    pad: 0
    kernel_size: 2
    stride: 2
    weight_filler {
      type: "xavier"
    }
  }
}
layer {
  name: "relu_u3a"
  type: "ReLU"
  bottom: "u3a"
  top: "u3a"
}
layer {
  name: "crop_d3c-d3cc"
  type: "Crop"
  bottom: "d3c"
  bottom: "u3a"
  top: "d3cc"
  crop_param {
    axis: 2
    offset: 4
  }
}
layer {
  name: "concat_d3cc_u3a-b"
  type: "Concat"
  bottom: "u3a"
  bottom: "d3cc"
  top: "u3b"
}
layer {
  name: "conv_u3b-c"
  type: "Convolution"
  bottom: "u3b"
  top: "u3c"
  param {
    lr_mult: 1
    decay_mult: 1
  }
  param {
    lr_mult: 2
    decay_mult: 0
  }
  convolution_param {
    num_output: 512
    pad: 0
    kernel_size: 3
    weight_filler {
      type: "xavier"
    }
    engine: CAFFE
  }
}
layer {
  name: "relu_u3c"
  type: "ReLU"
  bottom: "u3c"
  top: "u3c"
}
layer {
  name: "conv_u3c-d"
  type: "Convolution"
  bottom: "u3c"
  top: "u3d"
  param {
    lr_mult: 1
    decay_mult: 1
  }
  param {
    lr_mult: 2
    decay_mult: 0
  }
  convolution_param {
    num_output: 512
    pad: 0
    kernel_size: 3
    weight_filler {
      type: "xavier"
    }
    engine: CAFFE
  }
}
layer {
  name: "relu_u3d"
  type: "ReLU"
  bottom: "u3d"
  top: "u3d"
}
layer {
  name: "upconv_u3d_u2a"
  type: "Deconvolution"
  bottom: "u3d"
  top: "u2a"
  param {
    lr_mult: 1
    decay_mult: 1
  }
  param {
    lr_mult: 2
    decay_mult: 0
  }
  convolution_param {
    num_output: 256
    pad: 0
    kernel_size: 2
    stride: 2
    weight_filler {
      type: "xavier"
    }
  }
}
layer {
  name: "relu_u2a"
  type: "ReLU"
  bottom: "u2a"
  top: "u2a"
}
layer {
  name: "crop_d2c-d2cc"
  type: "Crop"
  bottom: "d2c"
  bottom: "u2a"
  top: "d2cc"
  crop_param {
    axis: 2
    offset: 16
  }
}
layer {
  name: "concat_d2cc_u2a-b"
  type: "Concat"
  bottom: "u2a"
  bottom: "d2cc"
  top: "u2b"
}
layer {
  name: "conv_u2b-c"
  type: "Convolution"
  bottom: "u2b"
  top: "u2c"
  param {
    lr_mult: 1
    decay_mult: 1
  }
  param {
    lr_mult: 2
    decay_mult: 0
  }
  convolution_param {
    num_output: 256
    pad: 0
    kernel_size: 3
    weight_filler {
      type: "xavier"
    }
    engine: CAFFE
  }
}
layer {
  name: "relu_u2c"
  type: "ReLU"
  bottom: "u2c"
  top: "u2c"
}
layer {
  name: "conv_u2c-d"
  type: "Convolution"
  bottom: "u2c"
  top: "u2d"
  param {
    lr_mult: 1
    decay_mult: 1
  }
  param {
    lr_mult: 2
    decay_mult: 0
  }
  convolution_param {
    num_output: 256
    pad: 0
    kernel_size: 3
    weight_filler {
      type: "xavier"
    }
    engine: CAFFE
  }
}
layer {
  name: "relu_u2d"
  type: "ReLU"
  bottom: "u2d"
  top: "u2d"
}
layer {
  name: "upconv_u2d_u1a"
  type: "Deconvolution"
  bottom: "u2d"
  top: "u1a"
  param {
    lr_mult: 1
    decay_mult: 1
  }
  param {
    lr_mult: 2
    decay_mult: 0
  }
  convolution_param {
    num_output: 128
    pad: 0
    kernel_size: 2
    stride: 2
    weight_filler {
      type: "xavier"
    }
  }
}
layer {
  name: "relu_u1a"
  type: "ReLU"
  bottom: "u1a"
  top: "u1a"
}
layer {
  name: "crop_d1c-d1cc"
  type: "Crop"
  bottom: "d1c"
  bottom: "u1a"
  top: "d1cc"
  crop_param {
    axis: 2
    offset: 40
  }
}
layer {
  name: "concat_d1cc_u1a-b"
  type: "Concat"
  bottom: "u1a"
  bottom: "d1cc"
  top: "u1b"
}
layer {
  name: "conv_u1b-c"
  type: "Convolution"
  bottom: "u1b"
  top: "u1c"
  param {
    lr_mult: 1
    decay_mult: 1
  }
  param {
    lr_mult: 2
    decay_mult: 0
  }
  convolution_param {
    num_output: 128
    pad: 0
    kernel_size: 3
    weight_filler {
      type: "xavier"
    }
    engine: CAFFE
  }
}
layer {
  name: "relu_u1c"
  type: "ReLU"
  bottom: "u1c"
  top: "u1c"
}
layer {
  name: "conv_u1c-d"
  type: "Convolution"
  bottom: "u1c"
  top: "u1d"
  param {
    lr_mult: 1
    decay_mult: 1
  }
  param {
    lr_mult: 2
    decay_mult: 0
  }
  convolution_param {
    num_output: 128
    pad: 0
    kernel_size: 3
    weight_filler {
      type: "xavier"
    }
    engine: CAFFE
  }
}
layer {
  name: "relu_u1d"
  type: "ReLU"
  bottom: "u1d"
  top: "u1d"
}
layer {
  name: "upconv_u1d_u0a"
  type: "Deconvolution"
  bottom: "u1d"
  top: "u0a"
  param {
    lr_mult: 1
    decay_mult: 1
  }
  param {
    lr_mult: 2
    decay_mult: 0
  }
  convolution_param {
    num_output: 128
    pad: 0
    kernel_size: 2
    stride: 2
    weight_filler {
      type: "xavier"
    }
  }
}
layer {
  name: "relu_u0a"
  type: "ReLU"
  bottom: "u0a"
  top: "u0a"
}
layer {
  name: "crop_d0c-d0cc"
  type: "Crop"
  bottom: "d0c"
  bottom: "u0a"
  top: "d0cc"
  crop_param {
    axis: 2
    offset: 88
  }
}
layer {
  name: "concat_d0cc_u0a-b"
  type: "Concat"
  bottom: "u0a"
  bottom: "d0cc"
  top: "u0b"
}
layer {
  name: "conv_u0b-c"
  type: "Convolution"
  bottom: "u0b"
  top: "u0c"
  param {
    lr_mult: 1
    decay_mult: 1
  }
  param {
    lr_mult: 2
    decay_mult: 0
  }
  convolution_param {
    num_output: 64
    pad: 0
    kernel_size: 3
    weight_filler {
      type: "xavier"
    }
    engine: CAFFE
  }
}
layer {
  name: "relu_u0c"
  type: "ReLU"
  bottom: "u0c"
  top: "u0c"
}
layer {
  name: "conv_u0c-d"
  type: "Convolution"
  bottom: "u0c"
  top: "u0d"
  param {
    lr_mult: 1
    decay_mult: 1
  }
  param {
    lr_mult: 2
    decay_mult: 0
  }
  convolution_param {
    num_output: 64
    pad: 0
    kernel_size: 3
    weight_filler {
      type: "xavier"
    }
    engine: CAFFE
  }
}
layer {
  name: "relu_u0d"
  type: "ReLU"
  bottom: "u0d"
  top: "u0d"
}
layer {
  name: "conv_u0d-score"
  type: "Convolution"
  bottom: "u0d"
  top: "score"
  param {
    lr_mult: 1
    decay_mult: 1
  }
  param {
    lr_mult: 2
    decay_mult: 0
  }
  convolution_param {
    num_output: 3
    pad: 0
    kernel_size: 1
    weight_filler {
      type: "xavier"
    }
    engine: CAFFE
  }
}
layer {
  name: "softmax"
  type: "Softmax"
  bottom: "score"
  top: "softmax_out"
}
layer {
  name: "reshapelab"
  type: "Reshape"
  bottom: "label"
  top: "label_flat"
  reshape_param {
    shape {
      dim: 0
      dim: -1
    }
  }
}
layer {
  name: "reshaperes"
  type: "Reshape"
  bottom: "softmax_out"
  top: "softmax_out_flat"
  reshape_param {
    shape {
      dim: 0
      dim: 0
      dim: -1
    }
  }
}
layer {
  name: "loss"
  type: "Python"
  bottom: "softmax_out_flat"
  bottom: "label_flat"
  top: "loss"
  loss_weight: 1
  python_param {
    module: "multiclass_f1_loss"
    layer: "F1Loss"
  }
}
layer {
  name: "visualize"
  type: "Softmax"
  bottom: "score"
  top: "visualize_out"
  include {
    phase: TRAIN
  }
}
layer {
  name: "fake"
  type: "Silence"
  bottom: "visualize_out"
  include {
    phase: TRAIN
  }
}
I0427 16:20:19.160712 13425 layer_factory.hpp:77] Creating layer loaddata
I0427 16:20:19.160725 13425 net.cpp:100] Creating Layer loaddata
I0427 16:20:19.160742 13425 net.cpp:408] loaddata -> data
I0427 16:20:19.160753 13425 net.cpp:408] loaddata -> label
I0427 16:20:19.160763 13425 hdf5_data_layer.cpp:79] Loading list of HDF5 filenames from: caffeHDF5_3.txt
I0427 16:20:19.162760 13425 hdf5_data_layer.cpp:93] Number of HDF5 files: 20
I0427 16:20:24.784201 13425 hdf5.cpp:32] Datatype class: H5T_FLOAT
I0427 16:20:38.544567 13425 hdf5.cpp:35] Datatype class: H5T_INTEGER
I0427 16:20:38.964170 13425 net.cpp:150] Setting up loaddata
I0427 16:20:38.964210 13425 net.cpp:157] Top shape: 5 3 428 428 (2747760)
I0427 16:20:38.964218 13425 net.cpp:157] Top shape: 5 244 244 (297680)
I0427 16:20:38.964222 13425 net.cpp:165] Memory required for data: 12181760
I0427 16:20:38.964233 13425 layer_factory.hpp:77] Creating layer conv_d0a-b
I0427 16:20:38.964262 13425 net.cpp:100] Creating Layer conv_d0a-b
I0427 16:20:38.964267 13425 net.cpp:434] conv_d0a-b <- data
I0427 16:20:38.964279 13425 net.cpp:408] conv_d0a-b -> d0b
I0427 16:20:38.968552 13425 net.cpp:150] Setting up conv_d0a-b
I0427 16:20:38.968582 13425 net.cpp:157] Top shape: 5 64 426 426 (58072320)
I0427 16:20:38.968587 13425 net.cpp:165] Memory required for data: 244471040
I0427 16:20:38.968605 13425 layer_factory.hpp:77] Creating layer relu_d0b
I0427 16:20:38.968618 13425 net.cpp:100] Creating Layer relu_d0b
I0427 16:20:38.968624 13425 net.cpp:434] relu_d0b <- d0b
I0427 16:20:38.968632 13425 net.cpp:395] relu_d0b -> d0b (in-place)
I0427 16:20:39.406834 13425 net.cpp:150] Setting up relu_d0b
I0427 16:20:39.406865 13425 net.cpp:157] Top shape: 5 64 426 426 (58072320)
I0427 16:20:39.406869 13425 net.cpp:165] Memory required for data: 476760320
I0427 16:20:39.406877 13425 layer_factory.hpp:77] Creating layer conv_d0b-c
I0427 16:20:39.406895 13425 net.cpp:100] Creating Layer conv_d0b-c
I0427 16:20:39.406900 13425 net.cpp:434] conv_d0b-c <- d0b
I0427 16:20:39.406911 13425 net.cpp:408] conv_d0b-c -> d0c
I0427 16:20:39.408820 13425 net.cpp:150] Setting up conv_d0b-c
I0427 16:20:39.408840 13425 net.cpp:157] Top shape: 5 64 424 424 (57528320)
I0427 16:20:39.408843 13425 net.cpp:165] Memory required for data: 706873600
I0427 16:20:39.408857 13425 layer_factory.hpp:77] Creating layer relu_d0c
I0427 16:20:39.408867 13425 net.cpp:100] Creating Layer relu_d0c
I0427 16:20:39.408871 13425 net.cpp:434] relu_d0c <- d0c
I0427 16:20:39.408876 13425 net.cpp:395] relu_d0c -> d0c (in-place)
I0427 16:20:39.409875 13425 net.cpp:150] Setting up relu_d0c
I0427 16:20:39.409895 13425 net.cpp:157] Top shape: 5 64 424 424 (57528320)
I0427 16:20:39.409898 13425 net.cpp:165] Memory required for data: 936986880
I0427 16:20:39.409903 13425 layer_factory.hpp:77] Creating layer d0c_relu_d0c_0_split
I0427 16:20:39.409910 13425 net.cpp:100] Creating Layer d0c_relu_d0c_0_split
I0427 16:20:39.409914 13425 net.cpp:434] d0c_relu_d0c_0_split <- d0c
I0427 16:20:39.409920 13425 net.cpp:408] d0c_relu_d0c_0_split -> d0c_relu_d0c_0_split_0
I0427 16:20:39.409931 13425 net.cpp:408] d0c_relu_d0c_0_split -> d0c_relu_d0c_0_split_1
I0427 16:20:39.409981 13425 net.cpp:150] Setting up d0c_relu_d0c_0_split
I0427 16:20:39.409987 13425 net.cpp:157] Top shape: 5 64 424 424 (57528320)
I0427 16:20:39.409998 13425 net.cpp:157] Top shape: 5 64 424 424 (57528320)
I0427 16:20:39.410001 13425 net.cpp:165] Memory required for data: 1397213440
I0427 16:20:39.410006 13425 layer_factory.hpp:77] Creating layer pool_d0c-1a
I0427 16:20:39.410013 13425 net.cpp:100] Creating Layer pool_d0c-1a
I0427 16:20:39.410017 13425 net.cpp:434] pool_d0c-1a <- d0c_relu_d0c_0_split_0
I0427 16:20:39.410022 13425 net.cpp:408] pool_d0c-1a -> d1a
I0427 16:20:39.410071 13425 net.cpp:150] Setting up pool_d0c-1a
I0427 16:20:39.410080 13425 net.cpp:157] Top shape: 5 64 212 212 (14382080)
I0427 16:20:39.410084 13425 net.cpp:165] Memory required for data: 1454741760
I0427 16:20:39.410085 13425 layer_factory.hpp:77] Creating layer conv_d1a-b
I0427 16:20:39.410096 13425 net.cpp:100] Creating Layer conv_d1a-b
I0427 16:20:39.410104 13425 net.cpp:434] conv_d1a-b <- d1a
I0427 16:20:39.410109 13425 net.cpp:408] conv_d1a-b -> d1b
I0427 16:20:39.410977 13425 net.cpp:150] Setting up conv_d1a-b
I0427 16:20:39.410991 13425 net.cpp:157] Top shape: 5 128 210 210 (28224000)
I0427 16:20:39.410995 13425 net.cpp:165] Memory required for data: 1567637760
I0427 16:20:39.411005 13425 layer_factory.hpp:77] Creating layer relu_d1b
I0427 16:20:39.411011 13425 net.cpp:100] Creating Layer relu_d1b
I0427 16:20:39.411016 13425 net.cpp:434] relu_d1b <- d1b
I0427 16:20:39.411021 13425 net.cpp:395] relu_d1b -> d1b (in-place)
I0427 16:20:39.411231 13425 net.cpp:150] Setting up relu_d1b
I0427 16:20:39.411244 13425 net.cpp:157] Top shape: 5 128 210 210 (28224000)
I0427 16:20:39.411248 13425 net.cpp:165] Memory required for data: 1680533760
I0427 16:20:39.411252 13425 layer_factory.hpp:77] Creating layer conv_d1b-c
I0427 16:20:39.411260 13425 net.cpp:100] Creating Layer conv_d1b-c
I0427 16:20:39.411264 13425 net.cpp:434] conv_d1b-c <- d1b
I0427 16:20:39.411270 13425 net.cpp:408] conv_d1b-c -> d1c
I0427 16:20:39.413734 13425 net.cpp:150] Setting up conv_d1b-c
I0427 16:20:39.413753 13425 net.cpp:157] Top shape: 5 128 208 208 (27688960)
I0427 16:20:39.413758 13425 net.cpp:165] Memory required for data: 1791289600
I0427 16:20:39.413765 13425 layer_factory.hpp:77] Creating layer relu_d1c
I0427 16:20:39.413772 13425 net.cpp:100] Creating Layer relu_d1c
I0427 16:20:39.413775 13425 net.cpp:434] relu_d1c <- d1c
I0427 16:20:39.413781 13425 net.cpp:395] relu_d1c -> d1c (in-place)
I0427 16:20:39.413997 13425 net.cpp:150] Setting up relu_d1c
I0427 16:20:39.414010 13425 net.cpp:157] Top shape: 5 128 208 208 (27688960)
I0427 16:20:39.414012 13425 net.cpp:165] Memory required for data: 1902045440
I0427 16:20:39.414016 13425 layer_factory.hpp:77] Creating layer d1c_relu_d1c_0_split
I0427 16:20:39.414022 13425 net.cpp:100] Creating Layer d1c_relu_d1c_0_split
I0427 16:20:39.414026 13425 net.cpp:434] d1c_relu_d1c_0_split <- d1c
I0427 16:20:39.414031 13425 net.cpp:408] d1c_relu_d1c_0_split -> d1c_relu_d1c_0_split_0
I0427 16:20:39.414038 13425 net.cpp:408] d1c_relu_d1c_0_split -> d1c_relu_d1c_0_split_1
I0427 16:20:39.414084 13425 net.cpp:150] Setting up d1c_relu_d1c_0_split
I0427 16:20:39.414093 13425 net.cpp:157] Top shape: 5 128 208 208 (27688960)
I0427 16:20:39.414098 13425 net.cpp:157] Top shape: 5 128 208 208 (27688960)
I0427 16:20:39.414100 13425 net.cpp:165] Memory required for data: 2123557120
I0427 16:20:39.414103 13425 layer_factory.hpp:77] Creating layer pool_d1c-2a
I0427 16:20:39.414109 13425 net.cpp:100] Creating Layer pool_d1c-2a
I0427 16:20:39.414113 13425 net.cpp:434] pool_d1c-2a <- d1c_relu_d1c_0_split_0
I0427 16:20:39.414119 13425 net.cpp:408] pool_d1c-2a -> d2a
I0427 16:20:39.414156 13425 net.cpp:150] Setting up pool_d1c-2a
I0427 16:20:39.414165 13425 net.cpp:157] Top shape: 5 128 104 104 (6922240)
I0427 16:20:39.414167 13425 net.cpp:165] Memory required for data: 2151246080
I0427 16:20:39.414170 13425 layer_factory.hpp:77] Creating layer conv_d2a-b
I0427 16:20:39.414180 13425 net.cpp:100] Creating Layer conv_d2a-b
I0427 16:20:39.414183 13425 net.cpp:434] conv_d2a-b <- d2a
I0427 16:20:39.414188 13425 net.cpp:408] conv_d2a-b -> d2b
I0427 16:20:39.417614 13425 net.cpp:150] Setting up conv_d2a-b
I0427 16:20:39.417634 13425 net.cpp:157] Top shape: 5 256 102 102 (13317120)
I0427 16:20:39.417636 13425 net.cpp:165] Memory required for data: 2204514560
I0427 16:20:39.417647 13425 layer_factory.hpp:77] Creating layer relu_d2b
I0427 16:20:39.417654 13425 net.cpp:100] Creating Layer relu_d2b
I0427 16:20:39.417659 13425 net.cpp:434] relu_d2b <- d2b
I0427 16:20:39.417666 13425 net.cpp:395] relu_d2b -> d2b (in-place)
I0427 16:20:39.417886 13425 net.cpp:150] Setting up relu_d2b
I0427 16:20:39.417897 13425 net.cpp:157] Top shape: 5 256 102 102 (13317120)
I0427 16:20:39.417901 13425 net.cpp:165] Memory required for data: 2257783040
I0427 16:20:39.417904 13425 layer_factory.hpp:77] Creating layer conv_d2b-c
I0427 16:20:39.417914 13425 net.cpp:100] Creating Layer conv_d2b-c
I0427 16:20:39.417918 13425 net.cpp:434] conv_d2b-c <- d2b
I0427 16:20:39.417924 13425 net.cpp:408] conv_d2b-c -> d2c
I0427 16:20:39.423521 13425 net.cpp:150] Setting up conv_d2b-c
I0427 16:20:39.423538 13425 net.cpp:157] Top shape: 5 256 100 100 (12800000)
I0427 16:20:39.423542 13425 net.cpp:165] Memory required for data: 2308983040
I0427 16:20:39.423550 13425 layer_factory.hpp:77] Creating layer relu_d2c
I0427 16:20:39.423560 13425 net.cpp:100] Creating Layer relu_d2c
I0427 16:20:39.423563 13425 net.cpp:434] relu_d2c <- d2c
I0427 16:20:39.423571 13425 net.cpp:395] relu_d2c -> d2c (in-place)
I0427 16:20:39.424521 13425 net.cpp:150] Setting up relu_d2c
I0427 16:20:39.424537 13425 net.cpp:157] Top shape: 5 256 100 100 (12800000)
I0427 16:20:39.424540 13425 net.cpp:165] Memory required for data: 2360183040
I0427 16:20:39.424545 13425 layer_factory.hpp:77] Creating layer d2c_relu_d2c_0_split
I0427 16:20:39.424552 13425 net.cpp:100] Creating Layer d2c_relu_d2c_0_split
I0427 16:20:39.424556 13425 net.cpp:434] d2c_relu_d2c_0_split <- d2c
I0427 16:20:39.424562 13425 net.cpp:408] d2c_relu_d2c_0_split -> d2c_relu_d2c_0_split_0
I0427 16:20:39.424571 13425 net.cpp:408] d2c_relu_d2c_0_split -> d2c_relu_d2c_0_split_1
I0427 16:20:39.424620 13425 net.cpp:150] Setting up d2c_relu_d2c_0_split
I0427 16:20:39.424633 13425 net.cpp:157] Top shape: 5 256 100 100 (12800000)
I0427 16:20:39.424636 13425 net.cpp:157] Top shape: 5 256 100 100 (12800000)
I0427 16:20:39.424639 13425 net.cpp:165] Memory required for data: 2462583040
I0427 16:20:39.424643 13425 layer_factory.hpp:77] Creating layer pool_d2c-3a
I0427 16:20:39.424649 13425 net.cpp:100] Creating Layer pool_d2c-3a
I0427 16:20:39.424654 13425 net.cpp:434] pool_d2c-3a <- d2c_relu_d2c_0_split_0
I0427 16:20:39.424659 13425 net.cpp:408] pool_d2c-3a -> d3a
I0427 16:20:39.424702 13425 net.cpp:150] Setting up pool_d2c-3a
I0427 16:20:39.424711 13425 net.cpp:157] Top shape: 5 256 50 50 (3200000)
I0427 16:20:39.424715 13425 net.cpp:165] Memory required for data: 2475383040
I0427 16:20:39.424717 13425 layer_factory.hpp:77] Creating layer conv_d3a-b
I0427 16:20:39.424728 13425 net.cpp:100] Creating Layer conv_d3a-b
I0427 16:20:39.424731 13425 net.cpp:434] conv_d3a-b <- d3a
I0427 16:20:39.424736 13425 net.cpp:408] conv_d3a-b -> d3b
I0427 16:20:39.436337 13425 net.cpp:150] Setting up conv_d3a-b
I0427 16:20:39.436357 13425 net.cpp:157] Top shape: 5 512 48 48 (5898240)
I0427 16:20:39.436359 13425 net.cpp:165] Memory required for data: 2498976000
I0427 16:20:39.436367 13425 layer_factory.hpp:77] Creating layer relu_d3b
I0427 16:20:39.436373 13425 net.cpp:100] Creating Layer relu_d3b
I0427 16:20:39.436378 13425 net.cpp:434] relu_d3b <- d3b
I0427 16:20:39.436383 13425 net.cpp:395] relu_d3b -> d3b (in-place)
I0427 16:20:39.436601 13425 net.cpp:150] Setting up relu_d3b
I0427 16:20:39.436612 13425 net.cpp:157] Top shape: 5 512 48 48 (5898240)
I0427 16:20:39.436616 13425 net.cpp:165] Memory required for data: 2522568960
I0427 16:20:39.436619 13425 layer_factory.hpp:77] Creating layer conv_d3b-c
I0427 16:20:39.436630 13425 net.cpp:100] Creating Layer conv_d3b-c
I0427 16:20:39.436632 13425 net.cpp:434] conv_d3b-c <- d3b
I0427 16:20:39.436640 13425 net.cpp:408] conv_d3b-c -> d3c
I0427 16:20:39.457041 13425 net.cpp:150] Setting up conv_d3b-c
I0427 16:20:39.457057 13425 net.cpp:157] Top shape: 5 512 46 46 (5416960)
I0427 16:20:39.457060 13425 net.cpp:165] Memory required for data: 2544236800
I0427 16:20:39.457068 13425 layer_factory.hpp:77] Creating layer relu_d3c
I0427 16:20:39.457075 13425 net.cpp:100] Creating Layer relu_d3c
I0427 16:20:39.457079 13425 net.cpp:434] relu_d3c <- d3c
I0427 16:20:39.457084 13425 net.cpp:395] relu_d3c -> d3c (in-place)
I0427 16:20:39.457351 13425 net.cpp:150] Setting up relu_d3c
I0427 16:20:39.457365 13425 net.cpp:157] Top shape: 5 512 46 46 (5416960)
I0427 16:20:39.457367 13425 net.cpp:165] Memory required for data: 2565904640
I0427 16:20:39.457371 13425 layer_factory.hpp:77] Creating layer dropout_d3c
I0427 16:20:39.457381 13425 net.cpp:100] Creating Layer dropout_d3c
I0427 16:20:39.457383 13425 net.cpp:434] dropout_d3c <- d3c
I0427 16:20:39.457389 13425 net.cpp:395] dropout_d3c -> d3c (in-place)
I0427 16:20:39.457486 13425 net.cpp:150] Setting up dropout_d3c
I0427 16:20:39.457499 13425 net.cpp:157] Top shape: 5 512 46 46 (5416960)
I0427 16:20:39.457502 13425 net.cpp:165] Memory required for data: 2587572480
I0427 16:20:39.457505 13425 layer_factory.hpp:77] Creating layer d3c_dropout_d3c_0_split
I0427 16:20:39.457512 13425 net.cpp:100] Creating Layer d3c_dropout_d3c_0_split
I0427 16:20:39.457516 13425 net.cpp:434] d3c_dropout_d3c_0_split <- d3c
I0427 16:20:39.457523 13425 net.cpp:408] d3c_dropout_d3c_0_split -> d3c_dropout_d3c_0_split_0
I0427 16:20:39.457530 13425 net.cpp:408] d3c_dropout_d3c_0_split -> d3c_dropout_d3c_0_split_1
I0427 16:20:39.457584 13425 net.cpp:150] Setting up d3c_dropout_d3c_0_split
I0427 16:20:39.457600 13425 net.cpp:157] Top shape: 5 512 46 46 (5416960)
I0427 16:20:39.457604 13425 net.cpp:157] Top shape: 5 512 46 46 (5416960)
I0427 16:20:39.457607 13425 net.cpp:165] Memory required for data: 2630908160
I0427 16:20:39.457609 13425 layer_factory.hpp:77] Creating layer pool_d3c-4a
I0427 16:20:39.457617 13425 net.cpp:100] Creating Layer pool_d3c-4a
I0427 16:20:39.457622 13425 net.cpp:434] pool_d3c-4a <- d3c_dropout_d3c_0_split_0
I0427 16:20:39.457636 13425 net.cpp:408] pool_d3c-4a -> d4a
I0427 16:20:39.457685 13425 net.cpp:150] Setting up pool_d3c-4a
I0427 16:20:39.457695 13425 net.cpp:157] Top shape: 5 512 23 23 (1354240)
I0427 16:20:39.457697 13425 net.cpp:165] Memory required for data: 2636325120
I0427 16:20:39.457700 13425 layer_factory.hpp:77] Creating layer conv_d4a-b
I0427 16:20:39.457710 13425 net.cpp:100] Creating Layer conv_d4a-b
I0427 16:20:39.457716 13425 net.cpp:434] conv_d4a-b <- d4a
I0427 16:20:39.457721 13425 net.cpp:408] conv_d4a-b -> d4b
I0427 16:20:39.497728 13425 net.cpp:150] Setting up conv_d4a-b
I0427 16:20:39.497746 13425 net.cpp:157] Top shape: 5 1024 21 21 (2257920)
I0427 16:20:39.497750 13425 net.cpp:165] Memory required for data: 2645356800
I0427 16:20:39.497763 13425 layer_factory.hpp:77] Creating layer relu_d4b
I0427 16:20:39.497771 13425 net.cpp:100] Creating Layer relu_d4b
I0427 16:20:39.497777 13425 net.cpp:434] relu_d4b <- d4b
I0427 16:20:39.497783 13425 net.cpp:395] relu_d4b -> d4b (in-place)
I0427 16:20:39.498769 13425 net.cpp:150] Setting up relu_d4b
I0427 16:20:39.498786 13425 net.cpp:157] Top shape: 5 1024 21 21 (2257920)
I0427 16:20:39.498790 13425 net.cpp:165] Memory required for data: 2654388480
I0427 16:20:39.498795 13425 layer_factory.hpp:77] Creating layer conv_d4b-c
I0427 16:20:39.498808 13425 net.cpp:100] Creating Layer conv_d4b-c
I0427 16:20:39.498812 13425 net.cpp:434] conv_d4b-c <- d4b
I0427 16:20:39.498821 13425 net.cpp:408] conv_d4b-c -> d4c
I0427 16:20:39.578559 13425 net.cpp:150] Setting up conv_d4b-c
I0427 16:20:39.578584 13425 net.cpp:157] Top shape: 5 1024 19 19 (1848320)
I0427 16:20:39.578588 13425 net.cpp:165] Memory required for data: 2661781760
I0427 16:20:39.578596 13425 layer_factory.hpp:77] Creating layer relu_d4c
I0427 16:20:39.578606 13425 net.cpp:100] Creating Layer relu_d4c
I0427 16:20:39.578611 13425 net.cpp:434] relu_d4c <- d4c
I0427 16:20:39.578619 13425 net.cpp:395] relu_d4c -> d4c (in-place)
I0427 16:20:39.578860 13425 net.cpp:150] Setting up relu_d4c
I0427 16:20:39.578872 13425 net.cpp:157] Top shape: 5 1024 19 19 (1848320)
I0427 16:20:39.578876 13425 net.cpp:165] Memory required for data: 2669175040
I0427 16:20:39.578879 13425 layer_factory.hpp:77] Creating layer dropout_d4c
I0427 16:20:39.578887 13425 net.cpp:100] Creating Layer dropout_d4c
I0427 16:20:39.578891 13425 net.cpp:434] dropout_d4c <- d4c
I0427 16:20:39.578897 13425 net.cpp:395] dropout_d4c -> d4c (in-place)
I0427 16:20:39.578929 13425 net.cpp:150] Setting up dropout_d4c
I0427 16:20:39.578938 13425 net.cpp:157] Top shape: 5 1024 19 19 (1848320)
I0427 16:20:39.578941 13425 net.cpp:165] Memory required for data: 2676568320
I0427 16:20:39.578944 13425 layer_factory.hpp:77] Creating layer upconv_d4c_u3a
I0427 16:20:39.578953 13425 net.cpp:100] Creating Layer upconv_d4c_u3a
I0427 16:20:39.578956 13425 net.cpp:434] upconv_d4c_u3a <- d4c
I0427 16:20:39.578987 13425 net.cpp:408] upconv_d4c_u3a -> u3a
I0427 16:20:39.597090 13425 net.cpp:150] Setting up upconv_d4c_u3a
I0427 16:20:39.597106 13425 net.cpp:157] Top shape: 5 512 38 38 (3696640)
I0427 16:20:39.597110 13425 net.cpp:165] Memory required for data: 2691354880
I0427 16:20:39.597118 13425 layer_factory.hpp:77] Creating layer relu_u3a
I0427 16:20:39.597131 13425 net.cpp:100] Creating Layer relu_u3a
I0427 16:20:39.597136 13425 net.cpp:434] relu_u3a <- u3a
I0427 16:20:39.597141 13425 net.cpp:395] relu_u3a -> u3a (in-place)
I0427 16:20:39.597363 13425 net.cpp:150] Setting up relu_u3a
I0427 16:20:39.597375 13425 net.cpp:157] Top shape: 5 512 38 38 (3696640)
I0427 16:20:39.597378 13425 net.cpp:165] Memory required for data: 2706141440
I0427 16:20:39.597381 13425 layer_factory.hpp:77] Creating layer u3a_relu_u3a_0_split
I0427 16:20:39.597389 13425 net.cpp:100] Creating Layer u3a_relu_u3a_0_split
I0427 16:20:39.597393 13425 net.cpp:434] u3a_relu_u3a_0_split <- u3a
I0427 16:20:39.597398 13425 net.cpp:408] u3a_relu_u3a_0_split -> u3a_relu_u3a_0_split_0
I0427 16:20:39.597406 13425 net.cpp:408] u3a_relu_u3a_0_split -> u3a_relu_u3a_0_split_1
I0427 16:20:39.597462 13425 net.cpp:150] Setting up u3a_relu_u3a_0_split
I0427 16:20:39.597471 13425 net.cpp:157] Top shape: 5 512 38 38 (3696640)
I0427 16:20:39.597476 13425 net.cpp:157] Top shape: 5 512 38 38 (3696640)
I0427 16:20:39.597478 13425 net.cpp:165] Memory required for data: 2735714560
I0427 16:20:39.597483 13425 layer_factory.hpp:77] Creating layer crop_d3c-d3cc
I0427 16:20:39.597491 13425 net.cpp:100] Creating Layer crop_d3c-d3cc
I0427 16:20:39.597493 13425 net.cpp:434] crop_d3c-d3cc <- d3c_dropout_d3c_0_split_1
I0427 16:20:39.597498 13425 net.cpp:434] crop_d3c-d3cc <- u3a_relu_u3a_0_split_0
I0427 16:20:39.597504 13425 net.cpp:408] crop_d3c-d3cc -> d3cc
I0427 16:20:39.597530 13425 net.cpp:150] Setting up crop_d3c-d3cc
I0427 16:20:39.597538 13425 net.cpp:157] Top shape: 5 512 38 38 (3696640)
I0427 16:20:39.597542 13425 net.cpp:165] Memory required for data: 2750501120
I0427 16:20:39.597545 13425 layer_factory.hpp:77] Creating layer concat_d3cc_u3a-b
I0427 16:20:39.597559 13425 net.cpp:100] Creating Layer concat_d3cc_u3a-b
I0427 16:20:39.597563 13425 net.cpp:434] concat_d3cc_u3a-b <- u3a_relu_u3a_0_split_1
I0427 16:20:39.597568 13425 net.cpp:434] concat_d3cc_u3a-b <- d3cc
I0427 16:20:39.597573 13425 net.cpp:408] concat_d3cc_u3a-b -> u3b
I0427 16:20:39.597599 13425 net.cpp:150] Setting up concat_d3cc_u3a-b
I0427 16:20:39.597606 13425 net.cpp:157] Top shape: 5 1024 38 38 (7393280)
I0427 16:20:39.597609 13425 net.cpp:165] Memory required for data: 2780074240
I0427 16:20:39.597612 13425 layer_factory.hpp:77] Creating layer conv_u3b-c
I0427 16:20:39.597622 13425 net.cpp:100] Creating Layer conv_u3b-c
I0427 16:20:39.597625 13425 net.cpp:434] conv_u3b-c <- u3b
I0427 16:20:39.597635 13425 net.cpp:408] conv_u3b-c -> u3c
I0427 16:20:39.637296 13425 net.cpp:150] Setting up conv_u3b-c
I0427 16:20:39.637315 13425 net.cpp:157] Top shape: 5 512 36 36 (3317760)
I0427 16:20:39.637318 13425 net.cpp:165] Memory required for data: 2793345280
I0427 16:20:39.637326 13425 layer_factory.hpp:77] Creating layer relu_u3c
I0427 16:20:39.637333 13425 net.cpp:100] Creating Layer relu_u3c
I0427 16:20:39.637337 13425 net.cpp:434] relu_u3c <- u3c
I0427 16:20:39.637342 13425 net.cpp:395] relu_u3c -> u3c (in-place)
I0427 16:20:39.637574 13425 net.cpp:150] Setting up relu_u3c
I0427 16:20:39.637588 13425 net.cpp:157] Top shape: 5 512 36 36 (3317760)
I0427 16:20:39.637590 13425 net.cpp:165] Memory required for data: 2806616320
I0427 16:20:39.637593 13425 layer_factory.hpp:77] Creating layer conv_u3c-d
I0427 16:20:39.637603 13425 net.cpp:100] Creating Layer conv_u3c-d
I0427 16:20:39.637608 13425 net.cpp:434] conv_u3c-d <- u3c
I0427 16:20:39.637614 13425 net.cpp:408] conv_u3c-d -> u3d
I0427 16:20:39.657747 13425 net.cpp:150] Setting up conv_u3c-d
I0427 16:20:39.657763 13425 net.cpp:157] Top shape: 5 512 34 34 (2959360)
I0427 16:20:39.657768 13425 net.cpp:165] Memory required for data: 2818453760
I0427 16:20:39.657774 13425 layer_factory.hpp:77] Creating layer relu_u3d
I0427 16:20:39.657804 13425 net.cpp:100] Creating Layer relu_u3d
I0427 16:20:39.657807 13425 net.cpp:434] relu_u3d <- u3d
I0427 16:20:39.657814 13425 net.cpp:395] relu_u3d -> u3d (in-place)
I0427 16:20:39.658799 13425 net.cpp:150] Setting up relu_u3d
I0427 16:20:39.658815 13425 net.cpp:157] Top shape: 5 512 34 34 (2959360)
I0427 16:20:39.658818 13425 net.cpp:165] Memory required for data: 2830291200
I0427 16:20:39.658823 13425 layer_factory.hpp:77] Creating layer upconv_u3d_u2a
I0427 16:20:39.658833 13425 net.cpp:100] Creating Layer upconv_u3d_u2a
I0427 16:20:39.658836 13425 net.cpp:434] upconv_u3d_u2a <- u3d
I0427 16:20:39.658843 13425 net.cpp:408] upconv_u3d_u2a -> u2a
I0427 16:20:39.663803 13425 net.cpp:150] Setting up upconv_u3d_u2a
I0427 16:20:39.663820 13425 net.cpp:157] Top shape: 5 256 68 68 (5918720)
I0427 16:20:39.663823 13425 net.cpp:165] Memory required for data: 2853966080
I0427 16:20:39.663830 13425 layer_factory.hpp:77] Creating layer relu_u2a
I0427 16:20:39.663837 13425 net.cpp:100] Creating Layer relu_u2a
I0427 16:20:39.663841 13425 net.cpp:434] relu_u2a <- u2a
I0427 16:20:39.663847 13425 net.cpp:395] relu_u2a -> u2a (in-place)
I0427 16:20:39.664057 13425 net.cpp:150] Setting up relu_u2a
I0427 16:20:39.664069 13425 net.cpp:157] Top shape: 5 256 68 68 (5918720)
I0427 16:20:39.664072 13425 net.cpp:165] Memory required for data: 2877640960
I0427 16:20:39.664075 13425 layer_factory.hpp:77] Creating layer u2a_relu_u2a_0_split
I0427 16:20:39.664080 13425 net.cpp:100] Creating Layer u2a_relu_u2a_0_split
I0427 16:20:39.664085 13425 net.cpp:434] u2a_relu_u2a_0_split <- u2a
I0427 16:20:39.664090 13425 net.cpp:408] u2a_relu_u2a_0_split -> u2a_relu_u2a_0_split_0
I0427 16:20:39.664104 13425 net.cpp:408] u2a_relu_u2a_0_split -> u2a_relu_u2a_0_split_1
I0427 16:20:39.664152 13425 net.cpp:150] Setting up u2a_relu_u2a_0_split
I0427 16:20:39.664163 13425 net.cpp:157] Top shape: 5 256 68 68 (5918720)
I0427 16:20:39.664167 13425 net.cpp:157] Top shape: 5 256 68 68 (5918720)
I0427 16:20:39.664170 13425 net.cpp:165] Memory required for data: 2924990720
I0427 16:20:39.664173 13425 layer_factory.hpp:77] Creating layer crop_d2c-d2cc
I0427 16:20:39.664181 13425 net.cpp:100] Creating Layer crop_d2c-d2cc
I0427 16:20:39.664186 13425 net.cpp:434] crop_d2c-d2cc <- d2c_relu_d2c_0_split_1
I0427 16:20:39.664189 13425 net.cpp:434] crop_d2c-d2cc <- u2a_relu_u2a_0_split_0
I0427 16:20:39.664196 13425 net.cpp:408] crop_d2c-d2cc -> d2cc
I0427 16:20:39.664222 13425 net.cpp:150] Setting up crop_d2c-d2cc
I0427 16:20:39.664230 13425 net.cpp:157] Top shape: 5 256 68 68 (5918720)
I0427 16:20:39.664233 13425 net.cpp:165] Memory required for data: 2948665600
I0427 16:20:39.664237 13425 layer_factory.hpp:77] Creating layer concat_d2cc_u2a-b
I0427 16:20:39.664242 13425 net.cpp:100] Creating Layer concat_d2cc_u2a-b
I0427 16:20:39.664247 13425 net.cpp:434] concat_d2cc_u2a-b <- u2a_relu_u2a_0_split_1
I0427 16:20:39.664250 13425 net.cpp:434] concat_d2cc_u2a-b <- d2cc
I0427 16:20:39.664254 13425 net.cpp:408] concat_d2cc_u2a-b -> u2b
I0427 16:20:39.664279 13425 net.cpp:150] Setting up concat_d2cc_u2a-b
I0427 16:20:39.664288 13425 net.cpp:157] Top shape: 5 512 68 68 (11837440)
I0427 16:20:39.664290 13425 net.cpp:165] Memory required for data: 2996015360
I0427 16:20:39.664294 13425 layer_factory.hpp:77] Creating layer conv_u2b-c
I0427 16:20:39.664302 13425 net.cpp:100] Creating Layer conv_u2b-c
I0427 16:20:39.664306 13425 net.cpp:434] conv_u2b-c <- u2b
I0427 16:20:39.664311 13425 net.cpp:408] conv_u2b-c -> u2c
I0427 16:20:39.674710 13425 net.cpp:150] Setting up conv_u2b-c
I0427 16:20:39.674728 13425 net.cpp:157] Top shape: 5 256 66 66 (5575680)
I0427 16:20:39.674731 13425 net.cpp:165] Memory required for data: 3018318080
I0427 16:20:39.674738 13425 layer_factory.hpp:77] Creating layer relu_u2c
I0427 16:20:39.674746 13425 net.cpp:100] Creating Layer relu_u2c
I0427 16:20:39.674751 13425 net.cpp:434] relu_u2c <- u2c
I0427 16:20:39.674756 13425 net.cpp:395] relu_u2c -> u2c (in-place)
I0427 16:20:39.674973 13425 net.cpp:150] Setting up relu_u2c
I0427 16:20:39.675001 13425 net.cpp:157] Top shape: 5 256 66 66 (5575680)
I0427 16:20:39.675006 13425 net.cpp:165] Memory required for data: 3040620800
I0427 16:20:39.675009 13425 layer_factory.hpp:77] Creating layer conv_u2c-d
I0427 16:20:39.675020 13425 net.cpp:100] Creating Layer conv_u2c-d
I0427 16:20:39.675024 13425 net.cpp:434] conv_u2c-d <- u2c
I0427 16:20:39.675030 13425 net.cpp:408] conv_u2c-d -> u2d
I0427 16:20:39.680543 13425 net.cpp:150] Setting up conv_u2c-d
I0427 16:20:39.680560 13425 net.cpp:157] Top shape: 5 256 64 64 (5242880)
I0427 16:20:39.680563 13425 net.cpp:165] Memory required for data: 3061592320
I0427 16:20:39.680572 13425 layer_factory.hpp:77] Creating layer relu_u2d
I0427 16:20:39.680578 13425 net.cpp:100] Creating Layer relu_u2d
I0427 16:20:39.680583 13425 net.cpp:434] relu_u2d <- u2d
I0427 16:20:39.680588 13425 net.cpp:395] relu_u2d -> u2d (in-place)
I0427 16:20:39.680806 13425 net.cpp:150] Setting up relu_u2d
I0427 16:20:39.680819 13425 net.cpp:157] Top shape: 5 256 64 64 (5242880)
I0427 16:20:39.680821 13425 net.cpp:165] Memory required for data: 3082563840
I0427 16:20:39.680824 13425 layer_factory.hpp:77] Creating layer upconv_u2d_u1a
I0427 16:20:39.680832 13425 net.cpp:100] Creating Layer upconv_u2d_u1a
I0427 16:20:39.680836 13425 net.cpp:434] upconv_u2d_u1a <- u2d
I0427 16:20:39.680843 13425 net.cpp:408] upconv_u2d_u1a -> u1a
I0427 16:20:39.683102 13425 net.cpp:150] Setting up upconv_u2d_u1a
I0427 16:20:39.683120 13425 net.cpp:157] Top shape: 5 128 128 128 (10485760)
I0427 16:20:39.683123 13425 net.cpp:165] Memory required for data: 3124506880
I0427 16:20:39.683136 13425 layer_factory.hpp:77] Creating layer relu_u1a
I0427 16:20:39.683145 13425 net.cpp:100] Creating Layer relu_u1a
I0427 16:20:39.683148 13425 net.cpp:434] relu_u1a <- u1a
I0427 16:20:39.683154 13425 net.cpp:395] relu_u1a -> u1a (in-place)
I0427 16:20:39.684134 13425 net.cpp:150] Setting up relu_u1a
I0427 16:20:39.684149 13425 net.cpp:157] Top shape: 5 128 128 128 (10485760)
I0427 16:20:39.684154 13425 net.cpp:165] Memory required for data: 3166449920
I0427 16:20:39.684157 13425 layer_factory.hpp:77] Creating layer u1a_relu_u1a_0_split
I0427 16:20:39.684164 13425 net.cpp:100] Creating Layer u1a_relu_u1a_0_split
I0427 16:20:39.684167 13425 net.cpp:434] u1a_relu_u1a_0_split <- u1a
I0427 16:20:39.684175 13425 net.cpp:408] u1a_relu_u1a_0_split -> u1a_relu_u1a_0_split_0
I0427 16:20:39.684182 13425 net.cpp:408] u1a_relu_u1a_0_split -> u1a_relu_u1a_0_split_1
I0427 16:20:39.684233 13425 net.cpp:150] Setting up u1a_relu_u1a_0_split
I0427 16:20:39.684239 13425 net.cpp:157] Top shape: 5 128 128 128 (10485760)
I0427 16:20:39.684244 13425 net.cpp:157] Top shape: 5 128 128 128 (10485760)
I0427 16:20:39.684247 13425 net.cpp:165] Memory required for data: 3250336000
I0427 16:20:39.684250 13425 layer_factory.hpp:77] Creating layer crop_d1c-d1cc
I0427 16:20:39.684257 13425 net.cpp:100] Creating Layer crop_d1c-d1cc
I0427 16:20:39.684262 13425 net.cpp:434] crop_d1c-d1cc <- d1c_relu_d1c_0_split_1
I0427 16:20:39.684265 13425 net.cpp:434] crop_d1c-d1cc <- u1a_relu_u1a_0_split_0
I0427 16:20:39.684270 13425 net.cpp:408] crop_d1c-d1cc -> d1cc
I0427 16:20:39.684296 13425 net.cpp:150] Setting up crop_d1c-d1cc
I0427 16:20:39.684309 13425 net.cpp:157] Top shape: 5 128 128 128 (10485760)
I0427 16:20:39.684312 13425 net.cpp:165] Memory required for data: 3292279040
I0427 16:20:39.684315 13425 layer_factory.hpp:77] Creating layer concat_d1cc_u1a-b
I0427 16:20:39.684320 13425 net.cpp:100] Creating Layer concat_d1cc_u1a-b
I0427 16:20:39.684324 13425 net.cpp:434] concat_d1cc_u1a-b <- u1a_relu_u1a_0_split_1
I0427 16:20:39.684329 13425 net.cpp:434] concat_d1cc_u1a-b <- d1cc
I0427 16:20:39.684334 13425 net.cpp:408] concat_d1cc_u1a-b -> u1b
I0427 16:20:39.684357 13425 net.cpp:150] Setting up concat_d1cc_u1a-b
I0427 16:20:39.684365 13425 net.cpp:157] Top shape: 5 256 128 128 (20971520)
I0427 16:20:39.684366 13425 net.cpp:165] Memory required for data: 3376165120
I0427 16:20:39.684370 13425 layer_factory.hpp:77] Creating layer conv_u1b-c
I0427 16:20:39.684399 13425 net.cpp:100] Creating Layer conv_u1b-c
I0427 16:20:39.684407 13425 net.cpp:434] conv_u1b-c <- u1b
I0427 16:20:39.684412 13425 net.cpp:408] conv_u1b-c -> u1c
I0427 16:20:39.686754 13425 net.cpp:150] Setting up conv_u1b-c
I0427 16:20:39.686766 13425 net.cpp:157] Top shape: 5 128 126 126 (10160640)
I0427 16:20:39.686769 13425 net.cpp:165] Memory required for data: 3416807680
I0427 16:20:39.686776 13425 layer_factory.hpp:77] Creating layer relu_u1c
I0427 16:20:39.686782 13425 net.cpp:100] Creating Layer relu_u1c
I0427 16:20:39.686785 13425 net.cpp:434] relu_u1c <- u1c
I0427 16:20:39.686791 13425 net.cpp:395] relu_u1c -> u1c (in-place)
I0427 16:20:39.686995 13425 net.cpp:150] Setting up relu_u1c
I0427 16:20:39.687006 13425 net.cpp:157] Top shape: 5 128 126 126 (10160640)
I0427 16:20:39.687010 13425 net.cpp:165] Memory required for data: 3457450240
I0427 16:20:39.687013 13425 layer_factory.hpp:77] Creating layer conv_u1c-d
I0427 16:20:39.687023 13425 net.cpp:100] Creating Layer conv_u1c-d
I0427 16:20:39.687027 13425 net.cpp:434] conv_u1c-d <- u1c
I0427 16:20:39.687033 13425 net.cpp:408] conv_u1c-d -> u1d
I0427 16:20:39.689399 13425 net.cpp:150] Setting up conv_u1c-d
I0427 16:20:39.689415 13425 net.cpp:157] Top shape: 5 128 124 124 (9840640)
I0427 16:20:39.689419 13425 net.cpp:165] Memory required for data: 3496812800
I0427 16:20:39.689425 13425 layer_factory.hpp:77] Creating layer relu_u1d
I0427 16:20:39.689432 13425 net.cpp:100] Creating Layer relu_u1d
I0427 16:20:39.689446 13425 net.cpp:434] relu_u1d <- u1d
I0427 16:20:39.689451 13425 net.cpp:395] relu_u1d -> u1d (in-place)
I0427 16:20:39.689682 13425 net.cpp:150] Setting up relu_u1d
I0427 16:20:39.689695 13425 net.cpp:157] Top shape: 5 128 124 124 (9840640)
I0427 16:20:39.689698 13425 net.cpp:165] Memory required for data: 3536175360
I0427 16:20:39.689702 13425 layer_factory.hpp:77] Creating layer upconv_u1d_u0a
I0427 16:20:39.689713 13425 net.cpp:100] Creating Layer upconv_u1d_u0a
I0427 16:20:39.689716 13425 net.cpp:434] upconv_u1d_u0a <- u1d
I0427 16:20:39.689723 13425 net.cpp:408] upconv_u1d_u0a -> u0a
I0427 16:20:39.690532 13425 net.cpp:150] Setting up upconv_u1d_u0a
I0427 16:20:39.690542 13425 net.cpp:157] Top shape: 5 128 248 248 (39362560)
I0427 16:20:39.690546 13425 net.cpp:165] Memory required for data: 3693625600
I0427 16:20:39.690552 13425 layer_factory.hpp:77] Creating layer relu_u0a
I0427 16:20:39.690557 13425 net.cpp:100] Creating Layer relu_u0a
I0427 16:20:39.690562 13425 net.cpp:434] relu_u0a <- u0a
I0427 16:20:39.690568 13425 net.cpp:395] relu_u0a -> u0a (in-place)
I0427 16:20:39.690788 13425 net.cpp:150] Setting up relu_u0a
I0427 16:20:39.690798 13425 net.cpp:157] Top shape: 5 128 248 248 (39362560)
I0427 16:20:39.690801 13425 net.cpp:165] Memory required for data: 3851075840
I0427 16:20:39.690805 13425 layer_factory.hpp:77] Creating layer u0a_relu_u0a_0_split
I0427 16:20:39.690811 13425 net.cpp:100] Creating Layer u0a_relu_u0a_0_split
I0427 16:20:39.690814 13425 net.cpp:434] u0a_relu_u0a_0_split <- u0a
I0427 16:20:39.690821 13425 net.cpp:408] u0a_relu_u0a_0_split -> u0a_relu_u0a_0_split_0
I0427 16:20:39.690829 13425 net.cpp:408] u0a_relu_u0a_0_split -> u0a_relu_u0a_0_split_1
I0427 16:20:39.690881 13425 net.cpp:150] Setting up u0a_relu_u0a_0_split
I0427 16:20:39.690889 13425 net.cpp:157] Top shape: 5 128 248 248 (39362560)
I0427 16:20:39.690893 13425 net.cpp:157] Top shape: 5 128 248 248 (39362560)
I0427 16:20:39.690896 13425 net.cpp:165] Memory required for data: 4165976320
I0427 16:20:39.690899 13425 layer_factory.hpp:77] Creating layer crop_d0c-d0cc
I0427 16:20:39.690907 13425 net.cpp:100] Creating Layer crop_d0c-d0cc
I0427 16:20:39.690909 13425 net.cpp:434] crop_d0c-d0cc <- d0c_relu_d0c_0_split_1
I0427 16:20:39.690915 13425 net.cpp:434] crop_d0c-d0cc <- u0a_relu_u0a_0_split_0
I0427 16:20:39.690922 13425 net.cpp:408] crop_d0c-d0cc -> d0cc
I0427 16:20:39.690948 13425 net.cpp:150] Setting up crop_d0c-d0cc
I0427 16:20:39.690953 13425 net.cpp:157] Top shape: 5 64 248 248 (19681280)
I0427 16:20:39.690958 13425 net.cpp:165] Memory required for data: 4244701440
I0427 16:20:39.690982 13425 layer_factory.hpp:77] Creating layer concat_d0cc_u0a-b
I0427 16:20:39.690991 13425 net.cpp:100] Creating Layer concat_d0cc_u0a-b
I0427 16:20:39.690994 13425 net.cpp:434] concat_d0cc_u0a-b <- u0a_relu_u0a_0_split_1
I0427 16:20:39.691000 13425 net.cpp:434] concat_d0cc_u0a-b <- d0cc
I0427 16:20:39.691004 13425 net.cpp:408] concat_d0cc_u0a-b -> u0b
I0427 16:20:39.691035 13425 net.cpp:150] Setting up concat_d0cc_u0a-b
I0427 16:20:39.691043 13425 net.cpp:157] Top shape: 5 192 248 248 (59043840)
I0427 16:20:39.691047 13425 net.cpp:165] Memory required for data: 4480876800
I0427 16:20:39.691051 13425 layer_factory.hpp:77] Creating layer conv_u0b-c
I0427 16:20:39.691061 13425 net.cpp:100] Creating Layer conv_u0b-c
I0427 16:20:39.691064 13425 net.cpp:434] conv_u0b-c <- u0b
I0427 16:20:39.691076 13425 net.cpp:408] conv_u0b-c -> u0c
I0427 16:20:39.692183 13425 net.cpp:150] Setting up conv_u0b-c
I0427 16:20:39.692194 13425 net.cpp:157] Top shape: 5 64 246 246 (19365120)
I0427 16:20:39.692198 13425 net.cpp:165] Memory required for data: 4558337280
I0427 16:20:39.692204 13425 layer_factory.hpp:77] Creating layer relu_u0c
I0427 16:20:39.692221 13425 net.cpp:100] Creating Layer relu_u0c
I0427 16:20:39.692226 13425 net.cpp:434] relu_u0c <- u0c
I0427 16:20:39.692231 13425 net.cpp:395] relu_u0c -> u0c (in-place)
I0427 16:20:39.693223 13425 net.cpp:150] Setting up relu_u0c
I0427 16:20:39.693240 13425 net.cpp:157] Top shape: 5 64 246 246 (19365120)
I0427 16:20:39.693243 13425 net.cpp:165] Memory required for data: 4635797760
I0427 16:20:39.693248 13425 layer_factory.hpp:77] Creating layer conv_u0c-d
I0427 16:20:39.693260 13425 net.cpp:100] Creating Layer conv_u0c-d
I0427 16:20:39.693264 13425 net.cpp:434] conv_u0c-d <- u0c
I0427 16:20:39.693272 13425 net.cpp:408] conv_u0c-d -> u0d
I0427 16:20:39.693907 13425 net.cpp:150] Setting up conv_u0c-d
I0427 16:20:39.693919 13425 net.cpp:157] Top shape: 5 64 244 244 (19051520)
I0427 16:20:39.693922 13425 net.cpp:165] Memory required for data: 4712003840
I0427 16:20:39.693929 13425 layer_factory.hpp:77] Creating layer relu_u0d
I0427 16:20:39.693934 13425 net.cpp:100] Creating Layer relu_u0d
I0427 16:20:39.693939 13425 net.cpp:434] relu_u0d <- u0d
I0427 16:20:39.693943 13425 net.cpp:395] relu_u0d -> u0d (in-place)
I0427 16:20:39.694166 13425 net.cpp:150] Setting up relu_u0d
I0427 16:20:39.694177 13425 net.cpp:157] Top shape: 5 64 244 244 (19051520)
I0427 16:20:39.694181 13425 net.cpp:165] Memory required for data: 4788209920
I0427 16:20:39.694185 13425 layer_factory.hpp:77] Creating layer conv_u0d-score
I0427 16:20:39.694195 13425 net.cpp:100] Creating Layer conv_u0d-score
I0427 16:20:39.694197 13425 net.cpp:434] conv_u0d-score <- u0d
I0427 16:20:39.694205 13425 net.cpp:408] conv_u0d-score -> score
I0427 16:20:39.694555 13425 net.cpp:150] Setting up conv_u0d-score
I0427 16:20:39.694564 13425 net.cpp:157] Top shape: 5 3 244 244 (893040)
I0427 16:20:39.694567 13425 net.cpp:165] Memory required for data: 4791782080
I0427 16:20:39.694574 13425 layer_factory.hpp:77] Creating layer score_conv_u0d-score_0_split
I0427 16:20:39.694582 13425 net.cpp:100] Creating Layer score_conv_u0d-score_0_split
I0427 16:20:39.694586 13425 net.cpp:434] score_conv_u0d-score_0_split <- score
I0427 16:20:39.694592 13425 net.cpp:408] score_conv_u0d-score_0_split -> score_conv_u0d-score_0_split_0
I0427 16:20:39.694602 13425 net.cpp:408] score_conv_u0d-score_0_split -> score_conv_u0d-score_0_split_1
I0427 16:20:39.694648 13425 net.cpp:150] Setting up score_conv_u0d-score_0_split
I0427 16:20:39.694655 13425 net.cpp:157] Top shape: 5 3 244 244 (893040)
I0427 16:20:39.694659 13425 net.cpp:157] Top shape: 5 3 244 244 (893040)
I0427 16:20:39.694664 13425 net.cpp:165] Memory required for data: 4798926400
I0427 16:20:39.694666 13425 layer_factory.hpp:77] Creating layer softmax
I0427 16:20:39.694671 13425 net.cpp:100] Creating Layer softmax
I0427 16:20:39.694675 13425 net.cpp:434] softmax <- score_conv_u0d-score_0_split_0
I0427 16:20:39.694681 13425 net.cpp:408] softmax -> softmax_out
I0427 16:20:39.694984 13425 net.cpp:150] Setting up softmax
I0427 16:20:39.694996 13425 net.cpp:157] Top shape: 5 3 244 244 (893040)
I0427 16:20:39.694999 13425 net.cpp:165] Memory required for data: 4802498560
I0427 16:20:39.695003 13425 layer_factory.hpp:77] Creating layer reshapelab
I0427 16:20:39.695013 13425 net.cpp:100] Creating Layer reshapelab
I0427 16:20:39.695016 13425 net.cpp:434] reshapelab <- label
I0427 16:20:39.695022 13425 net.cpp:408] reshapelab -> label_flat
I0427 16:20:39.695065 13425 net.cpp:150] Setting up reshapelab
I0427 16:20:39.695070 13425 net.cpp:157] Top shape: 5 59536 (297680)
I0427 16:20:39.695072 13425 net.cpp:165] Memory required for data: 4803689280
I0427 16:20:39.695075 13425 layer_factory.hpp:77] Creating layer reshaperes
I0427 16:20:39.695081 13425 net.cpp:100] Creating Layer reshaperes
I0427 16:20:39.695086 13425 net.cpp:434] reshaperes <- softmax_out
I0427 16:20:39.695091 13425 net.cpp:408] reshaperes -> softmax_out_flat
I0427 16:20:39.695122 13425 net.cpp:150] Setting up reshaperes
I0427 16:20:39.695133 13425 net.cpp:157] Top shape: 5 3 59536 (893040)
I0427 16:20:39.695137 13425 net.cpp:165] Memory required for data: 4807261440
I0427 16:20:39.695139 13425 layer_factory.hpp:77] Creating layer loss
I0427 16:20:39.706751 13425 net.cpp:100] Creating Layer loss
I0427 16:20:39.706768 13425 net.cpp:434] loss <- softmax_out_flat
I0427 16:20:39.706775 13425 net.cpp:434] loss <- label_flat
I0427 16:20:39.706781 13425 net.cpp:408] loss -> loss
I0427 16:20:39.717646 13425 net.cpp:150] Setting up loss
I0427 16:20:39.717666 13425 net.cpp:157] Top shape: 3 (3)
I0427 16:20:39.717669 13425 net.cpp:160]     with loss weight 1
I0427 16:20:39.717687 13425 net.cpp:165] Memory required for data: 4807261452
I0427 16:20:39.717692 13425 layer_factory.hpp:77] Creating layer visualize
I0427 16:20:39.717701 13425 net.cpp:100] Creating Layer visualize
I0427 16:20:39.717706 13425 net.cpp:434] visualize <- score_conv_u0d-score_0_split_1
I0427 16:20:39.717712 13425 net.cpp:408] visualize -> visualize_out
I0427 16:20:39.718806 13425 net.cpp:150] Setting up visualize
I0427 16:20:39.718824 13425 net.cpp:157] Top shape: 5 3 244 244 (893040)
I0427 16:20:39.718827 13425 net.cpp:165] Memory required for data: 4810833612
I0427 16:20:39.718832 13425 layer_factory.hpp:77] Creating layer fake
I0427 16:20:39.718838 13425 net.cpp:100] Creating Layer fake
I0427 16:20:39.718842 13425 net.cpp:434] fake <- visualize_out
I0427 16:20:39.718848 13425 net.cpp:150] Setting up fake
I0427 16:20:39.718852 13425 net.cpp:165] Memory required for data: 4810833612
…
I0427 16:20:39.720055 13425 net.cpp:322] The NetState phase (1) differed from the phase (0) specified by a rule in layer visualize
I0427 16:20:39.720062 13425 net.cpp:322] The NetState phase (1) differed from the phase (0) specified by a rule in layer fake
I0427 16:20:39.720417 13425 net.cpp:58] Initializing net from parameters: 
name: "unet_f1_3"
force_backward: true
state {
  phase: TEST
}
layer {
  name: "loaddata"
  type: "HDF5Data"
  top: "data"
  top: "label"
  include {
    phase: TEST
  }
  hdf5_data_param {
    source: "caffeHDF5_validation_3.txt"
    batch_size: 1
  }
}
layer {
  name: "conv_d0a-b"
  type: "Convolution"
  bottom: "data"
  top: "d0b"
  param {
    lr_mult: 1
    decay_mult: 1
  }
  param {
    lr_mult: 2
    decay_mult: 0
  }
  convolution_param {
    num_output: 64
    pad: 0
    kernel_size: 3
    weight_filler {
      type: "xavier"
    }
    engine: CAFFE
  }
}
layer {
  name: "relu_d0b"
  type: "ReLU"
  bottom: "d0b"
  top: "d0b"
}
layer {
  name: "conv_d0b-c"
  type: "Convolution"
  bottom: "d0b"
  top: "d0c"
  param {
    lr_mult: 1
    decay_mult: 1
  }
  param {
    lr_mult: 2
    decay_mult: 0
  }
  convolution_param {
    num_output: 64
    pad: 0
    kernel_size: 3
    weight_filler {
      type: "xavier"
    }
    engine: CAFFE
  }
}
layer {
  name: "relu_d0c"
  type: "ReLU"
  bottom: "d0c"
  top: "d0c"
}
layer {
  name: "pool_d0c-1a"
  type: "Pooling"
  bottom: "d0c"
  top: "d1a"
  pooling_param {
    pool: MAX
    kernel_size: 2
    stride: 2
  }
}
layer {
  name: "conv_d1a-b"
  type: "Convolution"
  bottom: "d1a"
  top: "d1b"
  param {
    lr_mult: 1
    decay_mult: 1
  }
  param {
    lr_mult: 2
    decay_mult: 0
  }
  convolution_param {
    num_output: 128
    pad: 0
    kernel_size: 3
    weight_filler {
      type: "xavier"
    }
    engine: CAFFE
  }
}
layer {
  name: "relu_d1b"
  type: "ReLU"
  bottom: "d1b"
  top: "d1b"
}
layer {
  name: "conv_d1b-c"
  type: "Convolution"
  bottom: "d1b"
  top: "d1c"
  param {
    lr_mult: 1
    decay_mult: 1
  }
  param {
    lr_mult: 2
    decay_mult: 0
  }
  convolution_param {
    num_output: 128
    pad: 0
    kernel_size: 3
    weight_filler {
      type: "xavier"
    }
    engine: CAFFE
  }
}
layer {
  name: "relu_d1c"
  type: "ReLU"
  bottom: "d1c"
  top: "d1c"
}
layer {
  name: "pool_d1c-2a"
  type: "Pooling"
  bottom: "d1c"
  top: "d2a"
  pooling_param {
    pool: MAX
    kernel_size: 2
    stride: 2
  }
}
layer {
  name: "conv_d2a-b"
  type: "Convolution"
  bottom: "d2a"
  top: "d2b"
  param {
    lr_mult: 1
    decay_mult: 1
  }
  param {
    lr_mult: 2
    decay_mult: 0
  }
  convolution_param {
    num_output: 256
    pad: 0
    kernel_size: 3
    weight_filler {
      type: "xavier"
    }
    engine: CAFFE
  }
}
layer {
  name: "relu_d2b"
  type: "ReLU"
  bottom: "d2b"
  top: "d2b"
}
layer {
  name: "conv_d2b-c"
  type: "Convolution"
  bottom: "d2b"
  top: "d2c"
  param {
    lr_mult: 1
    decay_mult: 1
  }
  param {
    lr_mult: 2
    decay_mult: 0
  }
  convolution_param {
    num_output: 256
    pad: 0
    kernel_size: 3
    weight_filler {
      type: "xavier"
    }
    engine: CAFFE
  }
}
layer {
  name: "relu_d2c"
  type: "ReLU"
  bottom: "d2c"
  top: "d2c"
}
layer {
  name: "pool_d2c-3a"
  type: "Pooling"
  bottom: "d2c"
  top: "d3a"
  pooling_param {
    pool: MAX
    kernel_size: 2
    stride: 2
  }
}
layer {
  name: "conv_d3a-b"
  type: "Convolution"
  bottom: "d3a"
  top: "d3b"
  param {
    lr_mult: 1
    decay_mult: 1
  }
  param {
    lr_mult: 2
    decay_mult: 0
  }
  convolution_param {
    num_output: 512
    pad: 0
    kernel_size: 3
    weight_filler {
      type: "xavier"
    }
    engine: CAFFE
  }
}
layer {
  name: "relu_d3b"
  type: "ReLU"
  bottom: "d3b"
  top: "d3b"
}
layer {
  name: "conv_d3b-c"
  type: "Convolution"
  bottom: "d3b"
  top: "d3c"
  param {
    lr_mult: 1
    decay_mult: 1
  }
  param {
    lr_mult: 2
    decay_mult: 0
  }
  convolution_param {
    num_output: 512
    pad: 0
    kernel_size: 3
    weight_filler {
      type: "xavier"
    }
    engine: CAFFE
  }
}
layer {
  name: "relu_d3c"
  type: "ReLU"
  bottom: "d3c"
  top: "d3c"
}
layer {
  name: "pool_d3c-4a"
  type: "Pooling"
  bottom: "d3c"
  top: "d4a"
  pooling_param {
    pool: MAX
    kernel_size: 2
    stride: 2
  }
}
layer {
  name: "conv_d4a-b"
  type: "Convolution"
  bottom: "d4a"
  top: "d4b"
  param {
    lr_mult: 1
    decay_mult: 1
  }
  param {
    lr_mult: 2
    decay_mult: 0
  }
  convolution_param {
    num_output: 1024
    pad: 0
    kernel_size: 3
    weight_filler {
      type: "xavier"
    }
    engine: CAFFE
  }
}
layer {
  name: "relu_d4b"
  type: "ReLU"
  bottom: "d4b"
  top: "d4b"
}
layer {
  name: "conv_d4b-c"
  type: "Convolution"
  bottom: "d4b"
  top: "d4c"
  param {
    lr_mult: 1
    decay_mult: 1
  }
  param {
    lr_mult: 2
    decay_mult: 0
  }
  convolution_param {
    num_output: 1024
    pad: 0
    kernel_size: 3
    weight_filler {
      type: "xavier"
    }
    engine: CAFFE
  }
}
layer {
  name: "relu_d4c"
  type: "ReLU"
  bottom: "d4c"
  top: "d4c"
}
layer {
  name: "upconv_d4c_u3a"
  type: "Deconvolution"
  bottom: "d4c"
  top: "u3a"
  param {
    lr_mult: 1
    decay_mult: 1
  }
  param {
    lr_mult: 2
    decay_mult: 0
  }
  convolution_param {
    num_output: 512
    pad: 0
    kernel_size: 2
    stride: 2
    weight_filler {
      type: "xavier"
    }
  }
}
layer {
  name: "relu_u3a"
  type: "ReLU"
  bottom: "u3a"
  top: "u3a"
}
layer {
  name: "crop_d3c-d3cc"
  type: "Crop"
  bottom: "d3c"
  bottom: "u3a"
  top: "d3cc"
  crop_param {
    axis: 2
    offset: 4
  }
}
layer {
  name: "concat_d3cc_u3a-b"
  type: "Concat"
  bottom: "u3a"
  bottom: "d3cc"
  top: "u3b"
}
layer {
  name: "conv_u3b-c"
  type: "Convolution"
  bottom: "u3b"
  top: "u3c"
  param {
    lr_mult: 1
    decay_mult: 1
  }
  param {
    lr_mult: 2
    decay_mult: 0
  }
  convolution_param {
    num_output: 512
    pad: 0
    kernel_size: 3
    weight_filler {
      type: "xavier"
    }
    engine: CAFFE
  }
}
layer {
  name: "relu_u3c"
  type: "ReLU"
  bottom: "u3c"
  top: "u3c"
}
layer {
  name: "conv_u3c-d"
  type: "Convolution"
  bottom: "u3c"
  top: "u3d"
  param {
    lr_mult: 1
    decay_mult: 1
  }
  param {
    lr_mult: 2
    decay_mult: 0
  }
  convolution_param {
    num_output: 512
    pad: 0
    kernel_size: 3
    weight_filler {
      type: "xavier"
    }
    engine: CAFFE
  }
}
layer {
  name: "relu_u3d"
  type: "ReLU"
  bottom: "u3d"
  top: "u3d"
}
layer {
  name: "upconv_u3d_u2a"
  type: "Deconvolution"
  bottom: "u3d"
  top: "u2a"
  param {
    lr_mult: 1
    decay_mult: 1
  }
  param {
    lr_mult: 2
    decay_mult: 0
  }
  convolution_param {
    num_output: 256
    pad: 0
    kernel_size: 2
    stride: 2
    weight_filler {
      type: "xavier"
    }
  }
}
layer {
  name: "relu_u2a"
  type: "ReLU"
  bottom: "u2a"
  top: "u2a"
}
layer {
  name: "crop_d2c-d2cc"
  type: "Crop"
  bottom: "d2c"
  bottom: "u2a"
  top: "d2cc"
  crop_param {
    axis: 2
    offset: 16
  }
}
layer {
  name: "concat_d2cc_u2a-b"
  type: "Concat"
  bottom: "u2a"
  bottom: "d2cc"
  top: "u2b"
}
layer {
  name: "conv_u2b-c"
  type: "Convolution"
  bottom: "u2b"
  top: "u2c"
  param {
    lr_mult: 1
    decay_mult: 1
  }
  param {
    lr_mult: 2
    decay_mult: 0
  }
  convolution_param {
    num_output: 256
    pad: 0
    kernel_size: 3
    weight_filler {
      type: "xavier"
    }
    engine: CAFFE
  }
}
layer {
  name: "relu_u2c"
  type: "ReLU"
  bottom: "u2c"
  top: "u2c"
}
layer {
  name: "conv_u2c-d"
  type: "Convolution"
  bottom: "u2c"
  top: "u2d"
  param {
    lr_mult: 1
    decay_mult: 1
  }
  param {
    lr_mult: 2
    decay_mult: 0
  }
  convolution_param {
    num_output: 256
    pad: 0
    kernel_size: 3
    weight_filler {
      type: "xavier"
    }
    engine: CAFFE
  }
}
layer {
  name: "relu_u2d"
  type: "ReLU"
  bottom: "u2d"
  top: "u2d"
}
layer {
  name: "upconv_u2d_u1a"
  type: "Deconvolution"
  bottom: "u2d"
  top: "u1a"
  param {
    lr_mult: 1
    decay_mult: 1
  }
  param {
    lr_mult: 2
    decay_mult: 0
  }
  convolution_param {
    num_output: 128
    pad: 0
    kernel_size: 2
    stride: 2
    weight_filler {
      type: "xavier"
    }
  }
}
layer {
  name: "relu_u1a"
  type: "ReLU"
  bottom: "u1a"
  top: "u1a"
}
layer {
  name: "crop_d1c-d1cc"
  type: "Crop"
  bottom: "d1c"
  bottom: "u1a"
  top: "d1cc"
  crop_param {
    axis: 2
    offset: 40
  }
}
layer {
  name: "concat_d1cc_u1a-b"
  type: "Concat"
  bottom: "u1a"
  bottom: "d1cc"
  top: "u1b"
}
layer {
  name: "conv_u1b-c"
  type: "Convolution"
  bottom: "u1b"
  top: "u1c"
  param {
    lr_mult: 1
    decay_mult: 1
  }
  param {
    lr_mult: 2
    decay_mult: 0
  }
  convolution_param {
    num_output: 128
    pad: 0
    kernel_size: 3
    weight_filler {
      type: "xavier"
    }
    engine: CAFFE
  }
}
layer {
  name: "relu_u1c"
  type: "ReLU"
  bottom: "u1c"
  top: "u1c"
}
layer {
  name: "conv_u1c-d"
  type: "Convolution"
  bottom: "u1c"
  top: "u1d"
  param {
    lr_mult: 1
    decay_mult: 1
  }
  param {
    lr_mult: 2
    decay_mult: 0
  }
  convolution_param {
    num_output: 128
    pad: 0
    kernel_size: 3
    weight_filler {
      type: "xavier"
    }
    engine: CAFFE
  }
}
layer {
  name: "relu_u1d"
  type: "ReLU"
  bottom: "u1d"
  top: "u1d"
}
layer {
  name: "upconv_u1d_u0a"
  type: "Deconvolution"
  bottom: "u1d"
  top: "u0a"
  param {
    lr_mult: 1
    decay_mult: 1
  }
  param {
    lr_mult: 2
    decay_mult: 0
  }
  convolution_param {
    num_output: 128
    pad: 0
    kernel_size: 2
    stride: 2
    weight_filler {
      type: "xavier"
    }
  }
}
layer {
  name: "relu_u0a"
  type: "ReLU"
  bottom: "u0a"
  top: "u0a"
}
layer {
  name: "crop_d0c-d0cc"
  type: "Crop"
  bottom: "d0c"
  bottom: "u0a"
  top: "d0cc"
  crop_param {
    axis: 2
    offset: 88
  }
}
layer {
  name: "concat_d0cc_u0a-b"
  type: "Concat"
  bottom: "u0a"
  bottom: "d0cc"
  top: "u0b"
}
layer {
  name: "conv_u0b-c"
  type: "Convolution"
  bottom: "u0b"
  top: "u0c"
  param {
    lr_mult: 1
    decay_mult: 1
  }
  param {
    lr_mult: 2
    decay_mult: 0
  }
  convolution_param {
    num_output: 64
    pad: 0
    kernel_size: 3
    weight_filler {
      type: "xavier"
    }
    engine: CAFFE
  }
}
layer {
  name: "relu_u0c"
  type: "ReLU"
  bottom: "u0c"
  top: "u0c"
}
layer {
  name: "conv_u0c-d"
  type: "Convolution"
  bottom: "u0c"
  top: "u0d"
  param {
    lr_mult: 1
    decay_mult: 1
  }
  param {
    lr_mult: 2
    decay_mult: 0
  }
  convolution_param {
    num_output: 64
    pad: 0
    kernel_size: 3
    weight_filler {
      type: "xavier"
    }
    engine: CAFFE
  }
}
layer {
  name: "relu_u0d"
  type: "ReLU"
  bottom: "u0d"
  top: "u0d"
}
layer {
  name: "conv_u0d-score"
  type: "Convolution"
  bottom: "u0d"
  top: "score"
  param {
    lr_mult: 1
    decay_mult: 1
  }
  param {
    lr_mult: 2
    decay_mult: 0
  }
  convolution_param {
    num_output: 3
    pad: 0
    kernel_size: 1
    weight_filler {
      type: "xavier"
    }
    engine: CAFFE
  }
}
layer {
  name: "softmax"
  type: "Softmax"
  bottom: "score"
  top: "softmax_out"
}
layer {
  name: "reshapelab"
  type: "Reshape"
  bottom: "label"
  top: "label_flat"
  reshape_param {
    shape {
      dim: 0
      dim: -1
    }
  }
}
layer {
  name: "reshaperes"
  type: "Reshape"
  bottom: "softmax_out"
  top: "softmax_out_flat"
  reshape_param {
    shape {
      dim: 0
      dim: 0
      dim: -1
    }
  }
}
layer {
  name: "loss"
  type: "Python"
  bottom: "softmax_out_flat"
  bottom: "label_flat"
  top: "loss"
  loss_weight: 1
  python_param {
    module: "multiclass_f1_loss"
    layer: "F1Loss"
  }
}
I0427 16:20:39.720685 13425 layer_factory.hpp:77] Creating layer loaddata
I0427 16:20:39.720697 13425 net.cpp:100] Creating Layer loaddata
I0427 16:20:39.720701 13425 net.cpp:408] loaddata -> data
I0427 16:20:39.720710 13425 net.cpp:408] loaddata -> label
I0427 16:20:39.720717 13425 hdf5_data_layer.cpp:79] Loading list of HDF5 filenames from: caffeHDF5_validation_3.txt
I0427 16:20:39.731802 13425 hdf5_data_layer.cpp:93] Number of HDF5 files: 10
I0427 16:20:42.401340 13425 net.cpp:150] Setting up loaddata
I0427 16:20:42.401376 13425 net.cpp:157] Top shape: 1 3 428 428 (549552)
I0427 16:20:42.401381 13425 net.cpp:157] Top shape: 1 244 244 (59536)
I0427 16:20:42.401386 13425 net.cpp:165] Memory required for data: 2436352
I0427 16:20:42.401394 13425 layer_factory.hpp:77] Creating layer conv_d0a-b
I0427 16:20:42.401419 13425 net.cpp:100] Creating Layer conv_d0a-b
I0427 16:20:42.401424 13425 net.cpp:434] conv_d0a-b <- data
I0427 16:20:42.401459 13425 net.cpp:408] conv_d0a-b -> d0b
I0427 16:20:42.402122 13425 net.cpp:150] Setting up conv_d0a-b
I0427 16:20:42.402139 13425 net.cpp:157] Top shape: 1 64 426 426 (11614464)
I0427 16:20:42.402143 13425 net.cpp:165] Memory required for data: 48894208
I0427 16:20:42.402158 13425 layer_factory.hpp:77] Creating layer relu_d0b
I0427 16:20:42.402168 13425 net.cpp:100] Creating Layer relu_d0b
I0427 16:20:42.402171 13425 net.cpp:434] relu_d0b <- d0b
I0427 16:20:42.402178 13425 net.cpp:395] relu_d0b -> d0b (in-place)
I0427 16:20:42.402516 13425 net.cpp:150] Setting up relu_d0b
I0427 16:20:42.402530 13425 net.cpp:157] Top shape: 1 64 426 426 (11614464)
I0427 16:20:42.402534 13425 net.cpp:165] Memory required for data: 95352064
I0427 16:20:42.402537 13425 layer_factory.hpp:77] Creating layer conv_d0b-c
I0427 16:20:42.402549 13425 net.cpp:100] Creating Layer conv_d0b-c
I0427 16:20:42.402554 13425 net.cpp:434] conv_d0b-c <- d0b
I0427 16:20:42.402560 13425 net.cpp:408] conv_d0b-c -> d0c
I0427 16:20:42.403446 13425 net.cpp:150] Setting up conv_d0b-c
I0427 16:20:42.403462 13425 net.cpp:157] Top shape: 1 64 424 424 (11505664)
I0427 16:20:42.403465 13425 net.cpp:165] Memory required for data: 141374720
I0427 16:20:42.403475 13425 layer_factory.hpp:77] Creating layer relu_d0c
I0427 16:20:42.403484 13425 net.cpp:100] Creating Layer relu_d0c
I0427 16:20:42.403489 13425 net.cpp:434] relu_d0c <- d0c
I0427 16:20:42.403496 13425 net.cpp:395] relu_d0c -> d0c (in-place)
I0427 16:20:42.403770 13425 net.cpp:150] Setting up relu_d0c
I0427 16:20:42.403784 13425 net.cpp:157] Top shape: 1 64 424 424 (11505664)
I0427 16:20:42.403787 13425 net.cpp:165] Memory required for data: 187397376
I0427 16:20:42.403791 13425 layer_factory.hpp:77] Creating layer d0c_relu_d0c_0_split
I0427 16:20:42.403800 13425 net.cpp:100] Creating Layer d0c_relu_d0c_0_split
I0427 16:20:42.403803 13425 net.cpp:434] d0c_relu_d0c_0_split <- d0c
I0427 16:20:42.403811 13425 net.cpp:408] d0c_relu_d0c_0_split -> d0c_relu_d0c_0_split_0
I0427 16:20:42.403822 13425 net.cpp:408] d0c_relu_d0c_0_split -> d0c_relu_d0c_0_split_1
I0427 16:20:42.403884 13425 net.cpp:150] Setting up d0c_relu_d0c_0_split
I0427 16:20:42.403893 13425 net.cpp:157] Top shape: 1 64 424 424 (11505664)
I0427 16:20:42.403899 13425 net.cpp:157] Top shape: 1 64 424 424 (11505664)
I0427 16:20:42.403903 13425 net.cpp:165] Memory required for data: 279442688
I0427 16:20:42.403905 13425 layer_factory.hpp:77] Creating layer pool_d0c-1a
I0427 16:20:42.403913 13425 net.cpp:100] Creating Layer pool_d0c-1a
I0427 16:20:42.403918 13425 net.cpp:434] pool_d0c-1a <- d0c_relu_d0c_0_split_0
I0427 16:20:42.403966 13425 net.cpp:408] pool_d0c-1a -> d1a
I0427 16:20:42.404042 13425 net.cpp:150] Setting up pool_d0c-1a
I0427 16:20:42.404053 13425 net.cpp:157] Top shape: 1 64 212 212 (2876416)
I0427 16:20:42.404058 13425 net.cpp:165] Memory required for data: 290948352
I0427 16:20:42.404062 13425 layer_factory.hpp:77] Creating layer conv_d1a-b
I0427 16:20:42.404074 13425 net.cpp:100] Creating Layer conv_d1a-b
I0427 16:20:42.404078 13425 net.cpp:434] conv_d1a-b <- d1a
I0427 16:20:42.404088 13425 net.cpp:408] conv_d1a-b -> d1b
I0427 16:20:42.406514 13425 net.cpp:150] Setting up conv_d1a-b
I0427 16:20:42.406538 13425 net.cpp:157] Top shape: 1 128 210 210 (5644800)
I0427 16:20:42.406541 13425 net.cpp:165] Memory required for data: 313527552
I0427 16:20:42.406556 13425 layer_factory.hpp:77] Creating layer relu_d1b
I0427 16:20:42.406568 13425 net.cpp:100] Creating Layer relu_d1b
I0427 16:20:42.406571 13425 net.cpp:434] relu_d1b <- d1b
I0427 16:20:42.406579 13425 net.cpp:395] relu_d1b -> d1b (in-place)
I0427 16:20:42.406875 13425 net.cpp:150] Setting up relu_d1b
I0427 16:20:42.406890 13425 net.cpp:157] Top shape: 1 128 210 210 (5644800)
I0427 16:20:42.406894 13425 net.cpp:165] Memory required for data: 336106752
I0427 16:20:42.406898 13425 layer_factory.hpp:77] Creating layer conv_d1b-c
I0427 16:20:42.406910 13425 net.cpp:100] Creating Layer conv_d1b-c
I0427 16:20:42.406914 13425 net.cpp:434] conv_d1b-c <- d1b
I0427 16:20:42.406921 13425 net.cpp:408] conv_d1b-c -> d1c
I0427 16:20:42.409858 13425 net.cpp:150] Setting up conv_d1b-c
I0427 16:20:42.409883 13425 net.cpp:157] Top shape: 1 128 208 208 (5537792)
I0427 16:20:42.409888 13425 net.cpp:165] Memory required for data: 358257920
I0427 16:20:42.409896 13425 layer_factory.hpp:77] Creating layer relu_d1c
I0427 16:20:42.409904 13425 net.cpp:100] Creating Layer relu_d1c
I0427 16:20:42.409909 13425 net.cpp:434] relu_d1c <- d1c
I0427 16:20:42.409916 13425 net.cpp:395] relu_d1c -> d1c (in-place)
I0427 16:20:42.411123 13425 net.cpp:150] Setting up relu_d1c
I0427 16:20:42.411145 13425 net.cpp:157] Top shape: 1 128 208 208 (5537792)
I0427 16:20:42.411150 13425 net.cpp:165] Memory required for data: 380409088
I0427 16:20:42.411154 13425 layer_factory.hpp:77] Creating layer d1c_relu_d1c_0_split
I0427 16:20:42.411164 13425 net.cpp:100] Creating Layer d1c_relu_d1c_0_split
I0427 16:20:42.411167 13425 net.cpp:434] d1c_relu_d1c_0_split <- d1c
I0427 16:20:42.411176 13425 net.cpp:408] d1c_relu_d1c_0_split -> d1c_relu_d1c_0_split_0
I0427 16:20:42.411187 13425 net.cpp:408] d1c_relu_d1c_0_split -> d1c_relu_d1c_0_split_1
I0427 16:20:42.411257 13425 net.cpp:150] Setting up d1c_relu_d1c_0_split
I0427 16:20:42.411269 13425 net.cpp:157] Top shape: 1 128 208 208 (5537792)
I0427 16:20:42.411275 13425 net.cpp:157] Top shape: 1 128 208 208 (5537792)
I0427 16:20:42.411278 13425 net.cpp:165] Memory required for data: 424711424
I0427 16:20:42.411281 13425 layer_factory.hpp:77] Creating layer pool_d1c-2a
I0427 16:20:42.411289 13425 net.cpp:100] Creating Layer pool_d1c-2a
I0427 16:20:42.411293 13425 net.cpp:434] pool_d1c-2a <- d1c_relu_d1c_0_split_0
I0427 16:20:42.411300 13425 net.cpp:408] pool_d1c-2a -> d2a
I0427 16:20:42.411352 13425 net.cpp:150] Setting up pool_d1c-2a
I0427 16:20:42.411363 13425 net.cpp:157] Top shape: 1 128 104 104 (1384448)
I0427 16:20:42.411367 13425 net.cpp:165] Memory required for data: 430249216
I0427 16:20:42.411370 13425 layer_factory.hpp:77] Creating layer conv_d2a-b
I0427 16:20:42.411382 13425 net.cpp:100] Creating Layer conv_d2a-b
I0427 16:20:42.411386 13425 net.cpp:434] conv_d2a-b <- d2a
I0427 16:20:42.411396 13425 net.cpp:408] conv_d2a-b -> d2b
I0427 16:20:42.414085 13425 net.cpp:150] Setting up conv_d2a-b
I0427 16:20:42.414100 13425 net.cpp:157] Top shape: 1 256 102 102 (2663424)
I0427 16:20:42.414103 13425 net.cpp:165] Memory required for data: 440902912
I0427 16:20:42.414118 13425 layer_factory.hpp:77] Creating layer relu_d2b
I0427 16:20:42.414124 13425 net.cpp:100] Creating Layer relu_d2b
I0427 16:20:42.414129 13425 net.cpp:434] relu_d2b <- d2b
I0427 16:20:42.414160 13425 net.cpp:395] relu_d2b -> d2b (in-place)
I0427 16:20:42.414419 13425 net.cpp:150] Setting up relu_d2b
I0427 16:20:42.414433 13425 net.cpp:157] Top shape: 1 256 102 102 (2663424)
I0427 16:20:42.414436 13425 net.cpp:165] Memory required for data: 451556608
I0427 16:20:42.414443 13425 layer_factory.hpp:77] Creating layer conv_d2b-c
I0427 16:20:42.414453 13425 net.cpp:100] Creating Layer conv_d2b-c
I0427 16:20:42.414458 13425 net.cpp:434] conv_d2b-c <- d2b
I0427 16:20:42.414465 13425 net.cpp:408] conv_d2b-c -> d2c
I0427 16:20:42.420848 13425 net.cpp:150] Setting up conv_d2b-c
I0427 16:20:42.420872 13425 net.cpp:157] Top shape: 1 256 100 100 (2560000)
I0427 16:20:42.420876 13425 net.cpp:165] Memory required for data: 461796608
I0427 16:20:42.420884 13425 layer_factory.hpp:77] Creating layer relu_d2c
I0427 16:20:42.420895 13425 net.cpp:100] Creating Layer relu_d2c
I0427 16:20:42.420903 13425 net.cpp:434] relu_d2c <- d2c
I0427 16:20:42.420909 13425 net.cpp:395] relu_d2c -> d2c (in-place)
I0427 16:20:42.421174 13425 net.cpp:150] Setting up relu_d2c
I0427 16:20:42.421188 13425 net.cpp:157] Top shape: 1 256 100 100 (2560000)
I0427 16:20:42.421193 13425 net.cpp:165] Memory required for data: 472036608
I0427 16:20:42.421196 13425 layer_factory.hpp:77] Creating layer d2c_relu_d2c_0_split
I0427 16:20:42.421203 13425 net.cpp:100] Creating Layer d2c_relu_d2c_0_split
I0427 16:20:42.421217 13425 net.cpp:434] d2c_relu_d2c_0_split <- d2c
I0427 16:20:42.421226 13425 net.cpp:408] d2c_relu_d2c_0_split -> d2c_relu_d2c_0_split_0
I0427 16:20:42.421234 13425 net.cpp:408] d2c_relu_d2c_0_split -> d2c_relu_d2c_0_split_1
I0427 16:20:42.421296 13425 net.cpp:150] Setting up d2c_relu_d2c_0_split
I0427 16:20:42.421308 13425 net.cpp:157] Top shape: 1 256 100 100 (2560000)
I0427 16:20:42.421314 13425 net.cpp:157] Top shape: 1 256 100 100 (2560000)
I0427 16:20:42.421316 13425 net.cpp:165] Memory required for data: 492516608
I0427 16:20:42.421319 13425 layer_factory.hpp:77] Creating layer pool_d2c-3a
I0427 16:20:42.421326 13425 net.cpp:100] Creating Layer pool_d2c-3a
I0427 16:20:42.421331 13425 net.cpp:434] pool_d2c-3a <- d2c_relu_d2c_0_split_0
I0427 16:20:42.421339 13425 net.cpp:408] pool_d2c-3a -> d3a
I0427 16:20:42.421394 13425 net.cpp:150] Setting up pool_d2c-3a
I0427 16:20:42.421406 13425 net.cpp:157] Top shape: 1 256 50 50 (640000)
I0427 16:20:42.421411 13425 net.cpp:165] Memory required for data: 495076608
I0427 16:20:42.421413 13425 layer_factory.hpp:77] Creating layer conv_d3a-b
I0427 16:20:42.421424 13425 net.cpp:100] Creating Layer conv_d3a-b
I0427 16:20:42.421428 13425 net.cpp:434] conv_d3a-b <- d3a
I0427 16:20:42.421450 13425 net.cpp:408] conv_d3a-b -> d3b
I0427 16:20:42.432955 13425 net.cpp:150] Setting up conv_d3a-b
I0427 16:20:42.432976 13425 net.cpp:157] Top shape: 1 512 48 48 (1179648)
I0427 16:20:42.432981 13425 net.cpp:165] Memory required for data: 499795200
I0427 16:20:42.432989 13425 layer_factory.hpp:77] Creating layer relu_d3b
I0427 16:20:42.432996 13425 net.cpp:100] Creating Layer relu_d3b
I0427 16:20:42.433001 13425 net.cpp:434] relu_d3b <- d3b
I0427 16:20:42.433007 13425 net.cpp:395] relu_d3b -> d3b (in-place)
I0427 16:20:42.433271 13425 net.cpp:150] Setting up relu_d3b
I0427 16:20:42.433285 13425 net.cpp:157] Top shape: 1 512 48 48 (1179648)
I0427 16:20:42.433289 13425 net.cpp:165] Memory required for data: 504513792
I0427 16:20:42.433292 13425 layer_factory.hpp:77] Creating layer conv_d3b-c
I0427 16:20:42.433305 13425 net.cpp:100] Creating Layer conv_d3b-c
I0427 16:20:42.433308 13425 net.cpp:434] conv_d3b-c <- d3b
I0427 16:20:42.433315 13425 net.cpp:408] conv_d3b-c -> d3c
I0427 16:20:42.454576 13425 net.cpp:150] Setting up conv_d3b-c
I0427 16:20:42.454598 13425 net.cpp:157] Top shape: 1 512 46 46 (1083392)
I0427 16:20:42.454602 13425 net.cpp:165] Memory required for data: 508847360
I0427 16:20:42.454609 13425 layer_factory.hpp:77] Creating layer relu_d3c
I0427 16:20:42.454617 13425 net.cpp:100] Creating Layer relu_d3c
I0427 16:20:42.454622 13425 net.cpp:434] relu_d3c <- d3c
I0427 16:20:42.454649 13425 net.cpp:395] relu_d3c -> d3c (in-place)
I0427 16:20:42.455857 13425 net.cpp:150] Setting up relu_d3c
I0427 16:20:42.455875 13425 net.cpp:157] Top shape: 1 512 46 46 (1083392)
I0427 16:20:42.455880 13425 net.cpp:165] Memory required for data: 513180928
I0427 16:20:42.455884 13425 layer_factory.hpp:77] Creating layer d3c_relu_d3c_0_split
I0427 16:20:42.455891 13425 net.cpp:100] Creating Layer d3c_relu_d3c_0_split
I0427 16:20:42.455895 13425 net.cpp:434] d3c_relu_d3c_0_split <- d3c
I0427 16:20:42.455904 13425 net.cpp:408] d3c_relu_d3c_0_split -> d3c_relu_d3c_0_split_0
I0427 16:20:42.455914 13425 net.cpp:408] d3c_relu_d3c_0_split -> d3c_relu_d3c_0_split_1
I0427 16:20:42.455976 13425 net.cpp:150] Setting up d3c_relu_d3c_0_split
I0427 16:20:42.455984 13425 net.cpp:157] Top shape: 1 512 46 46 (1083392)
I0427 16:20:42.455991 13425 net.cpp:157] Top shape: 1 512 46 46 (1083392)
I0427 16:20:42.455992 13425 net.cpp:165] Memory required for data: 521848064
I0427 16:20:42.455996 13425 layer_factory.hpp:77] Creating layer pool_d3c-4a
I0427 16:20:42.456003 13425 net.cpp:100] Creating Layer pool_d3c-4a
I0427 16:20:42.456008 13425 net.cpp:434] pool_d3c-4a <- d3c_relu_d3c_0_split_0
I0427 16:20:42.456014 13425 net.cpp:408] pool_d3c-4a -> d4a
I0427 16:20:42.456059 13425 net.cpp:150] Setting up pool_d3c-4a
I0427 16:20:42.456068 13425 net.cpp:157] Top shape: 1 512 23 23 (270848)
I0427 16:20:42.456073 13425 net.cpp:165] Memory required for data: 522931456
I0427 16:20:42.456075 13425 layer_factory.hpp:77] Creating layer conv_d4a-b
I0427 16:20:42.456085 13425 net.cpp:100] Creating Layer conv_d4a-b
I0427 16:20:42.456090 13425 net.cpp:434] conv_d4a-b <- d4a
I0427 16:20:42.456099 13425 net.cpp:408] conv_d4a-b -> d4b
I0427 16:20:42.496729 13425 net.cpp:150] Setting up conv_d4a-b
I0427 16:20:42.496749 13425 net.cpp:157] Top shape: 1 1024 21 21 (451584)
I0427 16:20:42.496752 13425 net.cpp:165] Memory required for data: 524737792
I0427 16:20:42.496767 13425 layer_factory.hpp:77] Creating layer relu_d4b
I0427 16:20:42.496775 13425 net.cpp:100] Creating Layer relu_d4b
I0427 16:20:42.496780 13425 net.cpp:434] relu_d4b <- d4b
I0427 16:20:42.496786 13425 net.cpp:395] relu_d4b -> d4b (in-place)
I0427 16:20:42.497025 13425 net.cpp:150] Setting up relu_d4b
I0427 16:20:42.497037 13425 net.cpp:157] Top shape: 1 1024 21 21 (451584)
I0427 16:20:42.497040 13425 net.cpp:165] Memory required for data: 526544128
I0427 16:20:42.497043 13425 layer_factory.hpp:77] Creating layer conv_d4b-c
I0427 16:20:42.497054 13425 net.cpp:100] Creating Layer conv_d4b-c
I0427 16:20:42.497058 13425 net.cpp:434] conv_d4b-c <- d4b
I0427 16:20:42.497066 13425 net.cpp:408] conv_d4b-c -> d4c
I0427 16:20:42.576977 13425 net.cpp:150] Setting up conv_d4b-c
I0427 16:20:42.577003 13425 net.cpp:157] Top shape: 1 1024 19 19 (369664)
I0427 16:20:42.577008 13425 net.cpp:165] Memory required for data: 528022784
I0427 16:20:42.577018 13425 layer_factory.hpp:77] Creating layer relu_d4c
I0427 16:20:42.577028 13425 net.cpp:100] Creating Layer relu_d4c
I0427 16:20:42.577033 13425 net.cpp:434] relu_d4c <- d4c
I0427 16:20:42.577041 13425 net.cpp:395] relu_d4c -> d4c (in-place)
I0427 16:20:42.577322 13425 net.cpp:150] Setting up relu_d4c
I0427 16:20:42.577333 13425 net.cpp:157] Top shape: 1 1024 19 19 (369664)
I0427 16:20:42.577337 13425 net.cpp:165] Memory required for data: 529501440
I0427 16:20:42.577342 13425 layer_factory.hpp:77] Creating layer upconv_d4c_u3a
I0427 16:20:42.577352 13425 net.cpp:100] Creating Layer upconv_d4c_u3a
I0427 16:20:42.577355 13425 net.cpp:434] upconv_d4c_u3a <- d4c
I0427 16:20:42.577363 13425 net.cpp:408] upconv_d4c_u3a -> u3a
I0427 16:20:42.595623 13425 net.cpp:150] Setting up upconv_d4c_u3a
I0427 16:20:42.595640 13425 net.cpp:157] Top shape: 1 512 38 38 (739328)
I0427 16:20:42.595643 13425 net.cpp:165] Memory required for data: 532458752
I0427 16:20:42.595652 13425 layer_factory.hpp:77] Creating layer relu_u3a
I0427 16:20:42.595659 13425 net.cpp:100] Creating Layer relu_u3a
I0427 16:20:42.595664 13425 net.cpp:434] relu_u3a <- u3a
I0427 16:20:42.595669 13425 net.cpp:395] relu_u3a -> u3a (in-place)
I0427 16:20:42.595932 13425 net.cpp:150] Setting up relu_u3a
I0427 16:20:42.595944 13425 net.cpp:157] Top shape: 1 512 38 38 (739328)
I0427 16:20:42.595948 13425 net.cpp:165] Memory required for data: 535416064
I0427 16:20:42.595952 13425 layer_factory.hpp:77] Creating layer u3a_relu_u3a_0_split
I0427 16:20:42.595959 13425 net.cpp:100] Creating Layer u3a_relu_u3a_0_split
I0427 16:20:42.595963 13425 net.cpp:434] u3a_relu_u3a_0_split <- u3a
I0427 16:20:42.595969 13425 net.cpp:408] u3a_relu_u3a_0_split -> u3a_relu_u3a_0_split_0
I0427 16:20:42.595978 13425 net.cpp:408] u3a_relu_u3a_0_split -> u3a_relu_u3a_0_split_1
I0427 16:20:42.596035 13425 net.cpp:150] Setting up u3a_relu_u3a_0_split
I0427 16:20:42.596043 13425 net.cpp:157] Top shape: 1 512 38 38 (739328)
I0427 16:20:42.596047 13425 net.cpp:157] Top shape: 1 512 38 38 (739328)
I0427 16:20:42.596050 13425 net.cpp:165] Memory required for data: 541330688
I0427 16:20:42.596053 13425 layer_factory.hpp:77] Creating layer crop_d3c-d3cc
I0427 16:20:42.596067 13425 net.cpp:100] Creating Layer crop_d3c-d3cc
I0427 16:20:42.596071 13425 net.cpp:434] crop_d3c-d3cc <- d3c_relu_d3c_0_split_1
I0427 16:20:42.596076 13425 net.cpp:434] crop_d3c-d3cc <- u3a_relu_u3a_0_split_0
I0427 16:20:42.596082 13425 net.cpp:408] crop_d3c-d3cc -> d3cc
I0427 16:20:42.596123 13425 net.cpp:150] Setting up crop_d3c-d3cc
I0427 16:20:42.596132 13425 net.cpp:157] Top shape: 1 512 38 38 (739328)
I0427 16:20:42.596135 13425 net.cpp:165] Memory required for data: 544288000
I0427 16:20:42.596139 13425 layer_factory.hpp:77] Creating layer concat_d3cc_u3a-b
I0427 16:20:42.596145 13425 net.cpp:100] Creating Layer concat_d3cc_u3a-b
I0427 16:20:42.596148 13425 net.cpp:434] concat_d3cc_u3a-b <- u3a_relu_u3a_0_split_1
I0427 16:20:42.596153 13425 net.cpp:434] concat_d3cc_u3a-b <- d3cc
I0427 16:20:42.596159 13425 net.cpp:408] concat_d3cc_u3a-b -> u3b
I0427 16:20:42.596187 13425 net.cpp:150] Setting up concat_d3cc_u3a-b
I0427 16:20:42.596195 13425 net.cpp:157] Top shape: 1 1024 38 38 (1478656)
I0427 16:20:42.596199 13425 net.cpp:165] Memory required for data: 550202624
I0427 16:20:42.596201 13425 layer_factory.hpp:77] Creating layer conv_u3b-c
I0427 16:20:42.596211 13425 net.cpp:100] Creating Layer conv_u3b-c
I0427 16:20:42.596215 13425 net.cpp:434] conv_u3b-c <- u3b
I0427 16:20:42.596220 13425 net.cpp:408] conv_u3b-c -> u3c
I0427 16:20:42.635795 13425 net.cpp:150] Setting up conv_u3b-c
I0427 16:20:42.635815 13425 net.cpp:157] Top shape: 1 512 36 36 (663552)
I0427 16:20:42.635819 13425 net.cpp:165] Memory required for data: 552856832
I0427 16:20:42.635828 13425 layer_factory.hpp:77] Creating layer relu_u3c
I0427 16:20:42.635836 13425 net.cpp:100] Creating Layer relu_u3c
I0427 16:20:42.635840 13425 net.cpp:434] relu_u3c <- u3c
I0427 16:20:42.635849 13425 net.cpp:395] relu_u3c -> u3c (in-place)
I0427 16:20:42.636907 13425 net.cpp:150] Setting up relu_u3c
I0427 16:20:42.636924 13425 net.cpp:157] Top shape: 1 512 36 36 (663552)
I0427 16:20:42.636929 13425 net.cpp:165] Memory required for data: 555511040
I0427 16:20:42.636931 13425 layer_factory.hpp:77] Creating layer conv_u3c-d
I0427 16:20:42.636945 13425 net.cpp:100] Creating Layer conv_u3c-d
I0427 16:20:42.636950 13425 net.cpp:434] conv_u3c-d <- u3c
I0427 16:20:42.636956 13425 net.cpp:408] conv_u3c-d -> u3d
I0427 16:20:42.657287 13425 net.cpp:150] Setting up conv_u3c-d
I0427 16:20:42.657305 13425 net.cpp:157] Top shape: 1 512 34 34 (591872)
I0427 16:20:42.657310 13425 net.cpp:165] Memory required for data: 557878528
I0427 16:20:42.657316 13425 layer_factory.hpp:77] Creating layer relu_u3d
I0427 16:20:42.657323 13425 net.cpp:100] Creating Layer relu_u3d
I0427 16:20:42.657327 13425 net.cpp:434] relu_u3d <- u3d
I0427 16:20:42.657335 13425 net.cpp:395] relu_u3d -> u3d (in-place)
I0427 16:20:42.657572 13425 net.cpp:150] Setting up relu_u3d
I0427 16:20:42.657585 13425 net.cpp:157] Top shape: 1 512 34 34 (591872)
I0427 16:20:42.657588 13425 net.cpp:165] Memory required for data: 560246016
I0427 16:20:42.657593 13425 layer_factory.hpp:77] Creating layer upconv_u3d_u2a
I0427 16:20:42.657626 13425 net.cpp:100] Creating Layer upconv_u3d_u2a
I0427 16:20:42.657630 13425 net.cpp:434] upconv_u3d_u2a <- u3d
I0427 16:20:42.657639 13425 net.cpp:408] upconv_u3d_u2a -> u2a
I0427 16:20:42.662729 13425 net.cpp:150] Setting up upconv_u3d_u2a
I0427 16:20:42.662747 13425 net.cpp:157] Top shape: 1 256 68 68 (1183744)
I0427 16:20:42.662750 13425 net.cpp:165] Memory required for data: 564980992
I0427 16:20:42.662758 13425 layer_factory.hpp:77] Creating layer relu_u2a
I0427 16:20:42.662765 13425 net.cpp:100] Creating Layer relu_u2a
I0427 16:20:42.662770 13425 net.cpp:434] relu_u2a <- u2a
I0427 16:20:42.662775 13425 net.cpp:395] relu_u2a -> u2a (in-place)
I0427 16:20:42.663007 13425 net.cpp:150] Setting up relu_u2a
I0427 16:20:42.663019 13425 net.cpp:157] Top shape: 1 256 68 68 (1183744)
I0427 16:20:42.663022 13425 net.cpp:165] Memory required for data: 569715968
I0427 16:20:42.663025 13425 layer_factory.hpp:77] Creating layer u2a_relu_u2a_0_split
I0427 16:20:42.663031 13425 net.cpp:100] Creating Layer u2a_relu_u2a_0_split
I0427 16:20:42.663036 13425 net.cpp:434] u2a_relu_u2a_0_split <- u2a
I0427 16:20:42.663043 13425 net.cpp:408] u2a_relu_u2a_0_split -> u2a_relu_u2a_0_split_0
I0427 16:20:42.663059 13425 net.cpp:408] u2a_relu_u2a_0_split -> u2a_relu_u2a_0_split_1
I0427 16:20:42.663115 13425 net.cpp:150] Setting up u2a_relu_u2a_0_split
I0427 16:20:42.663126 13425 net.cpp:157] Top shape: 1 256 68 68 (1183744)
I0427 16:20:42.663130 13425 net.cpp:157] Top shape: 1 256 68 68 (1183744)
I0427 16:20:42.663133 13425 net.cpp:165] Memory required for data: 579185920
I0427 16:20:42.663136 13425 layer_factory.hpp:77] Creating layer crop_d2c-d2cc
I0427 16:20:42.663144 13425 net.cpp:100] Creating Layer crop_d2c-d2cc
I0427 16:20:42.663148 13425 net.cpp:434] crop_d2c-d2cc <- d2c_relu_d2c_0_split_1
I0427 16:20:42.663153 13425 net.cpp:434] crop_d2c-d2cc <- u2a_relu_u2a_0_split_0
I0427 16:20:42.663159 13425 net.cpp:408] crop_d2c-d2cc -> d2cc
I0427 16:20:42.663197 13425 net.cpp:150] Setting up crop_d2c-d2cc
I0427 16:20:42.663204 13425 net.cpp:157] Top shape: 1 256 68 68 (1183744)
I0427 16:20:42.663208 13425 net.cpp:165] Memory required for data: 583920896
I0427 16:20:42.663210 13425 layer_factory.hpp:77] Creating layer concat_d2cc_u2a-b
I0427 16:20:42.663218 13425 net.cpp:100] Creating Layer concat_d2cc_u2a-b
I0427 16:20:42.663220 13425 net.cpp:434] concat_d2cc_u2a-b <- u2a_relu_u2a_0_split_1
I0427 16:20:42.663224 13425 net.cpp:434] concat_d2cc_u2a-b <- d2cc
I0427 16:20:42.663230 13425 net.cpp:408] concat_d2cc_u2a-b -> u2b
I0427 16:20:42.663259 13425 net.cpp:150] Setting up concat_d2cc_u2a-b
I0427 16:20:42.663267 13425 net.cpp:157] Top shape: 1 512 68 68 (2367488)
I0427 16:20:42.663270 13425 net.cpp:165] Memory required for data: 593390848
I0427 16:20:42.663272 13425 layer_factory.hpp:77] Creating layer conv_u2b-c
I0427 16:20:42.663283 13425 net.cpp:100] Creating Layer conv_u2b-c
I0427 16:20:42.663286 13425 net.cpp:434] conv_u2b-c <- u2b
I0427 16:20:42.663293 13425 net.cpp:408] conv_u2b-c -> u2c
I0427 16:20:42.673810 13425 net.cpp:150] Setting up conv_u2b-c
I0427 16:20:42.673828 13425 net.cpp:157] Top shape: 1 256 66 66 (1115136)
I0427 16:20:42.673831 13425 net.cpp:165] Memory required for data: 597851392
I0427 16:20:42.673840 13425 layer_factory.hpp:77] Creating layer relu_u2c
I0427 16:20:42.673847 13425 net.cpp:100] Creating Layer relu_u2c
I0427 16:20:42.673856 13425 net.cpp:434] relu_u2c <- u2c
I0427 16:20:42.673861 13425 net.cpp:395] relu_u2c -> u2c (in-place)
I0427 16:20:42.674916 13425 net.cpp:150] Setting up relu_u2c
I0427 16:20:42.674932 13425 net.cpp:157] Top shape: 1 256 66 66 (1115136)
I0427 16:20:42.674937 13425 net.cpp:165] Memory required for data: 602311936
I0427 16:20:42.674942 13425 layer_factory.hpp:77] Creating layer conv_u2c-d
I0427 16:20:42.674952 13425 net.cpp:100] Creating Layer conv_u2c-d
I0427 16:20:42.674957 13425 net.cpp:434] conv_u2c-d <- u2c
I0427 16:20:42.674964 13425 net.cpp:408] conv_u2c-d -> u2d
I0427 16:20:42.680564 13425 net.cpp:150] Setting up conv_u2c-d
I0427 16:20:42.680599 13425 net.cpp:157] Top shape: 1 256 64 64 (1048576)
I0427 16:20:42.680604 13425 net.cpp:165] Memory required for data: 606506240
I0427 16:20:42.680613 13425 layer_factory.hpp:77] Creating layer relu_u2d
I0427 16:20:42.680619 13425 net.cpp:100] Creating Layer relu_u2d
I0427 16:20:42.680624 13425 net.cpp:434] relu_u2d <- u2d
I0427 16:20:42.680629 13425 net.cpp:395] relu_u2d -> u2d (in-place)
I0427 16:20:42.680858 13425 net.cpp:150] Setting up relu_u2d
I0427 16:20:42.680871 13425 net.cpp:157] Top shape: 1 256 64 64 (1048576)
I0427 16:20:42.680873 13425 net.cpp:165] Memory required for data: 610700544
I0427 16:20:42.680876 13425 layer_factory.hpp:77] Creating layer upconv_u2d_u1a
I0427 16:20:42.680886 13425 net.cpp:100] Creating Layer upconv_u2d_u1a
I0427 16:20:42.680889 13425 net.cpp:434] upconv_u2d_u1a <- u2d
I0427 16:20:42.680896 13425 net.cpp:408] upconv_u2d_u1a -> u1a
I0427 16:20:42.683248 13425 net.cpp:150] Setting up upconv_u2d_u1a
I0427 16:20:42.683267 13425 net.cpp:157] Top shape: 1 128 128 128 (2097152)
I0427 16:20:42.683270 13425 net.cpp:165] Memory required for data: 619089152
I0427 16:20:42.683284 13425 layer_factory.hpp:77] Creating layer relu_u1a
I0427 16:20:42.683291 13425 net.cpp:100] Creating Layer relu_u1a
I0427 16:20:42.683296 13425 net.cpp:434] relu_u1a <- u1a
I0427 16:20:42.683302 13425 net.cpp:395] relu_u1a -> u1a (in-place)
I0427 16:20:42.683538 13425 net.cpp:150] Setting up relu_u1a
I0427 16:20:42.683550 13425 net.cpp:157] Top shape: 1 128 128 128 (2097152)
I0427 16:20:42.683554 13425 net.cpp:165] Memory required for data: 627477760
I0427 16:20:42.683558 13425 layer_factory.hpp:77] Creating layer u1a_relu_u1a_0_split
I0427 16:20:42.683564 13425 net.cpp:100] Creating Layer u1a_relu_u1a_0_split
I0427 16:20:42.683568 13425 net.cpp:434] u1a_relu_u1a_0_split <- u1a
I0427 16:20:42.683575 13425 net.cpp:408] u1a_relu_u1a_0_split -> u1a_relu_u1a_0_split_0
I0427 16:20:42.683583 13425 net.cpp:408] u1a_relu_u1a_0_split -> u1a_relu_u1a_0_split_1
I0427 16:20:42.683639 13425 net.cpp:150] Setting up u1a_relu_u1a_0_split
I0427 16:20:42.683647 13425 net.cpp:157] Top shape: 1 128 128 128 (2097152)
I0427 16:20:42.683655 13425 net.cpp:157] Top shape: 1 128 128 128 (2097152)
I0427 16:20:42.683658 13425 net.cpp:165] Memory required for data: 644254976
I0427 16:20:42.683661 13425 layer_factory.hpp:77] Creating layer crop_d1c-d1cc
I0427 16:20:42.683668 13425 net.cpp:100] Creating Layer crop_d1c-d1cc
I0427 16:20:42.683672 13425 net.cpp:434] crop_d1c-d1cc <- d1c_relu_d1c_0_split_1
I0427 16:20:42.683677 13425 net.cpp:434] crop_d1c-d1cc <- u1a_relu_u1a_0_split_0
I0427 16:20:42.683682 13425 net.cpp:408] crop_d1c-d1cc -> d1cc
I0427 16:20:42.683712 13425 net.cpp:150] Setting up crop_d1c-d1cc
I0427 16:20:42.683720 13425 net.cpp:157] Top shape: 1 128 128 128 (2097152)
I0427 16:20:42.683723 13425 net.cpp:165] Memory required for data: 652643584
I0427 16:20:42.683727 13425 layer_factory.hpp:77] Creating layer concat_d1cc_u1a-b
I0427 16:20:42.683732 13425 net.cpp:100] Creating Layer concat_d1cc_u1a-b
I0427 16:20:42.683735 13425 net.cpp:434] concat_d1cc_u1a-b <- u1a_relu_u1a_0_split_1
I0427 16:20:42.683740 13425 net.cpp:434] concat_d1cc_u1a-b <- d1cc
I0427 16:20:42.683745 13425 net.cpp:408] concat_d1cc_u1a-b -> u1b
I0427 16:20:42.683773 13425 net.cpp:150] Setting up concat_d1cc_u1a-b
I0427 16:20:42.683782 13425 net.cpp:157] Top shape: 1 256 128 128 (4194304)
I0427 16:20:42.683784 13425 net.cpp:165] Memory required for data: 669420800
I0427 16:20:42.683787 13425 layer_factory.hpp:77] Creating layer conv_u1b-c
I0427 16:20:42.683797 13425 net.cpp:100] Creating Layer conv_u1b-c
I0427 16:20:42.683802 13425 net.cpp:434] conv_u1b-c <- u1b
I0427 16:20:42.683807 13425 net.cpp:408] conv_u1b-c -> u1c
I0427 16:20:42.686187 13425 net.cpp:150] Setting up conv_u1b-c
I0427 16:20:42.686198 13425 net.cpp:157] Top shape: 1 128 126 126 (2032128)
I0427 16:20:42.686203 13425 net.cpp:165] Memory required for data: 677549312
I0427 16:20:42.686208 13425 layer_factory.hpp:77] Creating layer relu_u1c
I0427 16:20:42.686214 13425 net.cpp:100] Creating Layer relu_u1c
I0427 16:20:42.686234 13425 net.cpp:434] relu_u1c <- u1c
I0427 16:20:42.686242 13425 net.cpp:395] relu_u1c -> u1c (in-place)
I0427 16:20:42.686472 13425 net.cpp:150] Setting up relu_u1c
I0427 16:20:42.686486 13425 net.cpp:157] Top shape: 1 128 126 126 (2032128)
I0427 16:20:42.686488 13425 net.cpp:165] Memory required for data: 685677824
I0427 16:20:42.686492 13425 layer_factory.hpp:77] Creating layer conv_u1c-d
I0427 16:20:42.686501 13425 net.cpp:100] Creating Layer conv_u1c-d
I0427 16:20:42.686506 13425 net.cpp:434] conv_u1c-d <- u1c
I0427 16:20:42.686512 13425 net.cpp:408] conv_u1c-d -> u1d
I0427 16:20:42.688967 13425 net.cpp:150] Setting up conv_u1c-d
I0427 16:20:42.688985 13425 net.cpp:157] Top shape: 1 128 124 124 (1968128)
I0427 16:20:42.688989 13425 net.cpp:165] Memory required for data: 693550336
I0427 16:20:42.688997 13425 layer_factory.hpp:77] Creating layer relu_u1d
I0427 16:20:42.689003 13425 net.cpp:100] Creating Layer relu_u1d
I0427 16:20:42.689012 13425 net.cpp:434] relu_u1d <- u1d
I0427 16:20:42.689018 13425 net.cpp:395] relu_u1d -> u1d (in-place)
I0427 16:20:42.690073 13425 net.cpp:150] Setting up relu_u1d
I0427 16:20:42.690090 13425 net.cpp:157] Top shape: 1 128 124 124 (1968128)
I0427 16:20:42.690093 13425 net.cpp:165] Memory required for data: 701422848
I0427 16:20:42.690098 13425 layer_factory.hpp:77] Creating layer upconv_u1d_u0a
I0427 16:20:42.690106 13425 net.cpp:100] Creating Layer upconv_u1d_u0a
I0427 16:20:42.690111 13425 net.cpp:434] upconv_u1d_u0a <- u1d
I0427 16:20:42.690119 13425 net.cpp:408] upconv_u1d_u0a -> u0a
I0427 16:20:42.690974 13425 net.cpp:150] Setting up upconv_u1d_u0a
I0427 16:20:42.690985 13425 net.cpp:157] Top shape: 1 128 248 248 (7872512)
I0427 16:20:42.690989 13425 net.cpp:165] Memory required for data: 732912896
I0427 16:20:42.690996 13425 layer_factory.hpp:77] Creating layer relu_u0a
I0427 16:20:42.691002 13425 net.cpp:100] Creating Layer relu_u0a
I0427 16:20:42.691005 13425 net.cpp:434] relu_u0a <- u0a
I0427 16:20:42.691011 13425 net.cpp:395] relu_u0a -> u0a (in-place)
I0427 16:20:42.691224 13425 net.cpp:150] Setting up relu_u0a
I0427 16:20:42.691236 13425 net.cpp:157] Top shape: 1 128 248 248 (7872512)
I0427 16:20:42.691238 13425 net.cpp:165] Memory required for data: 764402944
I0427 16:20:42.691243 13425 layer_factory.hpp:77] Creating layer u0a_relu_u0a_0_split
I0427 16:20:42.691248 13425 net.cpp:100] Creating Layer u0a_relu_u0a_0_split
I0427 16:20:42.691252 13425 net.cpp:434] u0a_relu_u0a_0_split <- u0a
I0427 16:20:42.691258 13425 net.cpp:408] u0a_relu_u0a_0_split -> u0a_relu_u0a_0_split_0
I0427 16:20:42.691267 13425 net.cpp:408] u0a_relu_u0a_0_split -> u0a_relu_u0a_0_split_1
I0427 16:20:42.691320 13425 net.cpp:150] Setting up u0a_relu_u0a_0_split
I0427 16:20:42.691329 13425 net.cpp:157] Top shape: 1 128 248 248 (7872512)
I0427 16:20:42.691334 13425 net.cpp:157] Top shape: 1 128 248 248 (7872512)
I0427 16:20:42.691336 13425 net.cpp:165] Memory required for data: 827383040
I0427 16:20:42.691339 13425 layer_factory.hpp:77] Creating layer crop_d0c-d0cc
I0427 16:20:42.691346 13425 net.cpp:100] Creating Layer crop_d0c-d0cc
I0427 16:20:42.691349 13425 net.cpp:434] crop_d0c-d0cc <- d0c_relu_d0c_0_split_1
I0427 16:20:42.691355 13425 net.cpp:434] crop_d0c-d0cc <- u0a_relu_u0a_0_split_0
I0427 16:20:42.691361 13425 net.cpp:408] crop_d0c-d0cc -> d0cc
I0427 16:20:42.691393 13425 net.cpp:150] Setting up crop_d0c-d0cc
I0427 16:20:42.691408 13425 net.cpp:157] Top shape: 1 64 248 248 (3936256)
I0427 16:20:42.691412 13425 net.cpp:165] Memory required for data: 843128064
I0427 16:20:42.691416 13425 layer_factory.hpp:77] Creating layer concat_d0cc_u0a-b
I0427 16:20:42.691421 13425 net.cpp:100] Creating Layer concat_d0cc_u0a-b
I0427 16:20:42.691424 13425 net.cpp:434] concat_d0cc_u0a-b <- u0a_relu_u0a_0_split_1
I0427 16:20:42.691429 13425 net.cpp:434] concat_d0cc_u0a-b <- d0cc
I0427 16:20:42.691434 13425 net.cpp:408] concat_d0cc_u0a-b -> u0b
I0427 16:20:42.691462 13425 net.cpp:150] Setting up concat_d0cc_u0a-b
I0427 16:20:42.691468 13425 net.cpp:157] Top shape: 1 192 248 248 (11808768)
I0427 16:20:42.691498 13425 net.cpp:165] Memory required for data: 890363136
I0427 16:20:42.691500 13425 layer_factory.hpp:77] Creating layer conv_u0b-c
I0427 16:20:42.691510 13425 net.cpp:100] Creating Layer conv_u0b-c
I0427 16:20:42.691519 13425 net.cpp:434] conv_u0b-c <- u0b
I0427 16:20:42.691525 13425 net.cpp:408] conv_u0b-c -> u0c
I0427 16:20:42.692678 13425 net.cpp:150] Setting up conv_u0b-c
I0427 16:20:42.692688 13425 net.cpp:157] Top shape: 1 64 246 246 (3873024)
I0427 16:20:42.692692 13425 net.cpp:165] Memory required for data: 905855232
I0427 16:20:42.692699 13425 layer_factory.hpp:77] Creating layer relu_u0c
I0427 16:20:42.692705 13425 net.cpp:100] Creating Layer relu_u0c
I0427 16:20:42.692708 13425 net.cpp:434] relu_u0c <- u0c
I0427 16:20:42.692713 13425 net.cpp:395] relu_u0c -> u0c (in-place)
I0427 16:20:42.692937 13425 net.cpp:150] Setting up relu_u0c
I0427 16:20:42.692948 13425 net.cpp:157] Top shape: 1 64 246 246 (3873024)
I0427 16:20:42.692951 13425 net.cpp:165] Memory required for data: 921347328
I0427 16:20:42.692955 13425 layer_factory.hpp:77] Creating layer conv_u0c-d
I0427 16:20:42.692965 13425 net.cpp:100] Creating Layer conv_u0c-d
I0427 16:20:42.692968 13425 net.cpp:434] conv_u0c-d <- u0c
I0427 16:20:42.692975 13425 net.cpp:408] conv_u0c-d -> u0d
I0427 16:20:42.693629 13425 net.cpp:150] Setting up conv_u0c-d
I0427 16:20:42.693639 13425 net.cpp:157] Top shape: 1 64 244 244 (3810304)
I0427 16:20:42.693642 13425 net.cpp:165] Memory required for data: 936588544
I0427 16:20:42.693650 13425 layer_factory.hpp:77] Creating layer relu_u0d
I0427 16:20:42.693663 13425 net.cpp:100] Creating Layer relu_u0d
I0427 16:20:42.693668 13425 net.cpp:434] relu_u0d <- u0d
I0427 16:20:42.693673 13425 net.cpp:395] relu_u0d -> u0d (in-place)
I0427 16:20:42.693891 13425 net.cpp:150] Setting up relu_u0d
I0427 16:20:42.693902 13425 net.cpp:157] Top shape: 1 64 244 244 (3810304)
I0427 16:20:42.693905 13425 net.cpp:165] Memory required for data: 951829760
I0427 16:20:42.693909 13425 layer_factory.hpp:77] Creating layer conv_u0d-score
I0427 16:20:42.693918 13425 net.cpp:100] Creating Layer conv_u0d-score
I0427 16:20:42.693922 13425 net.cpp:434] conv_u0d-score <- u0d
I0427 16:20:42.693928 13425 net.cpp:408] conv_u0d-score -> score
I0427 16:20:42.694303 13425 net.cpp:150] Setting up conv_u0d-score
I0427 16:20:42.694311 13425 net.cpp:157] Top shape: 1 3 244 244 (178608)
I0427 16:20:42.694314 13425 net.cpp:165] Memory required for data: 952544192
I0427 16:20:42.694321 13425 layer_factory.hpp:77] Creating layer softmax
I0427 16:20:42.694327 13425 net.cpp:100] Creating Layer softmax
I0427 16:20:42.694330 13425 net.cpp:434] softmax <- score
I0427 16:20:42.694336 13425 net.cpp:408] softmax -> softmax_out
I0427 16:20:42.695461 13425 net.cpp:150] Setting up softmax
I0427 16:20:42.695477 13425 net.cpp:157] Top shape: 1 3 244 244 (178608)
I0427 16:20:42.695482 13425 net.cpp:165] Memory required for data: 953258624
I0427 16:20:42.695485 13425 layer_factory.hpp:77] Creating layer reshapelab
I0427 16:20:42.695494 13425 net.cpp:100] Creating Layer reshapelab
I0427 16:20:42.695498 13425 net.cpp:434] reshapelab <- label
I0427 16:20:42.695505 13425 net.cpp:408] reshapelab -> label_flat
I0427 16:20:42.695544 13425 net.cpp:150] Setting up reshapelab
I0427 16:20:42.695550 13425 net.cpp:157] Top shape: 1 59536 (59536)
I0427 16:20:42.695554 13425 net.cpp:165] Memory required for data: 953496768
I0427 16:20:42.695556 13425 layer_factory.hpp:77] Creating layer reshaperes
I0427 16:20:42.695561 13425 net.cpp:100] Creating Layer reshaperes
I0427 16:20:42.695565 13425 net.cpp:434] reshaperes <- softmax_out
I0427 16:20:42.695571 13425 net.cpp:408] reshaperes -> softmax_out_flat
I0427 16:20:42.695602 13425 net.cpp:150] Setting up reshaperes
I0427 16:20:42.695608 13425 net.cpp:157] Top shape: 1 3 59536 (178608)
I0427 16:20:42.695612 13425 net.cpp:165] Memory required for data: 954211200
I0427 16:20:42.695614 13425 layer_factory.hpp:77] Creating layer loss
I0427 16:20:42.695665 13425 net.cpp:100] Creating Layer loss
I0427 16:20:42.695674 13425 net.cpp:434] loss <- softmax_out_flat
I0427 16:20:42.695698 13425 net.cpp:434] loss <- label_flat
I0427 16:20:42.695705 13425 net.cpp:408] loss -> loss
I0427 16:20:42.697156 13425 net.cpp:150] Setting up loss
I0427 16:20:42.697168 13425 net.cpp:157] Top shape: 3 (3)
I0427 16:20:42.697172 13425 net.cpp:160]     with loss weight 1
I0427 16:20:42.697182 13425 net.cpp:165] Memory required for data: 954211212
I0427 16:20:42.697185 13425 net.cpp:226] loss needs backward computation.
I0427 16:20:42.697190 13425 net.cpp:226] reshaperes needs backward computation.
I0427 16:20:42.697196 13425 net.cpp:228] reshapelab does not need backward computation.
I0427 16:20:42.697201 13425 net.cpp:226] softmax needs backward computation.
…
