…
I0428 19:51:20.404106   966 upgrade_proto.cpp:80] Successfully upgraded batch norm layers using deprecated params.
I0428 19:51:20.404274   966 net.cpp:322] The NetState phase (0) differed from the phase (1) specified by a rule in layer loaddata
I0428 19:51:20.404999   966 net.cpp:58] Initializing net from parameters: 
name: "unet_weighted_batchnorm_3"
force_backward: true
state {
  phase: TRAIN
}
layer {
  name: "loaddata"
  type: "HDF5Data"
  top: "data"
  top: "label"
  top: "weights"
  include {
    phase: TRAIN
  }
  hdf5_data_param {
    source: "caffeHDF5_3.txt"
    batch_size: 2
  }
}
layer {
  name: "conv_d0a-b"
  type: "Convolution"
  bottom: "data"
  top: "d0b"
  param {
    lr_mult: 1
    decay_mult: 1
  }
  param {
    lr_mult: 2
    decay_mult: 0
  }
  convolution_param {
    num_output: 64
    pad: 0
    kernel_size: 3
    weight_filler {
      type: "xavier"
    }
    engine: CAFFE
  }
}
layer {
  name: "bn_d0b"
  type: "BatchNorm"
  bottom: "d0b"
  top: "d0b"
  batch_norm_param {
    use_global_stats: false
    moving_average_fraction: 0.999
    eps: 1e-05
  }
}
layer {
  name: "sc_d0b"
  type: "Scale"
  bottom: "d0b"
  top: "d0b"
  scale_param {
    axis: 1
    filler {
      type: "constant"
      value: 1
    }
    bias_term: true
    bias_filler {
      type: "constant"
      value: 0
    }
  }
}
layer {
  name: "relu_d0b"
  type: "ReLU"
  bottom: "d0b"
  top: "d0b"
}
layer {
  name: "conv_d0b-c"
  type: "Convolution"
  bottom: "d0b"
  top: "d0c"
  param {
    lr_mult: 1
    decay_mult: 1
  }
  param {
    lr_mult: 2
    decay_mult: 0
  }
  convolution_param {
    num_output: 64
    pad: 0
    kernel_size: 3
    weight_filler {
      type: "xavier"
    }
    engine: CAFFE
  }
}
layer {
  name: "bn_d0c"
  type: "BatchNorm"
  bottom: "d0c"
  top: "d0c"
  batch_norm_param {
    use_global_stats: false
    moving_average_fraction: 0.999
    eps: 1e-05
  }
}
layer {
  name: "sc_d0c"
  type: "Scale"
  bottom: "d0c"
  top: "d0c"
  scale_param {
    axis: 1
    filler {
      type: "constant"
      value: 1
    }
    bias_term: true
    bias_filler {
      type: "constant"
      value: 0
    }
  }
}
layer {
  name: "relu_d0c"
  type: "ReLU"
  bottom: "d0c"
  top: "d0c"
}
layer {
  name: "pool_d0c-1a"
  type: "Pooling"
  bottom: "d0c"
  top: "d1a"
  pooling_param {
    pool: MAX
    kernel_size: 2
    stride: 2
  }
}
layer {
  name: "conv_d1a-b"
  type: "Convolution"
  bottom: "d1a"
  top: "d1b"
  param {
    lr_mult: 1
    decay_mult: 1
  }
  param {
    lr_mult: 2
    decay_mult: 0
  }
  convolution_param {
    num_output: 128
    pad: 0
    kernel_size: 3
    weight_filler {
      type: "xavier"
    }
    engine: CAFFE
  }
}
layer {
  name: "bn_d1b"
  type: "BatchNorm"
  bottom: "d1b"
  top: "d1b"
  batch_norm_param {
    use_global_stats: false
    moving_average_fraction: 0.999
    eps: 1e-05
  }
}
layer {
  name: "sc_d1b"
  type: "Scale"
  bottom: "d1b"
  top: "d1b"
  scale_param {
    axis: 1
    filler {
      type: "constant"
      value: 1
    }
    bias_term: true
    bias_filler {
      type: "constant"
      value: 0
    }
  }
}
layer {
  name: "relu_d1b"
  type: "ReLU"
  bottom: "d1b"
  top: "d1b"
}
layer {
  name: "conv_d1b-c"
  type: "Convolution"
  bottom: "d1b"
  top: "d1c"
  param {
    lr_mult: 1
    decay_mult: 1
  }
  param {
    lr_mult: 2
    decay_mult: 0
  }
  convolution_param {
    num_output: 128
    pad: 0
    kernel_size: 3
    weight_filler {
      type: "xavier"
    }
    engine: CAFFE
  }
}
layer {
  name: "bn_d1c"
  type: "BatchNorm"
  bottom: "d1c"
  top: "d1c"
  batch_norm_param {
    use_global_stats: false
    moving_average_fraction: 0.999
    eps: 1e-05
  }
}
layer {
  name: "sc_d1c"
  type: "Scale"
  bottom: "d1c"
  top: "d1c"
  scale_param {
    axis: 1
    filler {
      type: "constant"
      value: 1
    }
    bias_term: true
    bias_filler {
      type: "constant"
      value: 0
    }
  }
}
layer {
  name: "relu_d1c"
  type: "ReLU"
  bottom: "d1c"
  top: "d1c"
}
layer {
  name: "pool_d1c-2a"
  type: "Pooling"
  bottom: "d1c"
  top: "d2a"
  pooling_param {
    pool: MAX
    kernel_size: 2
    stride: 2
  }
}
layer {
  name: "conv_d2a-b"
  type: "Convolution"
  bottom: "d2a"
  top: "d2b"
  param {
    lr_mult: 1
    decay_mult: 1
  }
  param {
    lr_mult: 2
    decay_mult: 0
  }
  convolution_param {
    num_output: 256
    pad: 0
    kernel_size: 3
    weight_filler {
      type: "xavier"
    }
    engine: CAFFE
  }
}
layer {
  name: "bn_d2b"
  type: "BatchNorm"
  bottom: "d2b"
  top: "d2b"
  batch_norm_param {
    use_global_stats: false
    moving_average_fraction: 0.999
    eps: 1e-05
  }
}
layer {
  name: "sc_d2b"
  type: "Scale"
  bottom: "d2b"
  top: "d2b"
  scale_param {
    axis: 1
    filler {
      type: "constant"
      value: 1
    }
    bias_term: true
    bias_filler {
      type: "constant"
      value: 0
    }
  }
}
layer {
  name: "relu_d2b"
  type: "ReLU"
  bottom: "d2b"
  top: "d2b"
}
layer {
  name: "conv_d2b-c"
  type: "Convolution"
  bottom: "d2b"
  top: "d2c"
  param {
    lr_mult: 1
    decay_mult: 1
  }
  param {
    lr_mult: 2
    decay_mult: 0
  }
  convolution_param {
    num_output: 256
    pad: 0
    kernel_size: 3
    weight_filler {
      type: "xavier"
    }
    engine: CAFFE
  }
}
layer {
  name: "bn_d2c"
  type: "BatchNorm"
  bottom: "d2c"
  top: "d2c"
  batch_norm_param {
    use_global_stats: false
    moving_average_fraction: 0.999
    eps: 1e-05
  }
}
layer {
  name: "sc_d2c"
  type: "Scale"
  bottom: "d2c"
  top: "d2c"
  scale_param {
    axis: 1
    filler {
      type: "constant"
      value: 1
    }
    bias_term: true
    bias_filler {
      type: "constant"
      value: 0
    }
  }
}
layer {
  name: "relu_d2c"
  type: "ReLU"
  bottom: "d2c"
  top: "d2c"
}
layer {
  name: "pool_d2c-3a"
  type: "Pooling"
  bottom: "d2c"
  top: "d3a"
  pooling_param {
    pool: MAX
    kernel_size: 2
    stride: 2
  }
}
layer {
  name: "conv_d3a-b"
  type: "Convolution"
  bottom: "d3a"
  top: "d3b"
  param {
    lr_mult: 1
    decay_mult: 1
  }
  param {
    lr_mult: 2
    decay_mult: 0
  }
  convolution_param {
    num_output: 512
    pad: 0
    kernel_size: 3
    weight_filler {
      type: "xavier"
    }
    engine: CAFFE
  }
}
layer {
  name: "bn_d3b"
  type: "BatchNorm"
  bottom: "d3b"
  top: "d3b"
  batch_norm_param {
    use_global_stats: false
    moving_average_fraction: 0.999
    eps: 1e-05
  }
}
layer {
  name: "sc_d3b"
  type: "Scale"
  bottom: "d3b"
  top: "d3b"
  scale_param {
    axis: 1
    filler {
      type: "constant"
      value: 1
    }
    bias_term: true
    bias_filler {
      type: "constant"
      value: 0
    }
  }
}
layer {
  name: "relu_d3b"
  type: "ReLU"
  bottom: "d3b"
  top: "d3b"
}
layer {
  name: "conv_d3b-c"
  type: "Convolution"
  bottom: "d3b"
  top: "d3c"
  param {
    lr_mult: 1
    decay_mult: 1
  }
  param {
    lr_mult: 2
    decay_mult: 0
  }
  convolution_param {
    num_output: 512
    pad: 0
    kernel_size: 3
    weight_filler {
      type: "xavier"
    }
    engine: CAFFE
  }
}
layer {
  name: "bn_d3c"
  type: "BatchNorm"
  bottom: "d3c"
  top: "d3c"
  batch_norm_param {
    use_global_stats: false
    moving_average_fraction: 0.999
    eps: 1e-05
  }
}
layer {
  name: "sc_d3c"
  type: "Scale"
  bottom: "d3c"
  top: "d3c"
  scale_param {
    axis: 1
    filler {
      type: "constant"
      value: 1
    }
    bias_term: true
    bias_filler {
      type: "constant"
      value: 0
    }
  }
}
layer {
  name: "relu_d3c"
  type: "ReLU"
  bottom: "d3c"
  top: "d3c"
}
layer {
  name: "pool_d3c-4a"
  type: "Pooling"
  bottom: "d3c"
  top: "d4a"
  pooling_param {
    pool: MAX
    kernel_size: 2
    stride: 2
  }
}
layer {
  name: "conv_d4a-b"
  type: "Convolution"
  bottom: "d4a"
  top: "d4b"
  param {
    lr_mult: 1
    decay_mult: 1
  }
  param {
    lr_mult: 2
    decay_mult: 0
  }
  convolution_param {
    num_output: 1024
    pad: 0
    kernel_size: 3
    weight_filler {
      type: "xavier"
    }
    engine: CAFFE
  }
}
layer {
  name: "bn_d4b"
  type: "BatchNorm"
  bottom: "d4b"
  top: "d4b"
  batch_norm_param {
    use_global_stats: false
    moving_average_fraction: 0.999
    eps: 1e-05
  }
}
layer {
  name: "sc_d4b"
  type: "Scale"
  bottom: "d4b"
  top: "d4b"
  scale_param {
    axis: 1
    filler {
      type: "constant"
      value: 1
    }
    bias_term: true
    bias_filler {
      type: "constant"
      value: 0
    }
  }
}
layer {
  name: "relu_d4b"
  type: "ReLU"
  bottom: "d4b"
  top: "d4b"
}
layer {
  name: "conv_d4b-c"
  type: "Convolution"
  bottom: "d4b"
  top: "d4c"
  param {
    lr_mult: 1
    decay_mult: 1
  }
  param {
    lr_mult: 2
    decay_mult: 0
  }
  convolution_param {
    num_output: 1024
    pad: 0
    kernel_size: 3
    weight_filler {
      type: "xavier"
    }
    engine: CAFFE
  }
}
layer {
  name: "bn_d4c"
  type: "BatchNorm"
  bottom: "d4c"
  top: "d4c"
  batch_norm_param {
    use_global_stats: false
    moving_average_fraction: 0.999
    eps: 1e-05
  }
}
layer {
  name: "sc_d4c"
  type: "Scale"
  bottom: "d4c"
  top: "d4c"
  scale_param {
    axis: 1
    filler {
      type: "constant"
      value: 1
    }
    bias_term: true
    bias_filler {
      type: "constant"
      value: 0
    }
  }
}
layer {
  name: "relu_d4c"
  type: "ReLU"
  bottom: "d4c"
  top: "d4c"
}
layer {
  name: "upconv_d4c_u3a"
  type: "Deconvolution"
  bottom: "d4c"
  top: "u3a"
  param {
    lr_mult: 1
    decay_mult: 1
  }
  param {
    lr_mult: 2
    decay_mult: 0
  }
  convolution_param {
    num_output: 512
    pad: 0
    kernel_size: 2
    stride: 2
    weight_filler {
      type: "xavier"
    }
  }
}
layer {
  name: "bn_u3a"
  type: "BatchNorm"
  bottom: "u3a"
  top: "u3a"
  batch_norm_param {
    use_global_stats: false
    moving_average_fraction: 0.999
    eps: 1e-05
  }
}
layer {
  name: "sc_u3a"
  type: "Scale"
  bottom: "u3a"
  top: "u3a"
  scale_param {
    axis: 1
    filler {
      type: "constant"
      value: 1
    }
    bias_term: true
    bias_filler {
      type: "constant"
      value: 0
    }
  }
}
layer {
  name: "relu_u3a"
  type: "ReLU"
  bottom: "u3a"
  top: "u3a"
}
layer {
  name: "crop_d3c-d3cc"
  type: "Crop"
  bottom: "d3c"
  bottom: "u3a"
  top: "d3cc"
  crop_param {
    axis: 2
    offset: 4
  }
}
layer {
  name: "concat_d3cc_u3a-b"
  type: "Concat"
  bottom: "u3a"
  bottom: "d3cc"
  top: "u3b"
}
layer {
  name: "conv_u3b-c"
  type: "Convolution"
  bottom: "u3b"
  top: "u3c"
  param {
    lr_mult: 1
    decay_mult: 1
  }
  param {
    lr_mult: 2
    decay_mult: 0
  }
  convolution_param {
    num_output: 512
    pad: 0
    kernel_size: 3
    weight_filler {
      type: "xavier"
    }
    engine: CAFFE
  }
}
layer {
  name: "bn_u3c"
  type: "BatchNorm"
  bottom: "u3c"
  top: "u3c"
  batch_norm_param {
    use_global_stats: false
    moving_average_fraction: 0.999
    eps: 1e-05
  }
}
layer {
  name: "sc_u3c"
  type: "Scale"
  bottom: "u3c"
  top: "u3c"
  scale_param {
    axis: 1
    filler {
      type: "constant"
      value: 1
    }
    bias_term: true
    bias_filler {
      type: "constant"
      value: 0
    }
  }
}
layer {
  name: "relu_u3c"
  type: "ReLU"
  bottom: "u3c"
  top: "u3c"
}
layer {
  name: "conv_u3c-d"
  type: "Convolution"
  bottom: "u3c"
  top: "u3d"
  param {
    lr_mult: 1
    decay_mult: 1
  }
  param {
    lr_mult: 2
    decay_mult: 0
  }
  convolution_param {
    num_output: 512
    pad: 0
    kernel_size: 3
    weight_filler {
      type: "xavier"
    }
    engine: CAFFE
  }
}
layer {
  name: "bn_u3d"
  type: "BatchNorm"
  bottom: "u3d"
  top: "u3d"
  batch_norm_param {
    use_global_stats: false
    moving_average_fraction: 0.999
    eps: 1e-05
  }
}
layer {
  name: "sc_u3d"
  type: "Scale"
  bottom: "u3d"
  top: "u3d"
  scale_param {
    axis: 1
    filler {
      type: "constant"
      value: 1
    }
    bias_term: true
    bias_filler {
      type: "constant"
      value: 0
    }
  }
}
layer {
  name: "relu_u3d"
  type: "ReLU"
  bottom: "u3d"
  top: "u3d"
}
layer {
  name: "upconv_u3d_u2a"
  type: "Deconvolution"
  bottom: "u3d"
  top: "u2a"
  param {
    lr_mult: 1
    decay_mult: 1
  }
  param {
    lr_mult: 2
    decay_mult: 0
  }
  convolution_param {
    num_output: 256
    pad: 0
    kernel_size: 2
    stride: 2
    weight_filler {
      type: "xavier"
    }
  }
}
layer {
  name: "bn_u2a"
  type: "BatchNorm"
  bottom: "u2a"
  top: "u2a"
  batch_norm_param {
    use_global_stats: false
    moving_average_fraction: 0.999
    eps: 1e-05
  }
}
layer {
  name: "sc_u2a"
  type: "Scale"
  bottom: "u2a"
  top: "u2a"
  scale_param {
    axis: 1
    filler {
      type: "constant"
      value: 1
    }
    bias_term: true
    bias_filler {
      type: "constant"
      value: 0
    }
  }
}
layer {
  name: "relu_u2a"
  type: "ReLU"
  bottom: "u2a"
  top: "u2a"
}
layer {
  name: "crop_d2c-d2cc"
  type: "Crop"
  bottom: "d2c"
  bottom: "u2a"
  top: "d2cc"
  crop_param {
    axis: 2
    offset: 16
  }
}
layer {
  name: "concat_d2cc_u2a-b"
  type: "Concat"
  bottom: "u2a"
  bottom: "d2cc"
  top: "u2b"
}
layer {
  name: "conv_u2b-c"
  type: "Convolution"
  bottom: "u2b"
  top: "u2c"
  param {
    lr_mult: 1
    decay_mult: 1
  }
  param {
    lr_mult: 2
    decay_mult: 0
  }
  convolution_param {
    num_output: 256
    pad: 0
    kernel_size: 3
    weight_filler {
      type: "xavier"
    }
    engine: CAFFE
  }
}
layer {
  name: "bn_u2c"
  type: "BatchNorm"
  bottom: "u2c"
  top: "u2c"
  batch_norm_param {
    use_global_stats: false
    moving_average_fraction: 0.999
    eps: 1e-05
  }
}
layer {
  name: "sc_u2c"
  type: "Scale"
  bottom: "u2c"
  top: "u2c"
  scale_param {
    axis: 1
    filler {
      type: "constant"
      value: 1
    }
    bias_term: true
    bias_filler {
      type: "constant"
      value: 0
    }
  }
}
layer {
  name: "relu_u2c"
  type: "ReLU"
  bottom: "u2c"
  top: "u2c"
}
layer {
  name: "conv_u2c-d"
  type: "Convolution"
  bottom: "u2c"
  top: "u2d"
  param {
    lr_mult: 1
    decay_mult: 1
  }
  param {
    lr_mult: 2
    decay_mult: 0
  }
  convolution_param {
    num_output: 256
    pad: 0
    kernel_size: 3
    weight_filler {
      type: "xavier"
    }
    engine: CAFFE
  }
}
layer {
  name: "bn_u2d"
  type: "BatchNorm"
  bottom: "u2d"
  top: "u2d"
  batch_norm_param {
    use_global_stats: false
    moving_average_fraction: 0.999
    eps: 1e-05
  }
}
layer {
  name: "sc_u2d"
  type: "Scale"
  bottom: "u2d"
  top: "u2d"
  scale_param {
    axis: 1
    filler {
      type: "constant"
      value: 1
    }
    bias_term: true
    bias_filler {
      type: "constant"
      value: 0
    }
  }
}
layer {
  name: "relu_u2d"
  type: "ReLU"
  bottom: "u2d"
  top: "u2d"
}
layer {
  name: "upconv_u2d_u1a"
  type: "Deconvolution"
  bottom: "u2d"
  top: "u1a"
  param {
    lr_mult: 1
    decay_mult: 1
  }
  param {
    lr_mult: 2
    decay_mult: 0
  }
  convolution_param {
    num_output: 128
    pad: 0
    kernel_size: 2
    stride: 2
    weight_filler {
      type: "xavier"
    }
  }
}
layer {
  name: "bn_u1a"
  type: "BatchNorm"
  bottom: "u1a"
  top: "u1a"
  batch_norm_param {
    use_global_stats: false
    moving_average_fraction: 0.999
    eps: 1e-05
  }
}
layer {
  name: "sc_u1a"
  type: "Scale"
  bottom: "u1a"
  top: "u1a"
  scale_param {
    axis: 1
    filler {
      type: "constant"
      value: 1
    }
    bias_term: true
    bias_filler {
      type: "constant"
      value: 0
    }
  }
}
layer {
  name: "relu_u1a"
  type: "ReLU"
  bottom: "u1a"
  top: "u1a"
}
layer {
  name: "crop_d1c-d1cc"
  type: "Crop"
  bottom: "d1c"
  bottom: "u1a"
  top: "d1cc"
  crop_param {
    axis: 2
    offset: 40
  }
}
layer {
  name: "concat_d1cc_u1a-b"
  type: "Concat"
  bottom: "u1a"
  bottom: "d1cc"
  top: "u1b"
}
layer {
  name: "conv_u1b-c"
  type: "Convolution"
  bottom: "u1b"
  top: "u1c"
  param {
    lr_mult: 1
    decay_mult: 1
  }
  param {
    lr_mult: 2
    decay_mult: 0
  }
  convolution_param {
    num_output: 128
    pad: 0
    kernel_size: 3
    weight_filler {
      type: "xavier"
    }
    engine: CAFFE
  }
}
layer {
  name: "bn_u1c"
  type: "BatchNorm"
  bottom: "u1c"
  top: "u1c"
  batch_norm_param {
    use_global_stats: false
    moving_average_fraction: 0.999
    eps: 1e-05
  }
}
layer {
  name: "sc_u1c"
  type: "Scale"
  bottom: "u1c"
  top: "u1c"
  scale_param {
    axis: 1
    filler {
      type: "constant"
      value: 1
    }
    bias_term: true
    bias_filler {
      type: "constant"
      value: 0
    }
  }
}
layer {
  name: "relu_u1c"
  type: "ReLU"
  bottom: "u1c"
  top: "u1c"
}
layer {
  name: "conv_u1c-d"
  type: "Convolution"
  bottom: "u1c"
  top: "u1d"
  param {
    lr_mult: 1
    decay_mult: 1
  }
  param {
    lr_mult: 2
    decay_mult: 0
  }
  convolution_param {
    num_output: 128
    pad: 0
    kernel_size: 3
    weight_filler {
      type: "xavier"
    }
    engine: CAFFE
  }
}
layer {
  name: "bn_u1d"
  type: "BatchNorm"
  bottom: "u1d"
  top: "u1d"
  batch_norm_param {
    use_global_stats: false
    moving_average_fraction: 0.999
    eps: 1e-05
  }
}
layer {
  name: "sc_u1d"
  type: "Scale"
  bottom: "u1d"
  top: "u1d"
  scale_param {
    axis: 1
    filler {
      type: "constant"
      value: 1
    }
    bias_term: true
    bias_filler {
      type: "constant"
      value: 0
    }
  }
}
layer {
  name: "relu_u1d"
  type: "ReLU"
  bottom: "u1d"
  top: "u1d"
}
layer {
  name: "upconv_u1d_u0a"
  type: "Deconvolution"
  bottom: "u1d"
  top: "u0a"
  param {
    lr_mult: 1
    decay_mult: 1
  }
  param {
    lr_mult: 2
    decay_mult: 0
  }
  convolution_param {
    num_output: 128
    pad: 0
    kernel_size: 2
    stride: 2
    weight_filler {
      type: "xavier"
    }
  }
}
layer {
  name: "bn_u0a"
  type: "BatchNorm"
  bottom: "u0a"
  top: "u0a"
  batch_norm_param {
    use_global_stats: false
    moving_average_fraction: 0.999
    eps: 1e-05
  }
}
layer {
  name: "sc_u0a"
  type: "Scale"
  bottom: "u0a"
  top: "u0a"
  scale_param {
    axis: 1
    filler {
      type: "constant"
      value: 1
    }
    bias_term: true
    bias_filler {
      type: "constant"
      value: 0
    }
  }
}
layer {
  name: "relu_u0a"
  type: "ReLU"
  bottom: "u0a"
  top: "u0a"
}
layer {
  name: "crop_d0c-d0cc"
  type: "Crop"
  bottom: "d0c"
  bottom: "u0a"
  top: "d0cc"
  crop_param {
    axis: 2
    offset: 88
  }
}
layer {
  name: "concat_d0cc_u0a-b"
  type: "Concat"
  bottom: "u0a"
  bottom: "d0cc"
  top: "u0b"
}
layer {
  name: "conv_u0b-c"
  type: "Convolution"
  bottom: "u0b"
  top: "u0c"
  param {
    lr_mult: 1
    decay_mult: 1
  }
  param {
    lr_mult: 2
    decay_mult: 0
  }
  convolution_param {
    num_output: 64
    pad: 0
    kernel_size: 3
    weight_filler {
      type: "xavier"
    }
    engine: CAFFE
  }
}
layer {
  name: "bn_u0c"
  type: "BatchNorm"
  bottom: "u0c"
  top: "u0c"
  batch_norm_param {
    use_global_stats: false
    moving_average_fraction: 0.999
    eps: 1e-05
  }
}
layer {
  name: "sc_u0c"
  type: "Scale"
  bottom: "u0c"
  top: "u0c"
  scale_param {
    axis: 1
    filler {
      type: "constant"
      value: 1
    }
    bias_term: true
    bias_filler {
      type: "constant"
      value: 0
    }
  }
}
layer {
  name: "relu_u0c"
  type: "ReLU"
  bottom: "u0c"
  top: "u0c"
}
layer {
  name: "conv_u0c-d"
  type: "Convolution"
  bottom: "u0c"
  top: "u0d"
  param {
    lr_mult: 1
    decay_mult: 1
  }
  param {
    lr_mult: 2
    decay_mult: 0
  }
  convolution_param {
    num_output: 64
    pad: 0
    kernel_size: 3
    weight_filler {
      type: "xavier"
    }
    engine: CAFFE
  }
}
layer {
  name: "bn_u0d"
  type: "BatchNorm"
  bottom: "u0d"
  top: "u0d"
  batch_norm_param {
    use_global_stats: false
    moving_average_fraction: 0.999
    eps: 1e-05
  }
}
layer {
  name: "sc_u0d"
  type: "Scale"
  bottom: "u0d"
  top: "u0d"
  scale_param {
    axis: 1
    filler {
      type: "constant"
      value: 1
    }
    bias_term: true
    bias_filler {
      type: "constant"
      value: 0
    }
  }
}
layer {
  name: "relu_u0d"
  type: "ReLU"
  bottom: "u0d"
  top: "u0d"
}
layer {
  name: "conv_u0d-score"
  type: "Convolution"
  bottom: "u0d"
  top: "score"
  param {
    lr_mult: 1
    decay_mult: 1
  }
  param {
    lr_mult: 2
    decay_mult: 0
  }
  convolution_param {
    num_output: 3
    pad: 0
    kernel_size: 1
    weight_filler {
      type: "xavier"
    }
    engine: CAFFE
  }
}
layer {
  name: "loss"
  type: "SoftmaxWithLoss"
  bottom: "score"
  bottom: "label"
  bottom: "weights"
  top: "loss"
  loss_weight: 1
}
layer {
  name: "visualize"
  type: "Softmax"
  bottom: "score"
  top: "visualize_out"
  include {
    phase: TRAIN
  }
}
layer {
  name: "fake"
  type: "Silence"
  bottom: "visualize_out"
  include {
    phase: TRAIN
  }
}
I0428 19:51:20.405453   966 layer_factory.hpp:77] Creating layer loaddata
I0428 19:51:20.405464   966 net.cpp:100] Creating Layer loaddata
I0428 19:51:20.405468   966 net.cpp:408] loaddata -> data
I0428 19:51:20.405483   966 net.cpp:408] loaddata -> label
I0428 19:51:20.405488   966 net.cpp:408] loaddata -> weights
I0428 19:51:20.405498   966 hdf5_data_layer.cpp:79] Loading list of HDF5 filenames from: caffeHDF5_3.txt
I0428 19:51:20.408848   966 hdf5_data_layer.cpp:93] Number of HDF5 files: 20
I0428 19:51:20.442777   966 hdf5.cpp:32] Datatype class: H5T_FLOAT
I0428 19:51:34.296852   966 hdf5.cpp:35] Datatype class: H5T_INTEGER
I0428 19:51:36.180227   966 net.cpp:150] Setting up loaddata
I0428 19:51:36.180274   966 net.cpp:157] Top shape: 2 3 428 428 (1099104)
I0428 19:51:36.180284   966 net.cpp:157] Top shape: 2 244 244 (119072)
I0428 19:51:36.180291   966 net.cpp:157] Top shape: 2 244 244 (119072)
I0428 19:51:36.180296   966 net.cpp:165] Memory required for data: 5348992
I0428 19:51:36.180305   966 layer_factory.hpp:77] Creating layer conv_d0a-b
I0428 19:51:36.180341   966 net.cpp:100] Creating Layer conv_d0a-b
I0428 19:51:36.180348   966 net.cpp:434] conv_d0a-b <- data
I0428 19:51:36.180361   966 net.cpp:408] conv_d0a-b -> d0b
I0428 19:51:36.184736   966 net.cpp:150] Setting up conv_d0a-b
I0428 19:51:36.184777   966 net.cpp:157] Top shape: 2 64 426 426 (23228928)
I0428 19:51:36.184782   966 net.cpp:165] Memory required for data: 98264704
I0428 19:51:36.184800   966 layer_factory.hpp:77] Creating layer bn_d0b
I0428 19:51:36.184814   966 net.cpp:100] Creating Layer bn_d0b
I0428 19:51:36.184823   966 net.cpp:434] bn_d0b <- d0b
I0428 19:51:36.184835   966 net.cpp:395] bn_d0b -> d0b (in-place)
I0428 19:51:36.185498   966 net.cpp:150] Setting up bn_d0b
I0428 19:51:36.185514   966 net.cpp:157] Top shape: 2 64 426 426 (23228928)
I0428 19:51:36.185521   966 net.cpp:165] Memory required for data: 191180416
I0428 19:51:36.185540   966 layer_factory.hpp:77] Creating layer sc_d0b
I0428 19:51:36.185554   966 net.cpp:100] Creating Layer sc_d0b
I0428 19:51:36.185559   966 net.cpp:434] sc_d0b <- d0b
I0428 19:51:36.185571   966 net.cpp:395] sc_d0b -> d0b (in-place)
I0428 19:51:36.185641   966 layer_factory.hpp:77] Creating layer sc_d0b
I0428 19:51:36.187938   966 net.cpp:150] Setting up sc_d0b
I0428 19:51:36.187963   966 net.cpp:157] Top shape: 2 64 426 426 (23228928)
I0428 19:51:36.187974   966 net.cpp:165] Memory required for data: 284096128
I0428 19:51:36.187986   966 layer_factory.hpp:77] Creating layer relu_d0b
I0428 19:51:36.187999   966 net.cpp:100] Creating Layer relu_d0b
I0428 19:51:36.188004   966 net.cpp:434] relu_d0b <- d0b
I0428 19:51:36.188014   966 net.cpp:395] relu_d0b -> d0b (in-place)
I0428 19:51:37.488075   966 net.cpp:150] Setting up relu_d0b
I0428 19:51:37.488098   966 net.cpp:157] Top shape: 2 64 426 426 (23228928)
I0428 19:51:37.488101   966 net.cpp:165] Memory required for data: 377011840
I0428 19:51:37.488106   966 layer_factory.hpp:77] Creating layer conv_d0b-c
I0428 19:51:37.488121   966 net.cpp:100] Creating Layer conv_d0b-c
I0428 19:51:37.488123   966 net.cpp:434] conv_d0b-c <- d0b
I0428 19:51:37.488129   966 net.cpp:408] conv_d0b-c -> d0c
I0428 19:51:37.490363   966 net.cpp:150] Setting up conv_d0b-c
I0428 19:51:37.490376   966 net.cpp:157] Top shape: 2 64 424 424 (23011328)
I0428 19:51:37.490380   966 net.cpp:165] Memory required for data: 469057152
I0428 19:51:37.490388   966 layer_factory.hpp:77] Creating layer bn_d0c
I0428 19:51:37.490396   966 net.cpp:100] Creating Layer bn_d0c
I0428 19:51:37.490417   966 net.cpp:434] bn_d0c <- d0c
I0428 19:51:37.490437   966 net.cpp:395] bn_d0c -> d0c (in-place)
I0428 19:51:37.490833   966 net.cpp:150] Setting up bn_d0c
I0428 19:51:37.490842   966 net.cpp:157] Top shape: 2 64 424 424 (23011328)
I0428 19:51:37.490844   966 net.cpp:165] Memory required for data: 561102464
I0428 19:51:37.490866   966 layer_factory.hpp:77] Creating layer sc_d0c
I0428 19:51:37.490872   966 net.cpp:100] Creating Layer sc_d0c
I0428 19:51:37.490876   966 net.cpp:434] sc_d0c <- d0c
I0428 19:51:37.490880   966 net.cpp:395] sc_d0c -> d0c (in-place)
I0428 19:51:37.490924   966 layer_factory.hpp:77] Creating layer sc_d0c
I0428 19:51:37.492295   966 net.cpp:150] Setting up sc_d0c
I0428 19:51:37.492321   966 net.cpp:157] Top shape: 2 64 424 424 (23011328)
I0428 19:51:37.492323   966 net.cpp:165] Memory required for data: 653147776
I0428 19:51:37.492344   966 layer_factory.hpp:77] Creating layer relu_d0c
I0428 19:51:37.492367   966 net.cpp:100] Creating Layer relu_d0c
I0428 19:51:37.492370   966 net.cpp:434] relu_d0c <- d0c
I0428 19:51:37.492374   966 net.cpp:395] relu_d0c -> d0c (in-place)
I0428 19:51:37.493203   966 net.cpp:150] Setting up relu_d0c
I0428 19:51:37.493214   966 net.cpp:157] Top shape: 2 64 424 424 (23011328)
I0428 19:51:37.493217   966 net.cpp:165] Memory required for data: 745193088
I0428 19:51:37.493235   966 layer_factory.hpp:77] Creating layer d0c_relu_d0c_0_split
I0428 19:51:37.493240   966 net.cpp:100] Creating Layer d0c_relu_d0c_0_split
I0428 19:51:37.493242   966 net.cpp:434] d0c_relu_d0c_0_split <- d0c
I0428 19:51:37.493247   966 net.cpp:408] d0c_relu_d0c_0_split -> d0c_relu_d0c_0_split_0
I0428 19:51:37.493252   966 net.cpp:408] d0c_relu_d0c_0_split -> d0c_relu_d0c_0_split_1
I0428 19:51:37.493320   966 net.cpp:150] Setting up d0c_relu_d0c_0_split
I0428 19:51:37.493326   966 net.cpp:157] Top shape: 2 64 424 424 (23011328)
I0428 19:51:37.493330   966 net.cpp:157] Top shape: 2 64 424 424 (23011328)
I0428 19:51:37.493332   966 net.cpp:165] Memory required for data: 929283712
I0428 19:51:37.493335   966 layer_factory.hpp:77] Creating layer pool_d0c-1a
I0428 19:51:37.493340   966 net.cpp:100] Creating Layer pool_d0c-1a
I0428 19:51:37.493343   966 net.cpp:434] pool_d0c-1a <- d0c_relu_d0c_0_split_0
I0428 19:51:37.493347   966 net.cpp:408] pool_d0c-1a -> d1a
I0428 19:51:37.493396   966 net.cpp:150] Setting up pool_d0c-1a
I0428 19:51:37.493402   966 net.cpp:157] Top shape: 2 64 212 212 (5752832)
I0428 19:51:37.493404   966 net.cpp:165] Memory required for data: 952295040
I0428 19:51:37.493407   966 layer_factory.hpp:77] Creating layer conv_d1a-b
I0428 19:51:37.493413   966 net.cpp:100] Creating Layer conv_d1a-b
I0428 19:51:37.493417   966 net.cpp:434] conv_d1a-b <- d1a
I0428 19:51:37.493422   966 net.cpp:408] conv_d1a-b -> d1b
I0428 19:51:37.494123   966 net.cpp:150] Setting up conv_d1a-b
I0428 19:51:37.494132   966 net.cpp:157] Top shape: 2 128 210 210 (11289600)
I0428 19:51:37.494134   966 net.cpp:165] Memory required for data: 997453440
I0428 19:51:37.494154   966 layer_factory.hpp:77] Creating layer bn_d1b
I0428 19:51:37.494159   966 net.cpp:100] Creating Layer bn_d1b
I0428 19:51:37.494171   966 net.cpp:434] bn_d1b <- d1b
I0428 19:51:37.494175   966 net.cpp:395] bn_d1b -> d1b (in-place)
I0428 19:51:37.494395   966 net.cpp:150] Setting up bn_d1b
I0428 19:51:37.494402   966 net.cpp:157] Top shape: 2 128 210 210 (11289600)
I0428 19:51:37.494405   966 net.cpp:165] Memory required for data: 1042611840
I0428 19:51:37.494415   966 layer_factory.hpp:77] Creating layer sc_d1b
I0428 19:51:37.494421   966 net.cpp:100] Creating Layer sc_d1b
I0428 19:51:37.494426   966 net.cpp:434] sc_d1b <- d1b
I0428 19:51:37.494429   966 net.cpp:395] sc_d1b -> d1b (in-place)
I0428 19:51:37.494462   966 layer_factory.hpp:77] Creating layer sc_d1b
I0428 19:51:37.494611   966 net.cpp:150] Setting up sc_d1b
I0428 19:51:37.494619   966 net.cpp:157] Top shape: 2 128 210 210 (11289600)
I0428 19:51:37.494621   966 net.cpp:165] Memory required for data: 1087770240
I0428 19:51:37.494626   966 layer_factory.hpp:77] Creating layer relu_d1b
I0428 19:51:37.494647   966 net.cpp:100] Creating Layer relu_d1b
I0428 19:51:37.494668   966 net.cpp:434] relu_d1b <- d1b
I0428 19:51:37.494673   966 net.cpp:395] relu_d1b -> d1b (in-place)
I0428 19:51:37.494858   966 net.cpp:150] Setting up relu_d1b
I0428 19:51:37.494868   966 net.cpp:157] Top shape: 2 128 210 210 (11289600)
I0428 19:51:37.494869   966 net.cpp:165] Memory required for data: 1132928640
I0428 19:51:37.494873   966 layer_factory.hpp:77] Creating layer conv_d1b-c
I0428 19:51:37.494880   966 net.cpp:100] Creating Layer conv_d1b-c
I0428 19:51:37.494884   966 net.cpp:434] conv_d1b-c <- d1b
I0428 19:51:37.494889   966 net.cpp:408] conv_d1b-c -> d1c
I0428 19:51:37.495978   966 net.cpp:150] Setting up conv_d1b-c
I0428 19:51:37.495986   966 net.cpp:157] Top shape: 2 128 208 208 (11075584)
I0428 19:51:37.495990   966 net.cpp:165] Memory required for data: 1177230976
I0428 19:51:37.495995   966 layer_factory.hpp:77] Creating layer bn_d1c
I0428 19:51:37.496003   966 net.cpp:100] Creating Layer bn_d1c
I0428 19:51:37.496006   966 net.cpp:434] bn_d1c <- d1c
I0428 19:51:37.496011   966 net.cpp:395] bn_d1c -> d1c (in-place)
I0428 19:51:37.496204   966 net.cpp:150] Setting up bn_d1c
I0428 19:51:37.496212   966 net.cpp:157] Top shape: 2 128 208 208 (11075584)
I0428 19:51:37.496215   966 net.cpp:165] Memory required for data: 1221533312
I0428 19:51:37.496222   966 layer_factory.hpp:77] Creating layer sc_d1c
I0428 19:51:37.496225   966 net.cpp:100] Creating Layer sc_d1c
I0428 19:51:37.496227   966 net.cpp:434] sc_d1c <- d1c
I0428 19:51:37.496232   966 net.cpp:395] sc_d1c -> d1c (in-place)
I0428 19:51:37.496263   966 layer_factory.hpp:77] Creating layer sc_d1c
I0428 19:51:37.496400   966 net.cpp:150] Setting up sc_d1c
I0428 19:51:37.496407   966 net.cpp:157] Top shape: 2 128 208 208 (11075584)
I0428 19:51:37.496409   966 net.cpp:165] Memory required for data: 1265835648
I0428 19:51:37.496414   966 layer_factory.hpp:77] Creating layer relu_d1c
I0428 19:51:37.496417   966 net.cpp:100] Creating Layer relu_d1c
I0428 19:51:37.496420   966 net.cpp:434] relu_d1c <- d1c
I0428 19:51:37.496425   966 net.cpp:395] relu_d1c -> d1c (in-place)
I0428 19:51:37.496580   966 net.cpp:150] Setting up relu_d1c
I0428 19:51:37.496589   966 net.cpp:157] Top shape: 2 128 208 208 (11075584)
I0428 19:51:37.496592   966 net.cpp:165] Memory required for data: 1310137984
I0428 19:51:37.496594   966 layer_factory.hpp:77] Creating layer d1c_relu_d1c_0_split
I0428 19:51:37.496599   966 net.cpp:100] Creating Layer d1c_relu_d1c_0_split
I0428 19:51:37.496601   966 net.cpp:434] d1c_relu_d1c_0_split <- d1c
I0428 19:51:37.496606   966 net.cpp:408] d1c_relu_d1c_0_split -> d1c_relu_d1c_0_split_0
I0428 19:51:37.496611   966 net.cpp:408] d1c_relu_d1c_0_split -> d1c_relu_d1c_0_split_1
I0428 19:51:37.496645   966 net.cpp:150] Setting up d1c_relu_d1c_0_split
I0428 19:51:37.496652   966 net.cpp:157] Top shape: 2 128 208 208 (11075584)
I0428 19:51:37.496655   966 net.cpp:157] Top shape: 2 128 208 208 (11075584)
I0428 19:51:37.496657   966 net.cpp:165] Memory required for data: 1398742656
I0428 19:51:37.496660   966 layer_factory.hpp:77] Creating layer pool_d1c-2a
I0428 19:51:37.496665   966 net.cpp:100] Creating Layer pool_d1c-2a
I0428 19:51:37.496666   966 net.cpp:434] pool_d1c-2a <- d1c_relu_d1c_0_split_0
I0428 19:51:37.496670   966 net.cpp:408] pool_d1c-2a -> d2a
I0428 19:51:37.496701   966 net.cpp:150] Setting up pool_d1c-2a
I0428 19:51:37.496706   966 net.cpp:157] Top shape: 2 128 104 104 (2768896)
I0428 19:51:37.496709   966 net.cpp:165] Memory required for data: 1409818240
I0428 19:51:37.496711   966 layer_factory.hpp:77] Creating layer conv_d2a-b
I0428 19:51:37.496719   966 net.cpp:100] Creating Layer conv_d2a-b
I0428 19:51:37.496721   966 net.cpp:434] conv_d2a-b <- d2a
I0428 19:51:37.496726   966 net.cpp:408] conv_d2a-b -> d2b
I0428 19:51:37.500146   966 net.cpp:150] Setting up conv_d2a-b
I0428 19:51:37.500161   966 net.cpp:157] Top shape: 2 256 102 102 (5326848)
I0428 19:51:37.500180   966 net.cpp:165] Memory required for data: 1431125632
I0428 19:51:37.500198   966 layer_factory.hpp:77] Creating layer bn_d2b
I0428 19:51:37.500221   966 net.cpp:100] Creating Layer bn_d2b
I0428 19:51:37.500224   966 net.cpp:434] bn_d2b <- d2b
I0428 19:51:37.500231   966 net.cpp:395] bn_d2b -> d2b (in-place)
I0428 19:51:37.500416   966 net.cpp:150] Setting up bn_d2b
I0428 19:51:37.500425   966 net.cpp:157] Top shape: 2 256 102 102 (5326848)
I0428 19:51:37.500428   966 net.cpp:165] Memory required for data: 1452433024
I0428 19:51:37.500440   966 layer_factory.hpp:77] Creating layer sc_d2b
I0428 19:51:37.500447   966 net.cpp:100] Creating Layer sc_d2b
I0428 19:51:37.500449   966 net.cpp:434] sc_d2b <- d2b
I0428 19:51:37.500455   966 net.cpp:395] sc_d2b -> d2b (in-place)
I0428 19:51:37.500494   966 layer_factory.hpp:77] Creating layer sc_d2b
I0428 19:51:37.500607   966 net.cpp:150] Setting up sc_d2b
I0428 19:51:37.500615   966 net.cpp:157] Top shape: 2 256 102 102 (5326848)
I0428 19:51:37.500634   966 net.cpp:165] Memory required for data: 1473740416
I0428 19:51:37.500639   966 layer_factory.hpp:77] Creating layer relu_d2b
I0428 19:51:37.500643   966 net.cpp:100] Creating Layer relu_d2b
I0428 19:51:37.500646   966 net.cpp:434] relu_d2b <- d2b
I0428 19:51:37.500650   966 net.cpp:395] relu_d2b -> d2b (in-place)
I0428 19:51:37.500831   966 net.cpp:150] Setting up relu_d2b
I0428 19:51:37.500840   966 net.cpp:157] Top shape: 2 256 102 102 (5326848)
I0428 19:51:37.500844   966 net.cpp:165] Memory required for data: 1495047808
I0428 19:51:37.500846   966 layer_factory.hpp:77] Creating layer conv_d2b-c
I0428 19:51:37.500852   966 net.cpp:100] Creating Layer conv_d2b-c
I0428 19:51:37.500855   966 net.cpp:434] conv_d2b-c <- d2b
I0428 19:51:37.500860   966 net.cpp:408] conv_d2b-c -> d2c
I0428 19:51:37.504961   966 net.cpp:150] Setting up conv_d2b-c
I0428 19:51:37.504972   966 net.cpp:157] Top shape: 2 256 100 100 (5120000)
I0428 19:51:37.504974   966 net.cpp:165] Memory required for data: 1515527808
I0428 19:51:37.504995   966 layer_factory.hpp:77] Creating layer bn_d2c
I0428 19:51:37.505000   966 net.cpp:100] Creating Layer bn_d2c
I0428 19:51:37.505004   966 net.cpp:434] bn_d2c <- d2c
I0428 19:51:37.505008   966 net.cpp:395] bn_d2c -> d2c (in-place)
I0428 19:51:37.505172   966 net.cpp:150] Setting up bn_d2c
I0428 19:51:37.505180   966 net.cpp:157] Top shape: 2 256 100 100 (5120000)
I0428 19:51:37.505182   966 net.cpp:165] Memory required for data: 1536007808
I0428 19:51:37.505188   966 layer_factory.hpp:77] Creating layer sc_d2c
I0428 19:51:37.505193   966 net.cpp:100] Creating Layer sc_d2c
I0428 19:51:37.505197   966 net.cpp:434] sc_d2c <- d2c
I0428 19:51:37.505200   966 net.cpp:395] sc_d2c -> d2c (in-place)
I0428 19:51:37.505234   966 layer_factory.hpp:77] Creating layer sc_d2c
I0428 19:51:37.505338   966 net.cpp:150] Setting up sc_d2c
I0428 19:51:37.505347   966 net.cpp:157] Top shape: 2 256 100 100 (5120000)
I0428 19:51:37.505348   966 net.cpp:165] Memory required for data: 1556487808
I0428 19:51:37.505352   966 layer_factory.hpp:77] Creating layer relu_d2c
I0428 19:51:37.505357   966 net.cpp:100] Creating Layer relu_d2c
I0428 19:51:37.505360   966 net.cpp:434] relu_d2c <- d2c
I0428 19:51:37.505363   966 net.cpp:395] relu_d2c -> d2c (in-place)
I0428 19:51:37.506201   966 net.cpp:150] Setting up relu_d2c
I0428 19:51:37.506214   966 net.cpp:157] Top shape: 2 256 100 100 (5120000)
I0428 19:51:37.506217   966 net.cpp:165] Memory required for data: 1576967808
I0428 19:51:37.506234   966 layer_factory.hpp:77] Creating layer d2c_relu_d2c_0_split
I0428 19:51:37.506239   966 net.cpp:100] Creating Layer d2c_relu_d2c_0_split
I0428 19:51:37.506242   966 net.cpp:434] d2c_relu_d2c_0_split <- d2c
I0428 19:51:37.506248   966 net.cpp:408] d2c_relu_d2c_0_split -> d2c_relu_d2c_0_split_0
I0428 19:51:37.506256   966 net.cpp:408] d2c_relu_d2c_0_split -> d2c_relu_d2c_0_split_1
I0428 19:51:37.506299   966 net.cpp:150] Setting up d2c_relu_d2c_0_split
I0428 19:51:37.506304   966 net.cpp:157] Top shape: 2 256 100 100 (5120000)
I0428 19:51:37.506307   966 net.cpp:157] Top shape: 2 256 100 100 (5120000)
I0428 19:51:37.506325   966 net.cpp:165] Memory required for data: 1617927808
I0428 19:51:37.506327   966 layer_factory.hpp:77] Creating layer pool_d2c-3a
I0428 19:51:37.506348   966 net.cpp:100] Creating Layer pool_d2c-3a
I0428 19:51:37.506352   966 net.cpp:434] pool_d2c-3a <- d2c_relu_d2c_0_split_0
I0428 19:51:37.506358   966 net.cpp:408] pool_d2c-3a -> d3a
I0428 19:51:37.506413   966 net.cpp:150] Setting up pool_d2c-3a
I0428 19:51:37.506422   966 net.cpp:157] Top shape: 2 256 50 50 (1280000)
I0428 19:51:37.506425   966 net.cpp:165] Memory required for data: 1623047808
I0428 19:51:37.506428   966 layer_factory.hpp:77] Creating layer conv_d3a-b
I0428 19:51:37.506434   966 net.cpp:100] Creating Layer conv_d3a-b
I0428 19:51:37.506436   966 net.cpp:434] conv_d3a-b <- d3a
I0428 19:51:37.506443   966 net.cpp:408] conv_d3a-b -> d3b
I0428 19:51:37.514961   966 net.cpp:150] Setting up conv_d3a-b
I0428 19:51:37.514972   966 net.cpp:157] Top shape: 2 512 48 48 (2359296)
I0428 19:51:37.514991   966 net.cpp:165] Memory required for data: 1632484992
I0428 19:51:37.514997   966 layer_factory.hpp:77] Creating layer bn_d3b
I0428 19:51:37.515009   966 net.cpp:100] Creating Layer bn_d3b
I0428 19:51:37.515012   966 net.cpp:434] bn_d3b <- d3b
I0428 19:51:37.515017   966 net.cpp:395] bn_d3b -> d3b (in-place)
I0428 19:51:37.515221   966 net.cpp:150] Setting up bn_d3b
I0428 19:51:37.515229   966 net.cpp:157] Top shape: 2 512 48 48 (2359296)
I0428 19:51:37.515231   966 net.cpp:165] Memory required for data: 1641922176
I0428 19:51:37.515238   966 layer_factory.hpp:77] Creating layer sc_d3b
I0428 19:51:37.515244   966 net.cpp:100] Creating Layer sc_d3b
I0428 19:51:37.515247   966 net.cpp:434] sc_d3b <- d3b
I0428 19:51:37.515250   966 net.cpp:395] sc_d3b -> d3b (in-place)
I0428 19:51:37.515300   966 layer_factory.hpp:77] Creating layer sc_d3b
I0428 19:51:37.515400   966 net.cpp:150] Setting up sc_d3b
I0428 19:51:37.515409   966 net.cpp:157] Top shape: 2 512 48 48 (2359296)
I0428 19:51:37.515411   966 net.cpp:165] Memory required for data: 1651359360
I0428 19:51:37.515416   966 layer_factory.hpp:77] Creating layer relu_d3b
I0428 19:51:37.515421   966 net.cpp:100] Creating Layer relu_d3b
I0428 19:51:37.515424   966 net.cpp:434] relu_d3b <- d3b
I0428 19:51:37.515427   966 net.cpp:395] relu_d3b -> d3b (in-place)
I0428 19:51:37.515633   966 net.cpp:150] Setting up relu_d3b
I0428 19:51:37.515643   966 net.cpp:157] Top shape: 2 512 48 48 (2359296)
I0428 19:51:37.515645   966 net.cpp:165] Memory required for data: 1660796544
I0428 19:51:37.515648   966 layer_factory.hpp:77] Creating layer conv_d3b-c
I0428 19:51:37.515671   966 net.cpp:100] Creating Layer conv_d3b-c
I0428 19:51:37.515674   966 net.cpp:434] conv_d3b-c <- d3b
I0428 19:51:37.515678   966 net.cpp:408] conv_d3b-c -> d3c
I0428 19:51:37.530714   966 net.cpp:150] Setting up conv_d3b-c
I0428 19:51:37.530725   966 net.cpp:157] Top shape: 2 512 46 46 (2166784)
I0428 19:51:37.530743   966 net.cpp:165] Memory required for data: 1669463680
I0428 19:51:37.530748   966 layer_factory.hpp:77] Creating layer bn_d3c
I0428 19:51:37.530753   966 net.cpp:100] Creating Layer bn_d3c
I0428 19:51:37.530756   966 net.cpp:434] bn_d3c <- d3c
I0428 19:51:37.530762   966 net.cpp:395] bn_d3c -> d3c (in-place)
I0428 19:51:37.530968   966 net.cpp:150] Setting up bn_d3c
I0428 19:51:37.530977   966 net.cpp:157] Top shape: 2 512 46 46 (2166784)
I0428 19:51:37.530978   966 net.cpp:165] Memory required for data: 1678130816
I0428 19:51:37.530985   966 layer_factory.hpp:77] Creating layer sc_d3c
I0428 19:51:37.530992   966 net.cpp:100] Creating Layer sc_d3c
I0428 19:51:37.530993   966 net.cpp:434] sc_d3c <- d3c
I0428 19:51:37.530997   966 net.cpp:395] sc_d3c -> d3c (in-place)
I0428 19:51:37.531056   966 layer_factory.hpp:77] Creating layer sc_d3c
I0428 19:51:37.531173   966 net.cpp:150] Setting up sc_d3c
I0428 19:51:37.531180   966 net.cpp:157] Top shape: 2 512 46 46 (2166784)
I0428 19:51:37.531183   966 net.cpp:165] Memory required for data: 1686797952
I0428 19:51:37.531188   966 layer_factory.hpp:77] Creating layer relu_d3c
I0428 19:51:37.531208   966 net.cpp:100] Creating Layer relu_d3c
I0428 19:51:37.531211   966 net.cpp:434] relu_d3c <- d3c
I0428 19:51:37.531216   966 net.cpp:395] relu_d3c -> d3c (in-place)
I0428 19:51:37.531419   966 net.cpp:150] Setting up relu_d3c
I0428 19:51:37.531427   966 net.cpp:157] Top shape: 2 512 46 46 (2166784)
I0428 19:51:37.531445   966 net.cpp:165] Memory required for data: 1695465088
I0428 19:51:37.531448   966 layer_factory.hpp:77] Creating layer d3c_relu_d3c_0_split
I0428 19:51:37.531453   966 net.cpp:100] Creating Layer d3c_relu_d3c_0_split
I0428 19:51:37.531455   966 net.cpp:434] d3c_relu_d3c_0_split <- d3c
I0428 19:51:37.531460   966 net.cpp:408] d3c_relu_d3c_0_split -> d3c_relu_d3c_0_split_0
I0428 19:51:37.531466   966 net.cpp:408] d3c_relu_d3c_0_split -> d3c_relu_d3c_0_split_1
I0428 19:51:37.531507   966 net.cpp:150] Setting up d3c_relu_d3c_0_split
I0428 19:51:37.531513   966 net.cpp:157] Top shape: 2 512 46 46 (2166784)
I0428 19:51:37.531517   966 net.cpp:157] Top shape: 2 512 46 46 (2166784)
I0428 19:51:37.531518   966 net.cpp:165] Memory required for data: 1712799360
I0428 19:51:37.531522   966 layer_factory.hpp:77] Creating layer pool_d3c-4a
I0428 19:51:37.531529   966 net.cpp:100] Creating Layer pool_d3c-4a
I0428 19:51:37.531532   966 net.cpp:434] pool_d3c-4a <- d3c_relu_d3c_0_split_0
I0428 19:51:37.531535   966 net.cpp:408] pool_d3c-4a -> d4a
I0428 19:51:37.531569   966 net.cpp:150] Setting up pool_d3c-4a
I0428 19:51:37.531575   966 net.cpp:157] Top shape: 2 512 23 23 (541696)
I0428 19:51:37.531577   966 net.cpp:165] Memory required for data: 1714966144
I0428 19:51:37.531579   966 layer_factory.hpp:77] Creating layer conv_d4a-b
I0428 19:51:37.531587   966 net.cpp:100] Creating Layer conv_d4a-b
I0428 19:51:37.531590   966 net.cpp:434] conv_d4a-b <- d4a
I0428 19:51:37.531594   966 net.cpp:408] conv_d4a-b -> d4b
I0428 19:51:37.560276   966 net.cpp:150] Setting up conv_d4a-b
I0428 19:51:37.560288   966 net.cpp:157] Top shape: 2 1024 21 21 (903168)
I0428 19:51:37.560290   966 net.cpp:165] Memory required for data: 1718578816
I0428 19:51:37.560295   966 layer_factory.hpp:77] Creating layer bn_d4b
I0428 19:51:37.560302   966 net.cpp:100] Creating Layer bn_d4b
I0428 19:51:37.560322   966 net.cpp:434] bn_d4b <- d4b
I0428 19:51:37.560325   966 net.cpp:395] bn_d4b -> d4b (in-place)
I0428 19:51:37.560508   966 net.cpp:150] Setting up bn_d4b
I0428 19:51:37.560515   966 net.cpp:157] Top shape: 2 1024 21 21 (903168)
I0428 19:51:37.560518   966 net.cpp:165] Memory required for data: 1722191488
I0428 19:51:37.560524   966 layer_factory.hpp:77] Creating layer sc_d4b
I0428 19:51:37.560528   966 net.cpp:100] Creating Layer sc_d4b
I0428 19:51:37.560531   966 net.cpp:434] sc_d4b <- d4b
I0428 19:51:37.560536   966 net.cpp:395] sc_d4b -> d4b (in-place)
I0428 19:51:37.560587   966 layer_factory.hpp:77] Creating layer sc_d4b
I0428 19:51:37.560698   966 net.cpp:150] Setting up sc_d4b
I0428 19:51:37.560705   966 net.cpp:157] Top shape: 2 1024 21 21 (903168)
I0428 19:51:37.560708   966 net.cpp:165] Memory required for data: 1725804160
I0428 19:51:37.560712   966 layer_factory.hpp:77] Creating layer relu_d4b
I0428 19:51:37.560717   966 net.cpp:100] Creating Layer relu_d4b
I0428 19:51:37.560719   966 net.cpp:434] relu_d4b <- d4b
I0428 19:51:37.560724   966 net.cpp:395] relu_d4b -> d4b (in-place)
I0428 19:51:37.561563   966 net.cpp:150] Setting up relu_d4b
I0428 19:51:37.561574   966 net.cpp:157] Top shape: 2 1024 21 21 (903168)
I0428 19:51:37.561591   966 net.cpp:165] Memory required for data: 1729416832
I0428 19:51:37.561595   966 layer_factory.hpp:77] Creating layer conv_d4b-c
I0428 19:51:37.561604   966 net.cpp:100] Creating Layer conv_d4b-c
I0428 19:51:37.561609   966 net.cpp:434] conv_d4b-c <- d4b
I0428 19:51:37.561614   966 net.cpp:408] conv_d4b-c -> d4c
I0428 19:51:37.619989   966 net.cpp:150] Setting up conv_d4b-c
I0428 19:51:37.620010   966 net.cpp:157] Top shape: 2 1024 19 19 (739328)
I0428 19:51:37.620028   966 net.cpp:165] Memory required for data: 1732374144
I0428 19:51:37.620045   966 layer_factory.hpp:77] Creating layer bn_d4c
I0428 19:51:37.620090   966 net.cpp:100] Creating Layer bn_d4c
I0428 19:51:37.620095   966 net.cpp:434] bn_d4c <- d4c
I0428 19:51:37.620115   966 net.cpp:395] bn_d4c -> d4c (in-place)
I0428 19:51:37.620316   966 net.cpp:150] Setting up bn_d4c
I0428 19:51:37.620323   966 net.cpp:157] Top shape: 2 1024 19 19 (739328)
I0428 19:51:37.620326   966 net.cpp:165] Memory required for data: 1735331456
I0428 19:51:37.620332   966 layer_factory.hpp:77] Creating layer sc_d4c
I0428 19:51:37.620338   966 net.cpp:100] Creating Layer sc_d4c
I0428 19:51:37.620342   966 net.cpp:434] sc_d4c <- d4c
I0428 19:51:37.620347   966 net.cpp:395] sc_d4c -> d4c (in-place)
I0428 19:51:37.620419   966 layer_factory.hpp:77] Creating layer sc_d4c
I0428 19:51:37.620522   966 net.cpp:150] Setting up sc_d4c
I0428 19:51:37.620529   966 net.cpp:157] Top shape: 2 1024 19 19 (739328)
I0428 19:51:37.620532   966 net.cpp:165] Memory required for data: 1738288768
I0428 19:51:37.620537   966 layer_factory.hpp:77] Creating layer relu_d4c
I0428 19:51:37.620540   966 net.cpp:100] Creating Layer relu_d4c
I0428 19:51:37.620544   966 net.cpp:434] relu_d4c <- d4c
I0428 19:51:37.620548   966 net.cpp:395] relu_d4c -> d4c (in-place)
I0428 19:51:37.620756   966 net.cpp:150] Setting up relu_d4c
I0428 19:51:37.620764   966 net.cpp:157] Top shape: 2 1024 19 19 (739328)
I0428 19:51:37.620782   966 net.cpp:165] Memory required for data: 1741246080
I0428 19:51:37.620784   966 layer_factory.hpp:77] Creating layer upconv_d4c_u3a
I0428 19:51:37.620806   966 net.cpp:100] Creating Layer upconv_d4c_u3a
I0428 19:51:37.620810   966 net.cpp:434] upconv_d4c_u3a <- d4c
I0428 19:51:37.620815   966 net.cpp:408] upconv_d4c_u3a -> u3a
I0428 19:51:37.633846   966 net.cpp:150] Setting up upconv_d4c_u3a
I0428 19:51:37.633858   966 net.cpp:157] Top shape: 2 512 38 38 (1478656)
I0428 19:51:37.633860   966 net.cpp:165] Memory required for data: 1747160704
I0428 19:51:37.633882   966 layer_factory.hpp:77] Creating layer bn_u3a
I0428 19:51:37.633888   966 net.cpp:100] Creating Layer bn_u3a
I0428 19:51:37.633890   966 net.cpp:434] bn_u3a <- u3a
I0428 19:51:37.633894   966 net.cpp:395] bn_u3a -> u3a (in-place)
I0428 19:51:37.634119   966 net.cpp:150] Setting up bn_u3a
I0428 19:51:37.634129   966 net.cpp:157] Top shape: 2 512 38 38 (1478656)
I0428 19:51:37.634131   966 net.cpp:165] Memory required for data: 1753075328
I0428 19:51:37.634136   966 layer_factory.hpp:77] Creating layer sc_u3a
I0428 19:51:37.634142   966 net.cpp:100] Creating Layer sc_u3a
I0428 19:51:37.634160   966 net.cpp:434] sc_u3a <- u3a
I0428 19:51:37.634166   966 net.cpp:395] sc_u3a -> u3a (in-place)
I0428 19:51:37.634202   966 layer_factory.hpp:77] Creating layer sc_u3a
I0428 19:51:37.634315   966 net.cpp:150] Setting up sc_u3a
I0428 19:51:37.634323   966 net.cpp:157] Top shape: 2 512 38 38 (1478656)
I0428 19:51:37.634325   966 net.cpp:165] Memory required for data: 1758989952
I0428 19:51:37.634330   966 layer_factory.hpp:77] Creating layer relu_u3a
I0428 19:51:37.634335   966 net.cpp:100] Creating Layer relu_u3a
I0428 19:51:37.634338   966 net.cpp:434] relu_u3a <- u3a
I0428 19:51:37.634342   966 net.cpp:395] relu_u3a -> u3a (in-place)
I0428 19:51:37.634534   966 net.cpp:150] Setting up relu_u3a
I0428 19:51:37.634543   966 net.cpp:157] Top shape: 2 512 38 38 (1478656)
I0428 19:51:37.634546   966 net.cpp:165] Memory required for data: 1764904576
I0428 19:51:37.634548   966 layer_factory.hpp:77] Creating layer u3a_relu_u3a_0_split
I0428 19:51:37.634553   966 net.cpp:100] Creating Layer u3a_relu_u3a_0_split
I0428 19:51:37.634572   966 net.cpp:434] u3a_relu_u3a_0_split <- u3a
I0428 19:51:37.634582   966 net.cpp:408] u3a_relu_u3a_0_split -> u3a_relu_u3a_0_split_0
I0428 19:51:37.634588   966 net.cpp:408] u3a_relu_u3a_0_split -> u3a_relu_u3a_0_split_1
I0428 19:51:37.634627   966 net.cpp:150] Setting up u3a_relu_u3a_0_split
I0428 19:51:37.634635   966 net.cpp:157] Top shape: 2 512 38 38 (1478656)
I0428 19:51:37.634639   966 net.cpp:157] Top shape: 2 512 38 38 (1478656)
I0428 19:51:37.634641   966 net.cpp:165] Memory required for data: 1776733824
I0428 19:51:37.634656   966 layer_factory.hpp:77] Creating layer crop_d3c-d3cc
I0428 19:51:37.634663   966 net.cpp:100] Creating Layer crop_d3c-d3cc
I0428 19:51:37.634666   966 net.cpp:434] crop_d3c-d3cc <- d3c_relu_d3c_0_split_1
I0428 19:51:37.634670   966 net.cpp:434] crop_d3c-d3cc <- u3a_relu_u3a_0_split_0
I0428 19:51:37.634675   966 net.cpp:408] crop_d3c-d3cc -> d3cc
I0428 19:51:37.634699   966 net.cpp:150] Setting up crop_d3c-d3cc
I0428 19:51:37.634707   966 net.cpp:157] Top shape: 2 512 38 38 (1478656)
I0428 19:51:37.634709   966 net.cpp:165] Memory required for data: 1782648448
I0428 19:51:37.634711   966 layer_factory.hpp:77] Creating layer concat_d3cc_u3a-b
I0428 19:51:37.634717   966 net.cpp:100] Creating Layer concat_d3cc_u3a-b
I0428 19:51:37.634719   966 net.cpp:434] concat_d3cc_u3a-b <- u3a_relu_u3a_0_split_1
I0428 19:51:37.634722   966 net.cpp:434] concat_d3cc_u3a-b <- d3cc
I0428 19:51:37.634727   966 net.cpp:408] concat_d3cc_u3a-b -> u3b
I0428 19:51:37.634748   966 net.cpp:150] Setting up concat_d3cc_u3a-b
I0428 19:51:37.634769   966 net.cpp:157] Top shape: 2 1024 38 38 (2957312)
I0428 19:51:37.634771   966 net.cpp:165] Memory required for data: 1794477696
I0428 19:51:37.634773   966 layer_factory.hpp:77] Creating layer conv_u3b-c
I0428 19:51:37.634783   966 net.cpp:100] Creating Layer conv_u3b-c
I0428 19:51:37.634785   966 net.cpp:434] conv_u3b-c <- u3b
I0428 19:51:37.634790   966 net.cpp:408] conv_u3b-c -> u3c
I0428 19:51:37.665745   966 net.cpp:150] Setting up conv_u3b-c
I0428 19:51:37.665761   966 net.cpp:157] Top shape: 2 512 36 36 (1327104)
I0428 19:51:37.665763   966 net.cpp:165] Memory required for data: 1799786112
I0428 19:51:37.665769   966 layer_factory.hpp:77] Creating layer bn_u3c
I0428 19:51:37.665777   966 net.cpp:100] Creating Layer bn_u3c
I0428 19:51:37.665781   966 net.cpp:434] bn_u3c <- u3c
I0428 19:51:37.665786   966 net.cpp:395] bn_u3c -> u3c (in-place)
I0428 19:51:37.665993   966 net.cpp:150] Setting up bn_u3c
I0428 19:51:37.666002   966 net.cpp:157] Top shape: 2 512 36 36 (1327104)
I0428 19:51:37.666004   966 net.cpp:165] Memory required for data: 1805094528
I0428 19:51:37.666010   966 layer_factory.hpp:77] Creating layer sc_u3c
I0428 19:51:37.666015   966 net.cpp:100] Creating Layer sc_u3c
I0428 19:51:37.666018   966 net.cpp:434] sc_u3c <- u3c
I0428 19:51:37.666024   966 net.cpp:395] sc_u3c -> u3c (in-place)
I0428 19:51:37.666057   966 layer_factory.hpp:77] Creating layer sc_u3c
I0428 19:51:37.666198   966 net.cpp:150] Setting up sc_u3c
I0428 19:51:37.666205   966 net.cpp:157] Top shape: 2 512 36 36 (1327104)
I0428 19:51:37.666208   966 net.cpp:165] Memory required for data: 1810402944
I0428 19:51:37.666213   966 layer_factory.hpp:77] Creating layer relu_u3c
I0428 19:51:37.666218   966 net.cpp:100] Creating Layer relu_u3c
I0428 19:51:37.666220   966 net.cpp:434] relu_u3c <- u3c
I0428 19:51:37.666224   966 net.cpp:395] relu_u3c -> u3c (in-place)
I0428 19:51:37.666416   966 net.cpp:150] Setting up relu_u3c
I0428 19:51:37.666426   966 net.cpp:157] Top shape: 2 512 36 36 (1327104)
I0428 19:51:37.666429   966 net.cpp:165] Memory required for data: 1815711360
I0428 19:51:37.666431   966 layer_factory.hpp:77] Creating layer conv_u3c-d
I0428 19:51:37.666458   966 net.cpp:100] Creating Layer conv_u3c-d
I0428 19:51:37.666463   966 net.cpp:434] conv_u3c-d <- u3c
I0428 19:51:37.666484   966 net.cpp:408] conv_u3c-d -> u3d
I0428 19:51:37.681401   966 net.cpp:150] Setting up conv_u3c-d
I0428 19:51:37.681414   966 net.cpp:157] Top shape: 2 512 34 34 (1183744)
I0428 19:51:37.681416   966 net.cpp:165] Memory required for data: 1820446336
I0428 19:51:37.681421   966 layer_factory.hpp:77] Creating layer bn_u3d
I0428 19:51:37.681432   966 net.cpp:100] Creating Layer bn_u3d
I0428 19:51:37.681438   966 net.cpp:434] bn_u3d <- u3d
I0428 19:51:37.681459   966 net.cpp:395] bn_u3d -> u3d (in-place)
I0428 19:51:37.681663   966 net.cpp:150] Setting up bn_u3d
I0428 19:51:37.681671   966 net.cpp:157] Top shape: 2 512 34 34 (1183744)
I0428 19:51:37.681674   966 net.cpp:165] Memory required for data: 1825181312
I0428 19:51:37.681696   966 layer_factory.hpp:77] Creating layer sc_u3d
I0428 19:51:37.681704   966 net.cpp:100] Creating Layer sc_u3d
I0428 19:51:37.681709   966 net.cpp:434] sc_u3d <- u3d
I0428 19:51:37.681713   966 net.cpp:395] sc_u3d -> u3d (in-place)
I0428 19:51:37.681749   966 layer_factory.hpp:77] Creating layer sc_u3d
I0428 19:51:37.681874   966 net.cpp:150] Setting up sc_u3d
I0428 19:51:37.681881   966 net.cpp:157] Top shape: 2 512 34 34 (1183744)
I0428 19:51:37.681884   966 net.cpp:165] Memory required for data: 1829916288
I0428 19:51:37.681888   966 layer_factory.hpp:77] Creating layer relu_u3d
I0428 19:51:37.681895   966 net.cpp:100] Creating Layer relu_u3d
I0428 19:51:37.681897   966 net.cpp:434] relu_u3d <- u3d
I0428 19:51:37.681901   966 net.cpp:395] relu_u3d -> u3d (in-place)
I0428 19:51:37.682777   966 net.cpp:150] Setting up relu_u3d
I0428 19:51:37.682791   966 net.cpp:157] Top shape: 2 512 34 34 (1183744)
I0428 19:51:37.682795   966 net.cpp:165] Memory required for data: 1834651264
I0428 19:51:37.682797   966 layer_factory.hpp:77] Creating layer upconv_u3d_u2a
I0428 19:51:37.682816   966 net.cpp:100] Creating Layer upconv_u3d_u2a
I0428 19:51:37.682818   966 net.cpp:434] upconv_u3d_u2a <- u3d
I0428 19:51:37.682824   966 net.cpp:408] upconv_u3d_u2a -> u2a
I0428 19:51:37.686913   966 net.cpp:150] Setting up upconv_u3d_u2a
I0428 19:51:37.686926   966 net.cpp:157] Top shape: 2 256 68 68 (2367488)
I0428 19:51:37.686928   966 net.cpp:165] Memory required for data: 1844121216
I0428 19:51:37.686950   966 layer_factory.hpp:77] Creating layer bn_u2a
I0428 19:51:37.686956   966 net.cpp:100] Creating Layer bn_u2a
I0428 19:51:37.686959   966 net.cpp:434] bn_u2a <- u2a
I0428 19:51:37.686964   966 net.cpp:395] bn_u2a -> u2a (in-place)
I0428 19:51:37.687186   966 net.cpp:150] Setting up bn_u2a
I0428 19:51:37.687196   966 net.cpp:157] Top shape: 2 256 68 68 (2367488)
I0428 19:51:37.687198   966 net.cpp:165] Memory required for data: 1853591168
I0428 19:51:37.687203   966 layer_factory.hpp:77] Creating layer sc_u2a
I0428 19:51:37.687209   966 net.cpp:100] Creating Layer sc_u2a
I0428 19:51:37.687212   966 net.cpp:434] sc_u2a <- u2a
I0428 19:51:37.687216   966 net.cpp:395] sc_u2a -> u2a (in-place)
I0428 19:51:37.687268   966 layer_factory.hpp:77] Creating layer sc_u2a
I0428 19:51:37.687384   966 net.cpp:150] Setting up sc_u2a
I0428 19:51:37.687391   966 net.cpp:157] Top shape: 2 256 68 68 (2367488)
I0428 19:51:37.687393   966 net.cpp:165] Memory required for data: 1863061120
I0428 19:51:37.687398   966 layer_factory.hpp:77] Creating layer relu_u2a
I0428 19:51:37.687403   966 net.cpp:100] Creating Layer relu_u2a
I0428 19:51:37.687405   966 net.cpp:434] relu_u2a <- u2a
I0428 19:51:37.687410   966 net.cpp:395] relu_u2a -> u2a (in-place)
I0428 19:51:37.687589   966 net.cpp:150] Setting up relu_u2a
I0428 19:51:37.687599   966 net.cpp:157] Top shape: 2 256 68 68 (2367488)
I0428 19:51:37.687602   966 net.cpp:165] Memory required for data: 1872531072
I0428 19:51:37.687604   966 layer_factory.hpp:77] Creating layer u2a_relu_u2a_0_split
I0428 19:51:37.687609   966 net.cpp:100] Creating Layer u2a_relu_u2a_0_split
I0428 19:51:37.687628   966 net.cpp:434] u2a_relu_u2a_0_split <- u2a
I0428 19:51:37.687633   966 net.cpp:408] u2a_relu_u2a_0_split -> u2a_relu_u2a_0_split_0
I0428 19:51:37.687654   966 net.cpp:408] u2a_relu_u2a_0_split -> u2a_relu_u2a_0_split_1
I0428 19:51:37.687693   966 net.cpp:150] Setting up u2a_relu_u2a_0_split
I0428 19:51:37.687700   966 net.cpp:157] Top shape: 2 256 68 68 (2367488)
I0428 19:51:37.687705   966 net.cpp:157] Top shape: 2 256 68 68 (2367488)
I0428 19:51:37.687706   966 net.cpp:165] Memory required for data: 1891470976
I0428 19:51:37.687708   966 layer_factory.hpp:77] Creating layer crop_d2c-d2cc
I0428 19:51:37.687716   966 net.cpp:100] Creating Layer crop_d2c-d2cc
I0428 19:51:37.687717   966 net.cpp:434] crop_d2c-d2cc <- d2c_relu_d2c_0_split_1
I0428 19:51:37.687721   966 net.cpp:434] crop_d2c-d2cc <- u2a_relu_u2a_0_split_0
I0428 19:51:37.687726   966 net.cpp:408] crop_d2c-d2cc -> d2cc
I0428 19:51:37.687762   966 net.cpp:150] Setting up crop_d2c-d2cc
I0428 19:51:37.687768   966 net.cpp:157] Top shape: 2 256 68 68 (2367488)
I0428 19:51:37.687770   966 net.cpp:165] Memory required for data: 1900940928
I0428 19:51:37.687772   966 layer_factory.hpp:77] Creating layer concat_d2cc_u2a-b
I0428 19:51:37.687777   966 net.cpp:100] Creating Layer concat_d2cc_u2a-b
I0428 19:51:37.687779   966 net.cpp:434] concat_d2cc_u2a-b <- u2a_relu_u2a_0_split_1
I0428 19:51:37.687783   966 net.cpp:434] concat_d2cc_u2a-b <- d2cc
I0428 19:51:37.687786   966 net.cpp:408] concat_d2cc_u2a-b -> u2b
I0428 19:51:37.687806   966 net.cpp:150] Setting up concat_d2cc_u2a-b
I0428 19:51:37.687810   966 net.cpp:157] Top shape: 2 512 68 68 (4734976)
I0428 19:51:37.687813   966 net.cpp:165] Memory required for data: 1919880832
I0428 19:51:37.687814   966 layer_factory.hpp:77] Creating layer conv_u2b-c
I0428 19:51:37.687824   966 net.cpp:100] Creating Layer conv_u2b-c
I0428 19:51:37.687826   966 net.cpp:434] conv_u2b-c <- u2b
I0428 19:51:37.687831   966 net.cpp:408] conv_u2b-c -> u2c
I0428 19:51:37.695958   966 net.cpp:150] Setting up conv_u2b-c
I0428 19:51:37.695971   966 net.cpp:157] Top shape: 2 256 66 66 (2230272)
I0428 19:51:37.695973   966 net.cpp:165] Memory required for data: 1928801920
I0428 19:51:37.695994   966 layer_factory.hpp:77] Creating layer bn_u2c
I0428 19:51:37.696002   966 net.cpp:100] Creating Layer bn_u2c
I0428 19:51:37.696007   966 net.cpp:434] bn_u2c <- u2c
I0428 19:51:37.696010   966 net.cpp:395] bn_u2c -> u2c (in-place)
I0428 19:51:37.696229   966 net.cpp:150] Setting up bn_u2c
I0428 19:51:37.696238   966 net.cpp:157] Top shape: 2 256 66 66 (2230272)
I0428 19:51:37.696240   966 net.cpp:165] Memory required for data: 1937723008
I0428 19:51:37.696246   966 layer_factory.hpp:77] Creating layer sc_u2c
I0428 19:51:37.696252   966 net.cpp:100] Creating Layer sc_u2c
I0428 19:51:37.696255   966 net.cpp:434] sc_u2c <- u2c
I0428 19:51:37.696260   966 net.cpp:395] sc_u2c -> u2c (in-place)
I0428 19:51:37.696297   966 layer_factory.hpp:77] Creating layer sc_u2c
I0428 19:51:37.696416   966 net.cpp:150] Setting up sc_u2c
I0428 19:51:37.696424   966 net.cpp:157] Top shape: 2 256 66 66 (2230272)
I0428 19:51:37.696426   966 net.cpp:165] Memory required for data: 1946644096
I0428 19:51:37.696430   966 layer_factory.hpp:77] Creating layer relu_u2c
I0428 19:51:37.696435   966 net.cpp:100] Creating Layer relu_u2c
I0428 19:51:37.696437   966 net.cpp:434] relu_u2c <- u2c
I0428 19:51:37.696441   966 net.cpp:395] relu_u2c -> u2c (in-place)
I0428 19:51:37.696630   966 net.cpp:150] Setting up relu_u2c
I0428 19:51:37.696638   966 net.cpp:157] Top shape: 2 256 66 66 (2230272)
I0428 19:51:37.696640   966 net.cpp:165] Memory required for data: 1955565184
I0428 19:51:37.696645   966 layer_factory.hpp:77] Creating layer conv_u2c-d
I0428 19:51:37.696667   966 net.cpp:100] Creating Layer conv_u2c-d
I0428 19:51:37.696686   966 net.cpp:434] conv_u2c-d <- u2c
I0428 19:51:37.696691   966 net.cpp:408] conv_u2c-d -> u2d
I0428 19:51:37.701123   966 net.cpp:150] Setting up conv_u2c-d
I0428 19:51:37.701134   966 net.cpp:157] Top shape: 2 256 64 64 (2097152)
I0428 19:51:37.701138   966 net.cpp:165] Memory required for data: 1963953792
I0428 19:51:37.701143   966 layer_factory.hpp:77] Creating layer bn_u2d
I0428 19:51:37.701148   966 net.cpp:100] Creating Layer bn_u2d
I0428 19:51:37.701151   966 net.cpp:434] bn_u2d <- u2d
I0428 19:51:37.701155   966 net.cpp:395] bn_u2d -> u2d (in-place)
I0428 19:51:37.701361   966 net.cpp:150] Setting up bn_u2d
I0428 19:51:37.701370   966 net.cpp:157] Top shape: 2 256 64 64 (2097152)
I0428 19:51:37.701371   966 net.cpp:165] Memory required for data: 1972342400
I0428 19:51:37.701377   966 layer_factory.hpp:77] Creating layer sc_u2d
I0428 19:51:37.701385   966 net.cpp:100] Creating Layer sc_u2d
I0428 19:51:37.701387   966 net.cpp:434] sc_u2d <- u2d
I0428 19:51:37.701390   966 net.cpp:395] sc_u2d -> u2d (in-place)
I0428 19:51:37.701449   966 layer_factory.hpp:77] Creating layer sc_u2d
I0428 19:51:37.701580   966 net.cpp:150] Setting up sc_u2d
I0428 19:51:37.701608   966 net.cpp:157] Top shape: 2 256 64 64 (2097152)
I0428 19:51:37.701611   966 net.cpp:165] Memory required for data: 1980731008
I0428 19:51:37.701617   966 layer_factory.hpp:77] Creating layer relu_u2d
I0428 19:51:37.701622   966 net.cpp:100] Creating Layer relu_u2d
I0428 19:51:37.701624   966 net.cpp:434] relu_u2d <- u2d
I0428 19:51:37.701629   966 net.cpp:395] relu_u2d -> u2d (in-place)
I0428 19:51:37.701818   966 net.cpp:150] Setting up relu_u2d
I0428 19:51:37.701828   966 net.cpp:157] Top shape: 2 256 64 64 (2097152)
I0428 19:51:37.701831   966 net.cpp:165] Memory required for data: 1989119616
I0428 19:51:37.701833   966 layer_factory.hpp:77] Creating layer upconv_u2d_u1a
I0428 19:51:37.701855   966 net.cpp:100] Creating Layer upconv_u2d_u1a
I0428 19:51:37.701860   966 net.cpp:434] upconv_u2d_u1a <- u2d
I0428 19:51:37.701869   966 net.cpp:408] upconv_u2d_u1a -> u1a
I0428 19:51:37.702926   966 net.cpp:150] Setting up upconv_u2d_u1a
I0428 19:51:37.702950   966 net.cpp:157] Top shape: 2 128 128 128 (4194304)
I0428 19:51:37.702952   966 net.cpp:165] Memory required for data: 2005896832
I0428 19:51:37.702973   966 layer_factory.hpp:77] Creating layer bn_u1a
I0428 19:51:37.702980   966 net.cpp:100] Creating Layer bn_u1a
I0428 19:51:37.702982   966 net.cpp:434] bn_u1a <- u1a
I0428 19:51:37.702986   966 net.cpp:395] bn_u1a -> u1a (in-place)
I0428 19:51:37.703178   966 net.cpp:150] Setting up bn_u1a
I0428 19:51:37.703186   966 net.cpp:157] Top shape: 2 128 128 128 (4194304)
I0428 19:51:37.703188   966 net.cpp:165] Memory required for data: 2022674048
I0428 19:51:37.703194   966 layer_factory.hpp:77] Creating layer sc_u1a
I0428 19:51:37.703200   966 net.cpp:100] Creating Layer sc_u1a
I0428 19:51:37.703202   966 net.cpp:434] sc_u1a <- u1a
I0428 19:51:37.703207   966 net.cpp:395] sc_u1a -> u1a (in-place)
I0428 19:51:37.703243   966 layer_factory.hpp:77] Creating layer sc_u1a
I0428 19:51:37.703371   966 net.cpp:150] Setting up sc_u1a
I0428 19:51:37.703377   966 net.cpp:157] Top shape: 2 128 128 128 (4194304)
I0428 19:51:37.703379   966 net.cpp:165] Memory required for data: 2039451264
I0428 19:51:37.703384   966 layer_factory.hpp:77] Creating layer relu_u1a
I0428 19:51:37.703389   966 net.cpp:100] Creating Layer relu_u1a
I0428 19:51:37.703392   966 net.cpp:434] relu_u1a <- u1a
I0428 19:51:37.703397   966 net.cpp:395] relu_u1a -> u1a (in-place)
I0428 19:51:37.704294   966 net.cpp:150] Setting up relu_u1a
I0428 19:51:37.704306   966 net.cpp:157] Top shape: 2 128 128 128 (4194304)
I0428 19:51:37.704309   966 net.cpp:165] Memory required for data: 2056228480
I0428 19:51:37.704326   966 layer_factory.hpp:77] Creating layer u1a_relu_u1a_0_split
I0428 19:51:37.704332   966 net.cpp:100] Creating Layer u1a_relu_u1a_0_split
I0428 19:51:37.704335   966 net.cpp:434] u1a_relu_u1a_0_split <- u1a
I0428 19:51:37.704342   966 net.cpp:408] u1a_relu_u1a_0_split -> u1a_relu_u1a_0_split_0
I0428 19:51:37.704349   966 net.cpp:408] u1a_relu_u1a_0_split -> u1a_relu_u1a_0_split_1
I0428 19:51:37.704409   966 net.cpp:150] Setting up u1a_relu_u1a_0_split
I0428 19:51:37.704417   966 net.cpp:157] Top shape: 2 128 128 128 (4194304)
I0428 19:51:37.704421   966 net.cpp:157] Top shape: 2 128 128 128 (4194304)
I0428 19:51:37.704422   966 net.cpp:165] Memory required for data: 2089782912
I0428 19:51:37.704426   966 layer_factory.hpp:77] Creating layer crop_d1c-d1cc
I0428 19:51:37.704432   966 net.cpp:100] Creating Layer crop_d1c-d1cc
I0428 19:51:37.704434   966 net.cpp:434] crop_d1c-d1cc <- d1c_relu_d1c_0_split_1
I0428 19:51:37.704437   966 net.cpp:434] crop_d1c-d1cc <- u1a_relu_u1a_0_split_0
I0428 19:51:37.704442   966 net.cpp:408] crop_d1c-d1cc -> d1cc
I0428 19:51:37.704465   966 net.cpp:150] Setting up crop_d1c-d1cc
I0428 19:51:37.704469   966 net.cpp:157] Top shape: 2 128 128 128 (4194304)
I0428 19:51:37.704471   966 net.cpp:165] Memory required for data: 2106560128
I0428 19:51:37.704484   966 layer_factory.hpp:77] Creating layer concat_d1cc_u1a-b
I0428 19:51:37.704490   966 net.cpp:100] Creating Layer concat_d1cc_u1a-b
I0428 19:51:37.704493   966 net.cpp:434] concat_d1cc_u1a-b <- u1a_relu_u1a_0_split_1
I0428 19:51:37.704509   966 net.cpp:434] concat_d1cc_u1a-b <- d1cc
I0428 19:51:37.704516   966 net.cpp:408] concat_d1cc_u1a-b -> u1b
I0428 19:51:37.704540   966 net.cpp:150] Setting up concat_d1cc_u1a-b
I0428 19:51:37.704547   966 net.cpp:157] Top shape: 2 256 128 128 (8388608)
I0428 19:51:37.704550   966 net.cpp:165] Memory required for data: 2140114560
I0428 19:51:37.704552   966 layer_factory.hpp:77] Creating layer conv_u1b-c
I0428 19:51:37.704561   966 net.cpp:100] Creating Layer conv_u1b-c
I0428 19:51:37.704565   966 net.cpp:434] conv_u1b-c <- u1b
I0428 19:51:37.704569   966 net.cpp:408] conv_u1b-c -> u1c
I0428 19:51:37.707396   966 net.cpp:150] Setting up conv_u1b-c
I0428 19:51:37.707411   966 net.cpp:157] Top shape: 2 128 126 126 (4064256)
I0428 19:51:37.707412   966 net.cpp:165] Memory required for data: 2156371584
I0428 19:51:37.707418   966 layer_factory.hpp:77] Creating layer bn_u1c
I0428 19:51:37.707423   966 net.cpp:100] Creating Layer bn_u1c
I0428 19:51:37.707427   966 net.cpp:434] bn_u1c <- u1c
I0428 19:51:37.707430   966 net.cpp:395] bn_u1c -> u1c (in-place)
I0428 19:51:37.707664   966 net.cpp:150] Setting up bn_u1c
I0428 19:51:37.707671   966 net.cpp:157] Top shape: 2 128 126 126 (4064256)
I0428 19:51:37.707674   966 net.cpp:165] Memory required for data: 2172628608
I0428 19:51:37.707680   966 layer_factory.hpp:77] Creating layer sc_u1c
I0428 19:51:37.707685   966 net.cpp:100] Creating Layer sc_u1c
I0428 19:51:37.707689   966 net.cpp:434] sc_u1c <- u1c
I0428 19:51:37.707693   966 net.cpp:395] sc_u1c -> u1c (in-place)
I0428 19:51:37.707733   966 layer_factory.hpp:77] Creating layer sc_u1c
I0428 19:51:37.707882   966 net.cpp:150] Setting up sc_u1c
I0428 19:51:37.707890   966 net.cpp:157] Top shape: 2 128 126 126 (4064256)
I0428 19:51:37.707893   966 net.cpp:165] Memory required for data: 2188885632
I0428 19:51:37.707898   966 layer_factory.hpp:77] Creating layer relu_u1c
I0428 19:51:37.707902   966 net.cpp:100] Creating Layer relu_u1c
I0428 19:51:37.707906   966 net.cpp:434] relu_u1c <- u1c
I0428 19:51:37.707911   966 net.cpp:395] relu_u1c -> u1c (in-place)
I0428 19:51:37.708104   966 net.cpp:150] Setting up relu_u1c
I0428 19:51:37.708113   966 net.cpp:157] Top shape: 2 128 126 126 (4064256)
I0428 19:51:37.708115   966 net.cpp:165] Memory required for data: 2205142656
I0428 19:51:37.708119   966 layer_factory.hpp:77] Creating layer conv_u1c-d
I0428 19:51:37.708127   966 net.cpp:100] Creating Layer conv_u1c-d
I0428 19:51:37.708130   966 net.cpp:434] conv_u1c-d <- u1c
I0428 19:51:37.708135   966 net.cpp:408] conv_u1c-d -> u1d
I0428 19:51:37.709348   966 net.cpp:150] Setting up conv_u1c-d
I0428 19:51:37.709357   966 net.cpp:157] Top shape: 2 128 124 124 (3936256)
I0428 19:51:37.709358   966 net.cpp:165] Memory required for data: 2220887680
I0428 19:51:37.709363   966 layer_factory.hpp:77] Creating layer bn_u1d
I0428 19:51:37.709368   966 net.cpp:100] Creating Layer bn_u1d
I0428 19:51:37.709372   966 net.cpp:434] bn_u1d <- u1d
I0428 19:51:37.709375   966 net.cpp:395] bn_u1d -> u1d (in-place)
I0428 19:51:37.709594   966 net.cpp:150] Setting up bn_u1d
I0428 19:51:37.709605   966 net.cpp:157] Top shape: 2 128 124 124 (3936256)
I0428 19:51:37.709607   966 net.cpp:165] Memory required for data: 2236632704
I0428 19:51:37.709631   966 layer_factory.hpp:77] Creating layer sc_u1d
I0428 19:51:37.709640   966 net.cpp:100] Creating Layer sc_u1d
I0428 19:51:37.709642   966 net.cpp:434] sc_u1d <- u1d
I0428 19:51:37.709648   966 net.cpp:395] sc_u1d -> u1d (in-place)
I0428 19:51:37.709689   966 layer_factory.hpp:77] Creating layer sc_u1d
I0428 19:51:37.709820   966 net.cpp:150] Setting up sc_u1d
I0428 19:51:37.709843   966 net.cpp:157] Top shape: 2 128 124 124 (3936256)
I0428 19:51:37.709846   966 net.cpp:165] Memory required for data: 2252377728
I0428 19:51:37.709851   966 layer_factory.hpp:77] Creating layer relu_u1d
I0428 19:51:37.709854   966 net.cpp:100] Creating Layer relu_u1d
I0428 19:51:37.709857   966 net.cpp:434] relu_u1d <- u1d
I0428 19:51:37.709861   966 net.cpp:395] relu_u1d -> u1d (in-place)
I0428 19:51:37.710073   966 net.cpp:150] Setting up relu_u1d
I0428 19:51:37.710083   966 net.cpp:157] Top shape: 2 128 124 124 (3936256)
I0428 19:51:37.710086   966 net.cpp:165] Memory required for data: 2268122752
I0428 19:51:37.710088   966 layer_factory.hpp:77] Creating layer upconv_u1d_u0a
I0428 19:51:37.710096   966 net.cpp:100] Creating Layer upconv_u1d_u0a
I0428 19:51:37.710098   966 net.cpp:434] upconv_u1d_u0a <- u1d
I0428 19:51:37.710105   966 net.cpp:408] upconv_u1d_u0a -> u0a
I0428 19:51:37.710819   966 net.cpp:150] Setting up upconv_u1d_u0a
I0428 19:51:37.710826   966 net.cpp:157] Top shape: 2 128 248 248 (15745024)
I0428 19:51:37.710829   966 net.cpp:165] Memory required for data: 2331102848
I0428 19:51:37.710834   966 layer_factory.hpp:77] Creating layer bn_u0a
I0428 19:51:37.710839   966 net.cpp:100] Creating Layer bn_u0a
I0428 19:51:37.710841   966 net.cpp:434] bn_u0a <- u0a
I0428 19:51:37.710846   966 net.cpp:395] bn_u0a -> u0a (in-place)
I0428 19:51:37.711916   966 net.cpp:150] Setting up bn_u0a
I0428 19:51:37.711928   966 net.cpp:157] Top shape: 2 128 248 248 (15745024)
I0428 19:51:37.711946   966 net.cpp:165] Memory required for data: 2394082944
I0428 19:51:37.711953   966 layer_factory.hpp:77] Creating layer sc_u0a
I0428 19:51:37.711962   966 net.cpp:100] Creating Layer sc_u0a
I0428 19:51:37.711966   966 net.cpp:434] sc_u0a <- u0a
I0428 19:51:37.711969   966 net.cpp:395] sc_u0a -> u0a (in-place)
I0428 19:51:37.712013   966 layer_factory.hpp:77] Creating layer sc_u0a
I0428 19:51:37.712210   966 net.cpp:150] Setting up sc_u0a
I0428 19:51:37.712218   966 net.cpp:157] Top shape: 2 128 248 248 (15745024)
I0428 19:51:37.712220   966 net.cpp:165] Memory required for data: 2457063040
I0428 19:51:37.712224   966 layer_factory.hpp:77] Creating layer relu_u0a
I0428 19:51:37.712230   966 net.cpp:100] Creating Layer relu_u0a
I0428 19:51:37.712232   966 net.cpp:434] relu_u0a <- u0a
I0428 19:51:37.712237   966 net.cpp:395] relu_u0a -> u0a (in-place)
I0428 19:51:37.712435   966 net.cpp:150] Setting up relu_u0a
I0428 19:51:37.712443   966 net.cpp:157] Top shape: 2 128 248 248 (15745024)
I0428 19:51:37.712446   966 net.cpp:165] Memory required for data: 2520043136
I0428 19:51:37.712448   966 layer_factory.hpp:77] Creating layer u0a_relu_u0a_0_split
I0428 19:51:37.712455   966 net.cpp:100] Creating Layer u0a_relu_u0a_0_split
I0428 19:51:37.712457   966 net.cpp:434] u0a_relu_u0a_0_split <- u0a
I0428 19:51:37.712461   966 net.cpp:408] u0a_relu_u0a_0_split -> u0a_relu_u0a_0_split_0
I0428 19:51:37.712468   966 net.cpp:408] u0a_relu_u0a_0_split -> u0a_relu_u0a_0_split_1
I0428 19:51:37.712525   966 net.cpp:150] Setting up u0a_relu_u0a_0_split
I0428 19:51:37.712533   966 net.cpp:157] Top shape: 2 128 248 248 (15745024)
I0428 19:51:37.712537   966 net.cpp:157] Top shape: 2 128 248 248 (15745024)
I0428 19:51:37.712538   966 net.cpp:165] Memory required for data: 2646003328
I0428 19:51:37.712541   966 layer_factory.hpp:77] Creating layer crop_d0c-d0cc
I0428 19:51:37.712549   966 net.cpp:100] Creating Layer crop_d0c-d0cc
I0428 19:51:37.712553   966 net.cpp:434] crop_d0c-d0cc <- d0c_relu_d0c_0_split_1
I0428 19:51:37.712555   966 net.cpp:434] crop_d0c-d0cc <- u0a_relu_u0a_0_split_0
I0428 19:51:37.712559   966 net.cpp:408] crop_d0c-d0cc -> d0cc
I0428 19:51:37.712584   966 net.cpp:150] Setting up crop_d0c-d0cc
I0428 19:51:37.712591   966 net.cpp:157] Top shape: 2 64 248 248 (7872512)
I0428 19:51:37.712594   966 net.cpp:165] Memory required for data: 2677493376
I0428 19:51:37.712595   966 layer_factory.hpp:77] Creating layer concat_d0cc_u0a-b
I0428 19:51:37.712601   966 net.cpp:100] Creating Layer concat_d0cc_u0a-b
I0428 19:51:37.712604   966 net.cpp:434] concat_d0cc_u0a-b <- u0a_relu_u0a_0_split_1
I0428 19:51:37.712607   966 net.cpp:434] concat_d0cc_u0a-b <- d0cc
I0428 19:51:37.712612   966 net.cpp:408] concat_d0cc_u0a-b -> u0b
I0428 19:51:37.712633   966 net.cpp:150] Setting up concat_d0cc_u0a-b
I0428 19:51:37.712637   966 net.cpp:157] Top shape: 2 192 248 248 (23617536)
I0428 19:51:37.712656   966 net.cpp:165] Memory required for data: 2771963520
I0428 19:51:37.712658   966 layer_factory.hpp:77] Creating layer conv_u0b-c
I0428 19:51:37.712669   966 net.cpp:100] Creating Layer conv_u0b-c
I0428 19:51:37.712671   966 net.cpp:434] conv_u0b-c <- u0b
I0428 19:51:37.712677   966 net.cpp:408] conv_u0b-c -> u0c
I0428 19:51:37.713624   966 net.cpp:150] Setting up conv_u0b-c
I0428 19:51:37.713635   966 net.cpp:157] Top shape: 2 64 246 246 (7746048)
I0428 19:51:37.713639   966 net.cpp:165] Memory required for data: 2802947712
I0428 19:51:37.713644   966 layer_factory.hpp:77] Creating layer bn_u0c
I0428 19:51:37.713647   966 net.cpp:100] Creating Layer bn_u0c
I0428 19:51:37.713651   966 net.cpp:434] bn_u0c <- u0c
I0428 19:51:37.713655   966 net.cpp:395] bn_u0c -> u0c (in-place)
I0428 19:51:37.713892   966 net.cpp:150] Setting up bn_u0c
I0428 19:51:37.713901   966 net.cpp:157] Top shape: 2 64 246 246 (7746048)
I0428 19:51:37.713903   966 net.cpp:165] Memory required for data: 2833931904
I0428 19:51:37.713909   966 layer_factory.hpp:77] Creating layer sc_u0c
I0428 19:51:37.713914   966 net.cpp:100] Creating Layer sc_u0c
I0428 19:51:37.713925   966 net.cpp:434] sc_u0c <- u0c
I0428 19:51:37.713932   966 net.cpp:395] sc_u0c -> u0c (in-place)
I0428 19:51:37.713971   966 layer_factory.hpp:77] Creating layer sc_u0c
I0428 19:51:37.714181   966 net.cpp:150] Setting up sc_u0c
I0428 19:51:37.714188   966 net.cpp:157] Top shape: 2 64 246 246 (7746048)
I0428 19:51:37.714191   966 net.cpp:165] Memory required for data: 2864916096
I0428 19:51:37.714196   966 layer_factory.hpp:77] Creating layer relu_u0c
I0428 19:51:37.714200   966 net.cpp:100] Creating Layer relu_u0c
I0428 19:51:37.714202   966 net.cpp:434] relu_u0c <- u0c
I0428 19:51:37.714208   966 net.cpp:395] relu_u0c -> u0c (in-place)
I0428 19:51:37.715000   966 net.cpp:150] Setting up relu_u0c
I0428 19:51:37.715013   966 net.cpp:157] Top shape: 2 64 246 246 (7746048)
I0428 19:51:37.715030   966 net.cpp:165] Memory required for data: 2895900288
I0428 19:51:37.715034   966 layer_factory.hpp:77] Creating layer conv_u0c-d
I0428 19:51:37.715044   966 net.cpp:100] Creating Layer conv_u0c-d
I0428 19:51:37.715057   966 net.cpp:434] conv_u0c-d <- u0c
I0428 19:51:37.715064   966 net.cpp:408] conv_u0c-d -> u0d
I0428 19:51:37.715576   966 net.cpp:150] Setting up conv_u0c-d
I0428 19:51:37.715585   966 net.cpp:157] Top shape: 2 64 244 244 (7620608)
I0428 19:51:37.715587   966 net.cpp:165] Memory required for data: 2926382720
I0428 19:51:37.715603   966 layer_factory.hpp:77] Creating layer bn_u0d
I0428 19:51:37.715625   966 net.cpp:100] Creating Layer bn_u0d
I0428 19:51:37.715627   966 net.cpp:434] bn_u0d <- u0d
I0428 19:51:37.715631   966 net.cpp:395] bn_u0d -> u0d (in-place)
I0428 19:51:37.716673   966 net.cpp:150] Setting up bn_u0d
I0428 19:51:37.716686   966 net.cpp:157] Top shape: 2 64 244 244 (7620608)
I0428 19:51:37.716688   966 net.cpp:165] Memory required for data: 2956865152
I0428 19:51:37.716711   966 layer_factory.hpp:77] Creating layer sc_u0d
I0428 19:51:37.716718   966 net.cpp:100] Creating Layer sc_u0d
I0428 19:51:37.716722   966 net.cpp:434] sc_u0d <- u0d
I0428 19:51:37.716727   966 net.cpp:395] sc_u0d -> u0d (in-place)
I0428 19:51:37.716799   966 layer_factory.hpp:77] Creating layer sc_u0d
I0428 19:51:37.717000   966 net.cpp:150] Setting up sc_u0d
I0428 19:51:37.717007   966 net.cpp:157] Top shape: 2 64 244 244 (7620608)
I0428 19:51:37.717010   966 net.cpp:165] Memory required for data: 2987347584
I0428 19:51:37.717015   966 layer_factory.hpp:77] Creating layer relu_u0d
I0428 19:51:37.717020   966 net.cpp:100] Creating Layer relu_u0d
I0428 19:51:37.717022   966 net.cpp:434] relu_u0d <- u0d
I0428 19:51:37.717027   966 net.cpp:395] relu_u0d -> u0d (in-place)
I0428 19:51:37.717211   966 net.cpp:150] Setting up relu_u0d
I0428 19:51:37.717221   966 net.cpp:157] Top shape: 2 64 244 244 (7620608)
I0428 19:51:37.717223   966 net.cpp:165] Memory required for data: 3017830016
I0428 19:51:37.717226   966 layer_factory.hpp:77] Creating layer conv_u0d-score
I0428 19:51:37.717234   966 net.cpp:100] Creating Layer conv_u0d-score
I0428 19:51:37.717252   966 net.cpp:434] conv_u0d-score <- u0d
I0428 19:51:37.717259   966 net.cpp:408] conv_u0d-score -> score
I0428 19:51:37.717615   966 net.cpp:150] Setting up conv_u0d-score
I0428 19:51:37.717625   966 net.cpp:157] Top shape: 2 3 244 244 (357216)
I0428 19:51:37.717628   966 net.cpp:165] Memory required for data: 3019258880
I0428 19:51:37.717633   966 layer_factory.hpp:77] Creating layer score_conv_u0d-score_0_split
I0428 19:51:37.717638   966 net.cpp:100] Creating Layer score_conv_u0d-score_0_split
I0428 19:51:37.717640   966 net.cpp:434] score_conv_u0d-score_0_split <- score
I0428 19:51:37.717646   966 net.cpp:408] score_conv_u0d-score_0_split -> score_conv_u0d-score_0_split_0
I0428 19:51:37.717653   966 net.cpp:408] score_conv_u0d-score_0_split -> score_conv_u0d-score_0_split_1
I0428 19:51:37.717694   966 net.cpp:150] Setting up score_conv_u0d-score_0_split
I0428 19:51:37.717700   966 net.cpp:157] Top shape: 2 3 244 244 (357216)
I0428 19:51:37.717703   966 net.cpp:157] Top shape: 2 3 244 244 (357216)
I0428 19:51:37.717706   966 net.cpp:165] Memory required for data: 3022116608
I0428 19:51:37.717708   966 layer_factory.hpp:77] Creating layer loss
I0428 19:51:37.717713   966 net.cpp:100] Creating Layer loss
I0428 19:51:37.717715   966 net.cpp:434] loss <- score_conv_u0d-score_0_split_0
I0428 19:51:37.717720   966 net.cpp:434] loss <- label
I0428 19:51:37.717723   966 net.cpp:434] loss <- weights
I0428 19:51:37.717727   966 net.cpp:408] loss -> loss
I0428 19:51:37.717734   966 layer_factory.hpp:77] Creating layer loss
I0428 19:51:37.719089   966 net.cpp:150] Setting up loss
I0428 19:51:37.719101   966 net.cpp:157] Top shape: (1)
I0428 19:51:37.719104   966 net.cpp:160]     with loss weight 1
I0428 19:51:37.719130   966 net.cpp:165] Memory required for data: 3022116612
I0428 19:51:37.719133   966 layer_factory.hpp:77] Creating layer visualize
I0428 19:51:37.719139   966 net.cpp:100] Creating Layer visualize
I0428 19:51:37.719142   966 net.cpp:434] visualize <- score_conv_u0d-score_0_split_1
I0428 19:51:37.719149   966 net.cpp:408] visualize -> visualize_out
I0428 19:51:37.720727   966 net.cpp:150] Setting up visualize
I0428 19:51:37.720742   966 net.cpp:157] Top shape: 2 3 244 244 (357216)
I0428 19:51:37.720760   966 net.cpp:165] Memory required for data: 3023545476
I0428 19:51:37.720763   966 layer_factory.hpp:77] Creating layer fake
I0428 19:51:37.720770   966 net.cpp:100] Creating Layer fake
I0428 19:51:37.720773   966 net.cpp:434] fake <- visualize_out
I0428 19:51:37.720777   966 net.cpp:150] Setting up fake
I0428 19:51:37.720779   966 net.cpp:165] Memory required for data: 3023545476
…
I0428 19:51:37.722249   966 net.cpp:322] The NetState phase (1) differed from the phase (0) specified by a rule in layer visualize
I0428 19:51:37.722254   966 net.cpp:322] The NetState phase (1) differed from the phase (0) specified by a rule in layer fake
I0428 19:51:37.722725   966 net.cpp:58] Initializing net from parameters: 
name: "unet_weighted_batchnorm_3"
force_backward: true
state {
  phase: TEST
}
layer {
  name: "loaddata"
  type: "HDF5Data"
  top: "data"
  top: "label"
  top: "weights"
  include {
    phase: TEST
  }
  hdf5_data_param {
    source: "caffeHDF5_validation_3.txt"
    batch_size: 1
  }
}
layer {
  name: "conv_d0a-b"
  type: "Convolution"
  bottom: "data"
  top: "d0b"
  param {
    lr_mult: 1
    decay_mult: 1
  }
  param {
    lr_mult: 2
    decay_mult: 0
  }
  convolution_param {
    num_output: 64
    pad: 0
    kernel_size: 3
    weight_filler {
      type: "xavier"
    }
    engine: CAFFE
  }
}
layer {
  name: "bn_d0b"
  type: "BatchNorm"
  bottom: "d0b"
  top: "d0b"
  batch_norm_param {
    use_global_stats: false
    moving_average_fraction: 0.999
    eps: 1e-05
  }
}
layer {
  name: "sc_d0b"
  type: "Scale"
  bottom: "d0b"
  top: "d0b"
  scale_param {
    axis: 1
    filler {
      type: "constant"
      value: 1
    }
    bias_term: true
    bias_filler {
      type: "constant"
      value: 0
    }
  }
}
layer {
  name: "relu_d0b"
  type: "ReLU"
  bottom: "d0b"
  top: "d0b"
}
layer {
  name: "conv_d0b-c"
  type: "Convolution"
  bottom: "d0b"
  top: "d0c"
  param {
    lr_mult: 1
    decay_mult: 1
  }
  param {
    lr_mult: 2
    decay_mult: 0
  }
  convolution_param {
    num_output: 64
    pad: 0
    kernel_size: 3
    weight_filler {
      type: "xavier"
    }
    engine: CAFFE
  }
}
layer {
  name: "bn_d0c"
  type: "BatchNorm"
  bottom: "d0c"
  top: "d0c"
  batch_norm_param {
    use_global_stats: false
    moving_average_fraction: 0.999
    eps: 1e-05
  }
}
layer {
  name: "sc_d0c"
  type: "Scale"
  bottom: "d0c"
  top: "d0c"
  scale_param {
    axis: 1
    filler {
      type: "constant"
      value: 1
    }
    bias_term: true
    bias_filler {
      type: "constant"
      value: 0
    }
  }
}
layer {
  name: "relu_d0c"
  type: "ReLU"
  bottom: "d0c"
  top: "d0c"
}
layer {
  name: "pool_d0c-1a"
  type: "Pooling"
  bottom: "d0c"
  top: "d1a"
  pooling_param {
    pool: MAX
    kernel_size: 2
    stride: 2
  }
}
layer {
  name: "conv_d1a-b"
  type: "Convolution"
  bottom: "d1a"
  top: "d1b"
  param {
    lr_mult: 1
    decay_mult: 1
  }
  param {
    lr_mult: 2
    decay_mult: 0
  }
  convolution_param {
    num_output: 128
    pad: 0
    kernel_size: 3
    weight_filler {
      type: "xavier"
    }
    engine: CAFFE
  }
}
layer {
  name: "bn_d1b"
  type: "BatchNorm"
  bottom: "d1b"
  top: "d1b"
  batch_norm_param {
    use_global_stats: false
    moving_average_fraction: 0.999
    eps: 1e-05
  }
}
layer {
  name: "sc_d1b"
  type: "Scale"
  bottom: "d1b"
  top: "d1b"
  scale_param {
    axis: 1
    filler {
      type: "constant"
      value: 1
    }
    bias_term: true
    bias_filler {
      type: "constant"
      value: 0
    }
  }
}
layer {
  name: "relu_d1b"
  type: "ReLU"
  bottom: "d1b"
  top: "d1b"
}
layer {
  name: "conv_d1b-c"
  type: "Convolution"
  bottom: "d1b"
  top: "d1c"
  param {
    lr_mult: 1
    decay_mult: 1
  }
  param {
    lr_mult: 2
    decay_mult: 0
  }
  convolution_param {
    num_output: 128
    pad: 0
    kernel_size: 3
    weight_filler {
      type: "xavier"
    }
    engine: CAFFE
  }
}
layer {
  name: "bn_d1c"
  type: "BatchNorm"
  bottom: "d1c"
  top: "d1c"
  batch_norm_param {
    use_global_stats: false
    moving_average_fraction: 0.999
    eps: 1e-05
  }
}
layer {
  name: "sc_d1c"
  type: "Scale"
  bottom: "d1c"
  top: "d1c"
  scale_param {
    axis: 1
    filler {
      type: "constant"
      value: 1
    }
    bias_term: true
    bias_filler {
      type: "constant"
      value: 0
    }
  }
}
layer {
  name: "relu_d1c"
  type: "ReLU"
  bottom: "d1c"
  top: "d1c"
}
layer {
  name: "pool_d1c-2a"
  type: "Pooling"
  bottom: "d1c"
  top: "d2a"
  pooling_param {
    pool: MAX
    kernel_size: 2
    stride: 2
  }
}
layer {
  name: "conv_d2a-b"
  type: "Convolution"
  bottom: "d2a"
  top: "d2b"
  param {
    lr_mult: 1
    decay_mult: 1
  }
  param {
    lr_mult: 2
    decay_mult: 0
  }
  convolution_param {
    num_output: 256
    pad: 0
    kernel_size: 3
    weight_filler {
      type: "xavier"
    }
    engine: CAFFE
  }
}
layer {
  name: "bn_d2b"
  type: "BatchNorm"
  bottom: "d2b"
  top: "d2b"
  batch_norm_param {
    use_global_stats: false
    moving_average_fraction: 0.999
    eps: 1e-05
  }
}
layer {
  name: "sc_d2b"
  type: "Scale"
  bottom: "d2b"
  top: "d2b"
  scale_param {
    axis: 1
    filler {
      type: "constant"
      value: 1
    }
    bias_term: true
    bias_filler {
      type: "constant"
      value: 0
    }
  }
}
layer {
  name: "relu_d2b"
  type: "ReLU"
  bottom: "d2b"
  top: "d2b"
}
layer {
  name: "conv_d2b-c"
  type: "Convolution"
  bottom: "d2b"
  top: "d2c"
  param {
    lr_mult: 1
    decay_mult: 1
  }
  param {
    lr_mult: 2
    decay_mult: 0
  }
  convolution_param {
    num_output: 256
    pad: 0
    kernel_size: 3
    weight_filler {
      type: "xavier"
    }
    engine: CAFFE
  }
}
layer {
  name: "bn_d2c"
  type: "BatchNorm"
  bottom: "d2c"
  top: "d2c"
  batch_norm_param {
    use_global_stats: false
    moving_average_fraction: 0.999
    eps: 1e-05
  }
}
layer {
  name: "sc_d2c"
  type: "Scale"
  bottom: "d2c"
  top: "d2c"
  scale_param {
    axis: 1
    filler {
      type: "constant"
      value: 1
    }
    bias_term: true
    bias_filler {
      type: "constant"
      value: 0
    }
  }
}
layer {
  name: "relu_d2c"
  type: "ReLU"
  bottom: "d2c"
  top: "d2c"
}
layer {
  name: "pool_d2c-3a"
  type: "Pooling"
  bottom: "d2c"
  top: "d3a"
  pooling_param {
    pool: MAX
    kernel_size: 2
    stride: 2
  }
}
layer {
  name: "conv_d3a-b"
  type: "Convolution"
  bottom: "d3a"
  top: "d3b"
  param {
    lr_mult: 1
    decay_mult: 1
  }
  param {
    lr_mult: 2
    decay_mult: 0
  }
  convolution_param {
    num_output: 512
    pad: 0
    kernel_size: 3
    weight_filler {
      type: "xavier"
    }
    engine: CAFFE
  }
}
layer {
  name: "bn_d3b"
  type: "BatchNorm"
  bottom: "d3b"
  top: "d3b"
  batch_norm_param {
    use_global_stats: false
    moving_average_fraction: 0.999
    eps: 1e-05
  }
}
layer {
  name: "sc_d3b"
  type: "Scale"
  bottom: "d3b"
  top: "d3b"
  scale_param {
    axis: 1
    filler {
      type: "constant"
      value: 1
    }
    bias_term: true
    bias_filler {
      type: "constant"
      value: 0
    }
  }
}
layer {
  name: "relu_d3b"
  type: "ReLU"
  bottom: "d3b"
  top: "d3b"
}
layer {
  name: "conv_d3b-c"
  type: "Convolution"
  bottom: "d3b"
  top: "d3c"
  param {
    lr_mult: 1
    decay_mult: 1
  }
  param {
    lr_mult: 2
    decay_mult: 0
  }
  convolution_param {
    num_output: 512
    pad: 0
    kernel_size: 3
    weight_filler {
      type: "xavier"
    }
    engine: CAFFE
  }
}
layer {
  name: "bn_d3c"
  type: "BatchNorm"
  bottom: "d3c"
  top: "d3c"
  batch_norm_param {
    use_global_stats: false
    moving_average_fraction: 0.999
    eps: 1e-05
  }
}
layer {
  name: "sc_d3c"
  type: "Scale"
  bottom: "d3c"
  top: "d3c"
  scale_param {
    axis: 1
    filler {
      type: "constant"
      value: 1
    }
    bias_term: true
    bias_filler {
      type: "constant"
      value: 0
    }
  }
}
layer {
  name: "relu_d3c"
  type: "ReLU"
  bottom: "d3c"
  top: "d3c"
}
layer {
  name: "pool_d3c-4a"
  type: "Pooling"
  bottom: "d3c"
  top: "d4a"
  pooling_param {
    pool: MAX
    kernel_size: 2
    stride: 2
  }
}
layer {
  name: "conv_d4a-b"
  type: "Convolution"
  bottom: "d4a"
  top: "d4b"
  param {
    lr_mult: 1
    decay_mult: 1
  }
  param {
    lr_mult: 2
    decay_mult: 0
  }
  convolution_param {
    num_output: 1024
    pad: 0
    kernel_size: 3
    weight_filler {
      type: "xavier"
    }
    engine: CAFFE
  }
}
layer {
  name: "bn_d4b"
  type: "BatchNorm"
  bottom: "d4b"
  top: "d4b"
  batch_norm_param {
    use_global_stats: false
    moving_average_fraction: 0.999
    eps: 1e-05
  }
}
layer {
  name: "sc_d4b"
  type: "Scale"
  bottom: "d4b"
  top: "d4b"
  scale_param {
    axis: 1
    filler {
      type: "constant"
      value: 1
    }
    bias_term: true
    bias_filler {
      type: "constant"
      value: 0
    }
  }
}
layer {
  name: "relu_d4b"
  type: "ReLU"
  bottom: "d4b"
  top: "d4b"
}
layer {
  name: "conv_d4b-c"
  type: "Convolution"
  bottom: "d4b"
  top: "d4c"
  param {
    lr_mult: 1
    decay_mult: 1
  }
  param {
    lr_mult: 2
    decay_mult: 0
  }
  convolution_param {
    num_output: 1024
    pad: 0
    kernel_size: 3
    weight_filler {
      type: "xavier"
    }
    engine: CAFFE
  }
}
layer {
  name: "bn_d4c"
  type: "BatchNorm"
  bottom: "d4c"
  top: "d4c"
  batch_norm_param {
    use_global_stats: false
    moving_average_fraction: 0.999
    eps: 1e-05
  }
}
layer {
  name: "sc_d4c"
  type: "Scale"
  bottom: "d4c"
  top: "d4c"
  scale_param {
    axis: 1
    filler {
      type: "constant"
      value: 1
    }
    bias_term: true
    bias_filler {
      type: "constant"
      value: 0
    }
  }
}
layer {
  name: "relu_d4c"
  type: "ReLU"
  bottom: "d4c"
  top: "d4c"
}
layer {
  name: "upconv_d4c_u3a"
  type: "Deconvolution"
  bottom: "d4c"
  top: "u3a"
  param {
    lr_mult: 1
    decay_mult: 1
  }
  param {
    lr_mult: 2
    decay_mult: 0
  }
  convolution_param {
    num_output: 512
    pad: 0
    kernel_size: 2
    stride: 2
    weight_filler {
      type: "xavier"
    }
  }
}
layer {
  name: "bn_u3a"
  type: "BatchNorm"
  bottom: "u3a"
  top: "u3a"
  batch_norm_param {
    use_global_stats: false
    moving_average_fraction: 0.999
    eps: 1e-05
  }
}
layer {
  name: "sc_u3a"
  type: "Scale"
  bottom: "u3a"
  top: "u3a"
  scale_param {
    axis: 1
    filler {
      type: "constant"
      value: 1
    }
    bias_term: true
    bias_filler {
      type: "constant"
      value: 0
    }
  }
}
layer {
  name: "relu_u3a"
  type: "ReLU"
  bottom: "u3a"
  top: "u3a"
}
layer {
  name: "crop_d3c-d3cc"
  type: "Crop"
  bottom: "d3c"
  bottom: "u3a"
  top: "d3cc"
  crop_param {
    axis: 2
    offset: 4
  }
}
layer {
  name: "concat_d3cc_u3a-b"
  type: "Concat"
  bottom: "u3a"
  bottom: "d3cc"
  top: "u3b"
}
layer {
  name: "conv_u3b-c"
  type: "Convolution"
  bottom: "u3b"
  top: "u3c"
  param {
    lr_mult: 1
    decay_mult: 1
  }
  param {
    lr_mult: 2
    decay_mult: 0
  }
  convolution_param {
    num_output: 512
    pad: 0
    kernel_size: 3
    weight_filler {
      type: "xavier"
    }
    engine: CAFFE
  }
}
layer {
  name: "bn_u3c"
  type: "BatchNorm"
  bottom: "u3c"
  top: "u3c"
  batch_norm_param {
    use_global_stats: false
    moving_average_fraction: 0.999
    eps: 1e-05
  }
}
layer {
  name: "sc_u3c"
  type: "Scale"
  bottom: "u3c"
  top: "u3c"
  scale_param {
    axis: 1
    filler {
      type: "constant"
      value: 1
    }
    bias_term: true
    bias_filler {
      type: "constant"
      value: 0
    }
  }
}
layer {
  name: "relu_u3c"
  type: "ReLU"
  bottom: "u3c"
  top: "u3c"
}
layer {
  name: "conv_u3c-d"
  type: "Convolution"
  bottom: "u3c"
  top: "u3d"
  param {
    lr_mult: 1
    decay_mult: 1
  }
  param {
    lr_mult: 2
    decay_mult: 0
  }
  convolution_param {
    num_output: 512
    pad: 0
    kernel_size: 3
    weight_filler {
      type: "xavier"
    }
    engine: CAFFE
  }
}
layer {
  name: "bn_u3d"
  type: "BatchNorm"
  bottom: "u3d"
  top: "u3d"
  batch_norm_param {
    use_global_stats: false
    moving_average_fraction: 0.999
    eps: 1e-05
  }
}
layer {
  name: "sc_u3d"
  type: "Scale"
  bottom: "u3d"
  top: "u3d"
  scale_param {
    axis: 1
    filler {
      type: "constant"
      value: 1
    }
    bias_term: true
    bias_filler {
      type: "constant"
      value: 0
    }
  }
}
layer {
  name: "relu_u3d"
  type: "ReLU"
  bottom: "u3d"
  top: "u3d"
}
layer {
  name: "upconv_u3d_u2a"
  type: "Deconvolution"
  bottom: "u3d"
  top: "u2a"
  param {
    lr_mult: 1
    decay_mult: 1
  }
  param {
    lr_mult: 2
    decay_mult: 0
  }
  convolution_param {
    num_output: 256
    pad: 0
    kernel_size: 2
    stride: 2
    weight_filler {
      type: "xavier"
    }
  }
}
layer {
  name: "bn_u2a"
  type: "BatchNorm"
  bottom: "u2a"
  top: "u2a"
  batch_norm_param {
    use_global_stats: false
    moving_average_fraction: 0.999
    eps: 1e-05
  }
}
layer {
  name: "sc_u2a"
  type: "Scale"
  bottom: "u2a"
  top: "u2a"
  scale_param {
    axis: 1
    filler {
      type: "constant"
      value: 1
    }
    bias_term: true
    bias_filler {
      type: "constant"
      value: 0
    }
  }
}
layer {
  name: "relu_u2a"
  type: "ReLU"
  bottom: "u2a"
  top: "u2a"
}
layer {
  name: "crop_d2c-d2cc"
  type: "Crop"
  bottom: "d2c"
  bottom: "u2a"
  top: "d2cc"
  crop_param {
    axis: 2
    offset: 16
  }
}
layer {
  name: "concat_d2cc_u2a-b"
  type: "Concat"
  bottom: "u2a"
  bottom: "d2cc"
  top: "u2b"
}
layer {
  name: "conv_u2b-c"
  type: "Convolution"
  bottom: "u2b"
  top: "u2c"
  param {
    lr_mult: 1
    decay_mult: 1
  }
  param {
    lr_mult: 2
    decay_mult: 0
  }
  convolution_param {
    num_output: 256
    pad: 0
    kernel_size: 3
    weight_filler {
      type: "xavier"
    }
    engine: CAFFE
  }
}
layer {
  name: "bn_u2c"
  type: "BatchNorm"
  bottom: "u2c"
  top: "u2c"
  batch_norm_param {
    use_global_stats: false
    moving_average_fraction: 0.999
    eps: 1e-05
  }
}
layer {
  name: "sc_u2c"
  type: "Scale"
  bottom: "u2c"
  top: "u2c"
  scale_param {
    axis: 1
    filler {
      type: "constant"
      value: 1
    }
    bias_term: true
    bias_filler {
      type: "constant"
      value: 0
    }
  }
}
layer {
  name: "relu_u2c"
  type: "ReLU"
  bottom: "u2c"
  top: "u2c"
}
layer {
  name: "conv_u2c-d"
  type: "Convolution"
  bottom: "u2c"
  top: "u2d"
  param {
    lr_mult: 1
    decay_mult: 1
  }
  param {
    lr_mult: 2
    decay_mult: 0
  }
  convolution_param {
    num_output: 256
    pad: 0
    kernel_size: 3
    weight_filler {
      type: "xavier"
    }
    engine: CAFFE
  }
}
layer {
  name: "bn_u2d"
  type: "BatchNorm"
  bottom: "u2d"
  top: "u2d"
  batch_norm_param {
    use_global_stats: false
    moving_average_fraction: 0.999
    eps: 1e-05
  }
}
layer {
  name: "sc_u2d"
  type: "Scale"
  bottom: "u2d"
  top: "u2d"
  scale_param {
    axis: 1
    filler {
      type: "constant"
      value: 1
    }
    bias_term: true
    bias_filler {
      type: "constant"
      value: 0
    }
  }
}
layer {
  name: "relu_u2d"
  type: "ReLU"
  bottom: "u2d"
  top: "u2d"
}
layer {
  name: "upconv_u2d_u1a"
  type: "Deconvolution"
  bottom: "u2d"
  top: "u1a"
  param {
    lr_mult: 1
    decay_mult: 1
  }
  param {
    lr_mult: 2
    decay_mult: 0
  }
  convolution_param {
    num_output: 128
    pad: 0
    kernel_size: 2
    stride: 2
    weight_filler {
      type: "xavier"
    }
  }
}
layer {
  name: "bn_u1a"
  type: "BatchNorm"
  bottom: "u1a"
  top: "u1a"
  batch_norm_param {
    use_global_stats: false
    moving_average_fraction: 0.999
    eps: 1e-05
  }
}
layer {
  name: "sc_u1a"
  type: "Scale"
  bottom: "u1a"
  top: "u1a"
  scale_param {
    axis: 1
    filler {
      type: "constant"
      value: 1
    }
    bias_term: true
    bias_filler {
      type: "constant"
      value: 0
    }
  }
}
layer {
  name: "relu_u1a"
  type: "ReLU"
  bottom: "u1a"
  top: "u1a"
}
layer {
  name: "crop_d1c-d1cc"
  type: "Crop"
  bottom: "d1c"
  bottom: "u1a"
  top: "d1cc"
  crop_param {
    axis: 2
    offset: 40
  }
}
layer {
  name: "concat_d1cc_u1a-b"
  type: "Concat"
  bottom: "u1a"
  bottom: "d1cc"
  top: "u1b"
}
layer {
  name: "conv_u1b-c"
  type: "Convolution"
  bottom: "u1b"
  top: "u1c"
  param {
    lr_mult: 1
    decay_mult: 1
  }
  param {
    lr_mult: 2
    decay_mult: 0
  }
  convolution_param {
    num_output: 128
    pad: 0
    kernel_size: 3
    weight_filler {
      type: "xavier"
    }
    engine: CAFFE
  }
}
layer {
  name: "bn_u1c"
  type: "BatchNorm"
  bottom: "u1c"
  top: "u1c"
  batch_norm_param {
    use_global_stats: false
    moving_average_fraction: 0.999
    eps: 1e-05
  }
}
layer {
  name: "sc_u1c"
  type: "Scale"
  bottom: "u1c"
  top: "u1c"
  scale_param {
    axis: 1
    filler {
      type: "constant"
      value: 1
    }
    bias_term: true
    bias_filler {
      type: "constant"
      value: 0
    }
  }
}
layer {
  name: "relu_u1c"
  type: "ReLU"
  bottom: "u1c"
  top: "u1c"
}
layer {
  name: "conv_u1c-d"
  type: "Convolution"
  bottom: "u1c"
  top: "u1d"
  param {
    lr_mult: 1
    decay_mult: 1
  }
  param {
    lr_mult: 2
    decay_mult: 0
  }
  convolution_param {
    num_output: 128
    pad: 0
    kernel_size: 3
    weight_filler {
      type: "xavier"
    }
    engine: CAFFE
  }
}
layer {
  name: "bn_u1d"
  type: "BatchNorm"
  bottom: "u1d"
  top: "u1d"
  batch_norm_param {
    use_global_stats: false
    moving_average_fraction: 0.999
    eps: 1e-05
  }
}
layer {
  name: "sc_u1d"
  type: "Scale"
  bottom: "u1d"
  top: "u1d"
  scale_param {
    axis: 1
    filler {
      type: "constant"
      value: 1
    }
    bias_term: true
    bias_filler {
      type: "constant"
      value: 0
    }
  }
}
layer {
  name: "relu_u1d"
  type: "ReLU"
  bottom: "u1d"
  top: "u1d"
}
layer {
  name: "upconv_u1d_u0a"
  type: "Deconvolution"
  bottom: "u1d"
  top: "u0a"
  param {
    lr_mult: 1
    decay_mult: 1
  }
  param {
    lr_mult: 2
    decay_mult: 0
  }
  convolution_param {
    num_output: 128
    pad: 0
    kernel_size: 2
    stride: 2
    weight_filler {
      type: "xavier"
    }
  }
}
layer {
  name: "bn_u0a"
  type: "BatchNorm"
  bottom: "u0a"
  top: "u0a"
  batch_norm_param {
    use_global_stats: false
    moving_average_fraction: 0.999
    eps: 1e-05
  }
}
layer {
  name: "sc_u0a"
  type: "Scale"
  bottom: "u0a"
  top: "u0a"
  scale_param {
    axis: 1
    filler {
      type: "constant"
      value: 1
    }
    bias_term: true
    bias_filler {
      type: "constant"
      value: 0
    }
  }
}
layer {
  name: "relu_u0a"
  type: "ReLU"
  bottom: "u0a"
  top: "u0a"
}
layer {
  name: "crop_d0c-d0cc"
  type: "Crop"
  bottom: "d0c"
  bottom: "u0a"
  top: "d0cc"
  crop_param {
    axis: 2
    offset: 88
  }
}
layer {
  name: "concat_d0cc_u0a-b"
  type: "Concat"
  bottom: "u0a"
  bottom: "d0cc"
  top: "u0b"
}
layer {
  name: "conv_u0b-c"
  type: "Convolution"
  bottom: "u0b"
  top: "u0c"
  param {
    lr_mult: 1
    decay_mult: 1
  }
  param {
    lr_mult: 2
    decay_mult: 0
  }
  convolution_param {
    num_output: 64
    pad: 0
    kernel_size: 3
    weight_filler {
      type: "xavier"
    }
    engine: CAFFE
  }
}
layer {
  name: "bn_u0c"
  type: "BatchNorm"
  bottom: "u0c"
  top: "u0c"
  batch_norm_param {
    use_global_stats: false
    moving_average_fraction: 0.999
    eps: 1e-05
  }
}
layer {
  name: "sc_u0c"
  type: "Scale"
  bottom: "u0c"
  top: "u0c"
  scale_param {
    axis: 1
    filler {
      type: "constant"
      value: 1
    }
    bias_term: true
    bias_filler {
      type: "constant"
      value: 0
    }
  }
}
layer {
  name: "relu_u0c"
  type: "ReLU"
  bottom: "u0c"
  top: "u0c"
}
layer {
  name: "conv_u0c-d"
  type: "Convolution"
  bottom: "u0c"
  top: "u0d"
  param {
    lr_mult: 1
    decay_mult: 1
  }
  param {
    lr_mult: 2
    decay_mult: 0
  }
  convolution_param {
    num_output: 64
    pad: 0
    kernel_size: 3
    weight_filler {
      type: "xavier"
    }
    engine: CAFFE
  }
}
layer {
  name: "bn_u0d"
  type: "BatchNorm"
  bottom: "u0d"
  top: "u0d"
  batch_norm_param {
    use_global_stats: false
    moving_average_fraction: 0.999
    eps: 1e-05
  }
}
layer {
  name: "sc_u0d"
  type: "Scale"
  bottom: "u0d"
  top: "u0d"
  scale_param {
    axis: 1
    filler {
      type: "constant"
      value: 1
    }
    bias_term: true
    bias_filler {
      type: "constant"
      value: 0
    }
  }
}
layer {
  name: "relu_u0d"
  type: "ReLU"
  bottom: "u0d"
  top: "u0d"
}
layer {
  name: "conv_u0d-score"
  type: "Convolution"
  bottom: "u0d"
  top: "score"
  param {
    lr_mult: 1
    decay_mult: 1
  }
  param {
    lr_mult: 2
    decay_mult: 0
  }
  convolution_param {
    num_output: 3
    pad: 0
    kernel_size: 1
    weight_filler {
      type: "xavier"
    }
    engine: CAFFE
  }
}
layer {
  name: "loss"
  type: "SoftmaxWithLoss"
  bottom: "score"
  bottom: "label"
  bottom: "weights"
  top: "loss"
  loss_weight: 1
}
I0428 19:51:37.723050   966 layer_factory.hpp:77] Creating layer loaddata
I0428 19:51:37.723060   966 net.cpp:100] Creating Layer loaddata
I0428 19:51:37.723063   966 net.cpp:408] loaddata -> data
I0428 19:51:37.723070   966 net.cpp:408] loaddata -> label
I0428 19:51:37.723075   966 net.cpp:408] loaddata -> weights
I0428 19:51:37.723080   966 hdf5_data_layer.cpp:79] Loading list of HDF5 filenames from: caffeHDF5_validation_3.txt
I0428 19:51:37.738271   966 hdf5_data_layer.cpp:93] Number of HDF5 files: 10
I0428 19:51:40.797610   966 net.cpp:150] Setting up loaddata
I0428 19:51:40.797654   966 net.cpp:157] Top shape: 1 3 428 428 (549552)
I0428 19:51:40.797665   966 net.cpp:157] Top shape: 1 244 244 (59536)
I0428 19:51:40.797672   966 net.cpp:157] Top shape: 1 244 244 (59536)
I0428 19:51:40.797677   966 net.cpp:165] Memory required for data: 2674496
I0428 19:51:40.797685   966 layer_factory.hpp:77] Creating layer conv_d0a-b
I0428 19:51:40.797722   966 net.cpp:100] Creating Layer conv_d0a-b
I0428 19:51:40.797729   966 net.cpp:434] conv_d0a-b <- data
I0428 19:51:40.797740   966 net.cpp:408] conv_d0a-b -> d0b
I0428 19:51:40.800138   966 net.cpp:150] Setting up conv_d0a-b
I0428 19:51:40.800164   966 net.cpp:157] Top shape: 1 64 426 426 (11614464)
I0428 19:51:40.800169   966 net.cpp:165] Memory required for data: 49132352
I0428 19:51:40.800189   966 layer_factory.hpp:77] Creating layer bn_d0b
I0428 19:51:40.800201   966 net.cpp:100] Creating Layer bn_d0b
I0428 19:51:40.800209   966 net.cpp:434] bn_d0b <- d0b
I0428 19:51:40.800216   966 net.cpp:395] bn_d0b -> d0b (in-place)
I0428 19:51:40.800873   966 net.cpp:150] Setting up bn_d0b
I0428 19:51:40.800887   966 net.cpp:157] Top shape: 1 64 426 426 (11614464)
I0428 19:51:40.800899   966 net.cpp:165] Memory required for data: 95590208
I0428 19:51:40.800915   966 layer_factory.hpp:77] Creating layer sc_d0b
I0428 19:51:40.800930   966 net.cpp:100] Creating Layer sc_d0b
I0428 19:51:40.800935   966 net.cpp:434] sc_d0b <- d0b
I0428 19:51:40.800943   966 net.cpp:395] sc_d0b -> d0b (in-place)
I0428 19:51:40.801023   966 layer_factory.hpp:77] Creating layer sc_d0b
I0428 19:51:40.803225   966 net.cpp:150] Setting up sc_d0b
I0428 19:51:40.803248   966 net.cpp:157] Top shape: 1 64 426 426 (11614464)
I0428 19:51:40.803256   966 net.cpp:165] Memory required for data: 142048064
I0428 19:51:40.803267   966 layer_factory.hpp:77] Creating layer relu_d0b
I0428 19:51:40.803278   966 net.cpp:100] Creating Layer relu_d0b
I0428 19:51:40.803283   966 net.cpp:434] relu_d0b <- d0b
I0428 19:51:40.803293   966 net.cpp:395] relu_d0b -> d0b (in-place)
I0428 19:51:40.803722   966 net.cpp:150] Setting up relu_d0b
I0428 19:51:40.803737   966 net.cpp:157] Top shape: 1 64 426 426 (11614464)
I0428 19:51:40.803742   966 net.cpp:165] Memory required for data: 188505920
I0428 19:51:40.803748   966 layer_factory.hpp:77] Creating layer conv_d0b-c
I0428 19:51:40.803761   966 net.cpp:100] Creating Layer conv_d0b-c
I0428 19:51:40.803766   966 net.cpp:434] conv_d0b-c <- d0b
I0428 19:51:40.803776   966 net.cpp:408] conv_d0b-c -> d0c
I0428 19:51:40.806931   966 net.cpp:150] Setting up conv_d0b-c
I0428 19:51:40.806970   966 net.cpp:157] Top shape: 1 64 424 424 (11505664)
I0428 19:51:40.806977   966 net.cpp:165] Memory required for data: 234528576
I0428 19:51:40.806993   966 layer_factory.hpp:77] Creating layer bn_d0c
I0428 19:51:40.807006   966 net.cpp:100] Creating Layer bn_d0c
I0428 19:51:40.807011   966 net.cpp:434] bn_d0c <- d0c
I0428 19:51:40.807027   966 net.cpp:395] bn_d0c -> d0c (in-place)
I0428 19:51:40.807704   966 net.cpp:150] Setting up bn_d0c
I0428 19:51:40.807720   966 net.cpp:157] Top shape: 1 64 424 424 (11505664)
I0428 19:51:40.807725   966 net.cpp:165] Memory required for data: 280551232
I0428 19:51:40.807740   966 layer_factory.hpp:77] Creating layer sc_d0c
I0428 19:51:40.807751   966 net.cpp:100] Creating Layer sc_d0c
I0428 19:51:40.807811   966 net.cpp:434] sc_d0c <- d0c
I0428 19:51:40.807829   966 net.cpp:395] sc_d0c -> d0c (in-place)
I0428 19:51:40.807926   966 layer_factory.hpp:77] Creating layer sc_d0c
I0428 19:51:40.810289   966 net.cpp:150] Setting up sc_d0c
I0428 19:51:40.810313   966 net.cpp:157] Top shape: 1 64 424 424 (11505664)
I0428 19:51:40.810318   966 net.cpp:165] Memory required for data: 326573888
I0428 19:51:40.810333   966 layer_factory.hpp:77] Creating layer relu_d0c
I0428 19:51:40.810345   966 net.cpp:100] Creating Layer relu_d0c
I0428 19:51:40.810351   966 net.cpp:434] relu_d0c <- d0c
I0428 19:51:40.810359   966 net.cpp:395] relu_d0c -> d0c (in-place)
I0428 19:51:40.810744   966 net.cpp:150] Setting up relu_d0c
I0428 19:51:40.810757   966 net.cpp:157] Top shape: 1 64 424 424 (11505664)
I0428 19:51:40.810762   966 net.cpp:165] Memory required for data: 372596544
I0428 19:51:40.810766   966 layer_factory.hpp:77] Creating layer d0c_relu_d0c_0_split
I0428 19:51:40.810775   966 net.cpp:100] Creating Layer d0c_relu_d0c_0_split
I0428 19:51:40.810780   966 net.cpp:434] d0c_relu_d0c_0_split <- d0c
I0428 19:51:40.810788   966 net.cpp:408] d0c_relu_d0c_0_split -> d0c_relu_d0c_0_split_0
I0428 19:51:40.810799   966 net.cpp:408] d0c_relu_d0c_0_split -> d0c_relu_d0c_0_split_1
I0428 19:51:40.810874   966 net.cpp:150] Setting up d0c_relu_d0c_0_split
I0428 19:51:40.810885   966 net.cpp:157] Top shape: 1 64 424 424 (11505664)
I0428 19:51:40.810892   966 net.cpp:157] Top shape: 1 64 424 424 (11505664)
I0428 19:51:40.810897   966 net.cpp:165] Memory required for data: 464641856
I0428 19:51:40.810901   966 layer_factory.hpp:77] Creating layer pool_d0c-1a
I0428 19:51:40.810910   966 net.cpp:100] Creating Layer pool_d0c-1a
I0428 19:51:40.810916   966 net.cpp:434] pool_d0c-1a <- d0c_relu_d0c_0_split_0
I0428 19:51:40.810925   966 net.cpp:408] pool_d0c-1a -> d1a
I0428 19:51:40.810988   966 net.cpp:150] Setting up pool_d0c-1a
I0428 19:51:40.810998   966 net.cpp:157] Top shape: 1 64 212 212 (2876416)
I0428 19:51:40.811004   966 net.cpp:165] Memory required for data: 476147520
I0428 19:51:40.811008   966 layer_factory.hpp:77] Creating layer conv_d1a-b
I0428 19:51:40.811020   966 net.cpp:100] Creating Layer conv_d1a-b
I0428 19:51:40.811024   966 net.cpp:434] conv_d1a-b <- d1a
I0428 19:51:40.811033   966 net.cpp:408] conv_d1a-b -> d1b
I0428 19:51:40.812309   966 net.cpp:150] Setting up conv_d1a-b
I0428 19:51:40.812333   966 net.cpp:157] Top shape: 1 128 210 210 (5644800)
I0428 19:51:40.812338   966 net.cpp:165] Memory required for data: 498726720
I0428 19:51:40.812356   966 layer_factory.hpp:77] Creating layer bn_d1b
I0428 19:51:40.812364   966 net.cpp:100] Creating Layer bn_d1b
I0428 19:51:40.812379   966 net.cpp:434] bn_d1b <- d1b
I0428 19:51:40.812386   966 net.cpp:395] bn_d1b -> d1b (in-place)
I0428 19:51:40.812798   966 net.cpp:150] Setting up bn_d1b
I0428 19:51:40.812808   966 net.cpp:157] Top shape: 1 128 210 210 (5644800)
I0428 19:51:40.812813   966 net.cpp:165] Memory required for data: 521305920
I0428 19:51:40.812829   966 layer_factory.hpp:77] Creating layer sc_d1b
I0428 19:51:40.812839   966 net.cpp:100] Creating Layer sc_d1b
I0428 19:51:40.812844   966 net.cpp:434] sc_d1b <- d1b
I0428 19:51:40.812851   966 net.cpp:395] sc_d1b -> d1b (in-place)
I0428 19:51:40.812932   966 layer_factory.hpp:77] Creating layer sc_d1b
I0428 19:51:40.813247   966 net.cpp:150] Setting up sc_d1b
I0428 19:51:40.813259   966 net.cpp:157] Top shape: 1 128 210 210 (5644800)
I0428 19:51:40.813263   966 net.cpp:165] Memory required for data: 543885120
I0428 19:51:40.813279   966 layer_factory.hpp:77] Creating layer relu_d1b
I0428 19:51:40.813287   966 net.cpp:100] Creating Layer relu_d1b
I0428 19:51:40.813292   966 net.cpp:434] relu_d1b <- d1b
I0428 19:51:40.813298   966 net.cpp:395] relu_d1b -> d1b (in-place)
I0428 19:51:40.813642   966 net.cpp:150] Setting up relu_d1b
I0428 19:51:40.813658   966 net.cpp:157] Top shape: 1 128 210 210 (5644800)
I0428 19:51:40.813663   966 net.cpp:165] Memory required for data: 566464320
I0428 19:51:40.813702   966 layer_factory.hpp:77] Creating layer conv_d1b-c
I0428 19:51:40.813715   966 net.cpp:100] Creating Layer conv_d1b-c
I0428 19:51:40.813721   966 net.cpp:434] conv_d1b-c <- d1b
I0428 19:51:40.813730   966 net.cpp:408] conv_d1b-c -> d1c
I0428 19:51:40.815793   966 net.cpp:150] Setting up conv_d1b-c
I0428 19:51:40.815806   966 net.cpp:157] Top shape: 1 128 208 208 (5537792)
I0428 19:51:40.815811   966 net.cpp:165] Memory required for data: 588615488
I0428 19:51:40.815827   966 layer_factory.hpp:77] Creating layer bn_d1c
I0428 19:51:40.815838   966 net.cpp:100] Creating Layer bn_d1c
I0428 19:51:40.815843   966 net.cpp:434] bn_d1c <- d1c
I0428 19:51:40.815851   966 net.cpp:395] bn_d1c -> d1c (in-place)
I0428 19:51:40.817711   966 net.cpp:150] Setting up bn_d1c
I0428 19:51:40.817733   966 net.cpp:157] Top shape: 1 128 208 208 (5537792)
I0428 19:51:40.817736   966 net.cpp:165] Memory required for data: 610766656
I0428 19:51:40.817751   966 layer_factory.hpp:77] Creating layer sc_d1c
I0428 19:51:40.817761   966 net.cpp:100] Creating Layer sc_d1c
I0428 19:51:40.817766   966 net.cpp:434] sc_d1c <- d1c
I0428 19:51:40.817775   966 net.cpp:395] sc_d1c -> d1c (in-place)
I0428 19:51:40.817847   966 layer_factory.hpp:77] Creating layer sc_d1c
I0428 19:51:40.818127   966 net.cpp:150] Setting up sc_d1c
I0428 19:51:40.818140   966 net.cpp:157] Top shape: 1 128 208 208 (5537792)
I0428 19:51:40.818143   966 net.cpp:165] Memory required for data: 632917824
I0428 19:51:40.818153   966 layer_factory.hpp:77] Creating layer relu_d1c
I0428 19:51:40.818161   966 net.cpp:100] Creating Layer relu_d1c
I0428 19:51:40.818164   966 net.cpp:434] relu_d1c <- d1c
I0428 19:51:40.818171   966 net.cpp:395] relu_d1c -> d1c (in-place)
I0428 19:51:40.819661   966 net.cpp:150] Setting up relu_d1c
I0428 19:51:40.819682   966 net.cpp:157] Top shape: 1 128 208 208 (5537792)
I0428 19:51:40.819694   966 net.cpp:165] Memory required for data: 655068992
I0428 19:51:40.819700   966 layer_factory.hpp:77] Creating layer d1c_relu_d1c_0_split
I0428 19:51:40.819710   966 net.cpp:100] Creating Layer d1c_relu_d1c_0_split
I0428 19:51:40.819715   966 net.cpp:434] d1c_relu_d1c_0_split <- d1c
I0428 19:51:40.819725   966 net.cpp:408] d1c_relu_d1c_0_split -> d1c_relu_d1c_0_split_0
I0428 19:51:40.819736   966 net.cpp:408] d1c_relu_d1c_0_split -> d1c_relu_d1c_0_split_1
I0428 19:51:40.819818   966 net.cpp:150] Setting up d1c_relu_d1c_0_split
I0428 19:51:40.819830   966 net.cpp:157] Top shape: 1 128 208 208 (5537792)
I0428 19:51:40.819836   966 net.cpp:157] Top shape: 1 128 208 208 (5537792)
I0428 19:51:40.819840   966 net.cpp:165] Memory required for data: 699371328
I0428 19:51:40.819845   966 layer_factory.hpp:77] Creating layer pool_d1c-2a
I0428 19:51:40.819854   966 net.cpp:100] Creating Layer pool_d1c-2a
I0428 19:51:40.819859   966 net.cpp:434] pool_d1c-2a <- d1c_relu_d1c_0_split_0
I0428 19:51:40.819866   966 net.cpp:408] pool_d1c-2a -> d2a
I0428 19:51:40.819938   966 net.cpp:150] Setting up pool_d1c-2a
I0428 19:51:40.819949   966 net.cpp:157] Top shape: 1 128 104 104 (1384448)
I0428 19:51:40.819953   966 net.cpp:165] Memory required for data: 704909120
I0428 19:51:40.819957   966 layer_factory.hpp:77] Creating layer conv_d2a-b
I0428 19:51:40.819970   966 net.cpp:100] Creating Layer conv_d2a-b
I0428 19:51:40.819974   966 net.cpp:434] conv_d2a-b <- d2a
I0428 19:51:40.819983   966 net.cpp:408] conv_d2a-b -> d2b
I0428 19:51:40.824787   966 net.cpp:150] Setting up conv_d2a-b
I0428 19:51:40.824808   966 net.cpp:157] Top shape: 1 256 102 102 (2663424)
I0428 19:51:40.824812   966 net.cpp:165] Memory required for data: 715562816
I0428 19:51:40.824822   966 layer_factory.hpp:77] Creating layer bn_d2b
I0428 19:51:40.824831   966 net.cpp:100] Creating Layer bn_d2b
I0428 19:51:40.824837   966 net.cpp:434] bn_d2b <- d2b
I0428 19:51:40.824846   966 net.cpp:395] bn_d2b -> d2b (in-place)
I0428 19:51:40.825204   966 net.cpp:150] Setting up bn_d2b
I0428 19:51:40.825215   966 net.cpp:157] Top shape: 1 256 102 102 (2663424)
I0428 19:51:40.825220   966 net.cpp:165] Memory required for data: 726216512
I0428 19:51:40.825260   966 layer_factory.hpp:77] Creating layer sc_d2b
I0428 19:51:40.825269   966 net.cpp:100] Creating Layer sc_d2b
I0428 19:51:40.825274   966 net.cpp:434] sc_d2b <- d2b
I0428 19:51:40.825284   966 net.cpp:395] sc_d2b -> d2b (in-place)
I0428 19:51:40.825350   966 layer_factory.hpp:77] Creating layer sc_d2b
I0428 19:51:40.825573   966 net.cpp:150] Setting up sc_d2b
I0428 19:51:40.825585   966 net.cpp:157] Top shape: 1 256 102 102 (2663424)
I0428 19:51:40.825590   966 net.cpp:165] Memory required for data: 736870208
I0428 19:51:40.825598   966 layer_factory.hpp:77] Creating layer relu_d2b
I0428 19:51:40.825605   966 net.cpp:100] Creating Layer relu_d2b
I0428 19:51:40.825609   966 net.cpp:434] relu_d2b <- d2b
I0428 19:51:40.825618   966 net.cpp:395] relu_d2b -> d2b (in-place)
I0428 19:51:40.825914   966 net.cpp:150] Setting up relu_d2b
I0428 19:51:40.825927   966 net.cpp:157] Top shape: 1 256 102 102 (2663424)
I0428 19:51:40.825932   966 net.cpp:165] Memory required for data: 747523904
I0428 19:51:40.825937   966 layer_factory.hpp:77] Creating layer conv_d2b-c
I0428 19:51:40.825947   966 net.cpp:100] Creating Layer conv_d2b-c
I0428 19:51:40.825953   966 net.cpp:434] conv_d2b-c <- d2b
I0428 19:51:40.825959   966 net.cpp:408] conv_d2b-c -> d2c
I0428 19:51:40.833626   966 net.cpp:150] Setting up conv_d2b-c
I0428 19:51:40.833647   966 net.cpp:157] Top shape: 1 256 100 100 (2560000)
I0428 19:51:40.833650   966 net.cpp:165] Memory required for data: 757763904
I0428 19:51:40.833660   966 layer_factory.hpp:77] Creating layer bn_d2c
I0428 19:51:40.833669   966 net.cpp:100] Creating Layer bn_d2c
I0428 19:51:40.833674   966 net.cpp:434] bn_d2c <- d2c
I0428 19:51:40.833684   966 net.cpp:395] bn_d2c -> d2c (in-place)
I0428 19:51:40.834043   966 net.cpp:150] Setting up bn_d2c
I0428 19:51:40.834055   966 net.cpp:157] Top shape: 1 256 100 100 (2560000)
I0428 19:51:40.834059   966 net.cpp:165] Memory required for data: 768003904
I0428 19:51:40.834069   966 layer_factory.hpp:77] Creating layer sc_d2c
I0428 19:51:40.834076   966 net.cpp:100] Creating Layer sc_d2c
I0428 19:51:40.834081   966 net.cpp:434] sc_d2c <- d2c
I0428 19:51:40.834087   966 net.cpp:395] sc_d2c -> d2c (in-place)
I0428 19:51:40.834144   966 layer_factory.hpp:77] Creating layer sc_d2c
I0428 19:51:40.834345   966 net.cpp:150] Setting up sc_d2c
I0428 19:51:40.834357   966 net.cpp:157] Top shape: 1 256 100 100 (2560000)
I0428 19:51:40.834360   966 net.cpp:165] Memory required for data: 778243904
I0428 19:51:40.834368   966 layer_factory.hpp:77] Creating layer relu_d2c
I0428 19:51:40.834374   966 net.cpp:100] Creating Layer relu_d2c
I0428 19:51:40.834379   966 net.cpp:434] relu_d2c <- d2c
I0428 19:51:40.834385   966 net.cpp:395] relu_d2c -> d2c (in-place)
I0428 19:51:40.834676   966 net.cpp:150] Setting up relu_d2c
I0428 19:51:40.834692   966 net.cpp:157] Top shape: 1 256 100 100 (2560000)
I0428 19:51:40.834697   966 net.cpp:165] Memory required for data: 788483904
I0428 19:51:40.834702   966 layer_factory.hpp:77] Creating layer d2c_relu_d2c_0_split
I0428 19:51:40.834715   966 net.cpp:100] Creating Layer d2c_relu_d2c_0_split
I0428 19:51:40.834719   966 net.cpp:434] d2c_relu_d2c_0_split <- d2c
I0428 19:51:40.834735   966 net.cpp:408] d2c_relu_d2c_0_split -> d2c_relu_d2c_0_split_0
I0428 19:51:40.834745   966 net.cpp:408] d2c_relu_d2c_0_split -> d2c_relu_d2c_0_split_1
I0428 19:51:40.834812   966 net.cpp:150] Setting up d2c_relu_d2c_0_split
I0428 19:51:40.834822   966 net.cpp:157] Top shape: 1 256 100 100 (2560000)
I0428 19:51:40.834830   966 net.cpp:157] Top shape: 1 256 100 100 (2560000)
I0428 19:51:40.834832   966 net.cpp:165] Memory required for data: 808963904
I0428 19:51:40.834836   966 layer_factory.hpp:77] Creating layer pool_d2c-3a
I0428 19:51:40.834843   966 net.cpp:100] Creating Layer pool_d2c-3a
I0428 19:51:40.834848   966 net.cpp:434] pool_d2c-3a <- d2c_relu_d2c_0_split_0
I0428 19:51:40.834856   966 net.cpp:408] pool_d2c-3a -> d3a
I0428 19:51:40.834909   966 net.cpp:150] Setting up pool_d2c-3a
I0428 19:51:40.834918   966 net.cpp:157] Top shape: 1 256 50 50 (640000)
I0428 19:51:40.834945   966 net.cpp:165] Memory required for data: 811523904
I0428 19:51:40.834950   966 layer_factory.hpp:77] Creating layer conv_d3a-b
I0428 19:51:40.834961   966 net.cpp:100] Creating Layer conv_d3a-b
I0428 19:51:40.834965   966 net.cpp:434] conv_d3a-b <- d3a
I0428 19:51:40.834980   966 net.cpp:408] conv_d3a-b -> d3b
I0428 19:51:40.848304   966 net.cpp:150] Setting up conv_d3a-b
I0428 19:51:40.848321   966 net.cpp:157] Top shape: 1 512 48 48 (1179648)
I0428 19:51:40.848325   966 net.cpp:165] Memory required for data: 816242496
I0428 19:51:40.848335   966 layer_factory.hpp:77] Creating layer bn_d3b
I0428 19:51:40.848347   966 net.cpp:100] Creating Layer bn_d3b
I0428 19:51:40.848352   966 net.cpp:434] bn_d3b <- d3b
I0428 19:51:40.848359   966 net.cpp:395] bn_d3b -> d3b (in-place)
I0428 19:51:40.848665   966 net.cpp:150] Setting up bn_d3b
I0428 19:51:40.848676   966 net.cpp:157] Top shape: 1 512 48 48 (1179648)
I0428 19:51:40.848680   966 net.cpp:165] Memory required for data: 820961088
I0428 19:51:40.848690   966 layer_factory.hpp:77] Creating layer sc_d3b
I0428 19:51:40.848697   966 net.cpp:100] Creating Layer sc_d3b
I0428 19:51:40.848701   966 net.cpp:434] sc_d3b <- d3b
I0428 19:51:40.848707   966 net.cpp:395] sc_d3b -> d3b (in-place)
I0428 19:51:40.848757   966 layer_factory.hpp:77] Creating layer sc_d3b
I0428 19:51:40.848922   966 net.cpp:150] Setting up sc_d3b
I0428 19:51:40.848942   966 net.cpp:157] Top shape: 1 512 48 48 (1179648)
I0428 19:51:40.848945   966 net.cpp:165] Memory required for data: 825679680
I0428 19:51:40.848953   966 layer_factory.hpp:77] Creating layer relu_d3b
I0428 19:51:40.848959   966 net.cpp:100] Creating Layer relu_d3b
I0428 19:51:40.848963   966 net.cpp:434] relu_d3b <- d3b
I0428 19:51:40.848969   966 net.cpp:395] relu_d3b -> d3b (in-place)
I0428 19:51:40.849251   966 net.cpp:150] Setting up relu_d3b
I0428 19:51:40.849274   966 net.cpp:157] Top shape: 1 512 48 48 (1179648)
I0428 19:51:40.849277   966 net.cpp:165] Memory required for data: 830398272
I0428 19:51:40.849282   966 layer_factory.hpp:77] Creating layer conv_d3b-c
I0428 19:51:40.849298   966 net.cpp:100] Creating Layer conv_d3b-c
I0428 19:51:40.849303   966 net.cpp:434] conv_d3b-c <- d3b
I0428 19:51:40.849309   966 net.cpp:408] conv_d3b-c -> d3c
I0428 19:51:40.872716   966 net.cpp:150] Setting up conv_d3b-c
I0428 19:51:40.872732   966 net.cpp:157] Top shape: 1 512 46 46 (1083392)
I0428 19:51:40.872736   966 net.cpp:165] Memory required for data: 834731840
I0428 19:51:40.872751   966 layer_factory.hpp:77] Creating layer bn_d3c
I0428 19:51:40.872758   966 net.cpp:100] Creating Layer bn_d3c
I0428 19:51:40.872762   966 net.cpp:434] bn_d3c <- d3c
I0428 19:51:40.872771   966 net.cpp:395] bn_d3c -> d3c (in-place)
I0428 19:51:40.873060   966 net.cpp:150] Setting up bn_d3c
I0428 19:51:40.873070   966 net.cpp:157] Top shape: 1 512 46 46 (1083392)
I0428 19:51:40.873073   966 net.cpp:165] Memory required for data: 839065408
I0428 19:51:40.873083   966 layer_factory.hpp:77] Creating layer sc_d3c
I0428 19:51:40.873090   966 net.cpp:100] Creating Layer sc_d3c
I0428 19:51:40.873093   966 net.cpp:434] sc_d3c <- d3c
I0428 19:51:40.873100   966 net.cpp:395] sc_d3c -> d3c (in-place)
I0428 19:51:40.873148   966 layer_factory.hpp:77] Creating layer sc_d3c
I0428 19:51:40.873311   966 net.cpp:150] Setting up sc_d3c
I0428 19:51:40.873320   966 net.cpp:157] Top shape: 1 512 46 46 (1083392)
I0428 19:51:40.873322   966 net.cpp:165] Memory required for data: 843398976
I0428 19:51:40.873330   966 layer_factory.hpp:77] Creating layer relu_d3c
I0428 19:51:40.873337   966 net.cpp:100] Creating Layer relu_d3c
I0428 19:51:40.873339   966 net.cpp:434] relu_d3c <- d3c
I0428 19:51:40.873344   966 net.cpp:395] relu_d3c -> d3c (in-place)
I0428 19:51:40.874510   966 net.cpp:150] Setting up relu_d3c
I0428 19:51:40.874526   966 net.cpp:157] Top shape: 1 512 46 46 (1083392)
I0428 19:51:40.874529   966 net.cpp:165] Memory required for data: 847732544
I0428 19:51:40.874533   966 layer_factory.hpp:77] Creating layer d3c_relu_d3c_0_split
I0428 19:51:40.874570   966 net.cpp:100] Creating Layer d3c_relu_d3c_0_split
I0428 19:51:40.874574   966 net.cpp:434] d3c_relu_d3c_0_split <- d3c
I0428 19:51:40.874583   966 net.cpp:408] d3c_relu_d3c_0_split -> d3c_relu_d3c_0_split_0
I0428 19:51:40.874591   966 net.cpp:408] d3c_relu_d3c_0_split -> d3c_relu_d3c_0_split_1
I0428 19:51:40.874653   966 net.cpp:150] Setting up d3c_relu_d3c_0_split
I0428 19:51:40.874662   966 net.cpp:157] Top shape: 1 512 46 46 (1083392)
I0428 19:51:40.874667   966 net.cpp:157] Top shape: 1 512 46 46 (1083392)
I0428 19:51:40.874670   966 net.cpp:165] Memory required for data: 856399680
I0428 19:51:40.874675   966 layer_factory.hpp:77] Creating layer pool_d3c-4a
I0428 19:51:40.874680   966 net.cpp:100] Creating Layer pool_d3c-4a
I0428 19:51:40.874685   966 net.cpp:434] pool_d3c-4a <- d3c_relu_d3c_0_split_0
I0428 19:51:40.874691   966 net.cpp:408] pool_d3c-4a -> d4a
I0428 19:51:40.874739   966 net.cpp:150] Setting up pool_d3c-4a
I0428 19:51:40.874748   966 net.cpp:157] Top shape: 1 512 23 23 (270848)
I0428 19:51:40.874752   966 net.cpp:165] Memory required for data: 857483072
I0428 19:51:40.874754   966 layer_factory.hpp:77] Creating layer conv_d4a-b
I0428 19:51:40.874764   966 net.cpp:100] Creating Layer conv_d4a-b
I0428 19:51:40.874768   966 net.cpp:434] conv_d4a-b <- d4a
I0428 19:51:40.874774   966 net.cpp:408] conv_d4a-b -> d4b
I0428 19:51:40.917248   966 net.cpp:150] Setting up conv_d4a-b
I0428 19:51:40.917268   966 net.cpp:157] Top shape: 1 1024 21 21 (451584)
I0428 19:51:40.917282   966 net.cpp:165] Memory required for data: 859289408
I0428 19:51:40.917289   966 layer_factory.hpp:77] Creating layer bn_d4b
I0428 19:51:40.917296   966 net.cpp:100] Creating Layer bn_d4b
I0428 19:51:40.917304   966 net.cpp:434] bn_d4b <- d4b
I0428 19:51:40.917309   966 net.cpp:395] bn_d4b -> d4b (in-place)
I0428 19:51:40.917575   966 net.cpp:150] Setting up bn_d4b
I0428 19:51:40.917595   966 net.cpp:157] Top shape: 1 1024 21 21 (451584)
I0428 19:51:40.917599   966 net.cpp:165] Memory required for data: 861095744
I0428 19:51:40.917608   966 layer_factory.hpp:77] Creating layer sc_d4b
I0428 19:51:40.917613   966 net.cpp:100] Creating Layer sc_d4b
I0428 19:51:40.917618   966 net.cpp:434] sc_d4b <- d4b
I0428 19:51:40.917623   966 net.cpp:395] sc_d4b -> d4b (in-place)
I0428 19:51:40.917671   966 layer_factory.hpp:77] Creating layer sc_d4b
I0428 19:51:40.917807   966 net.cpp:150] Setting up sc_d4b
I0428 19:51:40.917816   966 net.cpp:157] Top shape: 1 1024 21 21 (451584)
I0428 19:51:40.917820   966 net.cpp:165] Memory required for data: 862902080
I0428 19:51:40.917825   966 layer_factory.hpp:77] Creating layer relu_d4b
I0428 19:51:40.917831   966 net.cpp:100] Creating Layer relu_d4b
I0428 19:51:40.917834   966 net.cpp:434] relu_d4b <- d4b
I0428 19:51:40.917840   966 net.cpp:395] relu_d4b -> d4b (in-place)
I0428 19:51:40.918081   966 net.cpp:150] Setting up relu_d4b
I0428 19:51:40.918092   966 net.cpp:157] Top shape: 1 1024 21 21 (451584)
I0428 19:51:40.918095   966 net.cpp:165] Memory required for data: 864708416
I0428 19:51:40.918099   966 layer_factory.hpp:77] Creating layer conv_d4b-c
I0428 19:51:40.918107   966 net.cpp:100] Creating Layer conv_d4b-c
I0428 19:51:40.918110   966 net.cpp:434] conv_d4b-c <- d4b
I0428 19:51:40.918118   966 net.cpp:408] conv_d4b-c -> d4c
I0428 19:51:41.040786   966 net.cpp:150] Setting up conv_d4b-c
I0428 19:51:41.040825   966 net.cpp:157] Top shape: 1 1024 19 19 (369664)
I0428 19:51:41.040828   966 net.cpp:165] Memory required for data: 866187072
I0428 19:51:41.040848   966 layer_factory.hpp:77] Creating layer bn_d4c
I0428 19:51:41.040860   966 net.cpp:100] Creating Layer bn_d4c
I0428 19:51:41.040866   966 net.cpp:434] bn_d4c <- d4c
I0428 19:51:41.040873   966 net.cpp:395] bn_d4c -> d4c (in-place)
I0428 19:51:41.041157   966 net.cpp:150] Setting up bn_d4c
I0428 19:51:41.041167   966 net.cpp:157] Top shape: 1 1024 19 19 (369664)
I0428 19:51:41.041170   966 net.cpp:165] Memory required for data: 867665728
I0428 19:51:41.041178   966 layer_factory.hpp:77] Creating layer sc_d4c
I0428 19:51:41.041223   966 net.cpp:100] Creating Layer sc_d4c
I0428 19:51:41.041230   966 net.cpp:434] sc_d4c <- d4c
I0428 19:51:41.041235   966 net.cpp:395] sc_d4c -> d4c (in-place)
I0428 19:51:41.041292   966 layer_factory.hpp:77] Creating layer sc_d4c
I0428 19:51:41.041434   966 net.cpp:150] Setting up sc_d4c
I0428 19:51:41.041448   966 net.cpp:157] Top shape: 1 1024 19 19 (369664)
I0428 19:51:41.041451   966 net.cpp:165] Memory required for data: 869144384
I0428 19:51:41.041457   966 layer_factory.hpp:77] Creating layer relu_d4c
I0428 19:51:41.041463   966 net.cpp:100] Creating Layer relu_d4c
I0428 19:51:41.041467   966 net.cpp:434] relu_d4c <- d4c
I0428 19:51:41.041472   966 net.cpp:395] relu_d4c -> d4c (in-place)
I0428 19:51:41.041780   966 net.cpp:150] Setting up relu_d4c
I0428 19:51:41.041791   966 net.cpp:157] Top shape: 1 1024 19 19 (369664)
I0428 19:51:41.041795   966 net.cpp:165] Memory required for data: 870623040
I0428 19:51:41.041808   966 layer_factory.hpp:77] Creating layer upconv_d4c_u3a
I0428 19:51:41.041817   966 net.cpp:100] Creating Layer upconv_d4c_u3a
I0428 19:51:41.041821   966 net.cpp:434] upconv_d4c_u3a <- d4c
I0428 19:51:41.041827   966 net.cpp:408] upconv_d4c_u3a -> u3a
I0428 19:51:41.060075   966 net.cpp:150] Setting up upconv_d4c_u3a
I0428 19:51:41.060091   966 net.cpp:157] Top shape: 1 512 38 38 (739328)
I0428 19:51:41.060093   966 net.cpp:165] Memory required for data: 873580352
I0428 19:51:41.060111   966 layer_factory.hpp:77] Creating layer bn_u3a
I0428 19:51:41.060118   966 net.cpp:100] Creating Layer bn_u3a
I0428 19:51:41.060122   966 net.cpp:434] bn_u3a <- u3a
I0428 19:51:41.060128   966 net.cpp:395] bn_u3a -> u3a (in-place)
I0428 19:51:41.060412   966 net.cpp:150] Setting up bn_u3a
I0428 19:51:41.060421   966 net.cpp:157] Top shape: 1 512 38 38 (739328)
I0428 19:51:41.060425   966 net.cpp:165] Memory required for data: 876537664
I0428 19:51:41.060431   966 layer_factory.hpp:77] Creating layer sc_u3a
I0428 19:51:41.060439   966 net.cpp:100] Creating Layer sc_u3a
I0428 19:51:41.060442   966 net.cpp:434] sc_u3a <- u3a
I0428 19:51:41.060448   966 net.cpp:395] sc_u3a -> u3a (in-place)
I0428 19:51:41.060492   966 layer_factory.hpp:77] Creating layer sc_u3a
I0428 19:51:41.060642   966 net.cpp:150] Setting up sc_u3a
I0428 19:51:41.060652   966 net.cpp:157] Top shape: 1 512 38 38 (739328)
I0428 19:51:41.060654   966 net.cpp:165] Memory required for data: 879494976
I0428 19:51:41.060660   966 layer_factory.hpp:77] Creating layer relu_u3a
I0428 19:51:41.060667   966 net.cpp:100] Creating Layer relu_u3a
I0428 19:51:41.060669   966 net.cpp:434] relu_u3a <- u3a
I0428 19:51:41.060675   966 net.cpp:395] relu_u3a -> u3a (in-place)
I0428 19:51:41.060905   966 net.cpp:150] Setting up relu_u3a
I0428 19:51:41.060916   966 net.cpp:157] Top shape: 1 512 38 38 (739328)
I0428 19:51:41.060920   966 net.cpp:165] Memory required for data: 882452288
I0428 19:51:41.060922   966 layer_factory.hpp:77] Creating layer u3a_relu_u3a_0_split
I0428 19:51:41.060928   966 net.cpp:100] Creating Layer u3a_relu_u3a_0_split
I0428 19:51:41.060932   966 net.cpp:434] u3a_relu_u3a_0_split <- u3a
I0428 19:51:41.060938   966 net.cpp:408] u3a_relu_u3a_0_split -> u3a_relu_u3a_0_split_0
I0428 19:51:41.060946   966 net.cpp:408] u3a_relu_u3a_0_split -> u3a_relu_u3a_0_split_1
I0428 19:51:41.061000   966 net.cpp:150] Setting up u3a_relu_u3a_0_split
I0428 19:51:41.061009   966 net.cpp:157] Top shape: 1 512 38 38 (739328)
I0428 19:51:41.061013   966 net.cpp:157] Top shape: 1 512 38 38 (739328)
I0428 19:51:41.061017   966 net.cpp:165] Memory required for data: 888366912
I0428 19:51:41.061019   966 layer_factory.hpp:77] Creating layer crop_d3c-d3cc
I0428 19:51:41.061027   966 net.cpp:100] Creating Layer crop_d3c-d3cc
I0428 19:51:41.061030   966 net.cpp:434] crop_d3c-d3cc <- d3c_relu_d3c_0_split_1
I0428 19:51:41.061035   966 net.cpp:434] crop_d3c-d3cc <- u3a_relu_u3a_0_split_0
I0428 19:51:41.061040   966 net.cpp:408] crop_d3c-d3cc -> d3cc
I0428 19:51:41.061069   966 net.cpp:150] Setting up crop_d3c-d3cc
I0428 19:51:41.061075   966 net.cpp:157] Top shape: 1 512 38 38 (739328)
I0428 19:51:41.061097   966 net.cpp:165] Memory required for data: 891324224
I0428 19:51:41.061101   966 layer_factory.hpp:77] Creating layer concat_d3cc_u3a-b
I0428 19:51:41.061108   966 net.cpp:100] Creating Layer concat_d3cc_u3a-b
I0428 19:51:41.061111   966 net.cpp:434] concat_d3cc_u3a-b <- u3a_relu_u3a_0_split_1
I0428 19:51:41.061116   966 net.cpp:434] concat_d3cc_u3a-b <- d3cc
I0428 19:51:41.061121   966 net.cpp:408] concat_d3cc_u3a-b -> u3b
I0428 19:51:41.061154   966 net.cpp:150] Setting up concat_d3cc_u3a-b
I0428 19:51:41.061162   966 net.cpp:157] Top shape: 1 1024 38 38 (1478656)
I0428 19:51:41.061164   966 net.cpp:165] Memory required for data: 897238848
I0428 19:51:41.061167   966 layer_factory.hpp:77] Creating layer conv_u3b-c
I0428 19:51:41.061177   966 net.cpp:100] Creating Layer conv_u3b-c
I0428 19:51:41.061180   966 net.cpp:434] conv_u3b-c <- u3b
I0428 19:51:41.061187   966 net.cpp:408] conv_u3b-c -> u3c
I0428 19:51:41.101024   966 net.cpp:150] Setting up conv_u3b-c
I0428 19:51:41.101044   966 net.cpp:157] Top shape: 1 512 36 36 (663552)
I0428 19:51:41.101047   966 net.cpp:165] Memory required for data: 899893056
I0428 19:51:41.101055   966 layer_factory.hpp:77] Creating layer bn_u3c
I0428 19:51:41.101063   966 net.cpp:100] Creating Layer bn_u3c
I0428 19:51:41.101068   966 net.cpp:434] bn_u3c <- u3c
I0428 19:51:41.101073   966 net.cpp:395] bn_u3c -> u3c (in-place)
I0428 19:51:41.101341   966 net.cpp:150] Setting up bn_u3c
I0428 19:51:41.101349   966 net.cpp:157] Top shape: 1 512 36 36 (663552)
I0428 19:51:41.101353   966 net.cpp:165] Memory required for data: 902547264
I0428 19:51:41.101361   966 layer_factory.hpp:77] Creating layer sc_u3c
I0428 19:51:41.101368   966 net.cpp:100] Creating Layer sc_u3c
I0428 19:51:41.101372   966 net.cpp:434] sc_u3c <- u3c
I0428 19:51:41.101377   966 net.cpp:395] sc_u3c -> u3c (in-place)
I0428 19:51:41.101421   966 layer_factory.hpp:77] Creating layer sc_u3c
I0428 19:51:41.101589   966 net.cpp:150] Setting up sc_u3c
I0428 19:51:41.101599   966 net.cpp:157] Top shape: 1 512 36 36 (663552)
I0428 19:51:41.101603   966 net.cpp:165] Memory required for data: 905201472
I0428 19:51:41.101608   966 layer_factory.hpp:77] Creating layer relu_u3c
I0428 19:51:41.101613   966 net.cpp:100] Creating Layer relu_u3c
I0428 19:51:41.101618   966 net.cpp:434] relu_u3c <- u3c
I0428 19:51:41.101624   966 net.cpp:395] relu_u3c -> u3c (in-place)
I0428 19:51:41.102694   966 net.cpp:150] Setting up relu_u3c
I0428 19:51:41.102710   966 net.cpp:157] Top shape: 1 512 36 36 (663552)
I0428 19:51:41.102712   966 net.cpp:165] Memory required for data: 907855680
I0428 19:51:41.102716   966 layer_factory.hpp:77] Creating layer conv_u3c-d
I0428 19:51:41.102727   966 net.cpp:100] Creating Layer conv_u3c-d
I0428 19:51:41.102730   966 net.cpp:434] conv_u3c-d <- u3c
I0428 19:51:41.102737   966 net.cpp:408] conv_u3c-d -> u3d
I0428 19:51:41.122714   966 net.cpp:150] Setting up conv_u3c-d
I0428 19:51:41.122730   966 net.cpp:157] Top shape: 1 512 34 34 (591872)
I0428 19:51:41.122732   966 net.cpp:165] Memory required for data: 910223168
I0428 19:51:41.122740   966 layer_factory.hpp:77] Creating layer bn_u3d
I0428 19:51:41.122746   966 net.cpp:100] Creating Layer bn_u3d
I0428 19:51:41.122750   966 net.cpp:434] bn_u3d <- u3d
I0428 19:51:41.122756   966 net.cpp:395] bn_u3d -> u3d (in-place)
I0428 19:51:41.123024   966 net.cpp:150] Setting up bn_u3d
I0428 19:51:41.123046   966 net.cpp:157] Top shape: 1 512 34 34 (591872)
I0428 19:51:41.123049   966 net.cpp:165] Memory required for data: 912590656
I0428 19:51:41.123056   966 layer_factory.hpp:77] Creating layer sc_u3d
I0428 19:51:41.123064   966 net.cpp:100] Creating Layer sc_u3d
I0428 19:51:41.123067   966 net.cpp:434] sc_u3d <- u3d
I0428 19:51:41.123073   966 net.cpp:395] sc_u3d -> u3d (in-place)
I0428 19:51:41.123117   966 layer_factory.hpp:77] Creating layer sc_u3d
I0428 19:51:41.123267   966 net.cpp:150] Setting up sc_u3d
I0428 19:51:41.123276   966 net.cpp:157] Top shape: 1 512 34 34 (591872)
I0428 19:51:41.123280   966 net.cpp:165] Memory required for data: 914958144
I0428 19:51:41.123304   966 layer_factory.hpp:77] Creating layer relu_u3d
I0428 19:51:41.123311   966 net.cpp:100] Creating Layer relu_u3d
I0428 19:51:41.123314   966 net.cpp:434] relu_u3d <- u3d
I0428 19:51:41.123320   966 net.cpp:395] relu_u3d -> u3d (in-place)
I0428 19:51:41.123558   966 net.cpp:150] Setting up relu_u3d
I0428 19:51:41.123569   966 net.cpp:157] Top shape: 1 512 34 34 (591872)
I0428 19:51:41.123574   966 net.cpp:165] Memory required for data: 917325632
I0428 19:51:41.123576   966 layer_factory.hpp:77] Creating layer upconv_u3d_u2a
I0428 19:51:41.123592   966 net.cpp:100] Creating Layer upconv_u3d_u2a
I0428 19:51:41.123598   966 net.cpp:434] upconv_u3d_u2a <- u3d
I0428 19:51:41.123605   966 net.cpp:408] upconv_u3d_u2a -> u2a
I0428 19:51:41.128675   966 net.cpp:150] Setting up upconv_u3d_u2a
I0428 19:51:41.128691   966 net.cpp:157] Top shape: 1 256 68 68 (1183744)
I0428 19:51:41.128695   966 net.cpp:165] Memory required for data: 922060608
I0428 19:51:41.128703   966 layer_factory.hpp:77] Creating layer bn_u2a
I0428 19:51:41.128710   966 net.cpp:100] Creating Layer bn_u2a
I0428 19:51:41.128713   966 net.cpp:434] bn_u2a <- u2a
I0428 19:51:41.128720   966 net.cpp:395] bn_u2a -> u2a (in-place)
I0428 19:51:41.128984   966 net.cpp:150] Setting up bn_u2a
I0428 19:51:41.129005   966 net.cpp:157] Top shape: 1 256 68 68 (1183744)
I0428 19:51:41.129009   966 net.cpp:165] Memory required for data: 926795584
I0428 19:51:41.129015   966 layer_factory.hpp:77] Creating layer sc_u2a
I0428 19:51:41.129022   966 net.cpp:100] Creating Layer sc_u2a
I0428 19:51:41.129026   966 net.cpp:434] sc_u2a <- u2a
I0428 19:51:41.129031   966 net.cpp:395] sc_u2a -> u2a (in-place)
I0428 19:51:41.129078   966 layer_factory.hpp:77] Creating layer sc_u2a
I0428 19:51:41.129232   966 net.cpp:150] Setting up sc_u2a
I0428 19:51:41.129241   966 net.cpp:157] Top shape: 1 256 68 68 (1183744)
I0428 19:51:41.129243   966 net.cpp:165] Memory required for data: 931530560
I0428 19:51:41.129250   966 layer_factory.hpp:77] Creating layer relu_u2a
I0428 19:51:41.129256   966 net.cpp:100] Creating Layer relu_u2a
I0428 19:51:41.129258   966 net.cpp:434] relu_u2a <- u2a
I0428 19:51:41.129264   966 net.cpp:395] relu_u2a -> u2a (in-place)
I0428 19:51:41.129498   966 net.cpp:150] Setting up relu_u2a
I0428 19:51:41.129509   966 net.cpp:157] Top shape: 1 256 68 68 (1183744)
I0428 19:51:41.129513   966 net.cpp:165] Memory required for data: 936265536
I0428 19:51:41.129515   966 layer_factory.hpp:77] Creating layer u2a_relu_u2a_0_split
I0428 19:51:41.129521   966 net.cpp:100] Creating Layer u2a_relu_u2a_0_split
I0428 19:51:41.129525   966 net.cpp:434] u2a_relu_u2a_0_split <- u2a
I0428 19:51:41.129531   966 net.cpp:408] u2a_relu_u2a_0_split -> u2a_relu_u2a_0_split_0
I0428 19:51:41.129539   966 net.cpp:408] u2a_relu_u2a_0_split -> u2a_relu_u2a_0_split_1
I0428 19:51:41.129592   966 net.cpp:150] Setting up u2a_relu_u2a_0_split
I0428 19:51:41.129602   966 net.cpp:157] Top shape: 1 256 68 68 (1183744)
I0428 19:51:41.129606   966 net.cpp:157] Top shape: 1 256 68 68 (1183744)
I0428 19:51:41.129608   966 net.cpp:165] Memory required for data: 945735488
I0428 19:51:41.129612   966 layer_factory.hpp:77] Creating layer crop_d2c-d2cc
I0428 19:51:41.129619   966 net.cpp:100] Creating Layer crop_d2c-d2cc
I0428 19:51:41.129623   966 net.cpp:434] crop_d2c-d2cc <- d2c_relu_d2c_0_split_1
I0428 19:51:41.129628   966 net.cpp:434] crop_d2c-d2cc <- u2a_relu_u2a_0_split_0
I0428 19:51:41.129633   966 net.cpp:408] crop_d2c-d2cc -> d2cc
I0428 19:51:41.129662   966 net.cpp:150] Setting up crop_d2c-d2cc
I0428 19:51:41.129669   966 net.cpp:157] Top shape: 1 256 68 68 (1183744)
I0428 19:51:41.129673   966 net.cpp:165] Memory required for data: 950470464
I0428 19:51:41.129675   966 layer_factory.hpp:77] Creating layer concat_d2cc_u2a-b
I0428 19:51:41.129681   966 net.cpp:100] Creating Layer concat_d2cc_u2a-b
I0428 19:51:41.129684   966 net.cpp:434] concat_d2cc_u2a-b <- u2a_relu_u2a_0_split_1
I0428 19:51:41.129688   966 net.cpp:434] concat_d2cc_u2a-b <- d2cc
I0428 19:51:41.129710   966 net.cpp:408] concat_d2cc_u2a-b -> u2b
I0428 19:51:41.129743   966 net.cpp:150] Setting up concat_d2cc_u2a-b
I0428 19:51:41.129751   966 net.cpp:157] Top shape: 1 512 68 68 (2367488)
I0428 19:51:41.129755   966 net.cpp:165] Memory required for data: 959940416
I0428 19:51:41.129757   966 layer_factory.hpp:77] Creating layer conv_u2b-c
I0428 19:51:41.129767   966 net.cpp:100] Creating Layer conv_u2b-c
I0428 19:51:41.129770   966 net.cpp:434] conv_u2b-c <- u2b
I0428 19:51:41.129776   966 net.cpp:408] conv_u2b-c -> u2c
I0428 19:51:41.140054   966 net.cpp:150] Setting up conv_u2b-c
I0428 19:51:41.140071   966 net.cpp:157] Top shape: 1 256 66 66 (1115136)
I0428 19:51:41.140075   966 net.cpp:165] Memory required for data: 964400960
I0428 19:51:41.140082   966 layer_factory.hpp:77] Creating layer bn_u2c
I0428 19:51:41.140089   966 net.cpp:100] Creating Layer bn_u2c
I0428 19:51:41.140094   966 net.cpp:434] bn_u2c <- u2c
I0428 19:51:41.140099   966 net.cpp:395] bn_u2c -> u2c (in-place)
I0428 19:51:41.140367   966 net.cpp:150] Setting up bn_u2c
I0428 19:51:41.140377   966 net.cpp:157] Top shape: 1 256 66 66 (1115136)
I0428 19:51:41.140380   966 net.cpp:165] Memory required for data: 968861504
I0428 19:51:41.140398   966 layer_factory.hpp:77] Creating layer sc_u2c
I0428 19:51:41.140404   966 net.cpp:100] Creating Layer sc_u2c
I0428 19:51:41.140408   966 net.cpp:434] sc_u2c <- u2c
I0428 19:51:41.140414   966 net.cpp:395] sc_u2c -> u2c (in-place)
I0428 19:51:41.140470   966 layer_factory.hpp:77] Creating layer sc_u2c
I0428 19:51:41.140622   966 net.cpp:150] Setting up sc_u2c
I0428 19:51:41.140630   966 net.cpp:157] Top shape: 1 256 66 66 (1115136)
I0428 19:51:41.140635   966 net.cpp:165] Memory required for data: 973322048
I0428 19:51:41.140640   966 layer_factory.hpp:77] Creating layer relu_u2c
I0428 19:51:41.140645   966 net.cpp:100] Creating Layer relu_u2c
I0428 19:51:41.140648   966 net.cpp:434] relu_u2c <- u2c
I0428 19:51:41.140653   966 net.cpp:395] relu_u2c -> u2c (in-place)
I0428 19:51:41.141762   966 net.cpp:150] Setting up relu_u2c
I0428 19:51:41.141788   966 net.cpp:157] Top shape: 1 256 66 66 (1115136)
I0428 19:51:41.141790   966 net.cpp:165] Memory required for data: 977782592
I0428 19:51:41.141794   966 layer_factory.hpp:77] Creating layer conv_u2c-d
I0428 19:51:41.141804   966 net.cpp:100] Creating Layer conv_u2c-d
I0428 19:51:41.141808   966 net.cpp:434] conv_u2c-d <- u2c
I0428 19:51:41.141815   966 net.cpp:408] conv_u2c-d -> u2d
I0428 19:51:41.147461   966 net.cpp:150] Setting up conv_u2c-d
I0428 19:51:41.147476   966 net.cpp:157] Top shape: 1 256 64 64 (1048576)
I0428 19:51:41.147480   966 net.cpp:165] Memory required for data: 981976896
I0428 19:51:41.147495   966 layer_factory.hpp:77] Creating layer bn_u2d
I0428 19:51:41.147503   966 net.cpp:100] Creating Layer bn_u2d
I0428 19:51:41.147506   966 net.cpp:434] bn_u2d <- u2d
I0428 19:51:41.147513   966 net.cpp:395] bn_u2d -> u2d (in-place)
I0428 19:51:41.147769   966 net.cpp:150] Setting up bn_u2d
I0428 19:51:41.147779   966 net.cpp:157] Top shape: 1 256 64 64 (1048576)
I0428 19:51:41.147783   966 net.cpp:165] Memory required for data: 986171200
I0428 19:51:41.147790   966 layer_factory.hpp:77] Creating layer sc_u2d
I0428 19:51:41.147796   966 net.cpp:100] Creating Layer sc_u2d
I0428 19:51:41.147800   966 net.cpp:434] sc_u2d <- u2d
I0428 19:51:41.147806   966 net.cpp:395] sc_u2d -> u2d (in-place)
I0428 19:51:41.147852   966 layer_factory.hpp:77] Creating layer sc_u2d
I0428 19:51:41.147992   966 net.cpp:150] Setting up sc_u2d
I0428 19:51:41.148002   966 net.cpp:157] Top shape: 1 256 64 64 (1048576)
I0428 19:51:41.148005   966 net.cpp:165] Memory required for data: 990365504
I0428 19:51:41.148010   966 layer_factory.hpp:77] Creating layer relu_u2d
I0428 19:51:41.148016   966 net.cpp:100] Creating Layer relu_u2d
I0428 19:51:41.148020   966 net.cpp:434] relu_u2d <- u2d
I0428 19:51:41.148025   966 net.cpp:395] relu_u2d -> u2d (in-place)
I0428 19:51:41.148247   966 net.cpp:150] Setting up relu_u2d
I0428 19:51:41.148257   966 net.cpp:157] Top shape: 1 256 64 64 (1048576)
I0428 19:51:41.148280   966 net.cpp:165] Memory required for data: 994559808
I0428 19:51:41.148284   966 layer_factory.hpp:77] Creating layer upconv_u2d_u1a
I0428 19:51:41.148291   966 net.cpp:100] Creating Layer upconv_u2d_u1a
I0428 19:51:41.148295   966 net.cpp:434] upconv_u2d_u1a <- u2d
I0428 19:51:41.148303   966 net.cpp:408] upconv_u2d_u1a -> u1a
I0428 19:51:41.149593   966 net.cpp:150] Setting up upconv_u2d_u1a
I0428 19:51:41.149603   966 net.cpp:157] Top shape: 1 128 128 128 (2097152)
I0428 19:51:41.149606   966 net.cpp:165] Memory required for data: 1002948416
I0428 19:51:41.149612   966 layer_factory.hpp:77] Creating layer bn_u1a
I0428 19:51:41.149618   966 net.cpp:100] Creating Layer bn_u1a
I0428 19:51:41.149621   966 net.cpp:434] bn_u1a <- u1a
I0428 19:51:41.149627   966 net.cpp:395] bn_u1a -> u1a (in-place)
I0428 19:51:41.149891   966 net.cpp:150] Setting up bn_u1a
I0428 19:51:41.149900   966 net.cpp:157] Top shape: 1 128 128 128 (2097152)
I0428 19:51:41.149904   966 net.cpp:165] Memory required for data: 1011337024
I0428 19:51:41.149910   966 layer_factory.hpp:77] Creating layer sc_u1a
I0428 19:51:41.149917   966 net.cpp:100] Creating Layer sc_u1a
I0428 19:51:41.149920   966 net.cpp:434] sc_u1a <- u1a
I0428 19:51:41.149926   966 net.cpp:395] sc_u1a -> u1a (in-place)
I0428 19:51:41.149972   966 layer_factory.hpp:77] Creating layer sc_u1a
I0428 19:51:41.150144   966 net.cpp:150] Setting up sc_u1a
I0428 19:51:41.150153   966 net.cpp:157] Top shape: 1 128 128 128 (2097152)
I0428 19:51:41.150156   966 net.cpp:165] Memory required for data: 1019725632
I0428 19:51:41.150161   966 layer_factory.hpp:77] Creating layer relu_u1a
I0428 19:51:41.150168   966 net.cpp:100] Creating Layer relu_u1a
I0428 19:51:41.150171   966 net.cpp:434] relu_u1a <- u1a
I0428 19:51:41.150177   966 net.cpp:395] relu_u1a -> u1a (in-place)
I0428 19:51:41.150395   966 net.cpp:150] Setting up relu_u1a
I0428 19:51:41.150406   966 net.cpp:157] Top shape: 1 128 128 128 (2097152)
I0428 19:51:41.150409   966 net.cpp:165] Memory required for data: 1028114240
I0428 19:51:41.150413   966 layer_factory.hpp:77] Creating layer u1a_relu_u1a_0_split
I0428 19:51:41.150418   966 net.cpp:100] Creating Layer u1a_relu_u1a_0_split
I0428 19:51:41.150421   966 net.cpp:434] u1a_relu_u1a_0_split <- u1a
I0428 19:51:41.150429   966 net.cpp:408] u1a_relu_u1a_0_split -> u1a_relu_u1a_0_split_0
I0428 19:51:41.150436   966 net.cpp:408] u1a_relu_u1a_0_split -> u1a_relu_u1a_0_split_1
I0428 19:51:41.150490   966 net.cpp:150] Setting up u1a_relu_u1a_0_split
I0428 19:51:41.150499   966 net.cpp:157] Top shape: 1 128 128 128 (2097152)
I0428 19:51:41.150503   966 net.cpp:157] Top shape: 1 128 128 128 (2097152)
I0428 19:51:41.150506   966 net.cpp:165] Memory required for data: 1044891456
I0428 19:51:41.150509   966 layer_factory.hpp:77] Creating layer crop_d1c-d1cc
I0428 19:51:41.150516   966 net.cpp:100] Creating Layer crop_d1c-d1cc
I0428 19:51:41.150527   966 net.cpp:434] crop_d1c-d1cc <- d1c_relu_d1c_0_split_1
I0428 19:51:41.150532   966 net.cpp:434] crop_d1c-d1cc <- u1a_relu_u1a_0_split_0
I0428 19:51:41.150537   966 net.cpp:408] crop_d1c-d1cc -> d1cc
I0428 19:51:41.150565   966 net.cpp:150] Setting up crop_d1c-d1cc
I0428 19:51:41.150573   966 net.cpp:157] Top shape: 1 128 128 128 (2097152)
I0428 19:51:41.150575   966 net.cpp:165] Memory required for data: 1053280064
I0428 19:51:41.150578   966 layer_factory.hpp:77] Creating layer concat_d1cc_u1a-b
I0428 19:51:41.150584   966 net.cpp:100] Creating Layer concat_d1cc_u1a-b
I0428 19:51:41.150588   966 net.cpp:434] concat_d1cc_u1a-b <- u1a_relu_u1a_0_split_1
I0428 19:51:41.150591   966 net.cpp:434] concat_d1cc_u1a-b <- d1cc
I0428 19:51:41.150596   966 net.cpp:408] concat_d1cc_u1a-b -> u1b
I0428 19:51:41.150625   966 net.cpp:150] Setting up concat_d1cc_u1a-b
I0428 19:51:41.150630   966 net.cpp:157] Top shape: 1 256 128 128 (4194304)
I0428 19:51:41.150632   966 net.cpp:165] Memory required for data: 1070057280
I0428 19:51:41.150635   966 layer_factory.hpp:77] Creating layer conv_u1b-c
I0428 19:51:41.150645   966 net.cpp:100] Creating Layer conv_u1b-c
I0428 19:51:41.150665   966 net.cpp:434] conv_u1b-c <- u1b
I0428 19:51:41.150673   966 net.cpp:408] conv_u1b-c -> u1c
I0428 19:51:41.154073   966 net.cpp:150] Setting up conv_u1b-c
I0428 19:51:41.154090   966 net.cpp:157] Top shape: 1 128 126 126 (2032128)
I0428 19:51:41.154093   966 net.cpp:165] Memory required for data: 1078185792
I0428 19:51:41.154101   966 layer_factory.hpp:77] Creating layer bn_u1c
I0428 19:51:41.154117   966 net.cpp:100] Creating Layer bn_u1c
I0428 19:51:41.154122   966 net.cpp:434] bn_u1c <- u1c
I0428 19:51:41.154129   966 net.cpp:395] bn_u1c -> u1c (in-place)
I0428 19:51:41.155401   966 net.cpp:150] Setting up bn_u1c
I0428 19:51:41.155416   966 net.cpp:157] Top shape: 1 128 126 126 (2032128)
I0428 19:51:41.155421   966 net.cpp:165] Memory required for data: 1086314304
I0428 19:51:41.155429   966 layer_factory.hpp:77] Creating layer sc_u1c
I0428 19:51:41.155437   966 net.cpp:100] Creating Layer sc_u1c
I0428 19:51:41.155443   966 net.cpp:434] sc_u1c <- u1c
I0428 19:51:41.155452   966 net.cpp:395] sc_u1c -> u1c (in-place)
I0428 19:51:41.155503   966 layer_factory.hpp:77] Creating layer sc_u1c
I0428 19:51:41.155670   966 net.cpp:150] Setting up sc_u1c
I0428 19:51:41.155678   966 net.cpp:157] Top shape: 1 128 126 126 (2032128)
I0428 19:51:41.155683   966 net.cpp:165] Memory required for data: 1094442816
I0428 19:51:41.155689   966 layer_factory.hpp:77] Creating layer relu_u1c
I0428 19:51:41.155694   966 net.cpp:100] Creating Layer relu_u1c
I0428 19:51:41.155696   966 net.cpp:434] relu_u1c <- u1c
I0428 19:51:41.155702   966 net.cpp:395] relu_u1c -> u1c (in-place)
I0428 19:51:41.155936   966 net.cpp:150] Setting up relu_u1c
I0428 19:51:41.155946   966 net.cpp:157] Top shape: 1 128 126 126 (2032128)
I0428 19:51:41.155948   966 net.cpp:165] Memory required for data: 1102571328
I0428 19:51:41.155952   966 layer_factory.hpp:77] Creating layer conv_u1c-d
I0428 19:51:41.155962   966 net.cpp:100] Creating Layer conv_u1c-d
I0428 19:51:41.155966   966 net.cpp:434] conv_u1c-d <- u1c
I0428 19:51:41.155972   966 net.cpp:408] conv_u1c-d -> u1d
I0428 19:51:41.157347   966 net.cpp:150] Setting up conv_u1c-d
I0428 19:51:41.157357   966 net.cpp:157] Top shape: 1 128 124 124 (1968128)
I0428 19:51:41.157361   966 net.cpp:165] Memory required for data: 1110443840
I0428 19:51:41.157366   966 layer_factory.hpp:77] Creating layer bn_u1d
I0428 19:51:41.157372   966 net.cpp:100] Creating Layer bn_u1d
I0428 19:51:41.157376   966 net.cpp:434] bn_u1d <- u1d
I0428 19:51:41.157380   966 net.cpp:395] bn_u1d -> u1d (in-place)
I0428 19:51:41.157657   966 net.cpp:150] Setting up bn_u1d
I0428 19:51:41.157667   966 net.cpp:157] Top shape: 1 128 124 124 (1968128)
I0428 19:51:41.157670   966 net.cpp:165] Memory required for data: 1118316352
I0428 19:51:41.157691   966 layer_factory.hpp:77] Creating layer sc_u1d
I0428 19:51:41.157708   966 net.cpp:100] Creating Layer sc_u1d
I0428 19:51:41.157712   966 net.cpp:434] sc_u1d <- u1d
I0428 19:51:41.157718   966 net.cpp:395] sc_u1d -> u1d (in-place)
I0428 19:51:41.157766   966 layer_factory.hpp:77] Creating layer sc_u1d
I0428 19:51:41.157932   966 net.cpp:150] Setting up sc_u1d
I0428 19:51:41.157940   966 net.cpp:157] Top shape: 1 128 124 124 (1968128)
I0428 19:51:41.157944   966 net.cpp:165] Memory required for data: 1126188864
I0428 19:51:41.157950   966 layer_factory.hpp:77] Creating layer relu_u1d
I0428 19:51:41.157955   966 net.cpp:100] Creating Layer relu_u1d
I0428 19:51:41.157958   966 net.cpp:434] relu_u1d <- u1d
I0428 19:51:41.157964   966 net.cpp:395] relu_u1d -> u1d (in-place)
I0428 19:51:41.159029   966 net.cpp:150] Setting up relu_u1d
I0428 19:51:41.159044   966 net.cpp:157] Top shape: 1 128 124 124 (1968128)
I0428 19:51:41.159047   966 net.cpp:165] Memory required for data: 1134061376
I0428 19:51:41.159051   966 layer_factory.hpp:77] Creating layer upconv_u1d_u0a
I0428 19:51:41.159060   966 net.cpp:100] Creating Layer upconv_u1d_u0a
I0428 19:51:41.159065   966 net.cpp:434] upconv_u1d_u0a <- u1d
I0428 19:51:41.159071   966 net.cpp:408] upconv_u1d_u0a -> u0a
I0428 19:51:41.159945   966 net.cpp:150] Setting up upconv_u1d_u0a
I0428 19:51:41.159955   966 net.cpp:157] Top shape: 1 128 248 248 (7872512)
I0428 19:51:41.159958   966 net.cpp:165] Memory required for data: 1165551424
I0428 19:51:41.159965   966 layer_factory.hpp:77] Creating layer bn_u0a
I0428 19:51:41.159971   966 net.cpp:100] Creating Layer bn_u0a
I0428 19:51:41.159974   966 net.cpp:434] bn_u0a <- u0a
I0428 19:51:41.159981   966 net.cpp:395] bn_u0a -> u0a (in-place)
I0428 19:51:41.160292   966 net.cpp:150] Setting up bn_u0a
I0428 19:51:41.160303   966 net.cpp:157] Top shape: 1 128 248 248 (7872512)
I0428 19:51:41.160306   966 net.cpp:165] Memory required for data: 1197041472
I0428 19:51:41.160313   966 layer_factory.hpp:77] Creating layer sc_u0a
I0428 19:51:41.160320   966 net.cpp:100] Creating Layer sc_u0a
I0428 19:51:41.160323   966 net.cpp:434] sc_u0a <- u0a
I0428 19:51:41.160329   966 net.cpp:395] sc_u0a -> u0a (in-place)
I0428 19:51:41.160377   966 layer_factory.hpp:77] Creating layer sc_u0a
I0428 19:51:41.160630   966 net.cpp:150] Setting up sc_u0a
I0428 19:51:41.160640   966 net.cpp:157] Top shape: 1 128 248 248 (7872512)
I0428 19:51:41.160643   966 net.cpp:165] Memory required for data: 1228531520
I0428 19:51:41.160650   966 layer_factory.hpp:77] Creating layer relu_u0a
I0428 19:51:41.160655   966 net.cpp:100] Creating Layer relu_u0a
I0428 19:51:41.160658   966 net.cpp:434] relu_u0a <- u0a
I0428 19:51:41.160663   966 net.cpp:395] relu_u0a -> u0a (in-place)
I0428 19:51:41.160879   966 net.cpp:150] Setting up relu_u0a
I0428 19:51:41.160890   966 net.cpp:157] Top shape: 1 128 248 248 (7872512)
I0428 19:51:41.160894   966 net.cpp:165] Memory required for data: 1260021568
I0428 19:51:41.160897   966 layer_factory.hpp:77] Creating layer u0a_relu_u0a_0_split
I0428 19:51:41.160903   966 net.cpp:100] Creating Layer u0a_relu_u0a_0_split
I0428 19:51:41.160907   966 net.cpp:434] u0a_relu_u0a_0_split <- u0a
I0428 19:51:41.160913   966 net.cpp:408] u0a_relu_u0a_0_split -> u0a_relu_u0a_0_split_0
I0428 19:51:41.160922   966 net.cpp:408] u0a_relu_u0a_0_split -> u0a_relu_u0a_0_split_1
I0428 19:51:41.160974   966 net.cpp:150] Setting up u0a_relu_u0a_0_split
I0428 19:51:41.160981   966 net.cpp:157] Top shape: 1 128 248 248 (7872512)
I0428 19:51:41.160986   966 net.cpp:157] Top shape: 1 128 248 248 (7872512)
I0428 19:51:41.160989   966 net.cpp:165] Memory required for data: 1323001664
I0428 19:51:41.160991   966 layer_factory.hpp:77] Creating layer crop_d0c-d0cc
I0428 19:51:41.160997   966 net.cpp:100] Creating Layer crop_d0c-d0cc
I0428 19:51:41.161001   966 net.cpp:434] crop_d0c-d0cc <- d0c_relu_d0c_0_split_1
I0428 19:51:41.161006   966 net.cpp:434] crop_d0c-d0cc <- u0a_relu_u0a_0_split_0
I0428 19:51:41.161012   966 net.cpp:408] crop_d0c-d0cc -> d0cc
I0428 19:51:41.161041   966 net.cpp:150] Setting up crop_d0c-d0cc
I0428 19:51:41.161048   966 net.cpp:157] Top shape: 1 64 248 248 (3936256)
I0428 19:51:41.161051   966 net.cpp:165] Memory required for data: 1338746688
I0428 19:51:41.161053   966 layer_factory.hpp:77] Creating layer concat_d0cc_u0a-b
I0428 19:51:41.161058   966 net.cpp:100] Creating Layer concat_d0cc_u0a-b
I0428 19:51:41.161062   966 net.cpp:434] concat_d0cc_u0a-b <- u0a_relu_u0a_0_split_1
I0428 19:51:41.161067   966 net.cpp:434] concat_d0cc_u0a-b <- d0cc
I0428 19:51:41.161072   966 net.cpp:408] concat_d0cc_u0a-b -> u0b
I0428 19:51:41.161100   966 net.cpp:150] Setting up concat_d0cc_u0a-b
I0428 19:51:41.161108   966 net.cpp:157] Top shape: 1 192 248 248 (11808768)
I0428 19:51:41.161111   966 net.cpp:165] Memory required for data: 1385981760
I0428 19:51:41.161114   966 layer_factory.hpp:77] Creating layer conv_u0b-c
I0428 19:51:41.161123   966 net.cpp:100] Creating Layer conv_u0b-c
I0428 19:51:41.161126   966 net.cpp:434] conv_u0b-c <- u0b
I0428 19:51:41.161133   966 net.cpp:408] conv_u0b-c -> u0c
I0428 19:51:41.162327   966 net.cpp:150] Setting up conv_u0b-c
I0428 19:51:41.162336   966 net.cpp:157] Top shape: 1 64 246 246 (3873024)
I0428 19:51:41.162340   966 net.cpp:165] Memory required for data: 1401473856
I0428 19:51:41.162360   966 layer_factory.hpp:77] Creating layer bn_u0c
I0428 19:51:41.162366   966 net.cpp:100] Creating Layer bn_u0c
I0428 19:51:41.162370   966 net.cpp:434] bn_u0c <- u0c
I0428 19:51:41.162376   966 net.cpp:395] bn_u0c -> u0c (in-place)
I0428 19:51:41.163740   966 net.cpp:150] Setting up bn_u0c
I0428 19:51:41.163755   966 net.cpp:157] Top shape: 1 64 246 246 (3873024)
I0428 19:51:41.163769   966 net.cpp:165] Memory required for data: 1416965952
I0428 19:51:41.163779   966 layer_factory.hpp:77] Creating layer sc_u0c
I0428 19:51:41.163786   966 net.cpp:100] Creating Layer sc_u0c
I0428 19:51:41.163789   966 net.cpp:434] sc_u0c <- u0c
I0428 19:51:41.163795   966 net.cpp:395] sc_u0c -> u0c (in-place)
I0428 19:51:41.163851   966 layer_factory.hpp:77] Creating layer sc_u0c
I0428 19:51:41.164105   966 net.cpp:150] Setting up sc_u0c
I0428 19:51:41.164114   966 net.cpp:157] Top shape: 1 64 246 246 (3873024)
I0428 19:51:41.164118   966 net.cpp:165] Memory required for data: 1432458048
I0428 19:51:41.164124   966 layer_factory.hpp:77] Creating layer relu_u0c
I0428 19:51:41.164129   966 net.cpp:100] Creating Layer relu_u0c
I0428 19:51:41.164132   966 net.cpp:434] relu_u0c <- u0c
I0428 19:51:41.164137   966 net.cpp:395] relu_u0c -> u0c (in-place)
I0428 19:51:41.164368   966 net.cpp:150] Setting up relu_u0c
I0428 19:51:41.164378   966 net.cpp:157] Top shape: 1 64 246 246 (3873024)
I0428 19:51:41.164381   966 net.cpp:165] Memory required for data: 1447950144
I0428 19:51:41.164384   966 layer_factory.hpp:77] Creating layer conv_u0c-d
I0428 19:51:41.164394   966 net.cpp:100] Creating Layer conv_u0c-d
I0428 19:51:41.164398   966 net.cpp:434] conv_u0c-d <- u0c
I0428 19:51:41.164404   966 net.cpp:408] conv_u0c-d -> u0d
I0428 19:51:41.165052   966 net.cpp:150] Setting up conv_u0c-d
I0428 19:51:41.165063   966 net.cpp:157] Top shape: 1 64 244 244 (3810304)
I0428 19:51:41.165066   966 net.cpp:165] Memory required for data: 1463191360
I0428 19:51:41.165072   966 layer_factory.hpp:77] Creating layer bn_u0d
I0428 19:51:41.165079   966 net.cpp:100] Creating Layer bn_u0d
I0428 19:51:41.165083   966 net.cpp:434] bn_u0d <- u0d
I0428 19:51:41.165087   966 net.cpp:395] bn_u0d -> u0d (in-place)
I0428 19:51:41.165398   966 net.cpp:150] Setting up bn_u0d
I0428 19:51:41.165407   966 net.cpp:157] Top shape: 1 64 244 244 (3810304)
I0428 19:51:41.165410   966 net.cpp:165] Memory required for data: 1478432576
I0428 19:51:41.165417   966 layer_factory.hpp:77] Creating layer sc_u0d
I0428 19:51:41.165423   966 net.cpp:100] Creating Layer sc_u0d
I0428 19:51:41.165426   966 net.cpp:434] sc_u0d <- u0d
I0428 19:51:41.165431   966 net.cpp:395] sc_u0d -> u0d (in-place)
I0428 19:51:41.165501   966 layer_factory.hpp:77] Creating layer sc_u0d
I0428 19:51:41.165748   966 net.cpp:150] Setting up sc_u0d
I0428 19:51:41.165758   966 net.cpp:157] Top shape: 1 64 244 244 (3810304)
I0428 19:51:41.165761   966 net.cpp:165] Memory required for data: 1493673792
I0428 19:51:41.165767   966 layer_factory.hpp:77] Creating layer relu_u0d
I0428 19:51:41.165772   966 net.cpp:100] Creating Layer relu_u0d
I0428 19:51:41.165776   966 net.cpp:434] relu_u0d <- u0d
I0428 19:51:41.165781   966 net.cpp:395] relu_u0d -> u0d (in-place)
I0428 19:51:41.166002   966 net.cpp:150] Setting up relu_u0d
I0428 19:51:41.166012   966 net.cpp:157] Top shape: 1 64 244 244 (3810304)
I0428 19:51:41.166014   966 net.cpp:165] Memory required for data: 1508915008
I0428 19:51:41.166018   966 layer_factory.hpp:77] Creating layer conv_u0d-score
I0428 19:51:41.166026   966 net.cpp:100] Creating Layer conv_u0d-score
I0428 19:51:41.166029   966 net.cpp:434] conv_u0d-score <- u0d
I0428 19:51:41.166035   966 net.cpp:408] conv_u0d-score -> score
I0428 19:51:41.166411   966 net.cpp:150] Setting up conv_u0d-score
I0428 19:51:41.166420   966 net.cpp:157] Top shape: 1 3 244 244 (178608)
I0428 19:51:41.166424   966 net.cpp:165] Memory required for data: 1509629440
I0428 19:51:41.166429   966 layer_factory.hpp:77] Creating layer loss
I0428 19:51:41.166440   966 net.cpp:100] Creating Layer loss
I0428 19:51:41.166457   966 net.cpp:434] loss <- score
I0428 19:51:41.166470   966 net.cpp:434] loss <- label
I0428 19:51:41.166473   966 net.cpp:434] loss <- weights
I0428 19:51:41.166479   966 net.cpp:408] loss -> loss
…
