…
I0428 15:09:07.795409  5145 upgrade_proto.cpp:80] Successfully upgraded batch norm layers using deprecated params.
I0428 15:09:07.795608  5145 net.cpp:322] The NetState phase (0) differed from the phase (1) specified by a rule in layer loaddata
I0428 15:09:07.796699  5145 net.cpp:58] Initializing net from parameters: 
name: "unet_weighted_batchnorm_4"
force_backward: true
state {
  phase: TRAIN
}
layer {
  name: "loaddata"
  type: "HDF5Data"
  top: "data"
  top: "label"
  top: "weights"
  include {
    phase: TRAIN
  }
  hdf5_data_param {
    source: "caffeHDF5_4.txt"
    batch_size: 2
  }
}
layer {
  name: "conv_d0a-b"
  type: "Convolution"
  bottom: "data"
  top: "d0b"
  param {
    lr_mult: 1
    decay_mult: 1
  }
  param {
    lr_mult: 2
    decay_mult: 0
  }
  convolution_param {
    num_output: 64
    pad: 0
    kernel_size: 3
    weight_filler {
      type: "xavier"
    }
    engine: CAFFE
  }
}
layer {
  name: "bn_d0b"
  type: "BatchNorm"
  bottom: "d0b"
  top: "d0b"
  batch_norm_param {
    use_global_stats: false
    moving_average_fraction: 0.999
    eps: 1e-05
  }
}
layer {
  name: "sc_d0b"
  type: "Scale"
  bottom: "d0b"
  top: "d0b"
  scale_param {
    axis: 1
    filler {
      type: "constant"
      value: 1
    }
    bias_term: true
    bias_filler {
      type: "constant"
      value: 0
    }
  }
}
layer {
  name: "relu_d0b"
  type: "ReLU"
  bottom: "d0b"
  top: "d0b"
}
layer {
  name: "conv_d0b-c"
  type: "Convolution"
  bottom: "d0b"
  top: "d0c"
  param {
    lr_mult: 1
    decay_mult: 1
  }
  param {
    lr_mult: 2
    decay_mult: 0
  }
  convolution_param {
    num_output: 64
    pad: 0
    kernel_size: 3
    weight_filler {
      type: "xavier"
    }
    engine: CAFFE
  }
}
layer {
  name: "bn_d0c"
  type: "BatchNorm"
  bottom: "d0c"
  top: "d0c"
  batch_norm_param {
    use_global_stats: false
    moving_average_fraction: 0.999
    eps: 1e-05
  }
}
layer {
  name: "sc_d0c"
  type: "Scale"
  bottom: "d0c"
  top: "d0c"
  scale_param {
    axis: 1
    filler {
      type: "constant"
      value: 1
    }
    bias_term: true
    bias_filler {
      type: "constant"
      value: 0
    }
  }
}
layer {
  name: "relu_d0c"
  type: "ReLU"
  bottom: "d0c"
  top: "d0c"
}
layer {
  name: "pool_d0c-1a"
  type: "Pooling"
  bottom: "d0c"
  top: "d1a"
  pooling_param {
    pool: MAX
    kernel_size: 2
    stride: 2
  }
}
layer {
  name: "conv_d1a-b"
  type: "Convolution"
  bottom: "d1a"
  top: "d1b"
  param {
    lr_mult: 1
    decay_mult: 1
  }
  param {
    lr_mult: 2
    decay_mult: 0
  }
  convolution_param {
    num_output: 128
    pad: 0
    kernel_size: 3
    weight_filler {
      type: "xavier"
    }
    engine: CAFFE
  }
}
layer {
  name: "bn_d1b"
  type: "BatchNorm"
  bottom: "d1b"
  top: "d1b"
  batch_norm_param {
    use_global_stats: false
    moving_average_fraction: 0.999
    eps: 1e-05
  }
}
layer {
  name: "sc_d1b"
  type: "Scale"
  bottom: "d1b"
  top: "d1b"
  scale_param {
    axis: 1
    filler {
      type: "constant"
      value: 1
    }
    bias_term: true
    bias_filler {
      type: "constant"
      value: 0
    }
  }
}
layer {
  name: "relu_d1b"
  type: "ReLU"
  bottom: "d1b"
  top: "d1b"
}
layer {
  name: "conv_d1b-c"
  type: "Convolution"
  bottom: "d1b"
  top: "d1c"
  param {
    lr_mult: 1
    decay_mult: 1
  }
  param {
    lr_mult: 2
    decay_mult: 0
  }
  convolution_param {
    num_output: 128
    pad: 0
    kernel_size: 3
    weight_filler {
      type: "xavier"
    }
    engine: CAFFE
  }
}
layer {
  name: "bn_d1c"
  type: "BatchNorm"
  bottom: "d1c"
  top: "d1c"
  batch_norm_param {
    use_global_stats: false
    moving_average_fraction: 0.999
    eps: 1e-05
  }
}
layer {
  name: "sc_d1c"
  type: "Scale"
  bottom: "d1c"
  top: "d1c"
  scale_param {
    axis: 1
    filler {
      type: "constant"
      value: 1
    }
    bias_term: true
    bias_filler {
      type: "constant"
      value: 0
    }
  }
}
layer {
  name: "relu_d1c"
  type: "ReLU"
  bottom: "d1c"
  top: "d1c"
}
layer {
  name: "pool_d1c-2a"
  type: "Pooling"
  bottom: "d1c"
  top: "d2a"
  pooling_param {
    pool: MAX
    kernel_size: 2
    stride: 2
  }
}
layer {
  name: "conv_d2a-b"
  type: "Convolution"
  bottom: "d2a"
  top: "d2b"
  param {
    lr_mult: 1
    decay_mult: 1
  }
  param {
    lr_mult: 2
    decay_mult: 0
  }
  convolution_param {
    num_output: 256
    pad: 0
    kernel_size: 3
    weight_filler {
      type: "xavier"
    }
    engine: CAFFE
  }
}
layer {
  name: "bn_d2b"
  type: "BatchNorm"
  bottom: "d2b"
  top: "d2b"
  batch_norm_param {
    use_global_stats: false
    moving_average_fraction: 0.999
    eps: 1e-05
  }
}
layer {
  name: "sc_d2b"
  type: "Scale"
  bottom: "d2b"
  top: "d2b"
  scale_param {
    axis: 1
    filler {
      type: "constant"
      value: 1
    }
    bias_term: true
    bias_filler {
      type: "constant"
      value: 0
    }
  }
}
layer {
  name: "relu_d2b"
  type: "ReLU"
  bottom: "d2b"
  top: "d2b"
}
layer {
  name: "conv_d2b-c"
  type: "Convolution"
  bottom: "d2b"
  top: "d2c"
  param {
    lr_mult: 1
    decay_mult: 1
  }
  param {
    lr_mult: 2
    decay_mult: 0
  }
  convolution_param {
    num_output: 256
    pad: 0
    kernel_size: 3
    weight_filler {
      type: "xavier"
    }
    engine: CAFFE
  }
}
layer {
  name: "bn_d2c"
  type: "BatchNorm"
  bottom: "d2c"
  top: "d2c"
  batch_norm_param {
    use_global_stats: false
    moving_average_fraction: 0.999
    eps: 1e-05
  }
}
layer {
  name: "sc_d2c"
  type: "Scale"
  bottom: "d2c"
  top: "d2c"
  scale_param {
    axis: 1
    filler {
      type: "constant"
      value: 1
    }
    bias_term: true
    bias_filler {
      type: "constant"
      value: 0
    }
  }
}
layer {
  name: "relu_d2c"
  type: "ReLU"
  bottom: "d2c"
  top: "d2c"
}
layer {
  name: "pool_d2c-3a"
  type: "Pooling"
  bottom: "d2c"
  top: "d3a"
  pooling_param {
    pool: MAX
    kernel_size: 2
    stride: 2
  }
}
layer {
  name: "conv_d3a-b"
  type: "Convolution"
  bottom: "d3a"
  top: "d3b"
  param {
    lr_mult: 1
    decay_mult: 1
  }
  param {
    lr_mult: 2
    decay_mult: 0
  }
  convolution_param {
    num_output: 512
    pad: 0
    kernel_size: 3
    weight_filler {
      type: "xavier"
    }
    engine: CAFFE
  }
}
layer {
  name: "bn_d3b"
  type: "BatchNorm"
  bottom: "d3b"
  top: "d3b"
  batch_norm_param {
    use_global_stats: false
    moving_average_fraction: 0.999
    eps: 1e-05
  }
}
layer {
  name: "sc_d3b"
  type: "Scale"
  bottom: "d3b"
  top: "d3b"
  scale_param {
    axis: 1
    filler {
      type: "constant"
      value: 1
    }
    bias_term: true
    bias_filler {
      type: "constant"
      value: 0
    }
  }
}
layer {
  name: "relu_d3b"
  type: "ReLU"
  bottom: "d3b"
  top: "d3b"
}
layer {
  name: "conv_d3b-c"
  type: "Convolution"
  bottom: "d3b"
  top: "d3c"
  param {
    lr_mult: 1
    decay_mult: 1
  }
  param {
    lr_mult: 2
    decay_mult: 0
  }
  convolution_param {
    num_output: 512
    pad: 0
    kernel_size: 3
    weight_filler {
      type: "xavier"
    }
    engine: CAFFE
  }
}
layer {
  name: "bn_d3c"
  type: "BatchNorm"
  bottom: "d3c"
  top: "d3c"
  batch_norm_param {
    use_global_stats: false
    moving_average_fraction: 0.999
    eps: 1e-05
  }
}
layer {
  name: "sc_d3c"
  type: "Scale"
  bottom: "d3c"
  top: "d3c"
  scale_param {
    axis: 1
    filler {
      type: "constant"
      value: 1
    }
    bias_term: true
    bias_filler {
      type: "constant"
      value: 0
    }
  }
}
layer {
  name: "relu_d3c"
  type: "ReLU"
  bottom: "d3c"
  top: "d3c"
}
layer {
  name: "pool_d3c-4a"
  type: "Pooling"
  bottom: "d3c"
  top: "d4a"
  pooling_param {
    pool: MAX
    kernel_size: 2
    stride: 2
  }
}
layer {
  name: "conv_d4a-b"
  type: "Convolution"
  bottom: "d4a"
  top: "d4b"
  param {
    lr_mult: 1
    decay_mult: 1
  }
  param {
    lr_mult: 2
    decay_mult: 0
  }
  convolution_param {
    num_output: 1024
    pad: 0
    kernel_size: 3
    weight_filler {
      type: "xavier"
    }
    engine: CAFFE
  }
}
layer {
  name: "bn_d4b"
  type: "BatchNorm"
  bottom: "d4b"
  top: "d4b"
  batch_norm_param {
    use_global_stats: false
    moving_average_fraction: 0.999
    eps: 1e-05
  }
}
layer {
  name: "sc_d4b"
  type: "Scale"
  bottom: "d4b"
  top: "d4b"
  scale_param {
    axis: 1
    filler {
      type: "constant"
      value: 1
    }
    bias_term: true
    bias_filler {
      type: "constant"
      value: 0
    }
  }
}
layer {
  name: "relu_d4b"
  type: "ReLU"
  bottom: "d4b"
  top: "d4b"
}
layer {
  name: "conv_d4b-c"
  type: "Convolution"
  bottom: "d4b"
  top: "d4c"
  param {
    lr_mult: 1
    decay_mult: 1
  }
  param {
    lr_mult: 2
    decay_mult: 0
  }
  convolution_param {
    num_output: 1024
    pad: 0
    kernel_size: 3
    weight_filler {
      type: "xavier"
    }
    engine: CAFFE
  }
}
layer {
  name: "bn_d4c"
  type: "BatchNorm"
  bottom: "d4c"
  top: "d4c"
  batch_norm_param {
    use_global_stats: false
    moving_average_fraction: 0.999
    eps: 1e-05
  }
}
layer {
  name: "sc_d4c"
  type: "Scale"
  bottom: "d4c"
  top: "d4c"
  scale_param {
    axis: 1
    filler {
      type: "constant"
      value: 1
    }
    bias_term: true
    bias_filler {
      type: "constant"
      value: 0
    }
  }
}
layer {
  name: "relu_d4c"
  type: "ReLU"
  bottom: "d4c"
  top: "d4c"
}
layer {
  name: "upconv_d4c_u3a"
  type: "Deconvolution"
  bottom: "d4c"
  top: "u3a"
  param {
    lr_mult: 1
    decay_mult: 1
  }
  param {
    lr_mult: 2
    decay_mult: 0
  }
  convolution_param {
    num_output: 512
    pad: 0
    kernel_size: 2
    stride: 2
    weight_filler {
      type: "xavier"
    }
  }
}
layer {
  name: "bn_u3a"
  type: "BatchNorm"
  bottom: "u3a"
  top: "u3a"
  batch_norm_param {
    use_global_stats: false
    moving_average_fraction: 0.999
    eps: 1e-05
  }
}
layer {
  name: "sc_u3a"
  type: "Scale"
  bottom: "u3a"
  top: "u3a"
  scale_param {
    axis: 1
    filler {
      type: "constant"
      value: 1
    }
    bias_term: true
    bias_filler {
      type: "constant"
      value: 0
    }
  }
}
layer {
  name: "relu_u3a"
  type: "ReLU"
  bottom: "u3a"
  top: "u3a"
}
layer {
  name: "crop_d3c-d3cc"
  type: "Crop"
  bottom: "d3c"
  bottom: "u3a"
  top: "d3cc"
  crop_param {
    axis: 2
    offset: 4
  }
}
layer {
  name: "concat_d3cc_u3a-b"
  type: "Concat"
  bottom: "u3a"
  bottom: "d3cc"
  top: "u3b"
}
layer {
  name: "conv_u3b-c"
  type: "Convolution"
  bottom: "u3b"
  top: "u3c"
  param {
    lr_mult: 1
    decay_mult: 1
  }
  param {
    lr_mult: 2
    decay_mult: 0
  }
  convolution_param {
    num_output: 512
    pad: 0
    kernel_size: 3
    weight_filler {
      type: "xavier"
    }
    engine: CAFFE
  }
}
layer {
  name: "bn_u3c"
  type: "BatchNorm"
  bottom: "u3c"
  top: "u3c"
  batch_norm_param {
    use_global_stats: false
    moving_average_fraction: 0.999
    eps: 1e-05
  }
}
layer {
  name: "sc_u3c"
  type: "Scale"
  bottom: "u3c"
  top: "u3c"
  scale_param {
    axis: 1
    filler {
      type: "constant"
      value: 1
    }
    bias_term: true
    bias_filler {
      type: "constant"
      value: 0
    }
  }
}
layer {
  name: "relu_u3c"
  type: "ReLU"
  bottom: "u3c"
  top: "u3c"
}
layer {
  name: "conv_u3c-d"
  type: "Convolution"
  bottom: "u3c"
  top: "u3d"
  param {
    lr_mult: 1
    decay_mult: 1
  }
  param {
    lr_mult: 2
    decay_mult: 0
  }
  convolution_param {
    num_output: 512
    pad: 0
    kernel_size: 3
    weight_filler {
      type: "xavier"
    }
    engine: CAFFE
  }
}
layer {
  name: "bn_u3d"
  type: "BatchNorm"
  bottom: "u3d"
  top: "u3d"
  batch_norm_param {
    use_global_stats: false
    moving_average_fraction: 0.999
    eps: 1e-05
  }
}
layer {
  name: "sc_u3d"
  type: "Scale"
  bottom: "u3d"
  top: "u3d"
  scale_param {
    axis: 1
    filler {
      type: "constant"
      value: 1
    }
    bias_term: true
    bias_filler {
      type: "constant"
      value: 0
    }
  }
}
layer {
  name: "relu_u3d"
  type: "ReLU"
  bottom: "u3d"
  top: "u3d"
}
layer {
  name: "upconv_u3d_u2a"
  type: "Deconvolution"
  bottom: "u3d"
  top: "u2a"
  param {
    lr_mult: 1
    decay_mult: 1
  }
  param {
    lr_mult: 2
    decay_mult: 0
  }
  convolution_param {
    num_output: 256
    pad: 0
    kernel_size: 2
    stride: 2
    weight_filler {
      type: "xavier"
    }
  }
}
layer {
  name: "bn_u2a"
  type: "BatchNorm"
  bottom: "u2a"
  top: "u2a"
  batch_norm_param {
    use_global_stats: false
    moving_average_fraction: 0.999
    eps: 1e-05
  }
}
layer {
  name: "sc_u2a"
  type: "Scale"
  bottom: "u2a"
  top: "u2a"
  scale_param {
    axis: 1
    filler {
      type: "constant"
      value: 1
    }
    bias_term: true
    bias_filler {
      type: "constant"
      value: 0
    }
  }
}
layer {
  name: "relu_u2a"
  type: "ReLU"
  bottom: "u2a"
  top: "u2a"
}
layer {
  name: "crop_d2c-d2cc"
  type: "Crop"
  bottom: "d2c"
  bottom: "u2a"
  top: "d2cc"
  crop_param {
    axis: 2
    offset: 16
  }
}
layer {
  name: "concat_d2cc_u2a-b"
  type: "Concat"
  bottom: "u2a"
  bottom: "d2cc"
  top: "u2b"
}
layer {
  name: "conv_u2b-c"
  type: "Convolution"
  bottom: "u2b"
  top: "u2c"
  param {
    lr_mult: 1
    decay_mult: 1
  }
  param {
    lr_mult: 2
    decay_mult: 0
  }
  convolution_param {
    num_output: 256
    pad: 0
    kernel_size: 3
    weight_filler {
      type: "xavier"
    }
    engine: CAFFE
  }
}
layer {
  name: "bn_u2c"
  type: "BatchNorm"
  bottom: "u2c"
  top: "u2c"
  batch_norm_param {
    use_global_stats: false
    moving_average_fraction: 0.999
    eps: 1e-05
  }
}
layer {
  name: "sc_u2c"
  type: "Scale"
  bottom: "u2c"
  top: "u2c"
  scale_param {
    axis: 1
    filler {
      type: "constant"
      value: 1
    }
    bias_term: true
    bias_filler {
      type: "constant"
      value: 0
    }
  }
}
layer {
  name: "relu_u2c"
  type: "ReLU"
  bottom: "u2c"
  top: "u2c"
}
layer {
  name: "conv_u2c-d"
  type: "Convolution"
  bottom: "u2c"
  top: "u2d"
  param {
    lr_mult: 1
    decay_mult: 1
  }
  param {
    lr_mult: 2
    decay_mult: 0
  }
  convolution_param {
    num_output: 256
    pad: 0
    kernel_size: 3
    weight_filler {
      type: "xavier"
    }
    engine: CAFFE
  }
}
layer {
  name: "bn_u2d"
  type: "BatchNorm"
  bottom: "u2d"
  top: "u2d"
  batch_norm_param {
    use_global_stats: false
    moving_average_fraction: 0.999
    eps: 1e-05
  }
}
layer {
  name: "sc_u2d"
  type: "Scale"
  bottom: "u2d"
  top: "u2d"
  scale_param {
    axis: 1
    filler {
      type: "constant"
      value: 1
    }
    bias_term: true
    bias_filler {
      type: "constant"
      value: 0
    }
  }
}
layer {
  name: "relu_u2d"
  type: "ReLU"
  bottom: "u2d"
  top: "u2d"
}
layer {
  name: "upconv_u2d_u1a"
  type: "Deconvolution"
  bottom: "u2d"
  top: "u1a"
  param {
    lr_mult: 1
    decay_mult: 1
  }
  param {
    lr_mult: 2
    decay_mult: 0
  }
  convolution_param {
    num_output: 128
    pad: 0
    kernel_size: 2
    stride: 2
    weight_filler {
      type: "xavier"
    }
  }
}
layer {
  name: "bn_u1a"
  type: "BatchNorm"
  bottom: "u1a"
  top: "u1a"
  batch_norm_param {
    use_global_stats: false
    moving_average_fraction: 0.999
    eps: 1e-05
  }
}
layer {
  name: "sc_u1a"
  type: "Scale"
  bottom: "u1a"
  top: "u1a"
  scale_param {
    axis: 1
    filler {
      type: "constant"
      value: 1
    }
    bias_term: true
    bias_filler {
      type: "constant"
      value: 0
    }
  }
}
layer {
  name: "relu_u1a"
  type: "ReLU"
  bottom: "u1a"
  top: "u1a"
}
layer {
  name: "crop_d1c-d1cc"
  type: "Crop"
  bottom: "d1c"
  bottom: "u1a"
  top: "d1cc"
  crop_param {
    axis: 2
    offset: 40
  }
}
layer {
  name: "concat_d1cc_u1a-b"
  type: "Concat"
  bottom: "u1a"
  bottom: "d1cc"
  top: "u1b"
}
layer {
  name: "conv_u1b-c"
  type: "Convolution"
  bottom: "u1b"
  top: "u1c"
  param {
    lr_mult: 1
    decay_mult: 1
  }
  param {
    lr_mult: 2
    decay_mult: 0
  }
  convolution_param {
    num_output: 128
    pad: 0
    kernel_size: 3
    weight_filler {
      type: "xavier"
    }
    engine: CAFFE
  }
}
layer {
  name: "bn_u1c"
  type: "BatchNorm"
  bottom: "u1c"
  top: "u1c"
  batch_norm_param {
    use_global_stats: false
    moving_average_fraction: 0.999
    eps: 1e-05
  }
}
layer {
  name: "sc_u1c"
  type: "Scale"
  bottom: "u1c"
  top: "u1c"
  scale_param {
    axis: 1
    filler {
      type: "constant"
      value: 1
    }
    bias_term: true
    bias_filler {
      type: "constant"
      value: 0
    }
  }
}
layer {
  name: "relu_u1c"
  type: "ReLU"
  bottom: "u1c"
  top: "u1c"
}
layer {
  name: "conv_u1c-d"
  type: "Convolution"
  bottom: "u1c"
  top: "u1d"
  param {
    lr_mult: 1
    decay_mult: 1
  }
  param {
    lr_mult: 2
    decay_mult: 0
  }
  convolution_param {
    num_output: 128
    pad: 0
    kernel_size: 3
    weight_filler {
      type: "xavier"
    }
    engine: CAFFE
  }
}
layer {
  name: "bn_u1d"
  type: "BatchNorm"
  bottom: "u1d"
  top: "u1d"
  batch_norm_param {
    use_global_stats: false
    moving_average_fraction: 0.999
    eps: 1e-05
  }
}
layer {
  name: "sc_u1d"
  type: "Scale"
  bottom: "u1d"
  top: "u1d"
  scale_param {
    axis: 1
    filler {
      type: "constant"
      value: 1
    }
    bias_term: true
    bias_filler {
      type: "constant"
      value: 0
    }
  }
}
layer {
  name: "relu_u1d"
  type: "ReLU"
  bottom: "u1d"
  top: "u1d"
}
layer {
  name: "upconv_u1d_u0a"
  type: "Deconvolution"
  bottom: "u1d"
  top: "u0a"
  param {
    lr_mult: 1
    decay_mult: 1
  }
  param {
    lr_mult: 2
    decay_mult: 0
  }
  convolution_param {
    num_output: 128
    pad: 0
    kernel_size: 2
    stride: 2
    weight_filler {
      type: "xavier"
    }
  }
}
layer {
  name: "bn_u0a"
  type: "BatchNorm"
  bottom: "u0a"
  top: "u0a"
  batch_norm_param {
    use_global_stats: false
    moving_average_fraction: 0.999
    eps: 1e-05
  }
}
layer {
  name: "sc_u0a"
  type: "Scale"
  bottom: "u0a"
  top: "u0a"
  scale_param {
    axis: 1
    filler {
      type: "constant"
      value: 1
    }
    bias_term: true
    bias_filler {
      type: "constant"
      value: 0
    }
  }
}
layer {
  name: "relu_u0a"
  type: "ReLU"
  bottom: "u0a"
  top: "u0a"
}
layer {
  name: "crop_d0c-d0cc"
  type: "Crop"
  bottom: "d0c"
  bottom: "u0a"
  top: "d0cc"
  crop_param {
    axis: 2
    offset: 88
  }
}
layer {
  name: "concat_d0cc_u0a-b"
  type: "Concat"
  bottom: "u0a"
  bottom: "d0cc"
  top: "u0b"
}
layer {
  name: "conv_u0b-c"
  type: "Convolution"
  bottom: "u0b"
  top: "u0c"
  param {
    lr_mult: 1
    decay_mult: 1
  }
  param {
    lr_mult: 2
    decay_mult: 0
  }
  convolution_param {
    num_output: 64
    pad: 0
    kernel_size: 3
    weight_filler {
      type: "xavier"
    }
    engine: CAFFE
  }
}
layer {
  name: "bn_u0c"
  type: "BatchNorm"
  bottom: "u0c"
  top: "u0c"
  batch_norm_param {
    use_global_stats: false
    moving_average_fraction: 0.999
    eps: 1e-05
  }
}
layer {
  name: "sc_u0c"
  type: "Scale"
  bottom: "u0c"
  top: "u0c"
  scale_param {
    axis: 1
    filler {
      type: "constant"
      value: 1
    }
    bias_term: true
    bias_filler {
      type: "constant"
      value: 0
    }
  }
}
layer {
  name: "relu_u0c"
  type: "ReLU"
  bottom: "u0c"
  top: "u0c"
}
layer {
  name: "conv_u0c-d"
  type: "Convolution"
  bottom: "u0c"
  top: "u0d"
  param {
    lr_mult: 1
    decay_mult: 1
  }
  param {
    lr_mult: 2
    decay_mult: 0
  }
  convolution_param {
    num_output: 64
    pad: 0
    kernel_size: 3
    weight_filler {
      type: "xavier"
    }
    engine: CAFFE
  }
}
layer {
  name: "bn_u0d"
  type: "BatchNorm"
  bottom: "u0d"
  top: "u0d"
  batch_norm_param {
    use_global_stats: false
    moving_average_fraction: 0.999
    eps: 1e-05
  }
}
layer {
  name: "sc_u0d"
  type: "Scale"
  bottom: "u0d"
  top: "u0d"
  scale_param {
    axis: 1
    filler {
      type: "constant"
      value: 1
    }
    bias_term: true
    bias_filler {
      type: "constant"
      value: 0
    }
  }
}
layer {
  name: "relu_u0d"
  type: "ReLU"
  bottom: "u0d"
  top: "u0d"
}
layer {
  name: "conv_u0d-score"
  type: "Convolution"
  bottom: "u0d"
  top: "score"
  param {
    lr_mult: 1
    decay_mult: 1
  }
  param {
    lr_mult: 2
    decay_mult: 0
  }
  convolution_param {
    num_output: 4
    pad: 0
    kernel_size: 1
    weight_filler {
      type: "xavier"
    }
    engine: CAFFE
  }
}
layer {
  name: "loss"
  type: "SoftmaxWithLoss"
  bottom: "score"
  bottom: "label"
  bottom: "weights"
  top: "loss"
  loss_weight: 1
}
layer {
  name: "visualize"
  type: "Softmax"
  bottom: "score"
  top: "visualize_out"
  include {
    phase: TRAIN
  }
}
layer {
  name: "fake"
  type: "Silence"
  bottom: "visualize_out"
  include {
    phase: TRAIN
  }
}
I0428 15:09:07.797288  5145 layer_factory.hpp:77] Creating layer loaddata
I0428 15:09:07.797307  5145 net.cpp:100] Creating Layer loaddata
I0428 15:09:07.797317  5145 net.cpp:408] loaddata -> data
I0428 15:09:07.797335  5145 net.cpp:408] loaddata -> label
I0428 15:09:07.797348  5145 net.cpp:408] loaddata -> weights
I0428 15:09:07.797366  5145 hdf5_data_layer.cpp:79] Loading list of HDF5 filenames from: caffeHDF5_4.txt
I0428 15:09:07.797411  5145 hdf5_data_layer.cpp:93] Number of HDF5 files: 20
I0428 15:09:07.798665  5145 hdf5.cpp:32] Datatype class: H5T_FLOAT
I0428 15:09:08.733546  5145 hdf5.cpp:35] Datatype class: H5T_INTEGER
I0428 15:09:08.961132  5145 net.cpp:150] Setting up loaddata
I0428 15:09:08.961158  5145 net.cpp:157] Top shape: 2 3 428 428 (1099104)
I0428 15:09:08.961163  5145 net.cpp:157] Top shape: 2 244 244 (119072)
I0428 15:09:08.961166  5145 net.cpp:157] Top shape: 2 244 244 (119072)
I0428 15:09:08.961169  5145 net.cpp:165] Memory required for data: 5348992
I0428 15:09:08.961190  5145 layer_factory.hpp:77] Creating layer conv_d0a-b
I0428 15:09:08.961206  5145 net.cpp:100] Creating Layer conv_d0a-b
I0428 15:09:08.961210  5145 net.cpp:434] conv_d0a-b <- data
I0428 15:09:08.961216  5145 net.cpp:408] conv_d0a-b -> d0b
I0428 15:09:08.963788  5145 net.cpp:150] Setting up conv_d0a-b
I0428 15:09:08.963804  5145 net.cpp:157] Top shape: 2 64 426 426 (23228928)
I0428 15:09:08.963805  5145 net.cpp:165] Memory required for data: 98264704
I0428 15:09:08.963831  5145 layer_factory.hpp:77] Creating layer bn_d0b
I0428 15:09:08.963840  5145 net.cpp:100] Creating Layer bn_d0b
I0428 15:09:08.963842  5145 net.cpp:434] bn_d0b <- d0b
I0428 15:09:08.963845  5145 net.cpp:395] bn_d0b -> d0b (in-place)
I0428 15:09:08.964145  5145 net.cpp:150] Setting up bn_d0b
I0428 15:09:08.964154  5145 net.cpp:157] Top shape: 2 64 426 426 (23228928)
I0428 15:09:08.964156  5145 net.cpp:165] Memory required for data: 191180416
I0428 15:09:08.964179  5145 layer_factory.hpp:77] Creating layer sc_d0b
I0428 15:09:08.964203  5145 net.cpp:100] Creating Layer sc_d0b
I0428 15:09:08.964207  5145 net.cpp:434] sc_d0b <- d0b
I0428 15:09:08.964212  5145 net.cpp:395] sc_d0b -> d0b (in-place)
I0428 15:09:08.964246  5145 layer_factory.hpp:77] Creating layer sc_d0b
I0428 15:09:08.965476  5145 net.cpp:150] Setting up sc_d0b
I0428 15:09:08.965488  5145 net.cpp:157] Top shape: 2 64 426 426 (23228928)
I0428 15:09:08.965492  5145 net.cpp:165] Memory required for data: 284096128
I0428 15:09:08.965497  5145 layer_factory.hpp:77] Creating layer relu_d0b
I0428 15:09:08.965504  5145 net.cpp:100] Creating Layer relu_d0b
I0428 15:09:08.965507  5145 net.cpp:434] relu_d0b <- d0b
I0428 15:09:08.965528  5145 net.cpp:395] relu_d0b -> d0b (in-place)
I0428 15:09:12.818254  5145 net.cpp:150] Setting up relu_d0b
I0428 15:09:12.818295  5145 net.cpp:157] Top shape: 2 64 426 426 (23228928)
I0428 15:09:12.818298  5145 net.cpp:165] Memory required for data: 377011840
I0428 15:09:12.818303  5145 layer_factory.hpp:77] Creating layer conv_d0b-c
I0428 15:09:12.818318  5145 net.cpp:100] Creating Layer conv_d0b-c
I0428 15:09:12.818321  5145 net.cpp:434] conv_d0b-c <- d0b
I0428 15:09:12.818328  5145 net.cpp:408] conv_d0b-c -> d0c
I0428 15:09:12.820538  5145 net.cpp:150] Setting up conv_d0b-c
I0428 15:09:12.820554  5145 net.cpp:157] Top shape: 2 64 424 424 (23011328)
I0428 15:09:12.820556  5145 net.cpp:165] Memory required for data: 469057152
I0428 15:09:12.820566  5145 layer_factory.hpp:77] Creating layer bn_d0c
I0428 15:09:12.820574  5145 net.cpp:100] Creating Layer bn_d0c
I0428 15:09:12.829242  5145 net.cpp:434] bn_d0c <- d0c
I0428 15:09:12.829269  5145 net.cpp:395] bn_d0c -> d0c (in-place)
I0428 15:09:12.829597  5145 net.cpp:150] Setting up bn_d0c
I0428 15:09:12.829608  5145 net.cpp:157] Top shape: 2 64 424 424 (23011328)
I0428 15:09:12.829610  5145 net.cpp:165] Memory required for data: 561102464
I0428 15:09:12.829625  5145 layer_factory.hpp:77] Creating layer sc_d0c
I0428 15:09:12.829635  5145 net.cpp:100] Creating Layer sc_d0c
I0428 15:09:12.829640  5145 net.cpp:434] sc_d0c <- d0c
I0428 15:09:12.829644  5145 net.cpp:395] sc_d0c -> d0c (in-place)
I0428 15:09:12.829680  5145 layer_factory.hpp:77] Creating layer sc_d0c
I0428 15:09:12.830932  5145 net.cpp:150] Setting up sc_d0c
I0428 15:09:12.830956  5145 net.cpp:157] Top shape: 2 64 424 424 (23011328)
I0428 15:09:12.830958  5145 net.cpp:165] Memory required for data: 653147776
I0428 15:09:12.830965  5145 layer_factory.hpp:77] Creating layer relu_d0c
I0428 15:09:12.830983  5145 net.cpp:100] Creating Layer relu_d0c
I0428 15:09:12.830986  5145 net.cpp:434] relu_d0c <- d0c
I0428 15:09:12.830991  5145 net.cpp:395] relu_d0c -> d0c (in-place)
I0428 15:09:12.831785  5145 net.cpp:150] Setting up relu_d0c
I0428 15:09:12.831799  5145 net.cpp:157] Top shape: 2 64 424 424 (23011328)
I0428 15:09:12.831801  5145 net.cpp:165] Memory required for data: 745193088
I0428 15:09:12.831804  5145 layer_factory.hpp:77] Creating layer d0c_relu_d0c_0_split
I0428 15:09:12.831810  5145 net.cpp:100] Creating Layer d0c_relu_d0c_0_split
I0428 15:09:12.831814  5145 net.cpp:434] d0c_relu_d0c_0_split <- d0c
I0428 15:09:12.831818  5145 net.cpp:408] d0c_relu_d0c_0_split -> d0c_relu_d0c_0_split_0
I0428 15:09:12.831840  5145 net.cpp:408] d0c_relu_d0c_0_split -> d0c_relu_d0c_0_split_1
I0428 15:09:12.831878  5145 net.cpp:150] Setting up d0c_relu_d0c_0_split
I0428 15:09:12.831885  5145 net.cpp:157] Top shape: 2 64 424 424 (23011328)
I0428 15:09:12.831889  5145 net.cpp:157] Top shape: 2 64 424 424 (23011328)
I0428 15:09:12.831892  5145 net.cpp:165] Memory required for data: 929283712
I0428 15:09:12.831894  5145 layer_factory.hpp:77] Creating layer pool_d0c-1a
I0428 15:09:12.831900  5145 net.cpp:100] Creating Layer pool_d0c-1a
I0428 15:09:12.831903  5145 net.cpp:434] pool_d0c-1a <- d0c_relu_d0c_0_split_0
I0428 15:09:12.831907  5145 net.cpp:408] pool_d0c-1a -> d1a
I0428 15:09:12.831939  5145 net.cpp:150] Setting up pool_d0c-1a
I0428 15:09:12.831946  5145 net.cpp:157] Top shape: 2 64 212 212 (5752832)
I0428 15:09:12.831949  5145 net.cpp:165] Memory required for data: 952295040
I0428 15:09:12.831951  5145 layer_factory.hpp:77] Creating layer conv_d1a-b
I0428 15:09:12.831959  5145 net.cpp:100] Creating Layer conv_d1a-b
I0428 15:09:12.831961  5145 net.cpp:434] conv_d1a-b <- d1a
I0428 15:09:12.831966  5145 net.cpp:408] conv_d1a-b -> d1b
I0428 15:09:12.832614  5145 net.cpp:150] Setting up conv_d1a-b
I0428 15:09:12.832623  5145 net.cpp:157] Top shape: 2 128 210 210 (11289600)
I0428 15:09:12.832625  5145 net.cpp:165] Memory required for data: 997453440
I0428 15:09:12.832631  5145 layer_factory.hpp:77] Creating layer bn_d1b
I0428 15:09:12.832636  5145 net.cpp:100] Creating Layer bn_d1b
I0428 15:09:12.832654  5145 net.cpp:434] bn_d1b <- d1b
I0428 15:09:12.832659  5145 net.cpp:395] bn_d1b -> d1b (in-place)
I0428 15:09:12.832850  5145 net.cpp:150] Setting up bn_d1b
I0428 15:09:12.832857  5145 net.cpp:157] Top shape: 2 128 210 210 (11289600)
I0428 15:09:12.832860  5145 net.cpp:165] Memory required for data: 1042611840
I0428 15:09:12.832870  5145 layer_factory.hpp:77] Creating layer sc_d1b
I0428 15:09:12.832878  5145 net.cpp:100] Creating Layer sc_d1b
I0428 15:09:12.832881  5145 net.cpp:434] sc_d1b <- d1b
I0428 15:09:12.832885  5145 net.cpp:395] sc_d1b -> d1b (in-place)
I0428 15:09:12.832919  5145 layer_factory.hpp:77] Creating layer sc_d1b
I0428 15:09:12.833071  5145 net.cpp:150] Setting up sc_d1b
I0428 15:09:12.833079  5145 net.cpp:157] Top shape: 2 128 210 210 (11289600)
I0428 15:09:12.833081  5145 net.cpp:165] Memory required for data: 1087770240
I0428 15:09:12.833086  5145 layer_factory.hpp:77] Creating layer relu_d1b
I0428 15:09:12.833106  5145 net.cpp:100] Creating Layer relu_d1b
I0428 15:09:12.833108  5145 net.cpp:434] relu_d1b <- d1b
I0428 15:09:12.833112  5145 net.cpp:395] relu_d1b -> d1b (in-place)
I0428 15:09:12.833276  5145 net.cpp:150] Setting up relu_d1b
I0428 15:09:12.833286  5145 net.cpp:157] Top shape: 2 128 210 210 (11289600)
I0428 15:09:12.833287  5145 net.cpp:165] Memory required for data: 1132928640
I0428 15:09:12.833290  5145 layer_factory.hpp:77] Creating layer conv_d1b-c
I0428 15:09:12.833297  5145 net.cpp:100] Creating Layer conv_d1b-c
I0428 15:09:12.833302  5145 net.cpp:434] conv_d1b-c <- d1b
I0428 15:09:12.833305  5145 net.cpp:408] conv_d1b-c -> d1c
I0428 15:09:12.834461  5145 net.cpp:150] Setting up conv_d1b-c
I0428 15:09:12.834470  5145 net.cpp:157] Top shape: 2 128 208 208 (11075584)
I0428 15:09:12.834472  5145 net.cpp:165] Memory required for data: 1177230976
I0428 15:09:12.834478  5145 layer_factory.hpp:77] Creating layer bn_d1c
I0428 15:09:12.834486  5145 net.cpp:100] Creating Layer bn_d1c
I0428 15:09:12.834488  5145 net.cpp:434] bn_d1c <- d1c
I0428 15:09:12.834493  5145 net.cpp:395] bn_d1c -> d1c (in-place)
I0428 15:09:12.834673  5145 net.cpp:150] Setting up bn_d1c
I0428 15:09:12.834681  5145 net.cpp:157] Top shape: 2 128 208 208 (11075584)
I0428 15:09:12.834683  5145 net.cpp:165] Memory required for data: 1221533312
I0428 15:09:12.834691  5145 layer_factory.hpp:77] Creating layer sc_d1c
I0428 15:09:12.834697  5145 net.cpp:100] Creating Layer sc_d1c
I0428 15:09:12.834698  5145 net.cpp:434] sc_d1c <- d1c
I0428 15:09:12.834702  5145 net.cpp:395] sc_d1c -> d1c (in-place)
I0428 15:09:12.834735  5145 layer_factory.hpp:77] Creating layer sc_d1c
I0428 15:09:12.834873  5145 net.cpp:150] Setting up sc_d1c
I0428 15:09:12.834880  5145 net.cpp:157] Top shape: 2 128 208 208 (11075584)
I0428 15:09:12.834882  5145 net.cpp:165] Memory required for data: 1265835648
I0428 15:09:12.834888  5145 layer_factory.hpp:77] Creating layer relu_d1c
I0428 15:09:12.834893  5145 net.cpp:100] Creating Layer relu_d1c
I0428 15:09:12.834895  5145 net.cpp:434] relu_d1c <- d1c
I0428 15:09:12.834899  5145 net.cpp:395] relu_d1c -> d1c (in-place)
I0428 15:09:12.835060  5145 net.cpp:150] Setting up relu_d1c
I0428 15:09:12.835068  5145 net.cpp:157] Top shape: 2 128 208 208 (11075584)
I0428 15:09:12.835072  5145 net.cpp:165] Memory required for data: 1310137984
I0428 15:09:12.835074  5145 layer_factory.hpp:77] Creating layer d1c_relu_d1c_0_split
I0428 15:09:12.835079  5145 net.cpp:100] Creating Layer d1c_relu_d1c_0_split
I0428 15:09:12.835083  5145 net.cpp:434] d1c_relu_d1c_0_split <- d1c
I0428 15:09:12.835086  5145 net.cpp:408] d1c_relu_d1c_0_split -> d1c_relu_d1c_0_split_0
I0428 15:09:12.835093  5145 net.cpp:408] d1c_relu_d1c_0_split -> d1c_relu_d1c_0_split_1
I0428 15:09:12.835127  5145 net.cpp:150] Setting up d1c_relu_d1c_0_split
I0428 15:09:12.835134  5145 net.cpp:157] Top shape: 2 128 208 208 (11075584)
I0428 15:09:12.835137  5145 net.cpp:157] Top shape: 2 128 208 208 (11075584)
I0428 15:09:12.835139  5145 net.cpp:165] Memory required for data: 1398742656
I0428 15:09:12.835142  5145 layer_factory.hpp:77] Creating layer pool_d1c-2a
I0428 15:09:12.835147  5145 net.cpp:100] Creating Layer pool_d1c-2a
I0428 15:09:12.835150  5145 net.cpp:434] pool_d1c-2a <- d1c_relu_d1c_0_split_0
I0428 15:09:12.835155  5145 net.cpp:408] pool_d1c-2a -> d2a
I0428 15:09:12.835185  5145 net.cpp:150] Setting up pool_d1c-2a
I0428 15:09:12.835191  5145 net.cpp:157] Top shape: 2 128 104 104 (2768896)
I0428 15:09:12.835193  5145 net.cpp:165] Memory required for data: 1409818240
I0428 15:09:12.835196  5145 layer_factory.hpp:77] Creating layer conv_d2a-b
I0428 15:09:12.835202  5145 net.cpp:100] Creating Layer conv_d2a-b
I0428 15:09:12.835206  5145 net.cpp:434] conv_d2a-b <- d2a
I0428 15:09:12.835209  5145 net.cpp:408] conv_d2a-b -> d2b
I0428 15:09:12.838680  5145 net.cpp:150] Setting up conv_d2a-b
I0428 15:09:12.838692  5145 net.cpp:157] Top shape: 2 256 102 102 (5326848)
I0428 15:09:12.838696  5145 net.cpp:165] Memory required for data: 1431125632
I0428 15:09:12.838727  5145 layer_factory.hpp:77] Creating layer bn_d2b
I0428 15:09:12.838734  5145 net.cpp:100] Creating Layer bn_d2b
I0428 15:09:12.838738  5145 net.cpp:434] bn_d2b <- d2b
I0428 15:09:12.838755  5145 net.cpp:395] bn_d2b -> d2b (in-place)
I0428 15:09:12.838932  5145 net.cpp:150] Setting up bn_d2b
I0428 15:09:12.838939  5145 net.cpp:157] Top shape: 2 256 102 102 (5326848)
I0428 15:09:12.838943  5145 net.cpp:165] Memory required for data: 1452433024
I0428 15:09:12.838953  5145 layer_factory.hpp:77] Creating layer sc_d2b
I0428 15:09:12.838959  5145 net.cpp:100] Creating Layer sc_d2b
I0428 15:09:12.838961  5145 net.cpp:434] sc_d2b <- d2b
I0428 15:09:12.838968  5145 net.cpp:395] sc_d2b -> d2b (in-place)
I0428 15:09:12.839001  5145 layer_factory.hpp:77] Creating layer sc_d2b
I0428 15:09:12.839105  5145 net.cpp:150] Setting up sc_d2b
I0428 15:09:12.839112  5145 net.cpp:157] Top shape: 2 256 102 102 (5326848)
I0428 15:09:12.839115  5145 net.cpp:165] Memory required for data: 1473740416
I0428 15:09:12.839120  5145 layer_factory.hpp:77] Creating layer relu_d2b
I0428 15:09:12.839125  5145 net.cpp:100] Creating Layer relu_d2b
I0428 15:09:12.839128  5145 net.cpp:434] relu_d2b <- d2b
I0428 15:09:12.839133  5145 net.cpp:395] relu_d2b -> d2b (in-place)
I0428 15:09:12.839306  5145 net.cpp:150] Setting up relu_d2b
I0428 15:09:12.839315  5145 net.cpp:157] Top shape: 2 256 102 102 (5326848)
I0428 15:09:12.839318  5145 net.cpp:165] Memory required for data: 1495047808
I0428 15:09:12.839321  5145 layer_factory.hpp:77] Creating layer conv_d2b-c
I0428 15:09:12.839329  5145 net.cpp:100] Creating Layer conv_d2b-c
I0428 15:09:12.839331  5145 net.cpp:434] conv_d2b-c <- d2b
I0428 15:09:12.839336  5145 net.cpp:408] conv_d2b-c -> d2c
I0428 15:09:12.843608  5145 net.cpp:150] Setting up conv_d2b-c
I0428 15:09:12.843621  5145 net.cpp:157] Top shape: 2 256 100 100 (5120000)
I0428 15:09:12.843624  5145 net.cpp:165] Memory required for data: 1515527808
I0428 15:09:12.843629  5145 layer_factory.hpp:77] Creating layer bn_d2c
I0428 15:09:12.843639  5145 net.cpp:100] Creating Layer bn_d2c
I0428 15:09:12.843642  5145 net.cpp:434] bn_d2c <- d2c
I0428 15:09:12.843647  5145 net.cpp:395] bn_d2c -> d2c (in-place)
I0428 15:09:12.843823  5145 net.cpp:150] Setting up bn_d2c
I0428 15:09:12.843832  5145 net.cpp:157] Top shape: 2 256 100 100 (5120000)
I0428 15:09:12.843833  5145 net.cpp:165] Memory required for data: 1536007808
I0428 15:09:12.843855  5145 layer_factory.hpp:77] Creating layer sc_d2c
I0428 15:09:12.843860  5145 net.cpp:100] Creating Layer sc_d2c
I0428 15:09:12.843864  5145 net.cpp:434] sc_d2c <- d2c
I0428 15:09:12.843869  5145 net.cpp:395] sc_d2c -> d2c (in-place)
I0428 15:09:12.843902  5145 layer_factory.hpp:77] Creating layer sc_d2c
I0428 15:09:12.844033  5145 net.cpp:150] Setting up sc_d2c
I0428 15:09:12.844040  5145 net.cpp:157] Top shape: 2 256 100 100 (5120000)
I0428 15:09:12.844043  5145 net.cpp:165] Memory required for data: 1556487808
I0428 15:09:12.844048  5145 layer_factory.hpp:77] Creating layer relu_d2c
I0428 15:09:12.844053  5145 net.cpp:100] Creating Layer relu_d2c
I0428 15:09:12.844056  5145 net.cpp:434] relu_d2c <- d2c
I0428 15:09:12.844059  5145 net.cpp:395] relu_d2c -> d2c (in-place)
I0428 15:09:12.846228  5145 net.cpp:150] Setting up relu_d2c
I0428 15:09:12.846245  5145 net.cpp:157] Top shape: 2 256 100 100 (5120000)
I0428 15:09:12.846248  5145 net.cpp:165] Memory required for data: 1576967808
I0428 15:09:12.846251  5145 layer_factory.hpp:77] Creating layer d2c_relu_d2c_0_split
I0428 15:09:12.846257  5145 net.cpp:100] Creating Layer d2c_relu_d2c_0_split
I0428 15:09:12.846259  5145 net.cpp:434] d2c_relu_d2c_0_split <- d2c
I0428 15:09:12.846269  5145 net.cpp:408] d2c_relu_d2c_0_split -> d2c_relu_d2c_0_split_0
I0428 15:09:12.846276  5145 net.cpp:408] d2c_relu_d2c_0_split -> d2c_relu_d2c_0_split_1
I0428 15:09:12.846331  5145 net.cpp:150] Setting up d2c_relu_d2c_0_split
I0428 15:09:12.846339  5145 net.cpp:157] Top shape: 2 256 100 100 (5120000)
I0428 15:09:12.846343  5145 net.cpp:157] Top shape: 2 256 100 100 (5120000)
I0428 15:09:12.846359  5145 net.cpp:165] Memory required for data: 1617927808
I0428 15:09:12.846361  5145 layer_factory.hpp:77] Creating layer pool_d2c-3a
I0428 15:09:12.846366  5145 net.cpp:100] Creating Layer pool_d2c-3a
I0428 15:09:12.846386  5145 net.cpp:434] pool_d2c-3a <- d2c_relu_d2c_0_split_0
I0428 15:09:12.846392  5145 net.cpp:408] pool_d2c-3a -> d3a
I0428 15:09:12.846427  5145 net.cpp:150] Setting up pool_d2c-3a
I0428 15:09:12.846434  5145 net.cpp:157] Top shape: 2 256 50 50 (1280000)
I0428 15:09:12.846437  5145 net.cpp:165] Memory required for data: 1623047808
I0428 15:09:12.846439  5145 layer_factory.hpp:77] Creating layer conv_d3a-b
I0428 15:09:12.846448  5145 net.cpp:100] Creating Layer conv_d3a-b
I0428 15:09:12.846451  5145 net.cpp:434] conv_d3a-b <- d3a
I0428 15:09:12.846457  5145 net.cpp:408] conv_d3a-b -> d3b
I0428 15:09:12.856940  5145 net.cpp:150] Setting up conv_d3a-b
I0428 15:09:12.856956  5145 net.cpp:157] Top shape: 2 512 48 48 (2359296)
I0428 15:09:12.856958  5145 net.cpp:165] Memory required for data: 1632484992
I0428 15:09:12.856976  5145 layer_factory.hpp:77] Creating layer bn_d3b
I0428 15:09:12.856987  5145 net.cpp:100] Creating Layer bn_d3b
I0428 15:09:12.856992  5145 net.cpp:434] bn_d3b <- d3b
I0428 15:09:12.856997  5145 net.cpp:395] bn_d3b -> d3b (in-place)
I0428 15:09:12.857200  5145 net.cpp:150] Setting up bn_d3b
I0428 15:09:12.857208  5145 net.cpp:157] Top shape: 2 512 48 48 (2359296)
I0428 15:09:12.857210  5145 net.cpp:165] Memory required for data: 1641922176
I0428 15:09:12.857216  5145 layer_factory.hpp:77] Creating layer sc_d3b
I0428 15:09:12.857223  5145 net.cpp:100] Creating Layer sc_d3b
I0428 15:09:12.857225  5145 net.cpp:434] sc_d3b <- d3b
I0428 15:09:12.857230  5145 net.cpp:395] sc_d3b -> d3b (in-place)
I0428 15:09:12.857264  5145 layer_factory.hpp:77] Creating layer sc_d3b
I0428 15:09:12.857367  5145 net.cpp:150] Setting up sc_d3b
I0428 15:09:12.857374  5145 net.cpp:157] Top shape: 2 512 48 48 (2359296)
I0428 15:09:12.857376  5145 net.cpp:165] Memory required for data: 1651359360
I0428 15:09:12.857381  5145 layer_factory.hpp:77] Creating layer relu_d3b
I0428 15:09:12.857386  5145 net.cpp:100] Creating Layer relu_d3b
I0428 15:09:12.857389  5145 net.cpp:434] relu_d3b <- d3b
I0428 15:09:12.857394  5145 net.cpp:395] relu_d3b -> d3b (in-place)
I0428 15:09:12.857587  5145 net.cpp:150] Setting up relu_d3b
I0428 15:09:12.857599  5145 net.cpp:157] Top shape: 2 512 48 48 (2359296)
I0428 15:09:12.857600  5145 net.cpp:165] Memory required for data: 1660796544
I0428 15:09:12.857604  5145 layer_factory.hpp:77] Creating layer conv_d3b-c
I0428 15:09:12.857612  5145 net.cpp:100] Creating Layer conv_d3b-c
I0428 15:09:12.857615  5145 net.cpp:434] conv_d3b-c <- d3b
I0428 15:09:12.857620  5145 net.cpp:408] conv_d3b-c -> d3c
I0428 15:09:12.873353  5145 net.cpp:150] Setting up conv_d3b-c
I0428 15:09:12.873366  5145 net.cpp:157] Top shape: 2 512 46 46 (2166784)
I0428 15:09:12.873369  5145 net.cpp:165] Memory required for data: 1669463680
I0428 15:09:12.873374  5145 layer_factory.hpp:77] Creating layer bn_d3c
I0428 15:09:12.873380  5145 net.cpp:100] Creating Layer bn_d3c
I0428 15:09:12.873383  5145 net.cpp:434] bn_d3c <- d3c
I0428 15:09:12.873389  5145 net.cpp:395] bn_d3c -> d3c (in-place)
I0428 15:09:12.873606  5145 net.cpp:150] Setting up bn_d3c
I0428 15:09:12.873615  5145 net.cpp:157] Top shape: 2 512 46 46 (2166784)
I0428 15:09:12.873616  5145 net.cpp:165] Memory required for data: 1678130816
I0428 15:09:12.873623  5145 layer_factory.hpp:77] Creating layer sc_d3c
I0428 15:09:12.873630  5145 net.cpp:100] Creating Layer sc_d3c
I0428 15:09:12.873631  5145 net.cpp:434] sc_d3c <- d3c
I0428 15:09:12.873637  5145 net.cpp:395] sc_d3c -> d3c (in-place)
I0428 15:09:12.873670  5145 layer_factory.hpp:77] Creating layer sc_d3c
I0428 15:09:12.873782  5145 net.cpp:150] Setting up sc_d3c
I0428 15:09:12.873790  5145 net.cpp:157] Top shape: 2 512 46 46 (2166784)
I0428 15:09:12.873792  5145 net.cpp:165] Memory required for data: 1686797952
I0428 15:09:12.873798  5145 layer_factory.hpp:77] Creating layer relu_d3c
I0428 15:09:12.873816  5145 net.cpp:100] Creating Layer relu_d3c
I0428 15:09:12.873819  5145 net.cpp:434] relu_d3c <- d3c
I0428 15:09:12.873823  5145 net.cpp:395] relu_d3c -> d3c (in-place)
I0428 15:09:12.874053  5145 net.cpp:150] Setting up relu_d3c
I0428 15:09:12.874064  5145 net.cpp:157] Top shape: 2 512 46 46 (2166784)
I0428 15:09:12.874066  5145 net.cpp:165] Memory required for data: 1695465088
I0428 15:09:12.874069  5145 layer_factory.hpp:77] Creating layer d3c_relu_d3c_0_split
I0428 15:09:12.874074  5145 net.cpp:100] Creating Layer d3c_relu_d3c_0_split
I0428 15:09:12.874078  5145 net.cpp:434] d3c_relu_d3c_0_split <- d3c
I0428 15:09:12.874083  5145 net.cpp:408] d3c_relu_d3c_0_split -> d3c_relu_d3c_0_split_0
I0428 15:09:12.874104  5145 net.cpp:408] d3c_relu_d3c_0_split -> d3c_relu_d3c_0_split_1
I0428 15:09:12.874146  5145 net.cpp:150] Setting up d3c_relu_d3c_0_split
I0428 15:09:12.874155  5145 net.cpp:157] Top shape: 2 512 46 46 (2166784)
I0428 15:09:12.874158  5145 net.cpp:157] Top shape: 2 512 46 46 (2166784)
I0428 15:09:12.874161  5145 net.cpp:165] Memory required for data: 1712799360
I0428 15:09:12.874164  5145 layer_factory.hpp:77] Creating layer pool_d3c-4a
I0428 15:09:12.874168  5145 net.cpp:100] Creating Layer pool_d3c-4a
I0428 15:09:12.874171  5145 net.cpp:434] pool_d3c-4a <- d3c_relu_d3c_0_split_0
I0428 15:09:12.874176  5145 net.cpp:408] pool_d3c-4a -> d4a
I0428 15:09:12.874210  5145 net.cpp:150] Setting up pool_d3c-4a
I0428 15:09:12.874217  5145 net.cpp:157] Top shape: 2 512 23 23 (541696)
I0428 15:09:12.874218  5145 net.cpp:165] Memory required for data: 1714966144
I0428 15:09:12.874220  5145 layer_factory.hpp:77] Creating layer conv_d4a-b
I0428 15:09:12.874230  5145 net.cpp:100] Creating Layer conv_d4a-b
I0428 15:09:12.874233  5145 net.cpp:434] conv_d4a-b <- d4a
I0428 15:09:12.874238  5145 net.cpp:408] conv_d4a-b -> d4b
I0428 15:09:12.904083  5145 net.cpp:150] Setting up conv_d4a-b
I0428 15:09:12.904098  5145 net.cpp:157] Top shape: 2 1024 21 21 (903168)
I0428 15:09:12.904099  5145 net.cpp:165] Memory required for data: 1718578816
I0428 15:09:12.904104  5145 layer_factory.hpp:77] Creating layer bn_d4b
I0428 15:09:12.904111  5145 net.cpp:100] Creating Layer bn_d4b
I0428 15:09:12.904114  5145 net.cpp:434] bn_d4b <- d4b
I0428 15:09:12.904119  5145 net.cpp:395] bn_d4b -> d4b (in-place)
I0428 15:09:12.904337  5145 net.cpp:150] Setting up bn_d4b
I0428 15:09:12.904348  5145 net.cpp:157] Top shape: 2 1024 21 21 (903168)
I0428 15:09:12.904351  5145 net.cpp:165] Memory required for data: 1722191488
I0428 15:09:12.904358  5145 layer_factory.hpp:77] Creating layer sc_d4b
I0428 15:09:12.904366  5145 net.cpp:100] Creating Layer sc_d4b
I0428 15:09:12.904369  5145 net.cpp:434] sc_d4b <- d4b
I0428 15:09:12.904374  5145 net.cpp:395] sc_d4b -> d4b (in-place)
I0428 15:09:12.904415  5145 layer_factory.hpp:77] Creating layer sc_d4b
I0428 15:09:12.904520  5145 net.cpp:150] Setting up sc_d4b
I0428 15:09:12.904527  5145 net.cpp:157] Top shape: 2 1024 21 21 (903168)
I0428 15:09:12.904531  5145 net.cpp:165] Memory required for data: 1725804160
I0428 15:09:12.904536  5145 layer_factory.hpp:77] Creating layer relu_d4b
I0428 15:09:12.904539  5145 net.cpp:100] Creating Layer relu_d4b
I0428 15:09:12.904542  5145 net.cpp:434] relu_d4b <- d4b
I0428 15:09:12.904548  5145 net.cpp:395] relu_d4b -> d4b (in-place)
I0428 15:09:12.910553  5145 net.cpp:150] Setting up relu_d4b
I0428 15:09:12.910569  5145 net.cpp:157] Top shape: 2 1024 21 21 (903168)
I0428 15:09:12.910588  5145 net.cpp:165] Memory required for data: 1729416832
I0428 15:09:12.910591  5145 layer_factory.hpp:77] Creating layer conv_d4b-c
I0428 15:09:12.910603  5145 net.cpp:100] Creating Layer conv_d4b-c
I0428 15:09:12.910605  5145 net.cpp:434] conv_d4b-c <- d4b
I0428 15:09:12.910611  5145 net.cpp:408] conv_d4b-c -> d4c
I0428 15:09:12.972100  5145 net.cpp:150] Setting up conv_d4b-c
I0428 15:09:12.972121  5145 net.cpp:157] Top shape: 2 1024 19 19 (739328)
I0428 15:09:12.972124  5145 net.cpp:165] Memory required for data: 1732374144
I0428 15:09:12.972144  5145 layer_factory.hpp:77] Creating layer bn_d4c
I0428 15:09:12.972172  5145 net.cpp:100] Creating Layer bn_d4c
I0428 15:09:12.972177  5145 net.cpp:434] bn_d4c <- d4c
I0428 15:09:12.972183  5145 net.cpp:395] bn_d4c -> d4c (in-place)
I0428 15:09:12.972406  5145 net.cpp:150] Setting up bn_d4c
I0428 15:09:12.972414  5145 net.cpp:157] Top shape: 2 1024 19 19 (739328)
I0428 15:09:12.972417  5145 net.cpp:165] Memory required for data: 1735331456
I0428 15:09:12.972424  5145 layer_factory.hpp:77] Creating layer sc_d4c
I0428 15:09:12.972429  5145 net.cpp:100] Creating Layer sc_d4c
I0428 15:09:12.972432  5145 net.cpp:434] sc_d4c <- d4c
I0428 15:09:12.972451  5145 net.cpp:395] sc_d4c -> d4c (in-place)
I0428 15:09:12.972496  5145 layer_factory.hpp:77] Creating layer sc_d4c
I0428 15:09:12.972623  5145 net.cpp:150] Setting up sc_d4c
I0428 15:09:12.972631  5145 net.cpp:157] Top shape: 2 1024 19 19 (739328)
I0428 15:09:12.972633  5145 net.cpp:165] Memory required for data: 1738288768
I0428 15:09:12.972638  5145 layer_factory.hpp:77] Creating layer relu_d4c
I0428 15:09:12.972643  5145 net.cpp:100] Creating Layer relu_d4c
I0428 15:09:12.972646  5145 net.cpp:434] relu_d4c <- d4c
I0428 15:09:12.972654  5145 net.cpp:395] relu_d4c -> d4c (in-place)
I0428 15:09:12.972861  5145 net.cpp:150] Setting up relu_d4c
I0428 15:09:12.972869  5145 net.cpp:157] Top shape: 2 1024 19 19 (739328)
I0428 15:09:12.972872  5145 net.cpp:165] Memory required for data: 1741246080
I0428 15:09:12.972874  5145 layer_factory.hpp:77] Creating layer upconv_d4c_u3a
I0428 15:09:12.972888  5145 net.cpp:100] Creating Layer upconv_d4c_u3a
I0428 15:09:12.972890  5145 net.cpp:434] upconv_d4c_u3a <- d4c
I0428 15:09:12.972898  5145 net.cpp:408] upconv_d4c_u3a -> u3a
I0428 15:09:12.986681  5145 net.cpp:150] Setting up upconv_d4c_u3a
I0428 15:09:12.986696  5145 net.cpp:157] Top shape: 2 512 38 38 (1478656)
I0428 15:09:12.986697  5145 net.cpp:165] Memory required for data: 1747160704
I0428 15:09:12.986703  5145 layer_factory.hpp:77] Creating layer bn_u3a
I0428 15:09:12.986711  5145 net.cpp:100] Creating Layer bn_u3a
I0428 15:09:12.986713  5145 net.cpp:434] bn_u3a <- u3a
I0428 15:09:12.986718  5145 net.cpp:395] bn_u3a -> u3a (in-place)
I0428 15:09:12.986905  5145 net.cpp:150] Setting up bn_u3a
I0428 15:09:12.986912  5145 net.cpp:157] Top shape: 2 512 38 38 (1478656)
I0428 15:09:12.986914  5145 net.cpp:165] Memory required for data: 1753075328
I0428 15:09:12.986920  5145 layer_factory.hpp:77] Creating layer sc_u3a
I0428 15:09:12.986943  5145 net.cpp:100] Creating Layer sc_u3a
I0428 15:09:12.986946  5145 net.cpp:434] sc_u3a <- u3a
I0428 15:09:12.986966  5145 net.cpp:395] sc_u3a -> u3a (in-place)
I0428 15:09:12.987002  5145 layer_factory.hpp:77] Creating layer sc_u3a
I0428 15:09:12.987118  5145 net.cpp:150] Setting up sc_u3a
I0428 15:09:12.987124  5145 net.cpp:157] Top shape: 2 512 38 38 (1478656)
I0428 15:09:12.987126  5145 net.cpp:165] Memory required for data: 1758989952
I0428 15:09:12.987131  5145 layer_factory.hpp:77] Creating layer relu_u3a
I0428 15:09:12.987136  5145 net.cpp:100] Creating Layer relu_u3a
I0428 15:09:12.987139  5145 net.cpp:434] relu_u3a <- u3a
I0428 15:09:12.987154  5145 net.cpp:395] relu_u3a -> u3a (in-place)
I0428 15:09:12.987354  5145 net.cpp:150] Setting up relu_u3a
I0428 15:09:12.987365  5145 net.cpp:157] Top shape: 2 512 38 38 (1478656)
I0428 15:09:12.987367  5145 net.cpp:165] Memory required for data: 1764904576
I0428 15:09:12.987370  5145 layer_factory.hpp:77] Creating layer u3a_relu_u3a_0_split
I0428 15:09:12.987375  5145 net.cpp:100] Creating Layer u3a_relu_u3a_0_split
I0428 15:09:12.987377  5145 net.cpp:434] u3a_relu_u3a_0_split <- u3a
I0428 15:09:12.987385  5145 net.cpp:408] u3a_relu_u3a_0_split -> u3a_relu_u3a_0_split_0
I0428 15:09:12.987390  5145 net.cpp:408] u3a_relu_u3a_0_split -> u3a_relu_u3a_0_split_1
I0428 15:09:12.987447  5145 net.cpp:150] Setting up u3a_relu_u3a_0_split
I0428 15:09:12.987454  5145 net.cpp:157] Top shape: 2 512 38 38 (1478656)
I0428 15:09:12.987457  5145 net.cpp:157] Top shape: 2 512 38 38 (1478656)
I0428 15:09:12.987459  5145 net.cpp:165] Memory required for data: 1776733824
I0428 15:09:12.987473  5145 layer_factory.hpp:77] Creating layer crop_d3c-d3cc
I0428 15:09:12.987480  5145 net.cpp:100] Creating Layer crop_d3c-d3cc
I0428 15:09:12.987485  5145 net.cpp:434] crop_d3c-d3cc <- d3c_relu_d3c_0_split_1
I0428 15:09:12.987489  5145 net.cpp:434] crop_d3c-d3cc <- u3a_relu_u3a_0_split_0
I0428 15:09:12.987493  5145 net.cpp:408] crop_d3c-d3cc -> d3cc
I0428 15:09:12.987519  5145 net.cpp:150] Setting up crop_d3c-d3cc
I0428 15:09:12.987526  5145 net.cpp:157] Top shape: 2 512 38 38 (1478656)
I0428 15:09:12.987529  5145 net.cpp:165] Memory required for data: 1782648448
I0428 15:09:12.987531  5145 layer_factory.hpp:77] Creating layer concat_d3cc_u3a-b
I0428 15:09:12.987536  5145 net.cpp:100] Creating Layer concat_d3cc_u3a-b
I0428 15:09:12.987538  5145 net.cpp:434] concat_d3cc_u3a-b <- u3a_relu_u3a_0_split_1
I0428 15:09:12.987541  5145 net.cpp:434] concat_d3cc_u3a-b <- d3cc
I0428 15:09:12.987546  5145 net.cpp:408] concat_d3cc_u3a-b -> u3b
I0428 15:09:12.987567  5145 net.cpp:150] Setting up concat_d3cc_u3a-b
I0428 15:09:12.987571  5145 net.cpp:157] Top shape: 2 1024 38 38 (2957312)
I0428 15:09:12.987573  5145 net.cpp:165] Memory required for data: 1794477696
I0428 15:09:12.987576  5145 layer_factory.hpp:77] Creating layer conv_u3b-c
I0428 15:09:12.987586  5145 net.cpp:100] Creating Layer conv_u3b-c
I0428 15:09:12.987588  5145 net.cpp:434] conv_u3b-c <- u3b
I0428 15:09:12.987594  5145 net.cpp:408] conv_u3b-c -> u3c
I0428 15:09:13.017392  5145 net.cpp:150] Setting up conv_u3b-c
I0428 15:09:13.017408  5145 net.cpp:157] Top shape: 2 512 36 36 (1327104)
I0428 15:09:13.017427  5145 net.cpp:165] Memory required for data: 1799786112
I0428 15:09:13.017432  5145 layer_factory.hpp:77] Creating layer bn_u3c
I0428 15:09:13.017442  5145 net.cpp:100] Creating Layer bn_u3c
I0428 15:09:13.017462  5145 net.cpp:434] bn_u3c <- u3c
I0428 15:09:13.017467  5145 net.cpp:395] bn_u3c -> u3c (in-place)
I0428 15:09:13.017669  5145 net.cpp:150] Setting up bn_u3c
I0428 15:09:13.017678  5145 net.cpp:157] Top shape: 2 512 36 36 (1327104)
I0428 15:09:13.017680  5145 net.cpp:165] Memory required for data: 1805094528
I0428 15:09:13.017686  5145 layer_factory.hpp:77] Creating layer sc_u3c
I0428 15:09:13.017691  5145 net.cpp:100] Creating Layer sc_u3c
I0428 15:09:13.017694  5145 net.cpp:434] sc_u3c <- u3c
I0428 15:09:13.017699  5145 net.cpp:395] sc_u3c -> u3c (in-place)
I0428 15:09:13.017735  5145 layer_factory.hpp:77] Creating layer sc_u3c
I0428 15:09:13.017859  5145 net.cpp:150] Setting up sc_u3c
I0428 15:09:13.017868  5145 net.cpp:157] Top shape: 2 512 36 36 (1327104)
I0428 15:09:13.017870  5145 net.cpp:165] Memory required for data: 1810402944
I0428 15:09:13.017875  5145 layer_factory.hpp:77] Creating layer relu_u3c
I0428 15:09:13.017879  5145 net.cpp:100] Creating Layer relu_u3c
I0428 15:09:13.017882  5145 net.cpp:434] relu_u3c <- u3c
I0428 15:09:13.017887  5145 net.cpp:395] relu_u3c -> u3c (in-place)
I0428 15:09:13.018090  5145 net.cpp:150] Setting up relu_u3c
I0428 15:09:13.018098  5145 net.cpp:157] Top shape: 2 512 36 36 (1327104)
I0428 15:09:13.018101  5145 net.cpp:165] Memory required for data: 1815711360
I0428 15:09:13.018105  5145 layer_factory.hpp:77] Creating layer conv_u3c-d
I0428 15:09:13.018113  5145 net.cpp:100] Creating Layer conv_u3c-d
I0428 15:09:13.018116  5145 net.cpp:434] conv_u3c-d <- u3c
I0428 15:09:13.018121  5145 net.cpp:408] conv_u3c-d -> u3d
I0428 15:09:13.033520  5145 net.cpp:150] Setting up conv_u3c-d
I0428 15:09:13.033535  5145 net.cpp:157] Top shape: 2 512 34 34 (1183744)
I0428 15:09:13.033552  5145 net.cpp:165] Memory required for data: 1820446336
I0428 15:09:13.033558  5145 layer_factory.hpp:77] Creating layer bn_u3d
I0428 15:09:13.033566  5145 net.cpp:100] Creating Layer bn_u3d
I0428 15:09:13.033571  5145 net.cpp:434] bn_u3d <- u3d
I0428 15:09:13.033576  5145 net.cpp:395] bn_u3d -> u3d (in-place)
I0428 15:09:13.033762  5145 net.cpp:150] Setting up bn_u3d
I0428 15:09:13.033778  5145 net.cpp:157] Top shape: 2 512 34 34 (1183744)
I0428 15:09:13.033780  5145 net.cpp:165] Memory required for data: 1825181312
I0428 15:09:13.033799  5145 layer_factory.hpp:77] Creating layer sc_u3d
I0428 15:09:13.033805  5145 net.cpp:100] Creating Layer sc_u3d
I0428 15:09:13.033808  5145 net.cpp:434] sc_u3d <- u3d
I0428 15:09:13.033814  5145 net.cpp:395] sc_u3d -> u3d (in-place)
I0428 15:09:13.033849  5145 layer_factory.hpp:77] Creating layer sc_u3d
I0428 15:09:13.033967  5145 net.cpp:150] Setting up sc_u3d
I0428 15:09:13.033975  5145 net.cpp:157] Top shape: 2 512 34 34 (1183744)
I0428 15:09:13.033977  5145 net.cpp:165] Memory required for data: 1829916288
I0428 15:09:13.033982  5145 layer_factory.hpp:77] Creating layer relu_u3d
I0428 15:09:13.033987  5145 net.cpp:100] Creating Layer relu_u3d
I0428 15:09:13.033990  5145 net.cpp:434] relu_u3d <- u3d
I0428 15:09:13.033994  5145 net.cpp:395] relu_u3d -> u3d (in-place)
I0428 15:09:13.034904  5145 net.cpp:150] Setting up relu_u3d
I0428 15:09:13.034917  5145 net.cpp:157] Top shape: 2 512 34 34 (1183744)
I0428 15:09:13.034922  5145 net.cpp:165] Memory required for data: 1834651264
I0428 15:09:13.034925  5145 layer_factory.hpp:77] Creating layer upconv_u3d_u2a
I0428 15:09:13.034960  5145 net.cpp:100] Creating Layer upconv_u3d_u2a
I0428 15:09:13.034963  5145 net.cpp:434] upconv_u3d_u2a <- u3d
I0428 15:09:13.034970  5145 net.cpp:408] upconv_u3d_u2a -> u2a
I0428 15:09:13.038831  5145 net.cpp:150] Setting up upconv_u3d_u2a
I0428 15:09:13.038844  5145 net.cpp:157] Top shape: 2 256 68 68 (2367488)
I0428 15:09:13.038847  5145 net.cpp:165] Memory required for data: 1844121216
I0428 15:09:13.038853  5145 layer_factory.hpp:77] Creating layer bn_u2a
I0428 15:09:13.038861  5145 net.cpp:100] Creating Layer bn_u2a
I0428 15:09:13.038863  5145 net.cpp:434] bn_u2a <- u2a
I0428 15:09:13.038868  5145 net.cpp:395] bn_u2a -> u2a (in-place)
I0428 15:09:13.039077  5145 net.cpp:150] Setting up bn_u2a
I0428 15:09:13.039085  5145 net.cpp:157] Top shape: 2 256 68 68 (2367488)
I0428 15:09:13.039088  5145 net.cpp:165] Memory required for data: 1853591168
I0428 15:09:13.039094  5145 layer_factory.hpp:77] Creating layer sc_u2a
I0428 15:09:13.039119  5145 net.cpp:100] Creating Layer sc_u2a
I0428 15:09:13.039120  5145 net.cpp:434] sc_u2a <- u2a
I0428 15:09:13.039124  5145 net.cpp:395] sc_u2a -> u2a (in-place)
I0428 15:09:13.039161  5145 layer_factory.hpp:77] Creating layer sc_u2a
I0428 15:09:13.039283  5145 net.cpp:150] Setting up sc_u2a
I0428 15:09:13.039290  5145 net.cpp:157] Top shape: 2 256 68 68 (2367488)
I0428 15:09:13.039293  5145 net.cpp:165] Memory required for data: 1863061120
I0428 15:09:13.039297  5145 layer_factory.hpp:77] Creating layer relu_u2a
I0428 15:09:13.039302  5145 net.cpp:100] Creating Layer relu_u2a
I0428 15:09:13.039305  5145 net.cpp:434] relu_u2a <- u2a
I0428 15:09:13.039309  5145 net.cpp:395] relu_u2a -> u2a (in-place)
I0428 15:09:13.039515  5145 net.cpp:150] Setting up relu_u2a
I0428 15:09:13.039523  5145 net.cpp:157] Top shape: 2 256 68 68 (2367488)
I0428 15:09:13.039526  5145 net.cpp:165] Memory required for data: 1872531072
I0428 15:09:13.039530  5145 layer_factory.hpp:77] Creating layer u2a_relu_u2a_0_split
I0428 15:09:13.039533  5145 net.cpp:100] Creating Layer u2a_relu_u2a_0_split
I0428 15:09:13.039536  5145 net.cpp:434] u2a_relu_u2a_0_split <- u2a
I0428 15:09:13.039543  5145 net.cpp:408] u2a_relu_u2a_0_split -> u2a_relu_u2a_0_split_0
I0428 15:09:13.039549  5145 net.cpp:408] u2a_relu_u2a_0_split -> u2a_relu_u2a_0_split_1
I0428 15:09:13.039588  5145 net.cpp:150] Setting up u2a_relu_u2a_0_split
I0428 15:09:13.039593  5145 net.cpp:157] Top shape: 2 256 68 68 (2367488)
I0428 15:09:13.039597  5145 net.cpp:157] Top shape: 2 256 68 68 (2367488)
I0428 15:09:13.039598  5145 net.cpp:165] Memory required for data: 1891470976
I0428 15:09:13.039600  5145 layer_factory.hpp:77] Creating layer crop_d2c-d2cc
I0428 15:09:13.039607  5145 net.cpp:100] Creating Layer crop_d2c-d2cc
I0428 15:09:13.039610  5145 net.cpp:434] crop_d2c-d2cc <- d2c_relu_d2c_0_split_1
I0428 15:09:13.039613  5145 net.cpp:434] crop_d2c-d2cc <- u2a_relu_u2a_0_split_0
I0428 15:09:13.039618  5145 net.cpp:408] crop_d2c-d2cc -> d2cc
I0428 15:09:13.039669  5145 net.cpp:150] Setting up crop_d2c-d2cc
I0428 15:09:13.039674  5145 net.cpp:157] Top shape: 2 256 68 68 (2367488)
I0428 15:09:13.039675  5145 net.cpp:165] Memory required for data: 1900940928
I0428 15:09:13.039677  5145 layer_factory.hpp:77] Creating layer concat_d2cc_u2a-b
I0428 15:09:13.039683  5145 net.cpp:100] Creating Layer concat_d2cc_u2a-b
I0428 15:09:13.039685  5145 net.cpp:434] concat_d2cc_u2a-b <- u2a_relu_u2a_0_split_1
I0428 15:09:13.039688  5145 net.cpp:434] concat_d2cc_u2a-b <- d2cc
I0428 15:09:13.039693  5145 net.cpp:408] concat_d2cc_u2a-b -> u2b
I0428 15:09:13.039713  5145 net.cpp:150] Setting up concat_d2cc_u2a-b
I0428 15:09:13.039717  5145 net.cpp:157] Top shape: 2 512 68 68 (4734976)
I0428 15:09:13.039719  5145 net.cpp:165] Memory required for data: 1919880832
I0428 15:09:13.039721  5145 layer_factory.hpp:77] Creating layer conv_u2b-c
I0428 15:09:13.039731  5145 net.cpp:100] Creating Layer conv_u2b-c
I0428 15:09:13.039733  5145 net.cpp:434] conv_u2b-c <- u2b
I0428 15:09:13.039738  5145 net.cpp:408] conv_u2b-c -> u2c
I0428 15:09:13.047582  5145 net.cpp:150] Setting up conv_u2b-c
I0428 15:09:13.047596  5145 net.cpp:157] Top shape: 2 256 66 66 (2230272)
I0428 15:09:13.047600  5145 net.cpp:165] Memory required for data: 1928801920
I0428 15:09:13.047605  5145 layer_factory.hpp:77] Creating layer bn_u2c
I0428 15:09:13.047610  5145 net.cpp:100] Creating Layer bn_u2c
I0428 15:09:13.047613  5145 net.cpp:434] bn_u2c <- u2c
I0428 15:09:13.047617  5145 net.cpp:395] bn_u2c -> u2c (in-place)
I0428 15:09:13.047804  5145 net.cpp:150] Setting up bn_u2c
I0428 15:09:13.047811  5145 net.cpp:157] Top shape: 2 256 66 66 (2230272)
I0428 15:09:13.047814  5145 net.cpp:165] Memory required for data: 1937723008
I0428 15:09:13.047821  5145 layer_factory.hpp:77] Creating layer sc_u2c
I0428 15:09:13.047825  5145 net.cpp:100] Creating Layer sc_u2c
I0428 15:09:13.047827  5145 net.cpp:434] sc_u2c <- u2c
I0428 15:09:13.047832  5145 net.cpp:395] sc_u2c -> u2c (in-place)
I0428 15:09:13.047868  5145 layer_factory.hpp:77] Creating layer sc_u2c
I0428 15:09:13.047987  5145 net.cpp:150] Setting up sc_u2c
I0428 15:09:13.047994  5145 net.cpp:157] Top shape: 2 256 66 66 (2230272)
I0428 15:09:13.047997  5145 net.cpp:165] Memory required for data: 1946644096
I0428 15:09:13.048002  5145 layer_factory.hpp:77] Creating layer relu_u2c
I0428 15:09:13.048007  5145 net.cpp:100] Creating Layer relu_u2c
I0428 15:09:13.048008  5145 net.cpp:434] relu_u2c <- u2c
I0428 15:09:13.048013  5145 net.cpp:395] relu_u2c -> u2c (in-place)
I0428 15:09:13.048195  5145 net.cpp:150] Setting up relu_u2c
I0428 15:09:13.048204  5145 net.cpp:157] Top shape: 2 256 66 66 (2230272)
I0428 15:09:13.048207  5145 net.cpp:165] Memory required for data: 1955565184
I0428 15:09:13.048210  5145 layer_factory.hpp:77] Creating layer conv_u2c-d
I0428 15:09:13.048218  5145 net.cpp:100] Creating Layer conv_u2c-d
I0428 15:09:13.048221  5145 net.cpp:434] conv_u2c-d <- u2c
I0428 15:09:13.048241  5145 net.cpp:408] conv_u2c-d -> u2d
I0428 15:09:13.052510  5145 net.cpp:150] Setting up conv_u2c-d
I0428 15:09:13.052523  5145 net.cpp:157] Top shape: 2 256 64 64 (2097152)
I0428 15:09:13.052525  5145 net.cpp:165] Memory required for data: 1963953792
I0428 15:09:13.052546  5145 layer_factory.hpp:77] Creating layer bn_u2d
I0428 15:09:13.052554  5145 net.cpp:100] Creating Layer bn_u2d
I0428 15:09:13.052556  5145 net.cpp:434] bn_u2d <- u2d
I0428 15:09:13.052563  5145 net.cpp:395] bn_u2d -> u2d (in-place)
I0428 15:09:13.052773  5145 net.cpp:150] Setting up bn_u2d
I0428 15:09:13.052781  5145 net.cpp:157] Top shape: 2 256 64 64 (2097152)
I0428 15:09:13.052784  5145 net.cpp:165] Memory required for data: 1972342400
I0428 15:09:13.052790  5145 layer_factory.hpp:77] Creating layer sc_u2d
I0428 15:09:13.052795  5145 net.cpp:100] Creating Layer sc_u2d
I0428 15:09:13.052798  5145 net.cpp:434] sc_u2d <- u2d
I0428 15:09:13.052803  5145 net.cpp:395] sc_u2d -> u2d (in-place)
I0428 15:09:13.052840  5145 layer_factory.hpp:77] Creating layer sc_u2d
I0428 15:09:13.052944  5145 net.cpp:150] Setting up sc_u2d
I0428 15:09:13.052963  5145 net.cpp:157] Top shape: 2 256 64 64 (2097152)
I0428 15:09:13.052965  5145 net.cpp:165] Memory required for data: 1980731008
I0428 15:09:13.052970  5145 layer_factory.hpp:77] Creating layer relu_u2d
I0428 15:09:13.052975  5145 net.cpp:100] Creating Layer relu_u2d
I0428 15:09:13.052978  5145 net.cpp:434] relu_u2d <- u2d
I0428 15:09:13.052983  5145 net.cpp:395] relu_u2d -> u2d (in-place)
I0428 15:09:13.053186  5145 net.cpp:150] Setting up relu_u2d
I0428 15:09:13.053196  5145 net.cpp:157] Top shape: 2 256 64 64 (2097152)
I0428 15:09:13.053200  5145 net.cpp:165] Memory required for data: 1989119616
I0428 15:09:13.053201  5145 layer_factory.hpp:77] Creating layer upconv_u2d_u1a
I0428 15:09:13.053208  5145 net.cpp:100] Creating Layer upconv_u2d_u1a
I0428 15:09:13.053211  5145 net.cpp:434] upconv_u2d_u1a <- u2d
I0428 15:09:13.053218  5145 net.cpp:408] upconv_u2d_u1a -> u1a
I0428 15:09:13.054237  5145 net.cpp:150] Setting up upconv_u2d_u1a
I0428 15:09:13.054246  5145 net.cpp:157] Top shape: 2 128 128 128 (4194304)
I0428 15:09:13.054250  5145 net.cpp:165] Memory required for data: 2005896832
I0428 15:09:13.054255  5145 layer_factory.hpp:77] Creating layer bn_u1a
I0428 15:09:13.054260  5145 net.cpp:100] Creating Layer bn_u1a
I0428 15:09:13.054262  5145 net.cpp:434] bn_u1a <- u1a
I0428 15:09:13.054267  5145 net.cpp:395] bn_u1a -> u1a (in-place)
I0428 15:09:13.054455  5145 net.cpp:150] Setting up bn_u1a
I0428 15:09:13.054463  5145 net.cpp:157] Top shape: 2 128 128 128 (4194304)
I0428 15:09:13.054466  5145 net.cpp:165] Memory required for data: 2022674048
I0428 15:09:13.054471  5145 layer_factory.hpp:77] Creating layer sc_u1a
I0428 15:09:13.054477  5145 net.cpp:100] Creating Layer sc_u1a
I0428 15:09:13.054479  5145 net.cpp:434] sc_u1a <- u1a
I0428 15:09:13.054483  5145 net.cpp:395] sc_u1a -> u1a (in-place)
I0428 15:09:13.054538  5145 layer_factory.hpp:77] Creating layer sc_u1a
I0428 15:09:13.054664  5145 net.cpp:150] Setting up sc_u1a
I0428 15:09:13.054672  5145 net.cpp:157] Top shape: 2 128 128 128 (4194304)
I0428 15:09:13.054674  5145 net.cpp:165] Memory required for data: 2039451264
I0428 15:09:13.054679  5145 layer_factory.hpp:77] Creating layer relu_u1a
I0428 15:09:13.054684  5145 net.cpp:100] Creating Layer relu_u1a
I0428 15:09:13.054687  5145 net.cpp:434] relu_u1a <- u1a
I0428 15:09:13.054692  5145 net.cpp:395] relu_u1a -> u1a (in-place)
I0428 15:09:13.055467  5145 net.cpp:150] Setting up relu_u1a
I0428 15:09:13.055496  5145 net.cpp:157] Top shape: 2 128 128 128 (4194304)
I0428 15:09:13.055498  5145 net.cpp:165] Memory required for data: 2056228480
I0428 15:09:13.055501  5145 layer_factory.hpp:77] Creating layer u1a_relu_u1a_0_split
I0428 15:09:13.055510  5145 net.cpp:100] Creating Layer u1a_relu_u1a_0_split
I0428 15:09:13.055513  5145 net.cpp:434] u1a_relu_u1a_0_split <- u1a
I0428 15:09:13.055518  5145 net.cpp:408] u1a_relu_u1a_0_split -> u1a_relu_u1a_0_split_0
I0428 15:09:13.055524  5145 net.cpp:408] u1a_relu_u1a_0_split -> u1a_relu_u1a_0_split_1
I0428 15:09:13.055567  5145 net.cpp:150] Setting up u1a_relu_u1a_0_split
I0428 15:09:13.055575  5145 net.cpp:157] Top shape: 2 128 128 128 (4194304)
I0428 15:09:13.055578  5145 net.cpp:157] Top shape: 2 128 128 128 (4194304)
I0428 15:09:13.055580  5145 net.cpp:165] Memory required for data: 2089782912
I0428 15:09:13.055583  5145 layer_factory.hpp:77] Creating layer crop_d1c-d1cc
I0428 15:09:13.055588  5145 net.cpp:100] Creating Layer crop_d1c-d1cc
I0428 15:09:13.055591  5145 net.cpp:434] crop_d1c-d1cc <- d1c_relu_d1c_0_split_1
I0428 15:09:13.055594  5145 net.cpp:434] crop_d1c-d1cc <- u1a_relu_u1a_0_split_0
I0428 15:09:13.055599  5145 net.cpp:408] crop_d1c-d1cc -> d1cc
I0428 15:09:13.055624  5145 net.cpp:150] Setting up crop_d1c-d1cc
I0428 15:09:13.055627  5145 net.cpp:157] Top shape: 2 128 128 128 (4194304)
I0428 15:09:13.055629  5145 net.cpp:165] Memory required for data: 2106560128
I0428 15:09:13.055631  5145 layer_factory.hpp:77] Creating layer concat_d1cc_u1a-b
I0428 15:09:13.055636  5145 net.cpp:100] Creating Layer concat_d1cc_u1a-b
I0428 15:09:13.055639  5145 net.cpp:434] concat_d1cc_u1a-b <- u1a_relu_u1a_0_split_1
I0428 15:09:13.055652  5145 net.cpp:434] concat_d1cc_u1a-b <- d1cc
I0428 15:09:13.055658  5145 net.cpp:408] concat_d1cc_u1a-b -> u1b
I0428 15:09:13.055681  5145 net.cpp:150] Setting up concat_d1cc_u1a-b
I0428 15:09:13.055686  5145 net.cpp:157] Top shape: 2 256 128 128 (8388608)
I0428 15:09:13.055688  5145 net.cpp:165] Memory required for data: 2140114560
I0428 15:09:13.055691  5145 layer_factory.hpp:77] Creating layer conv_u1b-c
I0428 15:09:13.055698  5145 net.cpp:100] Creating Layer conv_u1b-c
I0428 15:09:13.055701  5145 net.cpp:434] conv_u1b-c <- u1b
I0428 15:09:13.055706  5145 net.cpp:408] conv_u1b-c -> u1c
I0428 15:09:13.058487  5145 net.cpp:150] Setting up conv_u1b-c
I0428 15:09:13.058501  5145 net.cpp:157] Top shape: 2 128 126 126 (4064256)
I0428 15:09:13.058503  5145 net.cpp:165] Memory required for data: 2156371584
I0428 15:09:13.058509  5145 layer_factory.hpp:77] Creating layer bn_u1c
I0428 15:09:13.058516  5145 net.cpp:100] Creating Layer bn_u1c
I0428 15:09:13.058521  5145 net.cpp:434] bn_u1c <- u1c
I0428 15:09:13.058526  5145 net.cpp:395] bn_u1c -> u1c (in-place)
I0428 15:09:13.058758  5145 net.cpp:150] Setting up bn_u1c
I0428 15:09:13.058765  5145 net.cpp:157] Top shape: 2 128 126 126 (4064256)
I0428 15:09:13.058768  5145 net.cpp:165] Memory required for data: 2172628608
I0428 15:09:13.058774  5145 layer_factory.hpp:77] Creating layer sc_u1c
I0428 15:09:13.058780  5145 net.cpp:100] Creating Layer sc_u1c
I0428 15:09:13.058784  5145 net.cpp:434] sc_u1c <- u1c
I0428 15:09:13.058789  5145 net.cpp:395] sc_u1c -> u1c (in-place)
I0428 15:09:13.058825  5145 layer_factory.hpp:77] Creating layer sc_u1c
I0428 15:09:13.058964  5145 net.cpp:150] Setting up sc_u1c
I0428 15:09:13.058971  5145 net.cpp:157] Top shape: 2 128 126 126 (4064256)
I0428 15:09:13.058975  5145 net.cpp:165] Memory required for data: 2188885632
I0428 15:09:13.058979  5145 layer_factory.hpp:77] Creating layer relu_u1c
I0428 15:09:13.058985  5145 net.cpp:100] Creating Layer relu_u1c
I0428 15:09:13.058987  5145 net.cpp:434] relu_u1c <- u1c
I0428 15:09:13.058995  5145 net.cpp:395] relu_u1c -> u1c (in-place)
I0428 15:09:13.059187  5145 net.cpp:150] Setting up relu_u1c
I0428 15:09:13.059197  5145 net.cpp:157] Top shape: 2 128 126 126 (4064256)
I0428 15:09:13.059200  5145 net.cpp:165] Memory required for data: 2205142656
I0428 15:09:13.059202  5145 layer_factory.hpp:77] Creating layer conv_u1c-d
I0428 15:09:13.059211  5145 net.cpp:100] Creating Layer conv_u1c-d
I0428 15:09:13.059213  5145 net.cpp:434] conv_u1c-d <- u1c
I0428 15:09:13.059219  5145 net.cpp:408] conv_u1c-d -> u1d
I0428 15:09:13.060330  5145 net.cpp:150] Setting up conv_u1c-d
I0428 15:09:13.060338  5145 net.cpp:157] Top shape: 2 128 124 124 (3936256)
I0428 15:09:13.060340  5145 net.cpp:165] Memory required for data: 2220887680
I0428 15:09:13.060345  5145 layer_factory.hpp:77] Creating layer bn_u1d
I0428 15:09:13.060353  5145 net.cpp:100] Creating Layer bn_u1d
I0428 15:09:13.060355  5145 net.cpp:434] bn_u1d <- u1d
I0428 15:09:13.060359  5145 net.cpp:395] bn_u1d -> u1d (in-place)
I0428 15:09:13.060564  5145 net.cpp:150] Setting up bn_u1d
I0428 15:09:13.060572  5145 net.cpp:157] Top shape: 2 128 124 124 (3936256)
I0428 15:09:13.060575  5145 net.cpp:165] Memory required for data: 2236632704
I0428 15:09:13.060595  5145 layer_factory.hpp:77] Creating layer sc_u1d
I0428 15:09:13.060605  5145 net.cpp:100] Creating Layer sc_u1d
I0428 15:09:13.060608  5145 net.cpp:434] sc_u1d <- u1d
I0428 15:09:13.060613  5145 net.cpp:395] sc_u1d -> u1d (in-place)
I0428 15:09:13.060652  5145 layer_factory.hpp:77] Creating layer sc_u1d
I0428 15:09:13.060778  5145 net.cpp:150] Setting up sc_u1d
I0428 15:09:13.060786  5145 net.cpp:157] Top shape: 2 128 124 124 (3936256)
I0428 15:09:13.060788  5145 net.cpp:165] Memory required for data: 2252377728
I0428 15:09:13.060793  5145 layer_factory.hpp:77] Creating layer relu_u1d
I0428 15:09:13.060797  5145 net.cpp:100] Creating Layer relu_u1d
I0428 15:09:13.060801  5145 net.cpp:434] relu_u1d <- u1d
I0428 15:09:13.060806  5145 net.cpp:395] relu_u1d -> u1d (in-place)
I0428 15:09:13.061015  5145 net.cpp:150] Setting up relu_u1d
I0428 15:09:13.061025  5145 net.cpp:157] Top shape: 2 128 124 124 (3936256)
I0428 15:09:13.061028  5145 net.cpp:165] Memory required for data: 2268122752
I0428 15:09:13.061031  5145 layer_factory.hpp:77] Creating layer upconv_u1d_u0a
I0428 15:09:13.061038  5145 net.cpp:100] Creating Layer upconv_u1d_u0a
I0428 15:09:13.061041  5145 net.cpp:434] upconv_u1d_u0a <- u1d
I0428 15:09:13.061048  5145 net.cpp:408] upconv_u1d_u0a -> u0a
I0428 15:09:13.061738  5145 net.cpp:150] Setting up upconv_u1d_u0a
I0428 15:09:13.061746  5145 net.cpp:157] Top shape: 2 128 248 248 (15745024)
I0428 15:09:13.061749  5145 net.cpp:165] Memory required for data: 2331102848
I0428 15:09:13.061754  5145 layer_factory.hpp:77] Creating layer bn_u0a
I0428 15:09:13.061759  5145 net.cpp:100] Creating Layer bn_u0a
I0428 15:09:13.061763  5145 net.cpp:434] bn_u0a <- u0a
I0428 15:09:13.061766  5145 net.cpp:395] bn_u0a -> u0a (in-place)
I0428 15:09:13.062836  5145 net.cpp:150] Setting up bn_u0a
I0428 15:09:13.062849  5145 net.cpp:157] Top shape: 2 128 248 248 (15745024)
I0428 15:09:13.062851  5145 net.cpp:165] Memory required for data: 2394082944
I0428 15:09:13.062860  5145 layer_factory.hpp:77] Creating layer sc_u0a
I0428 15:09:13.062865  5145 net.cpp:100] Creating Layer sc_u0a
I0428 15:09:13.062868  5145 net.cpp:434] sc_u0a <- u0a
I0428 15:09:13.062875  5145 net.cpp:395] sc_u0a -> u0a (in-place)
I0428 15:09:13.062916  5145 layer_factory.hpp:77] Creating layer sc_u0a
I0428 15:09:13.063122  5145 net.cpp:150] Setting up sc_u0a
I0428 15:09:13.063130  5145 net.cpp:157] Top shape: 2 128 248 248 (15745024)
I0428 15:09:13.063133  5145 net.cpp:165] Memory required for data: 2457063040
I0428 15:09:13.063138  5145 layer_factory.hpp:77] Creating layer relu_u0a
I0428 15:09:13.063144  5145 net.cpp:100] Creating Layer relu_u0a
I0428 15:09:13.063146  5145 net.cpp:434] relu_u0a <- u0a
I0428 15:09:13.063150  5145 net.cpp:395] relu_u0a -> u0a (in-place)
I0428 15:09:13.063338  5145 net.cpp:150] Setting up relu_u0a
I0428 15:09:13.063349  5145 net.cpp:157] Top shape: 2 128 248 248 (15745024)
I0428 15:09:13.063351  5145 net.cpp:165] Memory required for data: 2520043136
I0428 15:09:13.063354  5145 layer_factory.hpp:77] Creating layer u0a_relu_u0a_0_split
I0428 15:09:13.063359  5145 net.cpp:100] Creating Layer u0a_relu_u0a_0_split
I0428 15:09:13.063362  5145 net.cpp:434] u0a_relu_u0a_0_split <- u0a
I0428 15:09:13.063366  5145 net.cpp:408] u0a_relu_u0a_0_split -> u0a_relu_u0a_0_split_0
I0428 15:09:13.063374  5145 net.cpp:408] u0a_relu_u0a_0_split -> u0a_relu_u0a_0_split_1
I0428 15:09:13.063416  5145 net.cpp:150] Setting up u0a_relu_u0a_0_split
I0428 15:09:13.063424  5145 net.cpp:157] Top shape: 2 128 248 248 (15745024)
I0428 15:09:13.063427  5145 net.cpp:157] Top shape: 2 128 248 248 (15745024)
I0428 15:09:13.063429  5145 net.cpp:165] Memory required for data: 2646003328
I0428 15:09:13.063432  5145 layer_factory.hpp:77] Creating layer crop_d0c-d0cc
I0428 15:09:13.063439  5145 net.cpp:100] Creating Layer crop_d0c-d0cc
I0428 15:09:13.063442  5145 net.cpp:434] crop_d0c-d0cc <- d0c_relu_d0c_0_split_1
I0428 15:09:13.063460  5145 net.cpp:434] crop_d0c-d0cc <- u0a_relu_u0a_0_split_0
I0428 15:09:13.063464  5145 net.cpp:408] crop_d0c-d0cc -> d0cc
I0428 15:09:13.063488  5145 net.cpp:150] Setting up crop_d0c-d0cc
I0428 15:09:13.063493  5145 net.cpp:157] Top shape: 2 64 248 248 (7872512)
I0428 15:09:13.063494  5145 net.cpp:165] Memory required for data: 2677493376
I0428 15:09:13.063496  5145 layer_factory.hpp:77] Creating layer concat_d0cc_u0a-b
I0428 15:09:13.063501  5145 net.cpp:100] Creating Layer concat_d0cc_u0a-b
I0428 15:09:13.063503  5145 net.cpp:434] concat_d0cc_u0a-b <- u0a_relu_u0a_0_split_1
I0428 15:09:13.063506  5145 net.cpp:434] concat_d0cc_u0a-b <- d0cc
I0428 15:09:13.063513  5145 net.cpp:408] concat_d0cc_u0a-b -> u0b
I0428 15:09:13.063534  5145 net.cpp:150] Setting up concat_d0cc_u0a-b
I0428 15:09:13.063539  5145 net.cpp:157] Top shape: 2 192 248 248 (23617536)
I0428 15:09:13.063550  5145 net.cpp:165] Memory required for data: 2771963520
I0428 15:09:13.063554  5145 layer_factory.hpp:77] Creating layer conv_u0b-c
I0428 15:09:13.063562  5145 net.cpp:100] Creating Layer conv_u0b-c
I0428 15:09:13.063565  5145 net.cpp:434] conv_u0b-c <- u0b
I0428 15:09:13.063570  5145 net.cpp:408] conv_u0b-c -> u0c
I0428 15:09:13.064527  5145 net.cpp:150] Setting up conv_u0b-c
I0428 15:09:13.064537  5145 net.cpp:157] Top shape: 2 64 246 246 (7746048)
I0428 15:09:13.064538  5145 net.cpp:165] Memory required for data: 2802947712
I0428 15:09:13.064543  5145 layer_factory.hpp:77] Creating layer bn_u0c
I0428 15:09:13.064550  5145 net.cpp:100] Creating Layer bn_u0c
I0428 15:09:13.064553  5145 net.cpp:434] bn_u0c <- u0c
I0428 15:09:13.064559  5145 net.cpp:395] bn_u0c -> u0c (in-place)
I0428 15:09:13.064810  5145 net.cpp:150] Setting up bn_u0c
I0428 15:09:13.064820  5145 net.cpp:157] Top shape: 2 64 246 246 (7746048)
I0428 15:09:13.064823  5145 net.cpp:165] Memory required for data: 2833931904
I0428 15:09:13.064829  5145 layer_factory.hpp:77] Creating layer sc_u0c
I0428 15:09:13.064833  5145 net.cpp:100] Creating Layer sc_u0c
I0428 15:09:13.064836  5145 net.cpp:434] sc_u0c <- u0c
I0428 15:09:13.064841  5145 net.cpp:395] sc_u0c -> u0c (in-place)
I0428 15:09:13.064879  5145 layer_factory.hpp:77] Creating layer sc_u0c
I0428 15:09:13.065071  5145 net.cpp:150] Setting up sc_u0c
I0428 15:09:13.065078  5145 net.cpp:157] Top shape: 2 64 246 246 (7746048)
I0428 15:09:13.065081  5145 net.cpp:165] Memory required for data: 2864916096
I0428 15:09:13.065086  5145 layer_factory.hpp:77] Creating layer relu_u0c
I0428 15:09:13.065093  5145 net.cpp:100] Creating Layer relu_u0c
I0428 15:09:13.065094  5145 net.cpp:434] relu_u0c <- u0c
I0428 15:09:13.065099  5145 net.cpp:395] relu_u0c -> u0c (in-place)
I0428 15:09:13.065867  5145 net.cpp:150] Setting up relu_u0c
I0428 15:09:13.065881  5145 net.cpp:157] Top shape: 2 64 246 246 (7746048)
I0428 15:09:13.065883  5145 net.cpp:165] Memory required for data: 2895900288
I0428 15:09:13.065887  5145 layer_factory.hpp:77] Creating layer conv_u0c-d
I0428 15:09:13.065896  5145 net.cpp:100] Creating Layer conv_u0c-d
I0428 15:09:13.065899  5145 net.cpp:434] conv_u0c-d <- u0c
I0428 15:09:13.065906  5145 net.cpp:408] conv_u0c-d -> u0d
I0428 15:09:13.066445  5145 net.cpp:150] Setting up conv_u0c-d
I0428 15:09:13.066454  5145 net.cpp:157] Top shape: 2 64 244 244 (7620608)
I0428 15:09:13.066457  5145 net.cpp:165] Memory required for data: 2926382720
I0428 15:09:13.066462  5145 layer_factory.hpp:77] Creating layer bn_u0d
I0428 15:09:13.066468  5145 net.cpp:100] Creating Layer bn_u0d
I0428 15:09:13.066469  5145 net.cpp:434] bn_u0d <- u0d
I0428 15:09:13.066474  5145 net.cpp:395] bn_u0d -> u0d (in-place)
I0428 15:09:13.067492  5145 net.cpp:150] Setting up bn_u0d
I0428 15:09:13.067505  5145 net.cpp:157] Top shape: 2 64 244 244 (7620608)
I0428 15:09:13.067507  5145 net.cpp:165] Memory required for data: 2956865152
I0428 15:09:13.067514  5145 layer_factory.hpp:77] Creating layer sc_u0d
I0428 15:09:13.067520  5145 net.cpp:100] Creating Layer sc_u0d
I0428 15:09:13.067524  5145 net.cpp:434] sc_u0d <- u0d
I0428 15:09:13.067529  5145 net.cpp:395] sc_u0d -> u0d (in-place)
I0428 15:09:13.067572  5145 layer_factory.hpp:77] Creating layer sc_u0d
I0428 15:09:13.067761  5145 net.cpp:150] Setting up sc_u0d
I0428 15:09:13.067770  5145 net.cpp:157] Top shape: 2 64 244 244 (7620608)
I0428 15:09:13.067772  5145 net.cpp:165] Memory required for data: 2987347584
I0428 15:09:13.067776  5145 layer_factory.hpp:77] Creating layer relu_u0d
I0428 15:09:13.067782  5145 net.cpp:100] Creating Layer relu_u0d
I0428 15:09:13.067785  5145 net.cpp:434] relu_u0d <- u0d
I0428 15:09:13.067790  5145 net.cpp:395] relu_u0d -> u0d (in-place)
I0428 15:09:13.067961  5145 net.cpp:150] Setting up relu_u0d
I0428 15:09:13.067970  5145 net.cpp:157] Top shape: 2 64 244 244 (7620608)
I0428 15:09:13.067973  5145 net.cpp:165] Memory required for data: 3017830016
I0428 15:09:13.067976  5145 layer_factory.hpp:77] Creating layer conv_u0d-score
I0428 15:09:13.067983  5145 net.cpp:100] Creating Layer conv_u0d-score
I0428 15:09:13.067996  5145 net.cpp:434] conv_u0d-score <- u0d
I0428 15:09:13.068004  5145 net.cpp:408] conv_u0d-score -> score
I0428 15:09:13.068274  5145 net.cpp:150] Setting up conv_u0d-score
I0428 15:09:13.068282  5145 net.cpp:157] Top shape: 2 4 244 244 (476288)
I0428 15:09:13.068285  5145 net.cpp:165] Memory required for data: 3019735168
I0428 15:09:13.068290  5145 layer_factory.hpp:77] Creating layer score_conv_u0d-score_0_split
I0428 15:09:13.068295  5145 net.cpp:100] Creating Layer score_conv_u0d-score_0_split
I0428 15:09:13.068297  5145 net.cpp:434] score_conv_u0d-score_0_split <- score
I0428 15:09:13.068303  5145 net.cpp:408] score_conv_u0d-score_0_split -> score_conv_u0d-score_0_split_0
I0428 15:09:13.068310  5145 net.cpp:408] score_conv_u0d-score_0_split -> score_conv_u0d-score_0_split_1
I0428 15:09:13.068347  5145 net.cpp:150] Setting up score_conv_u0d-score_0_split
I0428 15:09:13.068353  5145 net.cpp:157] Top shape: 2 4 244 244 (476288)
I0428 15:09:13.068357  5145 net.cpp:157] Top shape: 2 4 244 244 (476288)
I0428 15:09:13.068359  5145 net.cpp:165] Memory required for data: 3023545472
I0428 15:09:13.068361  5145 layer_factory.hpp:77] Creating layer loss
I0428 15:09:13.068367  5145 net.cpp:100] Creating Layer loss
I0428 15:09:13.068369  5145 net.cpp:434] loss <- score_conv_u0d-score_0_split_0
I0428 15:09:13.068373  5145 net.cpp:434] loss <- label
I0428 15:09:13.068377  5145 net.cpp:434] loss <- weights
I0428 15:09:13.068380  5145 net.cpp:408] loss -> loss
I0428 15:09:13.068387  5145 layer_factory.hpp:77] Creating layer loss
I0428 15:09:13.071249  5145 net.cpp:150] Setting up loss
I0428 15:09:13.071264  5145 net.cpp:157] Top shape: (1)
I0428 15:09:13.071267  5145 net.cpp:160]     with loss weight 1
I0428 15:09:13.071276  5145 net.cpp:165] Memory required for data: 3023545476
I0428 15:09:13.071280  5145 layer_factory.hpp:77] Creating layer visualize
I0428 15:09:13.071286  5145 net.cpp:100] Creating Layer visualize
I0428 15:09:13.071291  5145 net.cpp:434] visualize <- score_conv_u0d-score_0_split_1
I0428 15:09:13.071296  5145 net.cpp:408] visualize -> visualize_out
I0428 15:09:13.072079  5145 net.cpp:150] Setting up visualize
I0428 15:09:13.072093  5145 net.cpp:157] Top shape: 2 4 244 244 (476288)
I0428 15:09:13.072096  5145 net.cpp:165] Memory required for data: 3025450628
I0428 15:09:13.072098  5145 layer_factory.hpp:77] Creating layer fake
I0428 15:09:13.072105  5145 net.cpp:100] Creating Layer fake
I0428 15:09:13.072108  5145 net.cpp:434] fake <- visualize_out
I0428 15:09:13.072113  5145 net.cpp:150] Setting up fake
I0428 15:09:13.072114  5145 net.cpp:165] Memory required for data: 3025450628
…
I0428 15:09:13.073483  5145 net.cpp:322] The NetState phase (1) differed from the phase (0) specified by a rule in layer visualize
I0428 15:09:13.073489  5145 net.cpp:322] The NetState phase (1) differed from the phase (0) specified by a rule in layer fake
I0428 15:09:13.073967  5145 net.cpp:58] Initializing net from parameters: 
name: "unet_weighted_batchnorm_4"
force_backward: true
state {
  phase: TEST
}
layer {
  name: "loaddata"
  type: "HDF5Data"
  top: "data"
  top: "label"
  top: "weights"
  include {
    phase: TEST
  }
  hdf5_data_param {
    source: "caffeHDF5_validation_4.txt"
    batch_size: 1
  }
}
layer {
  name: "conv_d0a-b"
  type: "Convolution"
  bottom: "data"
  top: "d0b"
  param {
    lr_mult: 1
    decay_mult: 1
  }
  param {
    lr_mult: 2
    decay_mult: 0
  }
  convolution_param {
    num_output: 64
    pad: 0
    kernel_size: 3
    weight_filler {
      type: "xavier"
    }
    engine: CAFFE
  }
}
layer {
  name: "bn_d0b"
  type: "BatchNorm"
  bottom: "d0b"
  top: "d0b"
  batch_norm_param {
    use_global_stats: false
    moving_average_fraction: 0.999
    eps: 1e-05
  }
}
layer {
  name: "sc_d0b"
  type: "Scale"
  bottom: "d0b"
  top: "d0b"
  scale_param {
    axis: 1
    filler {
      type: "constant"
      value: 1
    }
    bias_term: true
    bias_filler {
      type: "constant"
      value: 0
    }
  }
}
layer {
  name: "relu_d0b"
  type: "ReLU"
  bottom: "d0b"
  top: "d0b"
}
layer {
  name: "conv_d0b-c"
  type: "Convolution"
  bottom: "d0b"
  top: "d0c"
  param {
    lr_mult: 1
    decay_mult: 1
  }
  param {
    lr_mult: 2
    decay_mult: 0
  }
  convolution_param {
    num_output: 64
    pad: 0
    kernel_size: 3
    weight_filler {
      type: "xavier"
    }
    engine: CAFFE
  }
}
layer {
  name: "bn_d0c"
  type: "BatchNorm"
  bottom: "d0c"
  top: "d0c"
  batch_norm_param {
    use_global_stats: false
    moving_average_fraction: 0.999
    eps: 1e-05
  }
}
layer {
  name: "sc_d0c"
  type: "Scale"
  bottom: "d0c"
  top: "d0c"
  scale_param {
    axis: 1
    filler {
      type: "constant"
      value: 1
    }
    bias_term: true
    bias_filler {
      type: "constant"
      value: 0
    }
  }
}
layer {
  name: "relu_d0c"
  type: "ReLU"
  bottom: "d0c"
  top: "d0c"
}
layer {
  name: "pool_d0c-1a"
  type: "Pooling"
  bottom: "d0c"
  top: "d1a"
  pooling_param {
    pool: MAX
    kernel_size: 2
    stride: 2
  }
}
layer {
  name: "conv_d1a-b"
  type: "Convolution"
  bottom: "d1a"
  top: "d1b"
  param {
    lr_mult: 1
    decay_mult: 1
  }
  param {
    lr_mult: 2
    decay_mult: 0
  }
  convolution_param {
    num_output: 128
    pad: 0
    kernel_size: 3
    weight_filler {
      type: "xavier"
    }
    engine: CAFFE
  }
}
layer {
  name: "bn_d1b"
  type: "BatchNorm"
  bottom: "d1b"
  top: "d1b"
  batch_norm_param {
    use_global_stats: false
    moving_average_fraction: 0.999
    eps: 1e-05
  }
}
layer {
  name: "sc_d1b"
  type: "Scale"
  bottom: "d1b"
  top: "d1b"
  scale_param {
    axis: 1
    filler {
      type: "constant"
      value: 1
    }
    bias_term: true
    bias_filler {
      type: "constant"
      value: 0
    }
  }
}
layer {
  name: "relu_d1b"
  type: "ReLU"
  bottom: "d1b"
  top: "d1b"
}
layer {
  name: "conv_d1b-c"
  type: "Convolution"
  bottom: "d1b"
  top: "d1c"
  param {
    lr_mult: 1
    decay_mult: 1
  }
  param {
    lr_mult: 2
    decay_mult: 0
  }
  convolution_param {
    num_output: 128
    pad: 0
    kernel_size: 3
    weight_filler {
      type: "xavier"
    }
    engine: CAFFE
  }
}
layer {
  name: "bn_d1c"
  type: "BatchNorm"
  bottom: "d1c"
  top: "d1c"
  batch_norm_param {
    use_global_stats: false
    moving_average_fraction: 0.999
    eps: 1e-05
  }
}
layer {
  name: "sc_d1c"
  type: "Scale"
  bottom: "d1c"
  top: "d1c"
  scale_param {
    axis: 1
    filler {
      type: "constant"
      value: 1
    }
    bias_term: true
    bias_filler {
      type: "constant"
      value: 0
    }
  }
}
layer {
  name: "relu_d1c"
  type: "ReLU"
  bottom: "d1c"
  top: "d1c"
}
layer {
  name: "pool_d1c-2a"
  type: "Pooling"
  bottom: "d1c"
  top: "d2a"
  pooling_param {
    pool: MAX
    kernel_size: 2
    stride: 2
  }
}
layer {
  name: "conv_d2a-b"
  type: "Convolution"
  bottom: "d2a"
  top: "d2b"
  param {
    lr_mult: 1
    decay_mult: 1
  }
  param {
    lr_mult: 2
    decay_mult: 0
  }
  convolution_param {
    num_output: 256
    pad: 0
    kernel_size: 3
    weight_filler {
      type: "xavier"
    }
    engine: CAFFE
  }
}
layer {
  name: "bn_d2b"
  type: "BatchNorm"
  bottom: "d2b"
  top: "d2b"
  batch_norm_param {
    use_global_stats: false
    moving_average_fraction: 0.999
    eps: 1e-05
  }
}
layer {
  name: "sc_d2b"
  type: "Scale"
  bottom: "d2b"
  top: "d2b"
  scale_param {
    axis: 1
    filler {
      type: "constant"
      value: 1
    }
    bias_term: true
    bias_filler {
      type: "constant"
      value: 0
    }
  }
}
layer {
  name: "relu_d2b"
  type: "ReLU"
  bottom: "d2b"
  top: "d2b"
}
layer {
  name: "conv_d2b-c"
  type: "Convolution"
  bottom: "d2b"
  top: "d2c"
  param {
    lr_mult: 1
    decay_mult: 1
  }
  param {
    lr_mult: 2
    decay_mult: 0
  }
  convolution_param {
    num_output: 256
    pad: 0
    kernel_size: 3
    weight_filler {
      type: "xavier"
    }
    engine: CAFFE
  }
}
layer {
  name: "bn_d2c"
  type: "BatchNorm"
  bottom: "d2c"
  top: "d2c"
  batch_norm_param {
    use_global_stats: false
    moving_average_fraction: 0.999
    eps: 1e-05
  }
}
layer {
  name: "sc_d2c"
  type: "Scale"
  bottom: "d2c"
  top: "d2c"
  scale_param {
    axis: 1
    filler {
      type: "constant"
      value: 1
    }
    bias_term: true
    bias_filler {
      type: "constant"
      value: 0
    }
  }
}
layer {
  name: "relu_d2c"
  type: "ReLU"
  bottom: "d2c"
  top: "d2c"
}
layer {
  name: "pool_d2c-3a"
  type: "Pooling"
  bottom: "d2c"
  top: "d3a"
  pooling_param {
    pool: MAX
    kernel_size: 2
    stride: 2
  }
}
layer {
  name: "conv_d3a-b"
  type: "Convolution"
  bottom: "d3a"
  top: "d3b"
  param {
    lr_mult: 1
    decay_mult: 1
  }
  param {
    lr_mult: 2
    decay_mult: 0
  }
  convolution_param {
    num_output: 512
    pad: 0
    kernel_size: 3
    weight_filler {
      type: "xavier"
    }
    engine: CAFFE
  }
}
layer {
  name: "bn_d3b"
  type: "BatchNorm"
  bottom: "d3b"
  top: "d3b"
  batch_norm_param {
    use_global_stats: false
    moving_average_fraction: 0.999
    eps: 1e-05
  }
}
layer {
  name: "sc_d3b"
  type: "Scale"
  bottom: "d3b"
  top: "d3b"
  scale_param {
    axis: 1
    filler {
      type: "constant"
      value: 1
    }
    bias_term: true
    bias_filler {
      type: "constant"
      value: 0
    }
  }
}
layer {
  name: "relu_d3b"
  type: "ReLU"
  bottom: "d3b"
  top: "d3b"
}
layer {
  name: "conv_d3b-c"
  type: "Convolution"
  bottom: "d3b"
  top: "d3c"
  param {
    lr_mult: 1
    decay_mult: 1
  }
  param {
    lr_mult: 2
    decay_mult: 0
  }
  convolution_param {
    num_output: 512
    pad: 0
    kernel_size: 3
    weight_filler {
      type: "xavier"
    }
    engine: CAFFE
  }
}
layer {
  name: "bn_d3c"
  type: "BatchNorm"
  bottom: "d3c"
  top: "d3c"
  batch_norm_param {
    use_global_stats: false
    moving_average_fraction: 0.999
    eps: 1e-05
  }
}
layer {
  name: "sc_d3c"
  type: "Scale"
  bottom: "d3c"
  top: "d3c"
  scale_param {
    axis: 1
    filler {
      type: "constant"
      value: 1
    }
    bias_term: true
    bias_filler {
      type: "constant"
      value: 0
    }
  }
}
layer {
  name: "relu_d3c"
  type: "ReLU"
  bottom: "d3c"
  top: "d3c"
}
layer {
  name: "pool_d3c-4a"
  type: "Pooling"
  bottom: "d3c"
  top: "d4a"
  pooling_param {
    pool: MAX
    kernel_size: 2
    stride: 2
  }
}
layer {
  name: "conv_d4a-b"
  type: "Convolution"
  bottom: "d4a"
  top: "d4b"
  param {
    lr_mult: 1
    decay_mult: 1
  }
  param {
    lr_mult: 2
    decay_mult: 0
  }
  convolution_param {
    num_output: 1024
    pad: 0
    kernel_size: 3
    weight_filler {
      type: "xavier"
    }
    engine: CAFFE
  }
}
layer {
  name: "bn_d4b"
  type: "BatchNorm"
  bottom: "d4b"
  top: "d4b"
  batch_norm_param {
    use_global_stats: false
    moving_average_fraction: 0.999
    eps: 1e-05
  }
}
layer {
  name: "sc_d4b"
  type: "Scale"
  bottom: "d4b"
  top: "d4b"
  scale_param {
    axis: 1
    filler {
      type: "constant"
      value: 1
    }
    bias_term: true
    bias_filler {
      type: "constant"
      value: 0
    }
  }
}
layer {
  name: "relu_d4b"
  type: "ReLU"
  bottom: "d4b"
  top: "d4b"
}
layer {
  name: "conv_d4b-c"
  type: "Convolution"
  bottom: "d4b"
  top: "d4c"
  param {
    lr_mult: 1
    decay_mult: 1
  }
  param {
    lr_mult: 2
    decay_mult: 0
  }
  convolution_param {
    num_output: 1024
    pad: 0
    kernel_size: 3
    weight_filler {
      type: "xavier"
    }
    engine: CAFFE
  }
}
layer {
  name: "bn_d4c"
  type: "BatchNorm"
  bottom: "d4c"
  top: "d4c"
  batch_norm_param {
    use_global_stats: false
    moving_average_fraction: 0.999
    eps: 1e-05
  }
}
layer {
  name: "sc_d4c"
  type: "Scale"
  bottom: "d4c"
  top: "d4c"
  scale_param {
    axis: 1
    filler {
      type: "constant"
      value: 1
    }
    bias_term: true
    bias_filler {
      type: "constant"
      value: 0
    }
  }
}
layer {
  name: "relu_d4c"
  type: "ReLU"
  bottom: "d4c"
  top: "d4c"
}
layer {
  name: "upconv_d4c_u3a"
  type: "Deconvolution"
  bottom: "d4c"
  top: "u3a"
  param {
    lr_mult: 1
    decay_mult: 1
  }
  param {
    lr_mult: 2
    decay_mult: 0
  }
  convolution_param {
    num_output: 512
    pad: 0
    kernel_size: 2
    stride: 2
    weight_filler {
      type: "xavier"
    }
  }
}
layer {
  name: "bn_u3a"
  type: "BatchNorm"
  bottom: "u3a"
  top: "u3a"
  batch_norm_param {
    use_global_stats: false
    moving_average_fraction: 0.999
    eps: 1e-05
  }
}
layer {
  name: "sc_u3a"
  type: "Scale"
  bottom: "u3a"
  top: "u3a"
  scale_param {
    axis: 1
    filler {
      type: "constant"
      value: 1
    }
    bias_term: true
    bias_filler {
      type: "constant"
      value: 0
    }
  }
}
layer {
  name: "relu_u3a"
  type: "ReLU"
  bottom: "u3a"
  top: "u3a"
}
layer {
  name: "crop_d3c-d3cc"
  type: "Crop"
  bottom: "d3c"
  bottom: "u3a"
  top: "d3cc"
  crop_param {
    axis: 2
    offset: 4
  }
}
layer {
  name: "concat_d3cc_u3a-b"
  type: "Concat"
  bottom: "u3a"
  bottom: "d3cc"
  top: "u3b"
}
layer {
  name: "conv_u3b-c"
  type: "Convolution"
  bottom: "u3b"
  top: "u3c"
  param {
    lr_mult: 1
    decay_mult: 1
  }
  param {
    lr_mult: 2
    decay_mult: 0
  }
  convolution_param {
    num_output: 512
    pad: 0
    kernel_size: 3
    weight_filler {
      type: "xavier"
    }
    engine: CAFFE
  }
}
layer {
  name: "bn_u3c"
  type: "BatchNorm"
  bottom: "u3c"
  top: "u3c"
  batch_norm_param {
    use_global_stats: false
    moving_average_fraction: 0.999
    eps: 1e-05
  }
}
layer {
  name: "sc_u3c"
  type: "Scale"
  bottom: "u3c"
  top: "u3c"
  scale_param {
    axis: 1
    filler {
      type: "constant"
      value: 1
    }
    bias_term: true
    bias_filler {
      type: "constant"
      value: 0
    }
  }
}
layer {
  name: "relu_u3c"
  type: "ReLU"
  bottom: "u3c"
  top: "u3c"
}
layer {
  name: "conv_u3c-d"
  type: "Convolution"
  bottom: "u3c"
  top: "u3d"
  param {
    lr_mult: 1
    decay_mult: 1
  }
  param {
    lr_mult: 2
    decay_mult: 0
  }
  convolution_param {
    num_output: 512
    pad: 0
    kernel_size: 3
    weight_filler {
      type: "xavier"
    }
    engine: CAFFE
  }
}
layer {
  name: "bn_u3d"
  type: "BatchNorm"
  bottom: "u3d"
  top: "u3d"
  batch_norm_param {
    use_global_stats: false
    moving_average_fraction: 0.999
    eps: 1e-05
  }
}
layer {
  name: "sc_u3d"
  type: "Scale"
  bottom: "u3d"
  top: "u3d"
  scale_param {
    axis: 1
    filler {
      type: "constant"
      value: 1
    }
    bias_term: true
    bias_filler {
      type: "constant"
      value: 0
    }
  }
}
layer {
  name: "relu_u3d"
  type: "ReLU"
  bottom: "u3d"
  top: "u3d"
}
layer {
  name: "upconv_u3d_u2a"
  type: "Deconvolution"
  bottom: "u3d"
  top: "u2a"
  param {
    lr_mult: 1
    decay_mult: 1
  }
  param {
    lr_mult: 2
    decay_mult: 0
  }
  convolution_param {
    num_output: 256
    pad: 0
    kernel_size: 2
    stride: 2
    weight_filler {
      type: "xavier"
    }
  }
}
layer {
  name: "bn_u2a"
  type: "BatchNorm"
  bottom: "u2a"
  top: "u2a"
  batch_norm_param {
    use_global_stats: false
    moving_average_fraction: 0.999
    eps: 1e-05
  }
}
layer {
  name: "sc_u2a"
  type: "Scale"
  bottom: "u2a"
  top: "u2a"
  scale_param {
    axis: 1
    filler {
      type: "constant"
      value: 1
    }
    bias_term: true
    bias_filler {
      type: "constant"
      value: 0
    }
  }
}
layer {
  name: "relu_u2a"
  type: "ReLU"
  bottom: "u2a"
  top: "u2a"
}
layer {
  name: "crop_d2c-d2cc"
  type: "Crop"
  bottom: "d2c"
  bottom: "u2a"
  top: "d2cc"
  crop_param {
    axis: 2
    offset: 16
  }
}
layer {
  name: "concat_d2cc_u2a-b"
  type: "Concat"
  bottom: "u2a"
  bottom: "d2cc"
  top: "u2b"
}
layer {
  name: "conv_u2b-c"
  type: "Convolution"
  bottom: "u2b"
  top: "u2c"
  param {
    lr_mult: 1
    decay_mult: 1
  }
  param {
    lr_mult: 2
    decay_mult: 0
  }
  convolution_param {
    num_output: 256
    pad: 0
    kernel_size: 3
    weight_filler {
      type: "xavier"
    }
    engine: CAFFE
  }
}
layer {
  name: "bn_u2c"
  type: "BatchNorm"
  bottom: "u2c"
  top: "u2c"
  batch_norm_param {
    use_global_stats: false
    moving_average_fraction: 0.999
    eps: 1e-05
  }
}
layer {
  name: "sc_u2c"
  type: "Scale"
  bottom: "u2c"
  top: "u2c"
  scale_param {
    axis: 1
    filler {
      type: "constant"
      value: 1
    }
    bias_term: true
    bias_filler {
      type: "constant"
      value: 0
    }
  }
}
layer {
  name: "relu_u2c"
  type: "ReLU"
  bottom: "u2c"
  top: "u2c"
}
layer {
  name: "conv_u2c-d"
  type: "Convolution"
  bottom: "u2c"
  top: "u2d"
  param {
    lr_mult: 1
    decay_mult: 1
  }
  param {
    lr_mult: 2
    decay_mult: 0
  }
  convolution_param {
    num_output: 256
    pad: 0
    kernel_size: 3
    weight_filler {
      type: "xavier"
    }
    engine: CAFFE
  }
}
layer {
  name: "bn_u2d"
  type: "BatchNorm"
  bottom: "u2d"
  top: "u2d"
  batch_norm_param {
    use_global_stats: false
    moving_average_fraction: 0.999
    eps: 1e-05
  }
}
layer {
  name: "sc_u2d"
  type: "Scale"
  bottom: "u2d"
  top: "u2d"
  scale_param {
    axis: 1
    filler {
      type: "constant"
      value: 1
    }
    bias_term: true
    bias_filler {
      type: "constant"
      value: 0
    }
  }
}
layer {
  name: "relu_u2d"
  type: "ReLU"
  bottom: "u2d"
  top: "u2d"
}
layer {
  name: "upconv_u2d_u1a"
  type: "Deconvolution"
  bottom: "u2d"
  top: "u1a"
  param {
    lr_mult: 1
    decay_mult: 1
  }
  param {
    lr_mult: 2
    decay_mult: 0
  }
  convolution_param {
    num_output: 128
    pad: 0
    kernel_size: 2
    stride: 2
    weight_filler {
      type: "xavier"
    }
  }
}
layer {
  name: "bn_u1a"
  type: "BatchNorm"
  bottom: "u1a"
  top: "u1a"
  batch_norm_param {
    use_global_stats: false
    moving_average_fraction: 0.999
    eps: 1e-05
  }
}
layer {
  name: "sc_u1a"
  type: "Scale"
  bottom: "u1a"
  top: "u1a"
  scale_param {
    axis: 1
    filler {
      type: "constant"
      value: 1
    }
    bias_term: true
    bias_filler {
      type: "constant"
      value: 0
    }
  }
}
layer {
  name: "relu_u1a"
  type: "ReLU"
  bottom: "u1a"
  top: "u1a"
}
layer {
  name: "crop_d1c-d1cc"
  type: "Crop"
  bottom: "d1c"
  bottom: "u1a"
  top: "d1cc"
  crop_param {
    axis: 2
    offset: 40
  }
}
layer {
  name: "concat_d1cc_u1a-b"
  type: "Concat"
  bottom: "u1a"
  bottom: "d1cc"
  top: "u1b"
}
layer {
  name: "conv_u1b-c"
  type: "Convolution"
  bottom: "u1b"
  top: "u1c"
  param {
    lr_mult: 1
    decay_mult: 1
  }
  param {
    lr_mult: 2
    decay_mult: 0
  }
  convolution_param {
    num_output: 128
    pad: 0
    kernel_size: 3
    weight_filler {
      type: "xavier"
    }
    engine: CAFFE
  }
}
layer {
  name: "bn_u1c"
  type: "BatchNorm"
  bottom: "u1c"
  top: "u1c"
  batch_norm_param {
    use_global_stats: false
    moving_average_fraction: 0.999
    eps: 1e-05
  }
}
layer {
  name: "sc_u1c"
  type: "Scale"
  bottom: "u1c"
  top: "u1c"
  scale_param {
    axis: 1
    filler {
      type: "constant"
      value: 1
    }
    bias_term: true
    bias_filler {
      type: "constant"
      value: 0
    }
  }
}
layer {
  name: "relu_u1c"
  type: "ReLU"
  bottom: "u1c"
  top: "u1c"
}
layer {
  name: "conv_u1c-d"
  type: "Convolution"
  bottom: "u1c"
  top: "u1d"
  param {
    lr_mult: 1
    decay_mult: 1
  }
  param {
    lr_mult: 2
    decay_mult: 0
  }
  convolution_param {
    num_output: 128
    pad: 0
    kernel_size: 3
    weight_filler {
      type: "xavier"
    }
    engine: CAFFE
  }
}
layer {
  name: "bn_u1d"
  type: "BatchNorm"
  bottom: "u1d"
  top: "u1d"
  batch_norm_param {
    use_global_stats: false
    moving_average_fraction: 0.999
    eps: 1e-05
  }
}
layer {
  name: "sc_u1d"
  type: "Scale"
  bottom: "u1d"
  top: "u1d"
  scale_param {
    axis: 1
    filler {
      type: "constant"
      value: 1
    }
    bias_term: true
    bias_filler {
      type: "constant"
      value: 0
    }
  }
}
layer {
  name: "relu_u1d"
  type: "ReLU"
  bottom: "u1d"
  top: "u1d"
}
layer {
  name: "upconv_u1d_u0a"
  type: "Deconvolution"
  bottom: "u1d"
  top: "u0a"
  param {
    lr_mult: 1
    decay_mult: 1
  }
  param {
    lr_mult: 2
    decay_mult: 0
  }
  convolution_param {
    num_output: 128
    pad: 0
    kernel_size: 2
    stride: 2
    weight_filler {
      type: "xavier"
    }
  }
}
layer {
  name: "bn_u0a"
  type: "BatchNorm"
  bottom: "u0a"
  top: "u0a"
  batch_norm_param {
    use_global_stats: false
    moving_average_fraction: 0.999
    eps: 1e-05
  }
}
layer {
  name: "sc_u0a"
  type: "Scale"
  bottom: "u0a"
  top: "u0a"
  scale_param {
    axis: 1
    filler {
      type: "constant"
      value: 1
    }
    bias_term: true
    bias_filler {
      type: "constant"
      value: 0
    }
  }
}
layer {
  name: "relu_u0a"
  type: "ReLU"
  bottom: "u0a"
  top: "u0a"
}
layer {
  name: "crop_d0c-d0cc"
  type: "Crop"
  bottom: "d0c"
  bottom: "u0a"
  top: "d0cc"
  crop_param {
    axis: 2
    offset: 88
  }
}
layer {
  name: "concat_d0cc_u0a-b"
  type: "Concat"
  bottom: "u0a"
  bottom: "d0cc"
  top: "u0b"
}
layer {
  name: "conv_u0b-c"
  type: "Convolution"
  bottom: "u0b"
  top: "u0c"
  param {
    lr_mult: 1
    decay_mult: 1
  }
  param {
    lr_mult: 2
    decay_mult: 0
  }
  convolution_param {
    num_output: 64
    pad: 0
    kernel_size: 3
    weight_filler {
      type: "xavier"
    }
    engine: CAFFE
  }
}
layer {
  name: "bn_u0c"
  type: "BatchNorm"
  bottom: "u0c"
  top: "u0c"
  batch_norm_param {
    use_global_stats: false
    moving_average_fraction: 0.999
    eps: 1e-05
  }
}
layer {
  name: "sc_u0c"
  type: "Scale"
  bottom: "u0c"
  top: "u0c"
  scale_param {
    axis: 1
    filler {
      type: "constant"
      value: 1
    }
    bias_term: true
    bias_filler {
      type: "constant"
      value: 0
    }
  }
}
layer {
  name: "relu_u0c"
  type: "ReLU"
  bottom: "u0c"
  top: "u0c"
}
layer {
  name: "conv_u0c-d"
  type: "Convolution"
  bottom: "u0c"
  top: "u0d"
  param {
    lr_mult: 1
    decay_mult: 1
  }
  param {
    lr_mult: 2
    decay_mult: 0
  }
  convolution_param {
    num_output: 64
    pad: 0
    kernel_size: 3
    weight_filler {
      type: "xavier"
    }
    engine: CAFFE
  }
}
layer {
  name: "bn_u0d"
  type: "BatchNorm"
  bottom: "u0d"
  top: "u0d"
  batch_norm_param {
    use_global_stats: false
    moving_average_fraction: 0.999
    eps: 1e-05
  }
}
layer {
  name: "sc_u0d"
  type: "Scale"
  bottom: "u0d"
  top: "u0d"
  scale_param {
    axis: 1
    filler {
      type: "constant"
      value: 1
    }
    bias_term: true
    bias_filler {
      type: "constant"
      value: 0
    }
  }
}
layer {
  name: "relu_u0d"
  type: "ReLU"
  bottom: "u0d"
  top: "u0d"
}
layer {
  name: "conv_u0d-score"
  type: "Convolution"
  bottom: "u0d"
  top: "score"
  param {
    lr_mult: 1
    decay_mult: 1
  }
  param {
    lr_mult: 2
    decay_mult: 0
  }
  convolution_param {
    num_output: 4
    pad: 0
    kernel_size: 1
    weight_filler {
      type: "xavier"
    }
    engine: CAFFE
  }
}
layer {
  name: "loss"
  type: "SoftmaxWithLoss"
  bottom: "score"
  bottom: "label"
  bottom: "weights"
  top: "loss"
  loss_weight: 1
}
I0428 15:09:13.074257  5145 layer_factory.hpp:77] Creating layer loaddata
I0428 15:09:13.074266  5145 net.cpp:100] Creating Layer loaddata
I0428 15:09:13.074270  5145 net.cpp:408] loaddata -> data
I0428 15:09:13.074276  5145 net.cpp:408] loaddata -> label
I0428 15:09:13.074281  5145 net.cpp:408] loaddata -> weights
I0428 15:09:13.074286  5145 hdf5_data_layer.cpp:79] Loading list of HDF5 filenames from: caffeHDF5_validation_4.txt
I0428 15:09:13.074309  5145 hdf5_data_layer.cpp:93] Number of HDF5 files: 10
I0428 15:09:13.377009  5145 net.cpp:150] Setting up loaddata
I0428 15:09:13.377053  5145 net.cpp:157] Top shape: 1 3 428 428 (549552)
I0428 15:09:13.377058  5145 net.cpp:157] Top shape: 1 244 244 (59536)
I0428 15:09:13.377060  5145 net.cpp:157] Top shape: 1 244 244 (59536)
I0428 15:09:13.377063  5145 net.cpp:165] Memory required for data: 2674496
I0428 15:09:13.377068  5145 layer_factory.hpp:77] Creating layer conv_d0a-b
I0428 15:09:13.377085  5145 net.cpp:100] Creating Layer conv_d0a-b
I0428 15:09:13.377089  5145 net.cpp:434] conv_d0a-b <- data
I0428 15:09:13.377095  5145 net.cpp:408] conv_d0a-b -> d0b
I0428 15:09:13.378625  5145 net.cpp:150] Setting up conv_d0a-b
I0428 15:09:13.378640  5145 net.cpp:157] Top shape: 1 64 426 426 (11614464)
I0428 15:09:13.378659  5145 net.cpp:165] Memory required for data: 49132352
I0428 15:09:13.378669  5145 layer_factory.hpp:77] Creating layer bn_d0b
I0428 15:09:13.378676  5145 net.cpp:100] Creating Layer bn_d0b
I0428 15:09:13.378680  5145 net.cpp:434] bn_d0b <- d0b
I0428 15:09:13.378684  5145 net.cpp:395] bn_d0b -> d0b (in-place)
I0428 15:09:13.379109  5145 net.cpp:150] Setting up bn_d0b
I0428 15:09:13.379117  5145 net.cpp:157] Top shape: 1 64 426 426 (11614464)
I0428 15:09:13.379120  5145 net.cpp:165] Memory required for data: 95590208
I0428 15:09:13.379129  5145 layer_factory.hpp:77] Creating layer sc_d0b
I0428 15:09:13.379153  5145 net.cpp:100] Creating Layer sc_d0b
I0428 15:09:13.379156  5145 net.cpp:434] sc_d0b <- d0b
I0428 15:09:13.379163  5145 net.cpp:395] sc_d0b -> d0b (in-place)
I0428 15:09:13.379204  5145 layer_factory.hpp:77] Creating layer sc_d0b
I0428 15:09:13.380511  5145 net.cpp:150] Setting up sc_d0b
I0428 15:09:13.380522  5145 net.cpp:157] Top shape: 1 64 426 426 (11614464)
I0428 15:09:13.380525  5145 net.cpp:165] Memory required for data: 142048064
I0428 15:09:13.380547  5145 layer_factory.hpp:77] Creating layer relu_d0b
I0428 15:09:13.380553  5145 net.cpp:100] Creating Layer relu_d0b
I0428 15:09:13.380556  5145 net.cpp:434] relu_d0b <- d0b
I0428 15:09:13.380563  5145 net.cpp:395] relu_d0b -> d0b (in-place)
I0428 15:09:13.380820  5145 net.cpp:150] Setting up relu_d0b
I0428 15:09:13.380830  5145 net.cpp:157] Top shape: 1 64 426 426 (11614464)
I0428 15:09:13.380833  5145 net.cpp:165] Memory required for data: 188505920
I0428 15:09:13.380836  5145 layer_factory.hpp:77] Creating layer conv_d0b-c
I0428 15:09:13.380844  5145 net.cpp:100] Creating Layer conv_d0b-c
I0428 15:09:13.380847  5145 net.cpp:434] conv_d0b-c <- d0b
I0428 15:09:13.380852  5145 net.cpp:408] conv_d0b-c -> d0c
I0428 15:09:13.382452  5145 net.cpp:150] Setting up conv_d0b-c
I0428 15:09:13.382467  5145 net.cpp:157] Top shape: 1 64 424 424 (11505664)
I0428 15:09:13.382469  5145 net.cpp:165] Memory required for data: 234528576
I0428 15:09:13.382478  5145 layer_factory.hpp:77] Creating layer bn_d0c
I0428 15:09:13.382484  5145 net.cpp:100] Creating Layer bn_d0c
I0428 15:09:13.382488  5145 net.cpp:434] bn_d0c <- d0c
I0428 15:09:13.382508  5145 net.cpp:395] bn_d0c -> d0c (in-place)
I0428 15:09:13.382845  5145 net.cpp:150] Setting up bn_d0c
I0428 15:09:13.382855  5145 net.cpp:157] Top shape: 1 64 424 424 (11505664)
I0428 15:09:13.382858  5145 net.cpp:165] Memory required for data: 280551232
I0428 15:09:13.382864  5145 layer_factory.hpp:77] Creating layer sc_d0c
I0428 15:09:13.382870  5145 net.cpp:100] Creating Layer sc_d0c
I0428 15:09:13.382887  5145 net.cpp:434] sc_d0c <- d0c
I0428 15:09:13.382894  5145 net.cpp:395] sc_d0c -> d0c (in-place)
I0428 15:09:13.382936  5145 layer_factory.hpp:77] Creating layer sc_d0c
I0428 15:09:13.384235  5145 net.cpp:150] Setting up sc_d0c
I0428 15:09:13.384249  5145 net.cpp:157] Top shape: 1 64 424 424 (11505664)
I0428 15:09:13.384253  5145 net.cpp:165] Memory required for data: 326573888
I0428 15:09:13.384259  5145 layer_factory.hpp:77] Creating layer relu_d0c
I0428 15:09:13.384266  5145 net.cpp:100] Creating Layer relu_d0c
I0428 15:09:13.384270  5145 net.cpp:434] relu_d0c <- d0c
I0428 15:09:13.384274  5145 net.cpp:395] relu_d0c -> d0c (in-place)
I0428 15:09:13.384469  5145 net.cpp:150] Setting up relu_d0c
I0428 15:09:13.384479  5145 net.cpp:157] Top shape: 1 64 424 424 (11505664)
I0428 15:09:13.384482  5145 net.cpp:165] Memory required for data: 372596544
I0428 15:09:13.384485  5145 layer_factory.hpp:77] Creating layer d0c_relu_d0c_0_split
I0428 15:09:13.384490  5145 net.cpp:100] Creating Layer d0c_relu_d0c_0_split
I0428 15:09:13.384492  5145 net.cpp:434] d0c_relu_d0c_0_split <- d0c
I0428 15:09:13.384497  5145 net.cpp:408] d0c_relu_d0c_0_split -> d0c_relu_d0c_0_split_0
I0428 15:09:13.384503  5145 net.cpp:408] d0c_relu_d0c_0_split -> d0c_relu_d0c_0_split_1
I0428 15:09:13.384546  5145 net.cpp:150] Setting up d0c_relu_d0c_0_split
I0428 15:09:13.384553  5145 net.cpp:157] Top shape: 1 64 424 424 (11505664)
I0428 15:09:13.384558  5145 net.cpp:157] Top shape: 1 64 424 424 (11505664)
I0428 15:09:13.384560  5145 net.cpp:165] Memory required for data: 464641856
I0428 15:09:13.384562  5145 layer_factory.hpp:77] Creating layer pool_d0c-1a
I0428 15:09:13.384567  5145 net.cpp:100] Creating Layer pool_d0c-1a
I0428 15:09:13.384572  5145 net.cpp:434] pool_d0c-1a <- d0c_relu_d0c_0_split_0
I0428 15:09:13.384575  5145 net.cpp:408] pool_d0c-1a -> d1a
I0428 15:09:13.384613  5145 net.cpp:150] Setting up pool_d0c-1a
I0428 15:09:13.384616  5145 net.cpp:157] Top shape: 1 64 212 212 (2876416)
I0428 15:09:13.384619  5145 net.cpp:165] Memory required for data: 476147520
I0428 15:09:13.384623  5145 layer_factory.hpp:77] Creating layer conv_d1a-b
I0428 15:09:13.384629  5145 net.cpp:100] Creating Layer conv_d1a-b
I0428 15:09:13.384631  5145 net.cpp:434] conv_d1a-b <- d1a
I0428 15:09:13.384637  5145 net.cpp:408] conv_d1a-b -> d1b
I0428 15:09:13.385350  5145 net.cpp:150] Setting up conv_d1a-b
I0428 15:09:13.385360  5145 net.cpp:157] Top shape: 1 128 210 210 (5644800)
I0428 15:09:13.385361  5145 net.cpp:165] Memory required for data: 498726720
I0428 15:09:13.385367  5145 layer_factory.hpp:77] Creating layer bn_d1b
I0428 15:09:13.385372  5145 net.cpp:100] Creating Layer bn_d1b
I0428 15:09:13.385375  5145 net.cpp:434] bn_d1b <- d1b
I0428 15:09:13.385380  5145 net.cpp:395] bn_d1b -> d1b (in-place)
I0428 15:09:13.385624  5145 net.cpp:150] Setting up bn_d1b
I0428 15:09:13.385632  5145 net.cpp:157] Top shape: 1 128 210 210 (5644800)
I0428 15:09:13.385635  5145 net.cpp:165] Memory required for data: 521305920
I0428 15:09:13.385645  5145 layer_factory.hpp:77] Creating layer sc_d1b
I0428 15:09:13.385651  5145 net.cpp:100] Creating Layer sc_d1b
I0428 15:09:13.385654  5145 net.cpp:434] sc_d1b <- d1b
I0428 15:09:13.385659  5145 net.cpp:395] sc_d1b -> d1b (in-place)
I0428 15:09:13.385695  5145 layer_factory.hpp:77] Creating layer sc_d1b
I0428 15:09:13.385879  5145 net.cpp:150] Setting up sc_d1b
I0428 15:09:13.385887  5145 net.cpp:157] Top shape: 1 128 210 210 (5644800)
I0428 15:09:13.385890  5145 net.cpp:165] Memory required for data: 543885120
I0428 15:09:13.385895  5145 layer_factory.hpp:77] Creating layer relu_d1b
I0428 15:09:13.385900  5145 net.cpp:100] Creating Layer relu_d1b
I0428 15:09:13.385902  5145 net.cpp:434] relu_d1b <- d1b
I0428 15:09:13.385906  5145 net.cpp:395] relu_d1b -> d1b (in-place)
I0428 15:09:13.386087  5145 net.cpp:150] Setting up relu_d1b
I0428 15:09:13.386097  5145 net.cpp:157] Top shape: 1 128 210 210 (5644800)
I0428 15:09:13.386101  5145 net.cpp:165] Memory required for data: 566464320
I0428 15:09:13.386114  5145 layer_factory.hpp:77] Creating layer conv_d1b-c
I0428 15:09:13.386122  5145 net.cpp:100] Creating Layer conv_d1b-c
I0428 15:09:13.386126  5145 net.cpp:434] conv_d1b-c <- d1b
I0428 15:09:13.386132  5145 net.cpp:408] conv_d1b-c -> d1c
I0428 15:09:13.387276  5145 net.cpp:150] Setting up conv_d1b-c
I0428 15:09:13.387285  5145 net.cpp:157] Top shape: 1 128 208 208 (5537792)
I0428 15:09:13.387289  5145 net.cpp:165] Memory required for data: 588615488
I0428 15:09:13.387293  5145 layer_factory.hpp:77] Creating layer bn_d1c
I0428 15:09:13.387300  5145 net.cpp:100] Creating Layer bn_d1c
I0428 15:09:13.387303  5145 net.cpp:434] bn_d1c <- d1c
I0428 15:09:13.387308  5145 net.cpp:395] bn_d1c -> d1c (in-place)
I0428 15:09:13.388434  5145 net.cpp:150] Setting up bn_d1c
I0428 15:09:13.388447  5145 net.cpp:157] Top shape: 1 128 208 208 (5537792)
I0428 15:09:13.388449  5145 net.cpp:165] Memory required for data: 610766656
I0428 15:09:13.388458  5145 layer_factory.hpp:77] Creating layer sc_d1c
I0428 15:09:13.388464  5145 net.cpp:100] Creating Layer sc_d1c
I0428 15:09:13.388468  5145 net.cpp:434] sc_d1c <- d1c
I0428 15:09:13.388473  5145 net.cpp:395] sc_d1c -> d1c (in-place)
I0428 15:09:13.388514  5145 layer_factory.hpp:77] Creating layer sc_d1c
I0428 15:09:13.388670  5145 net.cpp:150] Setting up sc_d1c
I0428 15:09:13.388679  5145 net.cpp:157] Top shape: 1 128 208 208 (5537792)
I0428 15:09:13.388681  5145 net.cpp:165] Memory required for data: 632917824
I0428 15:09:13.388687  5145 layer_factory.hpp:77] Creating layer relu_d1c
I0428 15:09:13.388692  5145 net.cpp:100] Creating Layer relu_d1c
I0428 15:09:13.388695  5145 net.cpp:434] relu_d1c <- d1c
I0428 15:09:13.388698  5145 net.cpp:395] relu_d1c -> d1c (in-place)
I0428 15:09:13.389488  5145 net.cpp:150] Setting up relu_d1c
I0428 15:09:13.389503  5145 net.cpp:157] Top shape: 1 128 208 208 (5537792)
I0428 15:09:13.389505  5145 net.cpp:165] Memory required for data: 655068992
I0428 15:09:13.389508  5145 layer_factory.hpp:77] Creating layer d1c_relu_d1c_0_split
I0428 15:09:13.389514  5145 net.cpp:100] Creating Layer d1c_relu_d1c_0_split
I0428 15:09:13.389518  5145 net.cpp:434] d1c_relu_d1c_0_split <- d1c
I0428 15:09:13.389523  5145 net.cpp:408] d1c_relu_d1c_0_split -> d1c_relu_d1c_0_split_0
I0428 15:09:13.389530  5145 net.cpp:408] d1c_relu_d1c_0_split -> d1c_relu_d1c_0_split_1
I0428 15:09:13.389575  5145 net.cpp:150] Setting up d1c_relu_d1c_0_split
I0428 15:09:13.389583  5145 net.cpp:157] Top shape: 1 128 208 208 (5537792)
I0428 15:09:13.389586  5145 net.cpp:157] Top shape: 1 128 208 208 (5537792)
I0428 15:09:13.389588  5145 net.cpp:165] Memory required for data: 699371328
I0428 15:09:13.389592  5145 layer_factory.hpp:77] Creating layer pool_d1c-2a
I0428 15:09:13.389597  5145 net.cpp:100] Creating Layer pool_d1c-2a
I0428 15:09:13.389600  5145 net.cpp:434] pool_d1c-2a <- d1c_relu_d1c_0_split_0
I0428 15:09:13.389605  5145 net.cpp:408] pool_d1c-2a -> d2a
I0428 15:09:13.389641  5145 net.cpp:150] Setting up pool_d1c-2a
I0428 15:09:13.389647  5145 net.cpp:157] Top shape: 1 128 104 104 (1384448)
I0428 15:09:13.389649  5145 net.cpp:165] Memory required for data: 704909120
I0428 15:09:13.389652  5145 layer_factory.hpp:77] Creating layer conv_d2a-b
I0428 15:09:13.389659  5145 net.cpp:100] Creating Layer conv_d2a-b
I0428 15:09:13.389662  5145 net.cpp:434] conv_d2a-b <- d2a
I0428 15:09:13.389667  5145 net.cpp:408] conv_d2a-b -> d2b
I0428 15:09:13.392489  5145 net.cpp:150] Setting up conv_d2a-b
I0428 15:09:13.392503  5145 net.cpp:157] Top shape: 1 256 102 102 (2663424)
I0428 15:09:13.392506  5145 net.cpp:165] Memory required for data: 715562816
I0428 15:09:13.392527  5145 layer_factory.hpp:77] Creating layer bn_d2b
I0428 15:09:13.392534  5145 net.cpp:100] Creating Layer bn_d2b
I0428 15:09:13.392537  5145 net.cpp:434] bn_d2b <- d2b
I0428 15:09:13.392542  5145 net.cpp:395] bn_d2b -> d2b (in-place)
I0428 15:09:13.392748  5145 net.cpp:150] Setting up bn_d2b
I0428 15:09:13.392756  5145 net.cpp:157] Top shape: 1 256 102 102 (2663424)
I0428 15:09:13.392760  5145 net.cpp:165] Memory required for data: 726216512
I0428 15:09:13.392782  5145 layer_factory.hpp:77] Creating layer sc_d2b
I0428 15:09:13.392788  5145 net.cpp:100] Creating Layer sc_d2b
I0428 15:09:13.392791  5145 net.cpp:434] sc_d2b <- d2b
I0428 15:09:13.392796  5145 net.cpp:395] sc_d2b -> d2b (in-place)
I0428 15:09:13.392838  5145 layer_factory.hpp:77] Creating layer sc_d2b
I0428 15:09:13.392966  5145 net.cpp:150] Setting up sc_d2b
I0428 15:09:13.392974  5145 net.cpp:157] Top shape: 1 256 102 102 (2663424)
I0428 15:09:13.392977  5145 net.cpp:165] Memory required for data: 736870208
I0428 15:09:13.392982  5145 layer_factory.hpp:77] Creating layer relu_d2b
I0428 15:09:13.392987  5145 net.cpp:100] Creating Layer relu_d2b
I0428 15:09:13.392989  5145 net.cpp:434] relu_d2b <- d2b
I0428 15:09:13.392994  5145 net.cpp:395] relu_d2b -> d2b (in-place)
I0428 15:09:13.393174  5145 net.cpp:150] Setting up relu_d2b
I0428 15:09:13.393183  5145 net.cpp:157] Top shape: 1 256 102 102 (2663424)
I0428 15:09:13.393187  5145 net.cpp:165] Memory required for data: 747523904
I0428 15:09:13.393189  5145 layer_factory.hpp:77] Creating layer conv_d2b-c
I0428 15:09:13.393198  5145 net.cpp:100] Creating Layer conv_d2b-c
I0428 15:09:13.393200  5145 net.cpp:434] conv_d2b-c <- d2b
I0428 15:09:13.393206  5145 net.cpp:408] conv_d2b-c -> d2c
I0428 15:09:13.397699  5145 net.cpp:150] Setting up conv_d2b-c
I0428 15:09:13.397713  5145 net.cpp:157] Top shape: 1 256 100 100 (2560000)
I0428 15:09:13.397716  5145 net.cpp:165] Memory required for data: 757763904
I0428 15:09:13.397722  5145 layer_factory.hpp:77] Creating layer bn_d2c
I0428 15:09:13.397728  5145 net.cpp:100] Creating Layer bn_d2c
I0428 15:09:13.397732  5145 net.cpp:434] bn_d2c <- d2c
I0428 15:09:13.397737  5145 net.cpp:395] bn_d2c -> d2c (in-place)
I0428 15:09:13.397940  5145 net.cpp:150] Setting up bn_d2c
I0428 15:09:13.397948  5145 net.cpp:157] Top shape: 1 256 100 100 (2560000)
I0428 15:09:13.397950  5145 net.cpp:165] Memory required for data: 768003904
I0428 15:09:13.397958  5145 layer_factory.hpp:77] Creating layer sc_d2c
I0428 15:09:13.397965  5145 net.cpp:100] Creating Layer sc_d2c
I0428 15:09:13.397969  5145 net.cpp:434] sc_d2c <- d2c
I0428 15:09:13.397974  5145 net.cpp:395] sc_d2c -> d2c (in-place)
I0428 15:09:13.398010  5145 layer_factory.hpp:77] Creating layer sc_d2c
I0428 15:09:13.398139  5145 net.cpp:150] Setting up sc_d2c
I0428 15:09:13.398147  5145 net.cpp:157] Top shape: 1 256 100 100 (2560000)
I0428 15:09:13.398150  5145 net.cpp:165] Memory required for data: 778243904
I0428 15:09:13.398155  5145 layer_factory.hpp:77] Creating layer relu_d2c
I0428 15:09:13.398159  5145 net.cpp:100] Creating Layer relu_d2c
I0428 15:09:13.398162  5145 net.cpp:434] relu_d2c <- d2c
I0428 15:09:13.398166  5145 net.cpp:395] relu_d2c -> d2c (in-place)
I0428 15:09:13.398349  5145 net.cpp:150] Setting up relu_d2c
I0428 15:09:13.398357  5145 net.cpp:157] Top shape: 1 256 100 100 (2560000)
I0428 15:09:13.398360  5145 net.cpp:165] Memory required for data: 788483904
I0428 15:09:13.398363  5145 layer_factory.hpp:77] Creating layer d2c_relu_d2c_0_split
I0428 15:09:13.398368  5145 net.cpp:100] Creating Layer d2c_relu_d2c_0_split
I0428 15:09:13.398371  5145 net.cpp:434] d2c_relu_d2c_0_split <- d2c
I0428 15:09:13.398377  5145 net.cpp:408] d2c_relu_d2c_0_split -> d2c_relu_d2c_0_split_0
I0428 15:09:13.398383  5145 net.cpp:408] d2c_relu_d2c_0_split -> d2c_relu_d2c_0_split_1
I0428 15:09:13.398429  5145 net.cpp:150] Setting up d2c_relu_d2c_0_split
I0428 15:09:13.398437  5145 net.cpp:157] Top shape: 1 256 100 100 (2560000)
I0428 15:09:13.398440  5145 net.cpp:157] Top shape: 1 256 100 100 (2560000)
I0428 15:09:13.398442  5145 net.cpp:165] Memory required for data: 808963904
I0428 15:09:13.398445  5145 layer_factory.hpp:77] Creating layer pool_d2c-3a
I0428 15:09:13.398450  5145 net.cpp:100] Creating Layer pool_d2c-3a
I0428 15:09:13.398453  5145 net.cpp:434] pool_d2c-3a <- d2c_relu_d2c_0_split_0
I0428 15:09:13.398458  5145 net.cpp:408] pool_d2c-3a -> d3a
I0428 15:09:13.398494  5145 net.cpp:150] Setting up pool_d2c-3a
I0428 15:09:13.398499  5145 net.cpp:157] Top shape: 1 256 50 50 (640000)
I0428 15:09:13.398514  5145 net.cpp:165] Memory required for data: 811523904
I0428 15:09:13.398516  5145 layer_factory.hpp:77] Creating layer conv_d3a-b
I0428 15:09:13.398524  5145 net.cpp:100] Creating Layer conv_d3a-b
I0428 15:09:13.398527  5145 net.cpp:434] conv_d3a-b <- d3a
I0428 15:09:13.398533  5145 net.cpp:408] conv_d3a-b -> d3b
I0428 15:09:13.406949  5145 net.cpp:150] Setting up conv_d3a-b
I0428 15:09:13.406962  5145 net.cpp:157] Top shape: 1 512 48 48 (1179648)
I0428 15:09:13.406981  5145 net.cpp:165] Memory required for data: 816242496
I0428 15:09:13.406988  5145 layer_factory.hpp:77] Creating layer bn_d3b
I0428 15:09:13.406997  5145 net.cpp:100] Creating Layer bn_d3b
I0428 15:09:13.407001  5145 net.cpp:434] bn_d3b <- d3b
I0428 15:09:13.407006  5145 net.cpp:395] bn_d3b -> d3b (in-place)
I0428 15:09:13.407202  5145 net.cpp:150] Setting up bn_d3b
I0428 15:09:13.407209  5145 net.cpp:157] Top shape: 1 512 48 48 (1179648)
I0428 15:09:13.407212  5145 net.cpp:165] Memory required for data: 820961088
I0428 15:09:13.407219  5145 layer_factory.hpp:77] Creating layer sc_d3b
I0428 15:09:13.407225  5145 net.cpp:100] Creating Layer sc_d3b
I0428 15:09:13.407228  5145 net.cpp:434] sc_d3b <- d3b
I0428 15:09:13.407232  5145 net.cpp:395] sc_d3b -> d3b (in-place)
I0428 15:09:13.407270  5145 layer_factory.hpp:77] Creating layer sc_d3b
I0428 15:09:13.407382  5145 net.cpp:150] Setting up sc_d3b
I0428 15:09:13.407389  5145 net.cpp:157] Top shape: 1 512 48 48 (1179648)
I0428 15:09:13.407392  5145 net.cpp:165] Memory required for data: 825679680
I0428 15:09:13.407397  5145 layer_factory.hpp:77] Creating layer relu_d3b
I0428 15:09:13.407402  5145 net.cpp:100] Creating Layer relu_d3b
I0428 15:09:13.407404  5145 net.cpp:434] relu_d3b <- d3b
I0428 15:09:13.407408  5145 net.cpp:395] relu_d3b -> d3b (in-place)
I0428 15:09:13.407595  5145 net.cpp:150] Setting up relu_d3b
I0428 15:09:13.407605  5145 net.cpp:157] Top shape: 1 512 48 48 (1179648)
I0428 15:09:13.407608  5145 net.cpp:165] Memory required for data: 830398272
I0428 15:09:13.407610  5145 layer_factory.hpp:77] Creating layer conv_d3b-c
I0428 15:09:13.407618  5145 net.cpp:100] Creating Layer conv_d3b-c
I0428 15:09:13.407621  5145 net.cpp:434] conv_d3b-c <- d3b
I0428 15:09:13.407626  5145 net.cpp:408] conv_d3b-c -> d3c
I0428 15:09:13.423346  5145 net.cpp:150] Setting up conv_d3b-c
I0428 15:09:13.423359  5145 net.cpp:157] Top shape: 1 512 46 46 (1083392)
I0428 15:09:13.423362  5145 net.cpp:165] Memory required for data: 834731840
I0428 15:09:13.423368  5145 layer_factory.hpp:77] Creating layer bn_d3c
I0428 15:09:13.423373  5145 net.cpp:100] Creating Layer bn_d3c
I0428 15:09:13.423377  5145 net.cpp:434] bn_d3c <- d3c
I0428 15:09:13.423382  5145 net.cpp:395] bn_d3c -> d3c (in-place)
I0428 15:09:13.423609  5145 net.cpp:150] Setting up bn_d3c
I0428 15:09:13.423616  5145 net.cpp:157] Top shape: 1 512 46 46 (1083392)
I0428 15:09:13.423619  5145 net.cpp:165] Memory required for data: 839065408
I0428 15:09:13.423626  5145 layer_factory.hpp:77] Creating layer sc_d3c
I0428 15:09:13.423631  5145 net.cpp:100] Creating Layer sc_d3c
I0428 15:09:13.423635  5145 net.cpp:434] sc_d3c <- d3c
I0428 15:09:13.423638  5145 net.cpp:395] sc_d3c -> d3c (in-place)
I0428 15:09:13.423676  5145 layer_factory.hpp:77] Creating layer sc_d3c
I0428 15:09:13.423800  5145 net.cpp:150] Setting up sc_d3c
I0428 15:09:13.423807  5145 net.cpp:157] Top shape: 1 512 46 46 (1083392)
I0428 15:09:13.423810  5145 net.cpp:165] Memory required for data: 843398976
I0428 15:09:13.423815  5145 layer_factory.hpp:77] Creating layer relu_d3c
I0428 15:09:13.423820  5145 net.cpp:100] Creating Layer relu_d3c
I0428 15:09:13.423822  5145 net.cpp:434] relu_d3c <- d3c
I0428 15:09:13.423826  5145 net.cpp:395] relu_d3c -> d3c (in-place)
I0428 15:09:13.424671  5145 net.cpp:150] Setting up relu_d3c
I0428 15:09:13.424685  5145 net.cpp:157] Top shape: 1 512 46 46 (1083392)
I0428 15:09:13.424687  5145 net.cpp:165] Memory required for data: 847732544
I0428 15:09:13.424690  5145 layer_factory.hpp:77] Creating layer d3c_relu_d3c_0_split
I0428 15:09:13.424726  5145 net.cpp:100] Creating Layer d3c_relu_d3c_0_split
I0428 15:09:13.424729  5145 net.cpp:434] d3c_relu_d3c_0_split <- d3c
I0428 15:09:13.424736  5145 net.cpp:408] d3c_relu_d3c_0_split -> d3c_relu_d3c_0_split_0
I0428 15:09:13.424746  5145 net.cpp:408] d3c_relu_d3c_0_split -> d3c_relu_d3c_0_split_1
I0428 15:09:13.424793  5145 net.cpp:150] Setting up d3c_relu_d3c_0_split
I0428 15:09:13.424801  5145 net.cpp:157] Top shape: 1 512 46 46 (1083392)
I0428 15:09:13.424804  5145 net.cpp:157] Top shape: 1 512 46 46 (1083392)
I0428 15:09:13.424808  5145 net.cpp:165] Memory required for data: 856399680
I0428 15:09:13.424810  5145 layer_factory.hpp:77] Creating layer pool_d3c-4a
I0428 15:09:13.424815  5145 net.cpp:100] Creating Layer pool_d3c-4a
I0428 15:09:13.424818  5145 net.cpp:434] pool_d3c-4a <- d3c_relu_d3c_0_split_0
I0428 15:09:13.424823  5145 net.cpp:408] pool_d3c-4a -> d4a
I0428 15:09:13.424861  5145 net.cpp:150] Setting up pool_d3c-4a
I0428 15:09:13.424868  5145 net.cpp:157] Top shape: 1 512 23 23 (270848)
I0428 15:09:13.424870  5145 net.cpp:165] Memory required for data: 857483072
I0428 15:09:13.424872  5145 layer_factory.hpp:77] Creating layer conv_d4a-b
I0428 15:09:13.424880  5145 net.cpp:100] Creating Layer conv_d4a-b
I0428 15:09:13.424883  5145 net.cpp:434] conv_d4a-b <- d4a
I0428 15:09:13.424888  5145 net.cpp:408] conv_d4a-b -> d4b
I0428 15:09:13.456377  5145 net.cpp:150] Setting up conv_d4a-b
I0428 15:09:13.456393  5145 net.cpp:157] Top shape: 1 1024 21 21 (451584)
I0428 15:09:13.456411  5145 net.cpp:165] Memory required for data: 859289408
I0428 15:09:13.456418  5145 layer_factory.hpp:77] Creating layer bn_d4b
I0428 15:09:13.456423  5145 net.cpp:100] Creating Layer bn_d4b
I0428 15:09:13.456429  5145 net.cpp:434] bn_d4b <- d4b
I0428 15:09:13.456432  5145 net.cpp:395] bn_d4b -> d4b (in-place)
I0428 15:09:13.456645  5145 net.cpp:150] Setting up bn_d4b
I0428 15:09:13.456652  5145 net.cpp:157] Top shape: 1 1024 21 21 (451584)
I0428 15:09:13.456655  5145 net.cpp:165] Memory required for data: 861095744
I0428 15:09:13.456662  5145 layer_factory.hpp:77] Creating layer sc_d4b
I0428 15:09:13.456667  5145 net.cpp:100] Creating Layer sc_d4b
I0428 15:09:13.456670  5145 net.cpp:434] sc_d4b <- d4b
I0428 15:09:13.456676  5145 net.cpp:395] sc_d4b -> d4b (in-place)
I0428 15:09:13.456715  5145 layer_factory.hpp:77] Creating layer sc_d4b
I0428 15:09:13.456828  5145 net.cpp:150] Setting up sc_d4b
I0428 15:09:13.456835  5145 net.cpp:157] Top shape: 1 1024 21 21 (451584)
I0428 15:09:13.456838  5145 net.cpp:165] Memory required for data: 862902080
I0428 15:09:13.456843  5145 layer_factory.hpp:77] Creating layer relu_d4b
I0428 15:09:13.456848  5145 net.cpp:100] Creating Layer relu_d4b
I0428 15:09:13.456851  5145 net.cpp:434] relu_d4b <- d4b
I0428 15:09:13.456856  5145 net.cpp:395] relu_d4b -> d4b (in-place)
I0428 15:09:13.457048  5145 net.cpp:150] Setting up relu_d4b
I0428 15:09:13.457058  5145 net.cpp:157] Top shape: 1 1024 21 21 (451584)
I0428 15:09:13.457060  5145 net.cpp:165] Memory required for data: 864708416
I0428 15:09:13.457064  5145 layer_factory.hpp:77] Creating layer conv_d4b-c
I0428 15:09:13.457072  5145 net.cpp:100] Creating Layer conv_d4b-c
I0428 15:09:13.457075  5145 net.cpp:434] conv_d4b-c <- d4b
I0428 15:09:13.457080  5145 net.cpp:408] conv_d4b-c -> d4c
I0428 15:09:13.519680  5145 net.cpp:150] Setting up conv_d4b-c
I0428 15:09:13.519701  5145 net.cpp:157] Top shape: 1 1024 19 19 (369664)
I0428 15:09:13.519703  5145 net.cpp:165] Memory required for data: 866187072
I0428 15:09:13.519721  5145 layer_factory.hpp:77] Creating layer bn_d4c
I0428 15:09:13.519729  5145 net.cpp:100] Creating Layer bn_d4c
I0428 15:09:13.519733  5145 net.cpp:434] bn_d4c <- d4c
I0428 15:09:13.519738  5145 net.cpp:395] bn_d4c -> d4c (in-place)
I0428 15:09:13.519964  5145 net.cpp:150] Setting up bn_d4c
I0428 15:09:13.519973  5145 net.cpp:157] Top shape: 1 1024 19 19 (369664)
I0428 15:09:13.519975  5145 net.cpp:165] Memory required for data: 867665728
I0428 15:09:13.519981  5145 layer_factory.hpp:77] Creating layer sc_d4c
I0428 15:09:13.520001  5145 net.cpp:100] Creating Layer sc_d4c
I0428 15:09:13.520005  5145 net.cpp:434] sc_d4c <- d4c
I0428 15:09:13.520011  5145 net.cpp:395] sc_d4c -> d4c (in-place)
I0428 15:09:13.520057  5145 layer_factory.hpp:77] Creating layer sc_d4c
I0428 15:09:13.520182  5145 net.cpp:150] Setting up sc_d4c
I0428 15:09:13.520190  5145 net.cpp:157] Top shape: 1 1024 19 19 (369664)
I0428 15:09:13.520192  5145 net.cpp:165] Memory required for data: 869144384
I0428 15:09:13.520197  5145 layer_factory.hpp:77] Creating layer relu_d4c
I0428 15:09:13.520202  5145 net.cpp:100] Creating Layer relu_d4c
I0428 15:09:13.520206  5145 net.cpp:434] relu_d4c <- d4c
I0428 15:09:13.520210  5145 net.cpp:395] relu_d4c -> d4c (in-place)
I0428 15:09:13.520431  5145 net.cpp:150] Setting up relu_d4c
I0428 15:09:13.520440  5145 net.cpp:157] Top shape: 1 1024 19 19 (369664)
I0428 15:09:13.520443  5145 net.cpp:165] Memory required for data: 870623040
I0428 15:09:13.520447  5145 layer_factory.hpp:77] Creating layer upconv_d4c_u3a
I0428 15:09:13.520453  5145 net.cpp:100] Creating Layer upconv_d4c_u3a
I0428 15:09:13.520457  5145 net.cpp:434] upconv_d4c_u3a <- d4c
I0428 15:09:13.520462  5145 net.cpp:408] upconv_d4c_u3a -> u3a
I0428 15:09:13.534492  5145 net.cpp:150] Setting up upconv_d4c_u3a
I0428 15:09:13.534504  5145 net.cpp:157] Top shape: 1 512 38 38 (739328)
I0428 15:09:13.534523  5145 net.cpp:165] Memory required for data: 873580352
I0428 15:09:13.534529  5145 layer_factory.hpp:77] Creating layer bn_u3a
I0428 15:09:13.534535  5145 net.cpp:100] Creating Layer bn_u3a
I0428 15:09:13.534539  5145 net.cpp:434] bn_u3a <- u3a
I0428 15:09:13.534544  5145 net.cpp:395] bn_u3a -> u3a (in-place)
I0428 15:09:13.534770  5145 net.cpp:150] Setting up bn_u3a
I0428 15:09:13.534777  5145 net.cpp:157] Top shape: 1 512 38 38 (739328)
I0428 15:09:13.534780  5145 net.cpp:165] Memory required for data: 876537664
I0428 15:09:13.534785  5145 layer_factory.hpp:77] Creating layer sc_u3a
I0428 15:09:13.534792  5145 net.cpp:100] Creating Layer sc_u3a
I0428 15:09:13.534795  5145 net.cpp:434] sc_u3a <- u3a
I0428 15:09:13.534799  5145 net.cpp:395] sc_u3a -> u3a (in-place)
I0428 15:09:13.534835  5145 layer_factory.hpp:77] Creating layer sc_u3a
I0428 15:09:13.534963  5145 net.cpp:150] Setting up sc_u3a
I0428 15:09:13.534970  5145 net.cpp:157] Top shape: 1 512 38 38 (739328)
I0428 15:09:13.534973  5145 net.cpp:165] Memory required for data: 879494976
I0428 15:09:13.534977  5145 layer_factory.hpp:77] Creating layer relu_u3a
I0428 15:09:13.534983  5145 net.cpp:100] Creating Layer relu_u3a
I0428 15:09:13.534986  5145 net.cpp:434] relu_u3a <- u3a
I0428 15:09:13.534991  5145 net.cpp:395] relu_u3a -> u3a (in-place)
I0428 15:09:13.535184  5145 net.cpp:150] Setting up relu_u3a
I0428 15:09:13.535194  5145 net.cpp:157] Top shape: 1 512 38 38 (739328)
I0428 15:09:13.535197  5145 net.cpp:165] Memory required for data: 882452288
I0428 15:09:13.535199  5145 layer_factory.hpp:77] Creating layer u3a_relu_u3a_0_split
I0428 15:09:13.535205  5145 net.cpp:100] Creating Layer u3a_relu_u3a_0_split
I0428 15:09:13.535208  5145 net.cpp:434] u3a_relu_u3a_0_split <- u3a
I0428 15:09:13.535213  5145 net.cpp:408] u3a_relu_u3a_0_split -> u3a_relu_u3a_0_split_0
I0428 15:09:13.535219  5145 net.cpp:408] u3a_relu_u3a_0_split -> u3a_relu_u3a_0_split_1
I0428 15:09:13.535264  5145 net.cpp:150] Setting up u3a_relu_u3a_0_split
I0428 15:09:13.535272  5145 net.cpp:157] Top shape: 1 512 38 38 (739328)
I0428 15:09:13.535276  5145 net.cpp:157] Top shape: 1 512 38 38 (739328)
I0428 15:09:13.535279  5145 net.cpp:165] Memory required for data: 888366912
I0428 15:09:13.535280  5145 layer_factory.hpp:77] Creating layer crop_d3c-d3cc
I0428 15:09:13.535287  5145 net.cpp:100] Creating Layer crop_d3c-d3cc
I0428 15:09:13.535290  5145 net.cpp:434] crop_d3c-d3cc <- d3c_relu_d3c_0_split_1
I0428 15:09:13.535295  5145 net.cpp:434] crop_d3c-d3cc <- u3a_relu_u3a_0_split_0
I0428 15:09:13.535300  5145 net.cpp:408] crop_d3c-d3cc -> d3cc
I0428 15:09:13.535325  5145 net.cpp:150] Setting up crop_d3c-d3cc
I0428 15:09:13.535329  5145 net.cpp:157] Top shape: 1 512 38 38 (739328)
I0428 15:09:13.535343  5145 net.cpp:165] Memory required for data: 891324224
I0428 15:09:13.535346  5145 layer_factory.hpp:77] Creating layer concat_d3cc_u3a-b
I0428 15:09:13.535352  5145 net.cpp:100] Creating Layer concat_d3cc_u3a-b
I0428 15:09:13.535354  5145 net.cpp:434] concat_d3cc_u3a-b <- u3a_relu_u3a_0_split_1
I0428 15:09:13.535358  5145 net.cpp:434] concat_d3cc_u3a-b <- d3cc
I0428 15:09:13.535363  5145 net.cpp:408] concat_d3cc_u3a-b -> u3b
I0428 15:09:13.535389  5145 net.cpp:150] Setting up concat_d3cc_u3a-b
I0428 15:09:13.535394  5145 net.cpp:157] Top shape: 1 1024 38 38 (1478656)
I0428 15:09:13.535396  5145 net.cpp:165] Memory required for data: 897238848
I0428 15:09:13.535398  5145 layer_factory.hpp:77] Creating layer conv_u3b-c
I0428 15:09:13.535408  5145 net.cpp:100] Creating Layer conv_u3b-c
I0428 15:09:13.535409  5145 net.cpp:434] conv_u3b-c <- u3b
I0428 15:09:13.535415  5145 net.cpp:408] conv_u3b-c -> u3c
I0428 15:09:13.566300  5145 net.cpp:150] Setting up conv_u3b-c
I0428 15:09:13.566318  5145 net.cpp:157] Top shape: 1 512 36 36 (663552)
I0428 15:09:13.566336  5145 net.cpp:165] Memory required for data: 899893056
I0428 15:09:13.566344  5145 layer_factory.hpp:77] Creating layer bn_u3c
I0428 15:09:13.566350  5145 net.cpp:100] Creating Layer bn_u3c
I0428 15:09:13.566354  5145 net.cpp:434] bn_u3c <- u3c
I0428 15:09:13.566359  5145 net.cpp:395] bn_u3c -> u3c (in-place)
I0428 15:09:13.566586  5145 net.cpp:150] Setting up bn_u3c
I0428 15:09:13.566593  5145 net.cpp:157] Top shape: 1 512 36 36 (663552)
I0428 15:09:13.566597  5145 net.cpp:165] Memory required for data: 902547264
I0428 15:09:13.566604  5145 layer_factory.hpp:77] Creating layer sc_u3c
I0428 15:09:13.566611  5145 net.cpp:100] Creating Layer sc_u3c
I0428 15:09:13.566613  5145 net.cpp:434] sc_u3c <- u3c
I0428 15:09:13.566619  5145 net.cpp:395] sc_u3c -> u3c (in-place)
I0428 15:09:13.566658  5145 layer_factory.hpp:77] Creating layer sc_u3c
I0428 15:09:13.566783  5145 net.cpp:150] Setting up sc_u3c
I0428 15:09:13.566790  5145 net.cpp:157] Top shape: 1 512 36 36 (663552)
I0428 15:09:13.566793  5145 net.cpp:165] Memory required for data: 905201472
I0428 15:09:13.566798  5145 layer_factory.hpp:77] Creating layer relu_u3c
I0428 15:09:13.566803  5145 net.cpp:100] Creating Layer relu_u3c
I0428 15:09:13.566807  5145 net.cpp:434] relu_u3c <- u3c
I0428 15:09:13.566812  5145 net.cpp:395] relu_u3c -> u3c (in-place)
I0428 15:09:13.567658  5145 net.cpp:150] Setting up relu_u3c
I0428 15:09:13.567672  5145 net.cpp:157] Top shape: 1 512 36 36 (663552)
I0428 15:09:13.567674  5145 net.cpp:165] Memory required for data: 907855680
I0428 15:09:13.567678  5145 layer_factory.hpp:77] Creating layer conv_u3c-d
I0428 15:09:13.567688  5145 net.cpp:100] Creating Layer conv_u3c-d
I0428 15:09:13.567692  5145 net.cpp:434] conv_u3c-d <- u3c
I0428 15:09:13.567697  5145 net.cpp:408] conv_u3c-d -> u3d
I0428 15:09:13.584086  5145 net.cpp:150] Setting up conv_u3c-d
I0428 15:09:13.584123  5145 net.cpp:157] Top shape: 1 512 34 34 (591872)
I0428 15:09:13.584126  5145 net.cpp:165] Memory required for data: 910223168
I0428 15:09:13.584134  5145 layer_factory.hpp:77] Creating layer bn_u3d
I0428 15:09:13.584142  5145 net.cpp:100] Creating Layer bn_u3d
I0428 15:09:13.584146  5145 net.cpp:434] bn_u3d <- u3d
I0428 15:09:13.584153  5145 net.cpp:395] bn_u3d -> u3d (in-place)
I0428 15:09:13.584378  5145 net.cpp:150] Setting up bn_u3d
I0428 15:09:13.584386  5145 net.cpp:157] Top shape: 1 512 34 34 (591872)
I0428 15:09:13.584389  5145 net.cpp:165] Memory required for data: 912590656
I0428 15:09:13.584395  5145 layer_factory.hpp:77] Creating layer sc_u3d
I0428 15:09:13.584403  5145 net.cpp:100] Creating Layer sc_u3d
I0428 15:09:13.584405  5145 net.cpp:434] sc_u3d <- u3d
I0428 15:09:13.584411  5145 net.cpp:395] sc_u3d -> u3d (in-place)
I0428 15:09:13.584450  5145 layer_factory.hpp:77] Creating layer sc_u3d
I0428 15:09:13.584573  5145 net.cpp:150] Setting up sc_u3d
I0428 15:09:13.584580  5145 net.cpp:157] Top shape: 1 512 34 34 (591872)
I0428 15:09:13.584583  5145 net.cpp:165] Memory required for data: 914958144
I0428 15:09:13.584606  5145 layer_factory.hpp:77] Creating layer relu_u3d
I0428 15:09:13.584612  5145 net.cpp:100] Creating Layer relu_u3d
I0428 15:09:13.584615  5145 net.cpp:434] relu_u3d <- u3d
I0428 15:09:13.584620  5145 net.cpp:395] relu_u3d -> u3d (in-place)
I0428 15:09:13.584837  5145 net.cpp:150] Setting up relu_u3d
I0428 15:09:13.584847  5145 net.cpp:157] Top shape: 1 512 34 34 (591872)
I0428 15:09:13.584851  5145 net.cpp:165] Memory required for data: 917325632
I0428 15:09:13.584853  5145 layer_factory.hpp:77] Creating layer upconv_u3d_u2a
I0428 15:09:13.584870  5145 net.cpp:100] Creating Layer upconv_u3d_u2a
I0428 15:09:13.584873  5145 net.cpp:434] upconv_u3d_u2a <- u3d
I0428 15:09:13.584880  5145 net.cpp:408] upconv_u3d_u2a -> u2a
I0428 15:09:13.589058  5145 net.cpp:150] Setting up upconv_u3d_u2a
I0428 15:09:13.589073  5145 net.cpp:157] Top shape: 1 256 68 68 (1183744)
I0428 15:09:13.589076  5145 net.cpp:165] Memory required for data: 922060608
I0428 15:09:13.589083  5145 layer_factory.hpp:77] Creating layer bn_u2a
I0428 15:09:13.589089  5145 net.cpp:100] Creating Layer bn_u2a
I0428 15:09:13.589092  5145 net.cpp:434] bn_u2a <- u2a
I0428 15:09:13.589097  5145 net.cpp:395] bn_u2a -> u2a (in-place)
I0428 15:09:13.589318  5145 net.cpp:150] Setting up bn_u2a
I0428 15:09:13.589326  5145 net.cpp:157] Top shape: 1 256 68 68 (1183744)
I0428 15:09:13.589329  5145 net.cpp:165] Memory required for data: 926795584
I0428 15:09:13.589335  5145 layer_factory.hpp:77] Creating layer sc_u2a
I0428 15:09:13.589341  5145 net.cpp:100] Creating Layer sc_u2a
I0428 15:09:13.589344  5145 net.cpp:434] sc_u2a <- u2a
I0428 15:09:13.589349  5145 net.cpp:395] sc_u2a -> u2a (in-place)
I0428 15:09:13.589390  5145 layer_factory.hpp:77] Creating layer sc_u2a
I0428 15:09:13.589532  5145 net.cpp:150] Setting up sc_u2a
I0428 15:09:13.589540  5145 net.cpp:157] Top shape: 1 256 68 68 (1183744)
I0428 15:09:13.589542  5145 net.cpp:165] Memory required for data: 931530560
I0428 15:09:13.589547  5145 layer_factory.hpp:77] Creating layer relu_u2a
I0428 15:09:13.589552  5145 net.cpp:100] Creating Layer relu_u2a
I0428 15:09:13.589555  5145 net.cpp:434] relu_u2a <- u2a
I0428 15:09:13.589560  5145 net.cpp:395] relu_u2a -> u2a (in-place)
I0428 15:09:13.589757  5145 net.cpp:150] Setting up relu_u2a
I0428 15:09:13.589768  5145 net.cpp:157] Top shape: 1 256 68 68 (1183744)
I0428 15:09:13.589771  5145 net.cpp:165] Memory required for data: 936265536
I0428 15:09:13.589773  5145 layer_factory.hpp:77] Creating layer u2a_relu_u2a_0_split
I0428 15:09:13.589778  5145 net.cpp:100] Creating Layer u2a_relu_u2a_0_split
I0428 15:09:13.589781  5145 net.cpp:434] u2a_relu_u2a_0_split <- u2a
I0428 15:09:13.589787  5145 net.cpp:408] u2a_relu_u2a_0_split -> u2a_relu_u2a_0_split_0
I0428 15:09:13.589793  5145 net.cpp:408] u2a_relu_u2a_0_split -> u2a_relu_u2a_0_split_1
I0428 15:09:13.589838  5145 net.cpp:150] Setting up u2a_relu_u2a_0_split
I0428 15:09:13.589846  5145 net.cpp:157] Top shape: 1 256 68 68 (1183744)
I0428 15:09:13.589849  5145 net.cpp:157] Top shape: 1 256 68 68 (1183744)
I0428 15:09:13.589851  5145 net.cpp:165] Memory required for data: 945735488
I0428 15:09:13.589854  5145 layer_factory.hpp:77] Creating layer crop_d2c-d2cc
I0428 15:09:13.589860  5145 net.cpp:100] Creating Layer crop_d2c-d2cc
I0428 15:09:13.589864  5145 net.cpp:434] crop_d2c-d2cc <- d2c_relu_d2c_0_split_1
I0428 15:09:13.589867  5145 net.cpp:434] crop_d2c-d2cc <- u2a_relu_u2a_0_split_0
I0428 15:09:13.589872  5145 net.cpp:408] crop_d2c-d2cc -> d2cc
I0428 15:09:13.589897  5145 net.cpp:150] Setting up crop_d2c-d2cc
I0428 15:09:13.589901  5145 net.cpp:157] Top shape: 1 256 68 68 (1183744)
I0428 15:09:13.589903  5145 net.cpp:165] Memory required for data: 950470464
I0428 15:09:13.589906  5145 layer_factory.hpp:77] Creating layer concat_d2cc_u2a-b
I0428 15:09:13.589911  5145 net.cpp:100] Creating Layer concat_d2cc_u2a-b
I0428 15:09:13.589913  5145 net.cpp:434] concat_d2cc_u2a-b <- u2a_relu_u2a_0_split_1
I0428 15:09:13.589917  5145 net.cpp:434] concat_d2cc_u2a-b <- d2cc
I0428 15:09:13.589934  5145 net.cpp:408] concat_d2cc_u2a-b -> u2b
I0428 15:09:13.589962  5145 net.cpp:150] Setting up concat_d2cc_u2a-b
I0428 15:09:13.589965  5145 net.cpp:157] Top shape: 1 512 68 68 (2367488)
I0428 15:09:13.589968  5145 net.cpp:165] Memory required for data: 959940416
I0428 15:09:13.589970  5145 layer_factory.hpp:77] Creating layer conv_u2b-c
I0428 15:09:13.589979  5145 net.cpp:100] Creating Layer conv_u2b-c
I0428 15:09:13.589982  5145 net.cpp:434] conv_u2b-c <- u2b
I0428 15:09:13.589988  5145 net.cpp:408] conv_u2b-c -> u2c
I0428 15:09:13.598250  5145 net.cpp:150] Setting up conv_u2b-c
I0428 15:09:13.598263  5145 net.cpp:157] Top shape: 1 256 66 66 (1115136)
I0428 15:09:13.598266  5145 net.cpp:165] Memory required for data: 964400960
I0428 15:09:13.598273  5145 layer_factory.hpp:77] Creating layer bn_u2c
I0428 15:09:13.598278  5145 net.cpp:100] Creating Layer bn_u2c
I0428 15:09:13.598281  5145 net.cpp:434] bn_u2c <- u2c
I0428 15:09:13.598286  5145 net.cpp:395] bn_u2c -> u2c (in-place)
I0428 15:09:13.598520  5145 net.cpp:150] Setting up bn_u2c
I0428 15:09:13.598527  5145 net.cpp:157] Top shape: 1 256 66 66 (1115136)
I0428 15:09:13.598531  5145 net.cpp:165] Memory required for data: 968861504
I0428 15:09:13.598536  5145 layer_factory.hpp:77] Creating layer sc_u2c
I0428 15:09:13.598542  5145 net.cpp:100] Creating Layer sc_u2c
I0428 15:09:13.598546  5145 net.cpp:434] sc_u2c <- u2c
I0428 15:09:13.598551  5145 net.cpp:395] sc_u2c -> u2c (in-place)
I0428 15:09:13.598589  5145 layer_factory.hpp:77] Creating layer sc_u2c
I0428 15:09:13.598713  5145 net.cpp:150] Setting up sc_u2c
I0428 15:09:13.598719  5145 net.cpp:157] Top shape: 1 256 66 66 (1115136)
I0428 15:09:13.598723  5145 net.cpp:165] Memory required for data: 973322048
I0428 15:09:13.598728  5145 layer_factory.hpp:77] Creating layer relu_u2c
I0428 15:09:13.598733  5145 net.cpp:100] Creating Layer relu_u2c
I0428 15:09:13.598736  5145 net.cpp:434] relu_u2c <- u2c
I0428 15:09:13.598740  5145 net.cpp:395] relu_u2c -> u2c (in-place)
I0428 15:09:13.599617  5145 net.cpp:150] Setting up relu_u2c
I0428 15:09:13.599630  5145 net.cpp:157] Top shape: 1 256 66 66 (1115136)
I0428 15:09:13.599632  5145 net.cpp:165] Memory required for data: 977782592
I0428 15:09:13.599651  5145 layer_factory.hpp:77] Creating layer conv_u2c-d
I0428 15:09:13.599660  5145 net.cpp:100] Creating Layer conv_u2c-d
I0428 15:09:13.599668  5145 net.cpp:434] conv_u2c-d <- u2c
I0428 15:09:13.599673  5145 net.cpp:408] conv_u2c-d -> u2d
I0428 15:09:13.604208  5145 net.cpp:150] Setting up conv_u2c-d
I0428 15:09:13.604223  5145 net.cpp:157] Top shape: 1 256 64 64 (1048576)
I0428 15:09:13.604224  5145 net.cpp:165] Memory required for data: 981976896
I0428 15:09:13.604230  5145 layer_factory.hpp:77] Creating layer bn_u2d
I0428 15:09:13.604236  5145 net.cpp:100] Creating Layer bn_u2d
I0428 15:09:13.604239  5145 net.cpp:434] bn_u2d <- u2d
I0428 15:09:13.604243  5145 net.cpp:395] bn_u2d -> u2d (in-place)
I0428 15:09:13.604472  5145 net.cpp:150] Setting up bn_u2d
I0428 15:09:13.604480  5145 net.cpp:157] Top shape: 1 256 64 64 (1048576)
I0428 15:09:13.604482  5145 net.cpp:165] Memory required for data: 986171200
I0428 15:09:13.604490  5145 layer_factory.hpp:77] Creating layer sc_u2d
I0428 15:09:13.604496  5145 net.cpp:100] Creating Layer sc_u2d
I0428 15:09:13.604498  5145 net.cpp:434] sc_u2d <- u2d
I0428 15:09:13.604503  5145 net.cpp:395] sc_u2d -> u2d (in-place)
I0428 15:09:13.604542  5145 layer_factory.hpp:77] Creating layer sc_u2d
I0428 15:09:13.604656  5145 net.cpp:150] Setting up sc_u2d
I0428 15:09:13.604665  5145 net.cpp:157] Top shape: 1 256 64 64 (1048576)
I0428 15:09:13.604666  5145 net.cpp:165] Memory required for data: 990365504
I0428 15:09:13.604672  5145 layer_factory.hpp:77] Creating layer relu_u2d
I0428 15:09:13.604676  5145 net.cpp:100] Creating Layer relu_u2d
I0428 15:09:13.604679  5145 net.cpp:434] relu_u2d <- u2d
I0428 15:09:13.604684  5145 net.cpp:395] relu_u2d -> u2d (in-place)
I0428 15:09:13.604868  5145 net.cpp:150] Setting up relu_u2d
I0428 15:09:13.604877  5145 net.cpp:157] Top shape: 1 256 64 64 (1048576)
I0428 15:09:13.604894  5145 net.cpp:165] Memory required for data: 994559808
I0428 15:09:13.604897  5145 layer_factory.hpp:77] Creating layer upconv_u2d_u1a
I0428 15:09:13.604904  5145 net.cpp:100] Creating Layer upconv_u2d_u1a
I0428 15:09:13.604907  5145 net.cpp:434] upconv_u2d_u1a <- u2d
I0428 15:09:13.604913  5145 net.cpp:408] upconv_u2d_u1a -> u1a
I0428 15:09:13.605986  5145 net.cpp:150] Setting up upconv_u2d_u1a
I0428 15:09:13.605995  5145 net.cpp:157] Top shape: 1 128 128 128 (2097152)
I0428 15:09:13.605998  5145 net.cpp:165] Memory required for data: 1002948416
I0428 15:09:13.606003  5145 layer_factory.hpp:77] Creating layer bn_u1a
I0428 15:09:13.606009  5145 net.cpp:100] Creating Layer bn_u1a
I0428 15:09:13.606010  5145 net.cpp:434] bn_u1a <- u1a
I0428 15:09:13.606015  5145 net.cpp:395] bn_u1a -> u1a (in-place)
I0428 15:09:13.606226  5145 net.cpp:150] Setting up bn_u1a
I0428 15:09:13.606233  5145 net.cpp:157] Top shape: 1 128 128 128 (2097152)
I0428 15:09:13.606236  5145 net.cpp:165] Memory required for data: 1011337024
I0428 15:09:13.606242  5145 layer_factory.hpp:77] Creating layer sc_u1a
I0428 15:09:13.606248  5145 net.cpp:100] Creating Layer sc_u1a
I0428 15:09:13.606251  5145 net.cpp:434] sc_u1a <- u1a
I0428 15:09:13.606256  5145 net.cpp:395] sc_u1a -> u1a (in-place)
I0428 15:09:13.606294  5145 layer_factory.hpp:77] Creating layer sc_u1a
I0428 15:09:13.606433  5145 net.cpp:150] Setting up sc_u1a
I0428 15:09:13.606441  5145 net.cpp:157] Top shape: 1 128 128 128 (2097152)
I0428 15:09:13.606443  5145 net.cpp:165] Memory required for data: 1019725632
I0428 15:09:13.606448  5145 layer_factory.hpp:77] Creating layer relu_u1a
I0428 15:09:13.606453  5145 net.cpp:100] Creating Layer relu_u1a
I0428 15:09:13.606456  5145 net.cpp:434] relu_u1a <- u1a
I0428 15:09:13.606461  5145 net.cpp:395] relu_u1a -> u1a (in-place)
I0428 15:09:13.606642  5145 net.cpp:150] Setting up relu_u1a
I0428 15:09:13.606652  5145 net.cpp:157] Top shape: 1 128 128 128 (2097152)
I0428 15:09:13.606655  5145 net.cpp:165] Memory required for data: 1028114240
I0428 15:09:13.606657  5145 layer_factory.hpp:77] Creating layer u1a_relu_u1a_0_split
I0428 15:09:13.606663  5145 net.cpp:100] Creating Layer u1a_relu_u1a_0_split
I0428 15:09:13.606667  5145 net.cpp:434] u1a_relu_u1a_0_split <- u1a
I0428 15:09:13.606673  5145 net.cpp:408] u1a_relu_u1a_0_split -> u1a_relu_u1a_0_split_0
I0428 15:09:13.606679  5145 net.cpp:408] u1a_relu_u1a_0_split -> u1a_relu_u1a_0_split_1
I0428 15:09:13.606724  5145 net.cpp:150] Setting up u1a_relu_u1a_0_split
I0428 15:09:13.606731  5145 net.cpp:157] Top shape: 1 128 128 128 (2097152)
I0428 15:09:13.606734  5145 net.cpp:157] Top shape: 1 128 128 128 (2097152)
I0428 15:09:13.606736  5145 net.cpp:165] Memory required for data: 1044891456
I0428 15:09:13.606739  5145 layer_factory.hpp:77] Creating layer crop_d1c-d1cc
I0428 15:09:13.606745  5145 net.cpp:100] Creating Layer crop_d1c-d1cc
I0428 15:09:13.606748  5145 net.cpp:434] crop_d1c-d1cc <- d1c_relu_d1c_0_split_1
I0428 15:09:13.606752  5145 net.cpp:434] crop_d1c-d1cc <- u1a_relu_u1a_0_split_0
I0428 15:09:13.606757  5145 net.cpp:408] crop_d1c-d1cc -> d1cc
I0428 15:09:13.606782  5145 net.cpp:150] Setting up crop_d1c-d1cc
I0428 15:09:13.606786  5145 net.cpp:157] Top shape: 1 128 128 128 (2097152)
I0428 15:09:13.606789  5145 net.cpp:165] Memory required for data: 1053280064
I0428 15:09:13.606791  5145 layer_factory.hpp:77] Creating layer concat_d1cc_u1a-b
I0428 15:09:13.606796  5145 net.cpp:100] Creating Layer concat_d1cc_u1a-b
I0428 15:09:13.606799  5145 net.cpp:434] concat_d1cc_u1a-b <- u1a_relu_u1a_0_split_1
I0428 15:09:13.606802  5145 net.cpp:434] concat_d1cc_u1a-b <- d1cc
I0428 15:09:13.606807  5145 net.cpp:408] concat_d1cc_u1a-b -> u1b
I0428 15:09:13.606830  5145 net.cpp:150] Setting up concat_d1cc_u1a-b
I0428 15:09:13.606834  5145 net.cpp:157] Top shape: 1 256 128 128 (4194304)
I0428 15:09:13.606837  5145 net.cpp:165] Memory required for data: 1070057280
I0428 15:09:13.606838  5145 layer_factory.hpp:77] Creating layer conv_u1b-c
I0428 15:09:13.606848  5145 net.cpp:100] Creating Layer conv_u1b-c
I0428 15:09:13.606860  5145 net.cpp:434] conv_u1b-c <- u1b
I0428 15:09:13.606866  5145 net.cpp:408] conv_u1b-c -> u1c
I0428 15:09:13.609771  5145 net.cpp:150] Setting up conv_u1b-c
I0428 15:09:13.609786  5145 net.cpp:157] Top shape: 1 128 126 126 (2032128)
I0428 15:09:13.609787  5145 net.cpp:165] Memory required for data: 1078185792
I0428 15:09:13.609793  5145 layer_factory.hpp:77] Creating layer bn_u1c
I0428 15:09:13.609799  5145 net.cpp:100] Creating Layer bn_u1c
I0428 15:09:13.609803  5145 net.cpp:434] bn_u1c <- u1c
I0428 15:09:13.609808  5145 net.cpp:395] bn_u1c -> u1c (in-place)
I0428 15:09:13.611327  5145 net.cpp:150] Setting up bn_u1c
I0428 15:09:13.611343  5145 net.cpp:157] Top shape: 1 128 126 126 (2032128)
I0428 15:09:13.611346  5145 net.cpp:165] Memory required for data: 1086314304
I0428 15:09:13.611356  5145 layer_factory.hpp:77] Creating layer sc_u1c
I0428 15:09:13.611362  5145 net.cpp:100] Creating Layer sc_u1c
I0428 15:09:13.611366  5145 net.cpp:434] sc_u1c <- u1c
I0428 15:09:13.611372  5145 net.cpp:395] sc_u1c -> u1c (in-place)
I0428 15:09:13.611418  5145 layer_factory.hpp:77] Creating layer sc_u1c
I0428 15:09:13.611554  5145 net.cpp:150] Setting up sc_u1c
I0428 15:09:13.611562  5145 net.cpp:157] Top shape: 1 128 126 126 (2032128)
I0428 15:09:13.611565  5145 net.cpp:165] Memory required for data: 1094442816
I0428 15:09:13.611572  5145 layer_factory.hpp:77] Creating layer relu_u1c
I0428 15:09:13.611575  5145 net.cpp:100] Creating Layer relu_u1c
I0428 15:09:13.611578  5145 net.cpp:434] relu_u1c <- u1c
I0428 15:09:13.611583  5145 net.cpp:395] relu_u1c -> u1c (in-place)
I0428 15:09:13.611780  5145 net.cpp:150] Setting up relu_u1c
I0428 15:09:13.611789  5145 net.cpp:157] Top shape: 1 128 126 126 (2032128)
I0428 15:09:13.611793  5145 net.cpp:165] Memory required for data: 1102571328
I0428 15:09:13.611795  5145 layer_factory.hpp:77] Creating layer conv_u1c-d
I0428 15:09:13.611804  5145 net.cpp:100] Creating Layer conv_u1c-d
I0428 15:09:13.611806  5145 net.cpp:434] conv_u1c-d <- u1c
I0428 15:09:13.611812  5145 net.cpp:408] conv_u1c-d -> u1d
I0428 15:09:13.612920  5145 net.cpp:150] Setting up conv_u1c-d
I0428 15:09:13.612928  5145 net.cpp:157] Top shape: 1 128 124 124 (1968128)
I0428 15:09:13.612931  5145 net.cpp:165] Memory required for data: 1110443840
I0428 15:09:13.612936  5145 layer_factory.hpp:77] Creating layer bn_u1d
I0428 15:09:13.612942  5145 net.cpp:100] Creating Layer bn_u1d
I0428 15:09:13.612946  5145 net.cpp:434] bn_u1d <- u1d
I0428 15:09:13.612949  5145 net.cpp:395] bn_u1d -> u1d (in-place)
I0428 15:09:13.613163  5145 net.cpp:150] Setting up bn_u1d
I0428 15:09:13.613171  5145 net.cpp:157] Top shape: 1 128 124 124 (1968128)
I0428 15:09:13.613174  5145 net.cpp:165] Memory required for data: 1118316352
I0428 15:09:13.613193  5145 layer_factory.hpp:77] Creating layer sc_u1d
I0428 15:09:13.613200  5145 net.cpp:100] Creating Layer sc_u1d
I0428 15:09:13.613204  5145 net.cpp:434] sc_u1d <- u1d
I0428 15:09:13.613209  5145 net.cpp:395] sc_u1d -> u1d (in-place)
I0428 15:09:13.613250  5145 layer_factory.hpp:77] Creating layer sc_u1d
I0428 15:09:13.613385  5145 net.cpp:150] Setting up sc_u1d
I0428 15:09:13.613394  5145 net.cpp:157] Top shape: 1 128 124 124 (1968128)
I0428 15:09:13.613395  5145 net.cpp:165] Memory required for data: 1126188864
I0428 15:09:13.613401  5145 layer_factory.hpp:77] Creating layer relu_u1d
I0428 15:09:13.613405  5145 net.cpp:100] Creating Layer relu_u1d
I0428 15:09:13.613409  5145 net.cpp:434] relu_u1d <- u1d
I0428 15:09:13.613412  5145 net.cpp:395] relu_u1d -> u1d (in-place)
I0428 15:09:13.614248  5145 net.cpp:150] Setting up relu_u1d
I0428 15:09:13.614262  5145 net.cpp:157] Top shape: 1 128 124 124 (1968128)
I0428 15:09:13.614265  5145 net.cpp:165] Memory required for data: 1134061376
I0428 15:09:13.614269  5145 layer_factory.hpp:77] Creating layer upconv_u1d_u0a
I0428 15:09:13.614276  5145 net.cpp:100] Creating Layer upconv_u1d_u0a
I0428 15:09:13.614279  5145 net.cpp:434] upconv_u1d_u0a <- u1d
I0428 15:09:13.614286  5145 net.cpp:408] upconv_u1d_u0a -> u0a
I0428 15:09:13.614998  5145 net.cpp:150] Setting up upconv_u1d_u0a
I0428 15:09:13.615008  5145 net.cpp:157] Top shape: 1 128 248 248 (7872512)
I0428 15:09:13.615010  5145 net.cpp:165] Memory required for data: 1165551424
I0428 15:09:13.615017  5145 layer_factory.hpp:77] Creating layer bn_u0a
I0428 15:09:13.615022  5145 net.cpp:100] Creating Layer bn_u0a
I0428 15:09:13.615025  5145 net.cpp:434] bn_u0a <- u0a
I0428 15:09:13.615030  5145 net.cpp:395] bn_u0a -> u0a (in-place)
I0428 15:09:13.615289  5145 net.cpp:150] Setting up bn_u0a
I0428 15:09:13.615298  5145 net.cpp:157] Top shape: 1 128 248 248 (7872512)
I0428 15:09:13.615299  5145 net.cpp:165] Memory required for data: 1197041472
I0428 15:09:13.615306  5145 layer_factory.hpp:77] Creating layer sc_u0a
I0428 15:09:13.615312  5145 net.cpp:100] Creating Layer sc_u0a
I0428 15:09:13.615315  5145 net.cpp:434] sc_u0a <- u0a
I0428 15:09:13.615319  5145 net.cpp:395] sc_u0a -> u0a (in-place)
I0428 15:09:13.615358  5145 layer_factory.hpp:77] Creating layer sc_u0a
I0428 15:09:13.615577  5145 net.cpp:150] Setting up sc_u0a
I0428 15:09:13.615586  5145 net.cpp:157] Top shape: 1 128 248 248 (7872512)
I0428 15:09:13.615588  5145 net.cpp:165] Memory required for data: 1228531520
I0428 15:09:13.615593  5145 layer_factory.hpp:77] Creating layer relu_u0a
I0428 15:09:13.615599  5145 net.cpp:100] Creating Layer relu_u0a
I0428 15:09:13.615602  5145 net.cpp:434] relu_u0a <- u0a
I0428 15:09:13.615607  5145 net.cpp:395] relu_u0a -> u0a (in-place)
I0428 15:09:13.615787  5145 net.cpp:150] Setting up relu_u0a
I0428 15:09:13.615797  5145 net.cpp:157] Top shape: 1 128 248 248 (7872512)
I0428 15:09:13.615799  5145 net.cpp:165] Memory required for data: 1260021568
I0428 15:09:13.615802  5145 layer_factory.hpp:77] Creating layer u0a_relu_u0a_0_split
I0428 15:09:13.615806  5145 net.cpp:100] Creating Layer u0a_relu_u0a_0_split
I0428 15:09:13.615810  5145 net.cpp:434] u0a_relu_u0a_0_split <- u0a
I0428 15:09:13.615815  5145 net.cpp:408] u0a_relu_u0a_0_split -> u0a_relu_u0a_0_split_0
I0428 15:09:13.615821  5145 net.cpp:408] u0a_relu_u0a_0_split -> u0a_relu_u0a_0_split_1
I0428 15:09:13.615865  5145 net.cpp:150] Setting up u0a_relu_u0a_0_split
I0428 15:09:13.615875  5145 net.cpp:157] Top shape: 1 128 248 248 (7872512)
I0428 15:09:13.615878  5145 net.cpp:157] Top shape: 1 128 248 248 (7872512)
I0428 15:09:13.615880  5145 net.cpp:165] Memory required for data: 1323001664
I0428 15:09:13.615882  5145 layer_factory.hpp:77] Creating layer crop_d0c-d0cc
I0428 15:09:13.615888  5145 net.cpp:100] Creating Layer crop_d0c-d0cc
I0428 15:09:13.615891  5145 net.cpp:434] crop_d0c-d0cc <- d0c_relu_d0c_0_split_1
I0428 15:09:13.615895  5145 net.cpp:434] crop_d0c-d0cc <- u0a_relu_u0a_0_split_0
I0428 15:09:13.615900  5145 net.cpp:408] crop_d0c-d0cc -> d0cc
I0428 15:09:13.615926  5145 net.cpp:150] Setting up crop_d0c-d0cc
I0428 15:09:13.615932  5145 net.cpp:157] Top shape: 1 64 248 248 (3936256)
I0428 15:09:13.615934  5145 net.cpp:165] Memory required for data: 1338746688
I0428 15:09:13.615936  5145 layer_factory.hpp:77] Creating layer concat_d0cc_u0a-b
I0428 15:09:13.615942  5145 net.cpp:100] Creating Layer concat_d0cc_u0a-b
I0428 15:09:13.615944  5145 net.cpp:434] concat_d0cc_u0a-b <- u0a_relu_u0a_0_split_1
I0428 15:09:13.615948  5145 net.cpp:434] concat_d0cc_u0a-b <- d0cc
I0428 15:09:13.615953  5145 net.cpp:408] concat_d0cc_u0a-b -> u0b
I0428 15:09:13.615978  5145 net.cpp:150] Setting up concat_d0cc_u0a-b
I0428 15:09:13.615983  5145 net.cpp:157] Top shape: 1 192 248 248 (11808768)
I0428 15:09:13.615986  5145 net.cpp:165] Memory required for data: 1385981760
I0428 15:09:13.615988  5145 layer_factory.hpp:77] Creating layer conv_u0b-c
I0428 15:09:13.615996  5145 net.cpp:100] Creating Layer conv_u0b-c
I0428 15:09:13.615999  5145 net.cpp:434] conv_u0b-c <- u0b
I0428 15:09:13.616004  5145 net.cpp:408] conv_u0b-c -> u0c
I0428 15:09:13.616967  5145 net.cpp:150] Setting up conv_u0b-c
I0428 15:09:13.616976  5145 net.cpp:157] Top shape: 1 64 246 246 (3873024)
I0428 15:09:13.616978  5145 net.cpp:165] Memory required for data: 1401473856
I0428 15:09:13.616994  5145 layer_factory.hpp:77] Creating layer bn_u0c
I0428 15:09:13.616999  5145 net.cpp:100] Creating Layer bn_u0c
I0428 15:09:13.617003  5145 net.cpp:434] bn_u0c <- u0c
I0428 15:09:13.617008  5145 net.cpp:395] bn_u0c -> u0c (in-place)
I0428 15:09:13.618252  5145 net.cpp:150] Setting up bn_u0c
I0428 15:09:13.618266  5145 net.cpp:157] Top shape: 1 64 246 246 (3873024)
I0428 15:09:13.618269  5145 net.cpp:165] Memory required for data: 1416965952
I0428 15:09:13.618278  5145 layer_factory.hpp:77] Creating layer sc_u0c
I0428 15:09:13.618284  5145 net.cpp:100] Creating Layer sc_u0c
I0428 15:09:13.618288  5145 net.cpp:434] sc_u0c <- u0c
I0428 15:09:13.618294  5145 net.cpp:395] sc_u0c -> u0c (in-place)
I0428 15:09:13.618338  5145 layer_factory.hpp:77] Creating layer sc_u0c
I0428 15:09:13.618547  5145 net.cpp:150] Setting up sc_u0c
I0428 15:09:13.618556  5145 net.cpp:157] Top shape: 1 64 246 246 (3873024)
I0428 15:09:13.618559  5145 net.cpp:165] Memory required for data: 1432458048
I0428 15:09:13.618564  5145 layer_factory.hpp:77] Creating layer relu_u0c
I0428 15:09:13.618569  5145 net.cpp:100] Creating Layer relu_u0c
I0428 15:09:13.618572  5145 net.cpp:434] relu_u0c <- u0c
I0428 15:09:13.618577  5145 net.cpp:395] relu_u0c -> u0c (in-place)
I0428 15:09:13.618767  5145 net.cpp:150] Setting up relu_u0c
I0428 15:09:13.618777  5145 net.cpp:157] Top shape: 1 64 246 246 (3873024)
I0428 15:09:13.618779  5145 net.cpp:165] Memory required for data: 1447950144
I0428 15:09:13.618783  5145 layer_factory.hpp:77] Creating layer conv_u0c-d
I0428 15:09:13.618790  5145 net.cpp:100] Creating Layer conv_u0c-d
I0428 15:09:13.618794  5145 net.cpp:434] conv_u0c-d <- u0c
I0428 15:09:13.618799  5145 net.cpp:408] conv_u0c-d -> u0d
I0428 15:09:13.619326  5145 net.cpp:150] Setting up conv_u0c-d
I0428 15:09:13.619334  5145 net.cpp:157] Top shape: 1 64 244 244 (3810304)
I0428 15:09:13.619338  5145 net.cpp:165] Memory required for data: 1463191360
I0428 15:09:13.619354  5145 layer_factory.hpp:77] Creating layer bn_u0d
I0428 15:09:13.619359  5145 net.cpp:100] Creating Layer bn_u0d
I0428 15:09:13.619362  5145 net.cpp:434] bn_u0d <- u0d
I0428 15:09:13.619366  5145 net.cpp:395] bn_u0d -> u0d (in-place)
I0428 15:09:13.619618  5145 net.cpp:150] Setting up bn_u0d
I0428 15:09:13.619626  5145 net.cpp:157] Top shape: 1 64 244 244 (3810304)
I0428 15:09:13.619628  5145 net.cpp:165] Memory required for data: 1478432576
I0428 15:09:13.619634  5145 layer_factory.hpp:77] Creating layer sc_u0d
I0428 15:09:13.619640  5145 net.cpp:100] Creating Layer sc_u0d
I0428 15:09:13.619643  5145 net.cpp:434] sc_u0d <- u0d
I0428 15:09:13.619647  5145 net.cpp:395] sc_u0d -> u0d (in-place)
I0428 15:09:13.619686  5145 layer_factory.hpp:77] Creating layer sc_u0d
I0428 15:09:13.619889  5145 net.cpp:150] Setting up sc_u0d
I0428 15:09:13.619897  5145 net.cpp:157] Top shape: 1 64 244 244 (3810304)
I0428 15:09:13.619900  5145 net.cpp:165] Memory required for data: 1493673792
I0428 15:09:13.619905  5145 layer_factory.hpp:77] Creating layer relu_u0d
I0428 15:09:13.619910  5145 net.cpp:100] Creating Layer relu_u0d
I0428 15:09:13.619913  5145 net.cpp:434] relu_u0d <- u0d
I0428 15:09:13.619916  5145 net.cpp:395] relu_u0d -> u0d (in-place)
I0428 15:09:13.620100  5145 net.cpp:150] Setting up relu_u0d
I0428 15:09:13.620108  5145 net.cpp:157] Top shape: 1 64 244 244 (3810304)
I0428 15:09:13.620112  5145 net.cpp:165] Memory required for data: 1508915008
I0428 15:09:13.620115  5145 layer_factory.hpp:77] Creating layer conv_u0d-score
I0428 15:09:13.620121  5145 net.cpp:100] Creating Layer conv_u0d-score
I0428 15:09:13.620124  5145 net.cpp:434] conv_u0d-score <- u0d
I0428 15:09:13.620129  5145 net.cpp:408] conv_u0d-score -> score
I0428 15:09:13.620429  5145 net.cpp:150] Setting up conv_u0d-score
I0428 15:09:13.620436  5145 net.cpp:157] Top shape: 1 4 244 244 (238144)
I0428 15:09:13.620438  5145 net.cpp:165] Memory required for data: 1509867584
I0428 15:09:13.620445  5145 layer_factory.hpp:77] Creating layer loss
I0428 15:09:13.620450  5145 net.cpp:100] Creating Layer loss
I0428 15:09:13.620465  5145 net.cpp:434] loss <- score
I0428 15:09:13.620468  5145 net.cpp:434] loss <- label
I0428 15:09:13.620472  5145 net.cpp:434] loss <- weights
I0428 15:09:13.620477  5145 net.cpp:408] loss -> loss
…
