…
iter_size: 1
I0411 11:12:15.478565 21254 solver.cpp:91] Creating training net from net file: unet_f1.prototxt
I0411 11:12:15.479086 21254 net.cpp:322] The NetState phase (0) differed from the phase (1) specified by a rule in layer loaddata
I0411 11:12:15.479468 21254 net.cpp:58] Initializing net from parameters: 
name: "unet"
force_backward: true
state {
  phase: TRAIN
}
layer {
  name: "loaddata"
  type: "HDF5Data"
  top: "data"
  top: "label"
  include {
    phase: TRAIN
  }
  hdf5_data_param {
    source: "../caffeHDF5.txt"
    batch_size: 5
  }
}
layer {
  name: "conv_d0a-b"
  type: "Convolution"
  bottom: "data"
  top: "d0b"
  param {
    lr_mult: 1
    decay_mult: 1
  }
  param {
    lr_mult: 2
    decay_mult: 0
  }
  convolution_param {
    num_output: 64
    pad: 0
    kernel_size: 3
    weight_filler {
      type: "xavier"
    }
    engine: CAFFE
  }
}
layer {
  name: "relu_d0b"
  type: "ReLU"
  bottom: "d0b"
  top: "d0b"
}
layer {
  name: "conv_d0b-c"
  type: "Convolution"
  bottom: "d0b"
  top: "d0c"
  param {
    lr_mult: 1
    decay_mult: 1
  }
  param {
    lr_mult: 2
    decay_mult: 0
  }
  convolution_param {
    num_output: 64
    pad: 0
    kernel_size: 3
    weight_filler {
      type: "xavier"
    }
    engine: CAFFE
  }
}
layer {
  name: "relu_d0c"
  type: "ReLU"
  bottom: "d0c"
  top: "d0c"
}
layer {
  name: "pool_d0c-1a"
  type: "Pooling"
  bottom: "d0c"
  top: "d1a"
  pooling_param {
    pool: MAX
    kernel_size: 2
    stride: 2
  }
}
layer {
  name: "conv_d1a-b"
  type: "Convolution"
  bottom: "d1a"
  top: "d1b"
  param {
    lr_mult: 1
    decay_mult: 1
  }
  param {
    lr_mult: 2
    decay_mult: 0
  }
  convolution_param {
    num_output: 128
    pad: 0
    kernel_size: 3
    weight_filler {
      type: "xavier"
    }
    engine: CAFFE
  }
}
layer {
  name: "relu_d1b"
  type: "ReLU"
  bottom: "d1b"
  top: "d1b"
}
layer {
  name: "conv_d1b-c"
  type: "Convolution"
  bottom: "d1b"
  top: "d1c"
  param {
    lr_mult: 1
    decay_mult: 1
  }
  param {
    lr_mult: 2
    decay_mult: 0
  }
  convolution_param {
    num_output: 128
    pad: 0
    kernel_size: 3
    weight_filler {
      type: "xavier"
    }
    engine: CAFFE
  }
}
layer {
  name: "relu_d1c"
  type: "ReLU"
  bottom: "d1c"
  top: "d1c"
}
layer {
  name: "pool_d1c-2a"
  type: "Pooling"
  bottom: "d1c"
  top: "d2a"
  pooling_param {
    pool: MAX
    kernel_size: 2
    stride: 2
  }
}
layer {
  name: "conv_d2a-b"
  type: "Convolution"
  bottom: "d2a"
  top: "d2b"
  param {
    lr_mult: 1
    decay_mult: 1
  }
  param {
    lr_mult: 2
    decay_mult: 0
  }
  convolution_param {
    num_output: 256
    pad: 0
    kernel_size: 3
    weight_filler {
      type: "xavier"
    }
    engine: CAFFE
  }
}
layer {
  name: "relu_d2b"
  type: "ReLU"
  bottom: "d2b"
  top: "d2b"
}
layer {
  name: "conv_d2b-c"
  type: "Convolution"
  bottom: "d2b"
  top: "d2c"
  param {
    lr_mult: 1
    decay_mult: 1
  }
  param {
    lr_mult: 2
    decay_mult: 0
  }
  convolution_param {
    num_output: 256
    pad: 0
    kernel_size: 3
    weight_filler {
      type: "xavier"
    }
    engine: CAFFE
  }
}
layer {
  name: "relu_d2c"
  type: "ReLU"
  bottom: "d2c"
  top: "d2c"
}
layer {
  name: "pool_d2c-3a"
  type: "Pooling"
  bottom: "d2c"
  top: "d3a"
  pooling_param {
    pool: MAX
    kernel_size: 2
    stride: 2
  }
}
layer {
  name: "conv_d3a-b"
  type: "Convolution"
  bottom: "d3a"
  top: "d3b"
  param {
    lr_mult: 1
    decay_mult: 1
  }
  param {
    lr_mult: 2
    decay_mult: 0
  }
  convolution_param {
    num_output: 512
    pad: 0
    kernel_size: 3
    weight_filler {
      type: "xavier"
    }
    engine: CAFFE
  }
}
layer {
  name: "relu_d3b"
  type: "ReLU"
  bottom: "d3b"
  top: "d3b"
}
layer {
  name: "conv_d3b-c"
  type: "Convolution"
  bottom: "d3b"
  top: "d3c"
  param {
    lr_mult: 1
    decay_mult: 1
  }
  param {
    lr_mult: 2
    decay_mult: 0
  }
  convolution_param {
    num_output: 512
    pad: 0
    kernel_size: 3
    weight_filler {
      type: "xavier"
    }
    engine: CAFFE
  }
}
layer {
  name: "relu_d3c"
  type: "ReLU"
  bottom: "d3c"
  top: "d3c"
}
layer {
  name: "dropout_d3c"
  type: "Dropout"
  bottom: "d3c"
  top: "d3c"
  include {
    phase: TRAIN
  }
  dropout_param {
    dropout_ratio: 0.5
  }
}
layer {
  name: "pool_d3c-4a"
  type: "Pooling"
  bottom: "d3c"
  top: "d4a"
  pooling_param {
    pool: MAX
    kernel_size: 2
    stride: 2
  }
}
layer {
  name: "conv_d4a-b"
  type: "Convolution"
  bottom: "d4a"
  top: "d4b"
  param {
    lr_mult: 1
    decay_mult: 1
  }
  param {
    lr_mult: 2
    decay_mult: 0
  }
  convolution_param {
    num_output: 1024
    pad: 0
    kernel_size: 3
    weight_filler {
      type: "xavier"
    }
    engine: CAFFE
  }
}
layer {
  name: "relu_d4b"
  type: "ReLU"
  bottom: "d4b"
  top: "d4b"
}
layer {
  name: "conv_d4b-c"
  type: "Convolution"
  bottom: "d4b"
  top: "d4c"
  param {
    lr_mult: 1
    decay_mult: 1
  }
  param {
    lr_mult: 2
    decay_mult: 0
  }
  convolution_param {
    num_output: 1024
    pad: 0
    kernel_size: 3
    weight_filler {
      type: "xavier"
    }
    engine: CAFFE
  }
}
layer {
  name: "relu_d4c"
  type: "ReLU"
  bottom: "d4c"
  top: "d4c"
}
layer {
  name: "dropout_d4c"
  type: "Dropout"
  bottom: "d4c"
  top: "d4c"
  include {
    phase: TRAIN
  }
  dropout_param {
    dropout_ratio: 0.5
  }
}
layer {
  name: "upconv_d4c_u3a"
  type: "Deconvolution"
  bottom: "d4c"
  top: "u3a"
  param {
    lr_mult: 1
    decay_mult: 1
  }
  param {
    lr_mult: 2
    decay_mult: 0
  }
  convolution_param {
    num_output: 512
    pad: 0
    kernel_size: 2
    stride: 2
    weight_filler {
      type: "xavier"
    }
  }
}
layer {
  name: "relu_u3a"
  type: "ReLU"
  bottom: "u3a"
  top: "u3a"
}
layer {
  name: "crop_d3c-d3cc"
  type: "Crop"
  bottom: "d3c"
  bottom: "u3a"
  top: "d3cc"
  crop_param {
    axis: 2
    offset: 4
  }
}
layer {
  name: "concat_d3cc_u3a-b"
  type: "Concat"
  bottom: "u3a"
  bottom: "d3cc"
  top: "u3b"
}
layer {
  name: "conv_u3b-c"
  type: "Convolution"
  bottom: "u3b"
  top: "u3c"
  param {
    lr_mult: 1
    decay_mult: 1
  }
  param {
    lr_mult: 2
    decay_mult: 0
  }
  convolution_param {
    num_output: 512
    pad: 0
    kernel_size: 3
    weight_filler {
      type: "xavier"
    }
    engine: CAFFE
  }
}
layer {
  name: "relu_u3c"
  type: "ReLU"
  bottom: "u3c"
  top: "u3c"
}
layer {
  name: "conv_u3c-d"
  type: "Convolution"
  bottom: "u3c"
  top: "u3d"
  param {
    lr_mult: 1
    decay_mult: 1
  }
  param {
    lr_mult: 2
    decay_mult: 0
  }
  convolution_param {
    num_output: 512
    pad: 0
    kernel_size: 3
    weight_filler {
      type: "xavier"
    }
    engine: CAFFE
  }
}
layer {
  name: "relu_u3d"
  type: "ReLU"
  bottom: "u3d"
  top: "u3d"
}
layer {
  name: "upconv_u3d_u2a"
  type: "Deconvolution"
  bottom: "u3d"
  top: "u2a"
  param {
    lr_mult: 1
    decay_mult: 1
  }
  param {
    lr_mult: 2
    decay_mult: 0
  }
  convolution_param {
    num_output: 256
    pad: 0
    kernel_size: 2
    stride: 2
    weight_filler {
      type: "xavier"
    }
  }
}
layer {
  name: "relu_u2a"
  type: "ReLU"
  bottom: "u2a"
  top: "u2a"
}
layer {
  name: "crop_d2c-d2cc"
  type: "Crop"
  bottom: "d2c"
  bottom: "u2a"
  top: "d2cc"
  crop_param {
    axis: 2
    offset: 16
  }
}
layer {
  name: "concat_d2cc_u2a-b"
  type: "Concat"
  bottom: "u2a"
  bottom: "d2cc"
  top: "u2b"
}
layer {
  name: "conv_u2b-c"
  type: "Convolution"
  bottom: "u2b"
  top: "u2c"
  param {
    lr_mult: 1
    decay_mult: 1
  }
  param {
    lr_mult: 2
    decay_mult: 0
  }
  convolution_param {
    num_output: 256
    pad: 0
    kernel_size: 3
    weight_filler {
      type: "xavier"
    }
    engine: CAFFE
  }
}
layer {
  name: "relu_u2c"
  type: "ReLU"
  bottom: "u2c"
  top: "u2c"
}
layer {
  name: "conv_u2c-d"
  type: "Convolution"
  bottom: "u2c"
  top: "u2d"
  param {
    lr_mult: 1
    decay_mult: 1
  }
  param {
    lr_mult: 2
    decay_mult: 0
  }
  convolution_param {
    num_output: 256
    pad: 0
    kernel_size: 3
    weight_filler {
      type: "xavier"
    }
    engine: CAFFE
  }
}
layer {
  name: "relu_u2d"
  type: "ReLU"
  bottom: "u2d"
  top: "u2d"
}
layer {
  name: "upconv_u2d_u1a"
  type: "Deconvolution"
  bottom: "u2d"
  top: "u1a"
  param {
    lr_mult: 1
    decay_mult: 1
  }
  param {
    lr_mult: 2
    decay_mult: 0
  }
  convolution_param {
    num_output: 128
    pad: 0
    kernel_size: 2
    stride: 2
    weight_filler {
      type: "xavier"
    }
  }
}
layer {
  name: "relu_u1a"
  type: "ReLU"
  bottom: "u1a"
  top: "u1a"
}
layer {
  name: "crop_d1c-d1cc"
  type: "Crop"
  bottom: "d1c"
  bottom: "u1a"
  top: "d1cc"
  crop_param {
    axis: 2
    offset: 40
  }
}
layer {
  name: "concat_d1cc_u1a-b"
  type: "Concat"
  bottom: "u1a"
  bottom: "d1cc"
  top: "u1b"
}
layer {
  name: "conv_u1b-c"
  type: "Convolution"
  bottom: "u1b"
  top: "u1c"
  param {
    lr_mult: 1
    decay_mult: 1
  }
  param {
    lr_mult: 2
    decay_mult: 0
  }
  convolution_param {
    num_output: 128
    pad: 0
    kernel_size: 3
    weight_filler {
      type: "xavier"
    }
    engine: CAFFE
  }
}
layer {
  name: "relu_u1c"
  type: "ReLU"
  bottom: "u1c"
  top: "u1c"
}
layer {
  name: "conv_u1c-d"
  type: "Convolution"
  bottom: "u1c"
  top: "u1d"
  param {
    lr_mult: 1
    decay_mult: 1
  }
  param {
    lr_mult: 2
    decay_mult: 0
  }
  convolution_param {
    num_output: 128
    pad: 0
    kernel_size: 3
    weight_filler {
      type: "xavier"
    }
    engine: CAFFE
  }
}
layer {
  name: "relu_u1d"
  type: "ReLU"
  bottom: "u1d"
  top: "u1d"
}
layer {
  name: "upconv_u1d_u0a"
  type: "Deconvolution"
  bottom: "u1d"
  top: "u0a"
  param {
    lr_mult: 1
    decay_mult: 1
  }
  param {
    lr_mult: 2
    decay_mult: 0
  }
  convolution_param {
    num_output: 128
    pad: 0
    kernel_size: 2
    stride: 2
    weight_filler {
      type: "xavier"
    }
  }
}
layer {
  name: "relu_u0a"
  type: "ReLU"
  bottom: "u0a"
  top: "u0a"
}
layer {
  name: "crop_d0c-d0cc"
  type: "Crop"
  bottom: "d0c"
  bottom: "u0a"
  top: "d0cc"
  crop_param {
    axis: 2
    offset: 88
  }
}
layer {
  name: "concat_d0cc_u0a-b"
  type: "Concat"
  bottom: "u0a"
  bottom: "d0cc"
  top: "u0b"
}
layer {
  name: "conv_u0b-c"
  type: "Convolution"
  bottom: "u0b"
  top: "u0c"
  param {
    lr_mult: 1
    decay_mult: 1
  }
  param {
    lr_mult: 2
    decay_mult: 0
  }
  convolution_param {
    num_output: 64
    pad: 0
    kernel_size: 3
    weight_filler {
      type: "xavier"
    }
    engine: CAFFE
  }
}
layer {
  name: "relu_u0c"
  type: "ReLU"
  bottom: "u0c"
  top: "u0c"
}
layer {
  name: "conv_u0c-d"
  type: "Convolution"
  bottom: "u0c"
  top: "u0d"
  param {
    lr_mult: 1
    decay_mult: 1
  }
  param {
    lr_mult: 2
    decay_mult: 0
  }
  convolution_param {
    num_output: 64
    pad: 0
    kernel_size: 3
    weight_filler {
      type: "xavier"
    }
    engine: CAFFE
  }
}
layer {
  name: "relu_u0d"
  type: "ReLU"
  bottom: "u0d"
  top: "u0d"
}
layer {
  name: "conv_u0d-score"
  type: "Convolution"
  bottom: "u0d"
  top: "score"
  param {
    lr_mult: 1
    decay_mult: 1
  }
  param {
    lr_mult: 2
    decay_mult: 0
  }
  convolution_param {
    num_output: 3
    pad: 0
    kernel_size: 1
    weight_filler {
      type: "xavier"
    }
    engine: CAFFE
  }
}
layer {
  name: "softmax"
  type: "Softmax"
  bottom: "score"
  top: "softmax_out"
}
layer {
  name: "reshapelab"
  type: "Reshape"
  bottom: "label"
  top: "label_flat"
  reshape_param {
    shape {
      dim: 0
      dim: -1
    }
  }
}
layer {
  name: "reshaperes"
  type: "Reshape"
  bottom: "softmax_out"
  top: "softmax_out_flat"
  reshape_param {
    shape {
      dim: 0
      dim: 0
      dim: -1
    }
  }
}
layer {
  name: "loss"
  type: "Python"
  bottom: "softmax_out_flat"
  bottom: "label_flat"
  top: "loss"
  loss_weight: 1
  python_param {
    module: "multiclass_f1_loss"
    layer: "F1Loss"
  }
}
layer {
  name: "visualize"
  type: "Softmax"
  bottom: "score"
  top: "visualize_out"
  include {
    phase: TRAIN
  }
}
layer {
  name: "fake"
  type: "Silence"
  bottom: "visualize_out"
  include {
    phase: TRAIN
  }
}
I0411 11:12:15.479763 21254 layer_factory.hpp:77] Creating layer loaddata
I0411 11:12:15.479773 21254 net.cpp:100] Creating Layer loaddata
I0411 11:12:15.479778 21254 net.cpp:408] loaddata -> data
I0411 11:12:15.479785 21254 net.cpp:408] loaddata -> label
I0411 11:12:15.479791 21254 hdf5_data_layer.cpp:79] Loading list of HDF5 filenames from: ../caffeHDF5.txt
I0411 11:12:15.479820 21254 hdf5_data_layer.cpp:93] Number of HDF5 files: 20
I0411 11:12:15.480670 21254 hdf5.cpp:32] Datatype class: H5T_FLOAT
I0411 11:12:16.282584 21254 hdf5.cpp:35] Datatype class: H5T_INTEGER
I0411 11:12:16.378394 21254 net.cpp:150] Setting up loaddata
I0411 11:12:16.378419 21254 net.cpp:157] Top shape: 5 3 428 428 (2747760)
I0411 11:12:16.378422 21254 net.cpp:157] Top shape: 5 244 244 (297680)
I0411 11:12:16.378424 21254 net.cpp:165] Memory required for data: 12181760
I0411 11:12:16.378430 21254 layer_factory.hpp:77] Creating layer conv_d0a-b
I0411 11:12:16.378446 21254 net.cpp:100] Creating Layer conv_d0a-b
I0411 11:12:16.378449 21254 net.cpp:434] conv_d0a-b <- data
I0411 11:12:16.378454 21254 net.cpp:408] conv_d0a-b -> d0b
I0411 11:12:16.380769 21254 net.cpp:150] Setting up conv_d0a-b
I0411 11:12:16.380781 21254 net.cpp:157] Top shape: 5 64 426 426 (58072320)
I0411 11:12:16.380800 21254 net.cpp:165] Memory required for data: 244471040
I0411 11:12:16.380808 21254 layer_factory.hpp:77] Creating layer relu_d0b
I0411 11:12:16.380815 21254 net.cpp:100] Creating Layer relu_d0b
I0411 11:12:16.380817 21254 net.cpp:434] relu_d0b <- d0b
I0411 11:12:16.380836 21254 net.cpp:395] relu_d0b -> d0b (in-place)
I0411 11:12:16.561547 21254 net.cpp:150] Setting up relu_d0b
I0411 11:12:16.561585 21254 net.cpp:157] Top shape: 5 64 426 426 (58072320)
I0411 11:12:16.561589 21254 net.cpp:165] Memory required for data: 476760320
I0411 11:12:16.561594 21254 layer_factory.hpp:77] Creating layer conv_d0b-c
I0411 11:12:16.561609 21254 net.cpp:100] Creating Layer conv_d0b-c
I0411 11:12:16.561612 21254 net.cpp:434] conv_d0b-c <- d0b
I0411 11:12:16.561636 21254 net.cpp:408] conv_d0b-c -> d0c
I0411 11:12:16.563024 21254 net.cpp:150] Setting up conv_d0b-c
I0411 11:12:16.563036 21254 net.cpp:157] Top shape: 5 64 424 424 (57528320)
I0411 11:12:16.563055 21254 net.cpp:165] Memory required for data: 706873600
I0411 11:12:16.563064 21254 layer_factory.hpp:77] Creating layer relu_d0c
I0411 11:12:16.563071 21254 net.cpp:100] Creating Layer relu_d0c
I0411 11:12:16.563073 21254 net.cpp:434] relu_d0c <- d0c
I0411 11:12:16.563093 21254 net.cpp:395] relu_d0c -> d0c (in-place)
I0411 11:12:16.563897 21254 net.cpp:150] Setting up relu_d0c
I0411 11:12:16.563910 21254 net.cpp:157] Top shape: 5 64 424 424 (57528320)
I0411 11:12:16.563911 21254 net.cpp:165] Memory required for data: 936986880
I0411 11:12:16.563930 21254 layer_factory.hpp:77] Creating layer d0c_relu_d0c_0_split
I0411 11:12:16.563935 21254 net.cpp:100] Creating Layer d0c_relu_d0c_0_split
I0411 11:12:16.563937 21254 net.cpp:434] d0c_relu_d0c_0_split <- d0c
I0411 11:12:16.563942 21254 net.cpp:408] d0c_relu_d0c_0_split -> d0c_relu_d0c_0_split_0
I0411 11:12:16.563966 21254 net.cpp:408] d0c_relu_d0c_0_split -> d0c_relu_d0c_0_split_1
I0411 11:12:16.564031 21254 net.cpp:150] Setting up d0c_relu_d0c_0_split
I0411 11:12:16.564038 21254 net.cpp:157] Top shape: 5 64 424 424 (57528320)
I0411 11:12:16.564041 21254 net.cpp:157] Top shape: 5 64 424 424 (57528320)
I0411 11:12:16.564043 21254 net.cpp:165] Memory required for data: 1397213440
I0411 11:12:16.564046 21254 layer_factory.hpp:77] Creating layer pool_d0c-1a
I0411 11:12:16.564051 21254 net.cpp:100] Creating Layer pool_d0c-1a
I0411 11:12:16.564055 21254 net.cpp:434] pool_d0c-1a <- d0c_relu_d0c_0_split_0
I0411 11:12:16.564059 21254 net.cpp:408] pool_d0c-1a -> d1a
I0411 11:12:16.564090 21254 net.cpp:150] Setting up pool_d0c-1a
I0411 11:12:16.564095 21254 net.cpp:157] Top shape: 5 64 212 212 (14382080)
I0411 11:12:16.564097 21254 net.cpp:165] Memory required for data: 1454741760
I0411 11:12:16.564100 21254 layer_factory.hpp:77] Creating layer conv_d1a-b
I0411 11:12:16.564106 21254 net.cpp:100] Creating Layer conv_d1a-b
I0411 11:12:16.564108 21254 net.cpp:434] conv_d1a-b <- d1a
I0411 11:12:16.564112 21254 net.cpp:408] conv_d1a-b -> d1b
I0411 11:12:16.564776 21254 net.cpp:150] Setting up conv_d1a-b
I0411 11:12:16.564784 21254 net.cpp:157] Top shape: 5 128 210 210 (28224000)
I0411 11:12:16.564785 21254 net.cpp:165] Memory required for data: 1567637760
I0411 11:12:16.564808 21254 layer_factory.hpp:77] Creating layer relu_d1b
I0411 11:12:16.564813 21254 net.cpp:100] Creating Layer relu_d1b
I0411 11:12:16.564816 21254 net.cpp:434] relu_d1b <- d1b
I0411 11:12:16.564820 21254 net.cpp:395] relu_d1b -> d1b (in-place)
I0411 11:12:16.564990 21254 net.cpp:150] Setting up relu_d1b
I0411 11:12:16.564998 21254 net.cpp:157] Top shape: 5 128 210 210 (28224000)
I0411 11:12:16.565001 21254 net.cpp:165] Memory required for data: 1680533760
I0411 11:12:16.565004 21254 layer_factory.hpp:77] Creating layer conv_d1b-c
I0411 11:12:16.565011 21254 net.cpp:100] Creating Layer conv_d1b-c
I0411 11:12:16.565016 21254 net.cpp:434] conv_d1b-c <- d1b
I0411 11:12:16.565021 21254 net.cpp:408] conv_d1b-c -> d1c
I0411 11:12:16.566912 21254 net.cpp:150] Setting up conv_d1b-c
I0411 11:12:16.566925 21254 net.cpp:157] Top shape: 5 128 208 208 (27688960)
I0411 11:12:16.566942 21254 net.cpp:165] Memory required for data: 1791289600
I0411 11:12:16.566948 21254 layer_factory.hpp:77] Creating layer relu_d1c
I0411 11:12:16.566954 21254 net.cpp:100] Creating Layer relu_d1c
I0411 11:12:16.566957 21254 net.cpp:434] relu_d1c <- d1c
I0411 11:12:16.566962 21254 net.cpp:395] relu_d1c -> d1c (in-place)
I0411 11:12:16.567124 21254 net.cpp:150] Setting up relu_d1c
I0411 11:12:16.567132 21254 net.cpp:157] Top shape: 5 128 208 208 (27688960)
I0411 11:12:16.567136 21254 net.cpp:165] Memory required for data: 1902045440
I0411 11:12:16.567138 21254 layer_factory.hpp:77] Creating layer d1c_relu_d1c_0_split
I0411 11:12:16.567143 21254 net.cpp:100] Creating Layer d1c_relu_d1c_0_split
I0411 11:12:16.567147 21254 net.cpp:434] d1c_relu_d1c_0_split <- d1c
I0411 11:12:16.567150 21254 net.cpp:408] d1c_relu_d1c_0_split -> d1c_relu_d1c_0_split_0
I0411 11:12:16.567157 21254 net.cpp:408] d1c_relu_d1c_0_split -> d1c_relu_d1c_0_split_1
I0411 11:12:16.567191 21254 net.cpp:150] Setting up d1c_relu_d1c_0_split
I0411 11:12:16.567198 21254 net.cpp:157] Top shape: 5 128 208 208 (27688960)
I0411 11:12:16.567200 21254 net.cpp:157] Top shape: 5 128 208 208 (27688960)
I0411 11:12:16.567203 21254 net.cpp:165] Memory required for data: 2123557120
I0411 11:12:16.567205 21254 layer_factory.hpp:77] Creating layer pool_d1c-2a
I0411 11:12:16.567210 21254 net.cpp:100] Creating Layer pool_d1c-2a
I0411 11:12:16.567212 21254 net.cpp:434] pool_d1c-2a <- d1c_relu_d1c_0_split_0
I0411 11:12:16.567216 21254 net.cpp:408] pool_d1c-2a -> d2a
I0411 11:12:16.567260 21254 net.cpp:150] Setting up pool_d1c-2a
I0411 11:12:16.567265 21254 net.cpp:157] Top shape: 5 128 104 104 (6922240)
I0411 11:12:16.567267 21254 net.cpp:165] Memory required for data: 2151246080
I0411 11:12:16.567270 21254 layer_factory.hpp:77] Creating layer conv_d2a-b
I0411 11:12:16.567276 21254 net.cpp:100] Creating Layer conv_d2a-b
I0411 11:12:16.567294 21254 net.cpp:434] conv_d2a-b <- d2a
I0411 11:12:16.567298 21254 net.cpp:408] conv_d2a-b -> d2b
I0411 11:12:16.569974 21254 net.cpp:150] Setting up conv_d2a-b
I0411 11:12:16.569986 21254 net.cpp:157] Top shape: 5 256 102 102 (13317120)
I0411 11:12:16.569988 21254 net.cpp:165] Memory required for data: 2204514560
I0411 11:12:16.570013 21254 layer_factory.hpp:77] Creating layer relu_d2b
I0411 11:12:16.570020 21254 net.cpp:100] Creating Layer relu_d2b
I0411 11:12:16.570024 21254 net.cpp:434] relu_d2b <- d2b
I0411 11:12:16.570027 21254 net.cpp:395] relu_d2b -> d2b (in-place)
I0411 11:12:16.570211 21254 net.cpp:150] Setting up relu_d2b
I0411 11:12:16.570219 21254 net.cpp:157] Top shape: 5 256 102 102 (13317120)
I0411 11:12:16.570222 21254 net.cpp:165] Memory required for data: 2257783040
I0411 11:12:16.570225 21254 layer_factory.hpp:77] Creating layer conv_d2b-c
I0411 11:12:16.570232 21254 net.cpp:100] Creating Layer conv_d2b-c
I0411 11:12:16.570235 21254 net.cpp:434] conv_d2b-c <- d2b
I0411 11:12:16.570240 21254 net.cpp:408] conv_d2b-c -> d2c
I0411 11:12:16.574690 21254 net.cpp:150] Setting up conv_d2b-c
I0411 11:12:16.574702 21254 net.cpp:157] Top shape: 5 256 100 100 (12800000)
I0411 11:12:16.574719 21254 net.cpp:165] Memory required for data: 2308983040
I0411 11:12:16.574725 21254 layer_factory.hpp:77] Creating layer relu_d2c
I0411 11:12:16.574733 21254 net.cpp:100] Creating Layer relu_d2c
I0411 11:12:16.574735 21254 net.cpp:434] relu_d2c <- d2c
I0411 11:12:16.574739 21254 net.cpp:395] relu_d2c -> d2c (in-place)
I0411 11:12:16.575518 21254 net.cpp:150] Setting up relu_d2c
I0411 11:12:16.575529 21254 net.cpp:157] Top shape: 5 256 100 100 (12800000)
I0411 11:12:16.575547 21254 net.cpp:165] Memory required for data: 2360183040
I0411 11:12:16.575551 21254 layer_factory.hpp:77] Creating layer d2c_relu_d2c_0_split
I0411 11:12:16.575556 21254 net.cpp:100] Creating Layer d2c_relu_d2c_0_split
I0411 11:12:16.575558 21254 net.cpp:434] d2c_relu_d2c_0_split <- d2c
I0411 11:12:16.575563 21254 net.cpp:408] d2c_relu_d2c_0_split -> d2c_relu_d2c_0_split_0
I0411 11:12:16.575569 21254 net.cpp:408] d2c_relu_d2c_0_split -> d2c_relu_d2c_0_split_1
I0411 11:12:16.575623 21254 net.cpp:150] Setting up d2c_relu_d2c_0_split
I0411 11:12:16.575629 21254 net.cpp:157] Top shape: 5 256 100 100 (12800000)
I0411 11:12:16.575633 21254 net.cpp:157] Top shape: 5 256 100 100 (12800000)
I0411 11:12:16.575635 21254 net.cpp:165] Memory required for data: 2462583040
I0411 11:12:16.575639 21254 layer_factory.hpp:77] Creating layer pool_d2c-3a
I0411 11:12:16.575642 21254 net.cpp:100] Creating Layer pool_d2c-3a
I0411 11:12:16.575645 21254 net.cpp:434] pool_d2c-3a <- d2c_relu_d2c_0_split_0
I0411 11:12:16.575649 21254 net.cpp:408] pool_d2c-3a -> d3a
I0411 11:12:16.575682 21254 net.cpp:150] Setting up pool_d2c-3a
I0411 11:12:16.575688 21254 net.cpp:157] Top shape: 5 256 50 50 (3200000)
I0411 11:12:16.575690 21254 net.cpp:165] Memory required for data: 2475383040
I0411 11:12:16.575692 21254 layer_factory.hpp:77] Creating layer conv_d3a-b
I0411 11:12:16.575700 21254 net.cpp:100] Creating Layer conv_d3a-b
I0411 11:12:16.575703 21254 net.cpp:434] conv_d3a-b <- d3a
I0411 11:12:16.575707 21254 net.cpp:408] conv_d3a-b -> d3b
I0411 11:12:16.584648 21254 net.cpp:150] Setting up conv_d3a-b
I0411 11:12:16.584661 21254 net.cpp:157] Top shape: 5 512 48 48 (5898240)
I0411 11:12:16.584663 21254 net.cpp:165] Memory required for data: 2498976000
I0411 11:12:16.584686 21254 layer_factory.hpp:77] Creating layer relu_d3b
I0411 11:12:16.584691 21254 net.cpp:100] Creating Layer relu_d3b
I0411 11:12:16.584693 21254 net.cpp:434] relu_d3b <- d3b
I0411 11:12:16.584697 21254 net.cpp:395] relu_d3b -> d3b (in-place)
I0411 11:12:16.584867 21254 net.cpp:150] Setting up relu_d3b
I0411 11:12:16.584875 21254 net.cpp:157] Top shape: 5 512 48 48 (5898240)
I0411 11:12:16.584877 21254 net.cpp:165] Memory required for data: 2522568960
I0411 11:12:16.584880 21254 layer_factory.hpp:77] Creating layer conv_d3b-c
I0411 11:12:16.584888 21254 net.cpp:100] Creating Layer conv_d3b-c
I0411 11:12:16.584892 21254 net.cpp:434] conv_d3b-c <- d3b
I0411 11:12:16.584897 21254 net.cpp:408] conv_d3b-c -> d3c
I0411 11:12:16.599989 21254 net.cpp:150] Setting up conv_d3b-c
I0411 11:12:16.600000 21254 net.cpp:157] Top shape: 5 512 46 46 (5416960)
I0411 11:12:16.600003 21254 net.cpp:165] Memory required for data: 2544236800
I0411 11:12:16.600008 21254 layer_factory.hpp:77] Creating layer relu_d3c
I0411 11:12:16.600013 21254 net.cpp:100] Creating Layer relu_d3c
I0411 11:12:16.600015 21254 net.cpp:434] relu_d3c <- d3c
I0411 11:12:16.600019 21254 net.cpp:395] relu_d3c -> d3c (in-place)
I0411 11:12:16.600230 21254 net.cpp:150] Setting up relu_d3c
I0411 11:12:16.600239 21254 net.cpp:157] Top shape: 5 512 46 46 (5416960)
I0411 11:12:16.600241 21254 net.cpp:165] Memory required for data: 2565904640
I0411 11:12:16.600244 21254 layer_factory.hpp:77] Creating layer dropout_d3c
I0411 11:12:16.600250 21254 net.cpp:100] Creating Layer dropout_d3c
I0411 11:12:16.600253 21254 net.cpp:434] dropout_d3c <- d3c
I0411 11:12:16.600257 21254 net.cpp:395] dropout_d3c -> d3c (in-place)
I0411 11:12:16.600281 21254 net.cpp:150] Setting up dropout_d3c
I0411 11:12:16.600287 21254 net.cpp:157] Top shape: 5 512 46 46 (5416960)
I0411 11:12:16.600289 21254 net.cpp:165] Memory required for data: 2587572480
I0411 11:12:16.600291 21254 layer_factory.hpp:77] Creating layer d3c_dropout_d3c_0_split
I0411 11:12:16.600296 21254 net.cpp:100] Creating Layer d3c_dropout_d3c_0_split
I0411 11:12:16.600298 21254 net.cpp:434] d3c_dropout_d3c_0_split <- d3c
I0411 11:12:16.600302 21254 net.cpp:408] d3c_dropout_d3c_0_split -> d3c_dropout_d3c_0_split_0
I0411 11:12:16.600308 21254 net.cpp:408] d3c_dropout_d3c_0_split -> d3c_dropout_d3c_0_split_1
I0411 11:12:16.600338 21254 net.cpp:150] Setting up d3c_dropout_d3c_0_split
I0411 11:12:16.600344 21254 net.cpp:157] Top shape: 5 512 46 46 (5416960)
I0411 11:12:16.600347 21254 net.cpp:157] Top shape: 5 512 46 46 (5416960)
I0411 11:12:16.600350 21254 net.cpp:165] Memory required for data: 2630908160
I0411 11:12:16.600353 21254 layer_factory.hpp:77] Creating layer pool_d3c-4a
I0411 11:12:16.600358 21254 net.cpp:100] Creating Layer pool_d3c-4a
I0411 11:12:16.600359 21254 net.cpp:434] pool_d3c-4a <- d3c_dropout_d3c_0_split_0
I0411 11:12:16.600363 21254 net.cpp:408] pool_d3c-4a -> d4a
I0411 11:12:16.600394 21254 net.cpp:150] Setting up pool_d3c-4a
I0411 11:12:16.600399 21254 net.cpp:157] Top shape: 5 512 23 23 (1354240)
I0411 11:12:16.600401 21254 net.cpp:165] Memory required for data: 2636325120
I0411 11:12:16.600404 21254 layer_factory.hpp:77] Creating layer conv_d4a-b
I0411 11:12:16.600409 21254 net.cpp:100] Creating Layer conv_d4a-b
I0411 11:12:16.600414 21254 net.cpp:434] conv_d4a-b <- d4a
I0411 11:12:16.600417 21254 net.cpp:408] conv_d4a-b -> d4b
I0411 11:12:16.630640 21254 net.cpp:150] Setting up conv_d4a-b
I0411 11:12:16.630653 21254 net.cpp:157] Top shape: 5 1024 21 21 (2257920)
I0411 11:12:16.630656 21254 net.cpp:165] Memory required for data: 2645356800
I0411 11:12:16.630682 21254 layer_factory.hpp:77] Creating layer relu_d4b
I0411 11:12:16.630704 21254 net.cpp:100] Creating Layer relu_d4b
I0411 11:12:16.630708 21254 net.cpp:434] relu_d4b <- d4b
I0411 11:12:16.630713 21254 net.cpp:395] relu_d4b -> d4b (in-place)
I0411 11:12:16.631506 21254 net.cpp:150] Setting up relu_d4b
I0411 11:12:16.631518 21254 net.cpp:157] Top shape: 5 1024 21 21 (2257920)
I0411 11:12:16.631520 21254 net.cpp:165] Memory required for data: 2654388480
I0411 11:12:16.631525 21254 layer_factory.hpp:77] Creating layer conv_d4b-c
I0411 11:12:16.631547 21254 net.cpp:100] Creating Layer conv_d4b-c
I0411 11:12:16.631552 21254 net.cpp:434] conv_d4b-c <- d4b
I0411 11:12:16.631557 21254 net.cpp:408] conv_d4b-c -> d4c
I0411 11:12:16.689934 21254 net.cpp:150] Setting up conv_d4b-c
I0411 11:12:16.689951 21254 net.cpp:157] Top shape: 5 1024 19 19 (1848320)
I0411 11:12:16.689970 21254 net.cpp:165] Memory required for data: 2661781760
I0411 11:12:16.689976 21254 layer_factory.hpp:77] Creating layer relu_d4c
I0411 11:12:16.689983 21254 net.cpp:100] Creating Layer relu_d4c
I0411 11:12:16.689987 21254 net.cpp:434] relu_d4c <- d4c
I0411 11:12:16.689993 21254 net.cpp:395] relu_d4c -> d4c (in-place)
I0411 11:12:16.690229 21254 net.cpp:150] Setting up relu_d4c
I0411 11:12:16.690238 21254 net.cpp:157] Top shape: 5 1024 19 19 (1848320)
I0411 11:12:16.690241 21254 net.cpp:165] Memory required for data: 2669175040
I0411 11:12:16.690243 21254 layer_factory.hpp:77] Creating layer dropout_d4c
I0411 11:12:16.690253 21254 net.cpp:100] Creating Layer dropout_d4c
I0411 11:12:16.690256 21254 net.cpp:434] dropout_d4c <- d4c
I0411 11:12:16.690261 21254 net.cpp:395] dropout_d4c -> d4c (in-place)
I0411 11:12:16.690287 21254 net.cpp:150] Setting up dropout_d4c
I0411 11:12:16.690294 21254 net.cpp:157] Top shape: 5 1024 19 19 (1848320)
I0411 11:12:16.690295 21254 net.cpp:165] Memory required for data: 2676568320
I0411 11:12:16.690299 21254 layer_factory.hpp:77] Creating layer upconv_d4c_u3a
I0411 11:12:16.690305 21254 net.cpp:100] Creating Layer upconv_d4c_u3a
I0411 11:12:16.690307 21254 net.cpp:434] upconv_d4c_u3a <- d4c
I0411 11:12:16.690313 21254 net.cpp:408] upconv_d4c_u3a -> u3a
I0411 11:12:16.703738 21254 net.cpp:150] Setting up upconv_d4c_u3a
I0411 11:12:16.703749 21254 net.cpp:157] Top shape: 5 512 38 38 (3696640)
I0411 11:12:16.703768 21254 net.cpp:165] Memory required for data: 2691354880
I0411 11:12:16.703773 21254 layer_factory.hpp:77] Creating layer relu_u3a
I0411 11:12:16.703784 21254 net.cpp:100] Creating Layer relu_u3a
I0411 11:12:16.703788 21254 net.cpp:434] relu_u3a <- u3a
I0411 11:12:16.703791 21254 net.cpp:395] relu_u3a -> u3a (in-place)
I0411 11:12:16.704015 21254 net.cpp:150] Setting up relu_u3a
I0411 11:12:16.704025 21254 net.cpp:157] Top shape: 5 512 38 38 (3696640)
I0411 11:12:16.704027 21254 net.cpp:165] Memory required for data: 2706141440
I0411 11:12:16.704030 21254 layer_factory.hpp:77] Creating layer u3a_relu_u3a_0_split
I0411 11:12:16.704035 21254 net.cpp:100] Creating Layer u3a_relu_u3a_0_split
I0411 11:12:16.704037 21254 net.cpp:434] u3a_relu_u3a_0_split <- u3a
I0411 11:12:16.704043 21254 net.cpp:408] u3a_relu_u3a_0_split -> u3a_relu_u3a_0_split_0
I0411 11:12:16.704049 21254 net.cpp:408] u3a_relu_u3a_0_split -> u3a_relu_u3a_0_split_1
I0411 11:12:16.704089 21254 net.cpp:150] Setting up u3a_relu_u3a_0_split
I0411 11:12:16.704095 21254 net.cpp:157] Top shape: 5 512 38 38 (3696640)
I0411 11:12:16.704098 21254 net.cpp:157] Top shape: 5 512 38 38 (3696640)
I0411 11:12:16.704100 21254 net.cpp:165] Memory required for data: 2735714560
I0411 11:12:16.704103 21254 layer_factory.hpp:77] Creating layer crop_d3c-d3cc
I0411 11:12:16.704108 21254 net.cpp:100] Creating Layer crop_d3c-d3cc
I0411 11:12:16.704113 21254 net.cpp:434] crop_d3c-d3cc <- d3c_dropout_d3c_0_split_1
I0411 11:12:16.704116 21254 net.cpp:434] crop_d3c-d3cc <- u3a_relu_u3a_0_split_0
I0411 11:12:16.704120 21254 net.cpp:408] crop_d3c-d3cc -> d3cc
I0411 11:12:16.704143 21254 net.cpp:150] Setting up crop_d3c-d3cc
I0411 11:12:16.704149 21254 net.cpp:157] Top shape: 5 512 38 38 (3696640)
I0411 11:12:16.704150 21254 net.cpp:165] Memory required for data: 2750501120
I0411 11:12:16.704154 21254 layer_factory.hpp:77] Creating layer concat_d3cc_u3a-b
I0411 11:12:16.704157 21254 net.cpp:100] Creating Layer concat_d3cc_u3a-b
I0411 11:12:16.704160 21254 net.cpp:434] concat_d3cc_u3a-b <- u3a_relu_u3a_0_split_1
I0411 11:12:16.704164 21254 net.cpp:434] concat_d3cc_u3a-b <- d3cc
I0411 11:12:16.704170 21254 net.cpp:408] concat_d3cc_u3a-b -> u3b
I0411 11:12:16.704190 21254 net.cpp:150] Setting up concat_d3cc_u3a-b
I0411 11:12:16.704195 21254 net.cpp:157] Top shape: 5 1024 38 38 (7393280)
I0411 11:12:16.704198 21254 net.cpp:165] Memory required for data: 2780074240
I0411 11:12:16.704201 21254 layer_factory.hpp:77] Creating layer conv_u3b-c
I0411 11:12:16.704208 21254 net.cpp:100] Creating Layer conv_u3b-c
I0411 11:12:16.704211 21254 net.cpp:434] conv_u3b-c <- u3b
I0411 11:12:16.704216 21254 net.cpp:408] conv_u3b-c -> u3c
I0411 11:12:16.734836 21254 net.cpp:150] Setting up conv_u3b-c
I0411 11:12:16.734865 21254 net.cpp:157] Top shape: 5 512 36 36 (3317760)
I0411 11:12:16.734868 21254 net.cpp:165] Memory required for data: 2793345280
I0411 11:12:16.734874 21254 layer_factory.hpp:77] Creating layer relu_u3c
I0411 11:12:16.734879 21254 net.cpp:100] Creating Layer relu_u3c
I0411 11:12:16.734881 21254 net.cpp:434] relu_u3c <- u3c
I0411 11:12:16.734886 21254 net.cpp:395] relu_u3c -> u3c (in-place)
I0411 11:12:16.735070 21254 net.cpp:150] Setting up relu_u3c
I0411 11:12:16.735082 21254 net.cpp:157] Top shape: 5 512 36 36 (3317760)
I0411 11:12:16.735085 21254 net.cpp:165] Memory required for data: 2806616320
I0411 11:12:16.735087 21254 layer_factory.hpp:77] Creating layer conv_u3c-d
I0411 11:12:16.735095 21254 net.cpp:100] Creating Layer conv_u3c-d
I0411 11:12:16.735098 21254 net.cpp:434] conv_u3c-d <- u3c
I0411 11:12:16.735105 21254 net.cpp:408] conv_u3c-d -> u3d
I0411 11:12:16.750813 21254 net.cpp:150] Setting up conv_u3c-d
I0411 11:12:16.750825 21254 net.cpp:157] Top shape: 5 512 34 34 (2959360)
I0411 11:12:16.750844 21254 net.cpp:165] Memory required for data: 2818453760
I0411 11:12:16.750850 21254 layer_factory.hpp:77] Creating layer relu_u3d
I0411 11:12:16.750856 21254 net.cpp:100] Creating Layer relu_u3d
I0411 11:12:16.750870 21254 net.cpp:434] relu_u3d <- u3d
I0411 11:12:16.750874 21254 net.cpp:395] relu_u3d -> u3d (in-place)
I0411 11:12:16.751682 21254 net.cpp:150] Setting up relu_u3d
I0411 11:12:16.751693 21254 net.cpp:157] Top shape: 5 512 34 34 (2959360)
I0411 11:12:16.751696 21254 net.cpp:165] Memory required for data: 2830291200
I0411 11:12:16.751699 21254 layer_factory.hpp:77] Creating layer upconv_u3d_u2a
I0411 11:12:16.751708 21254 net.cpp:100] Creating Layer upconv_u3d_u2a
I0411 11:12:16.751710 21254 net.cpp:434] upconv_u3d_u2a <- u3d
I0411 11:12:16.751715 21254 net.cpp:408] upconv_u3d_u2a -> u2a
I0411 11:12:16.755628 21254 net.cpp:150] Setting up upconv_u3d_u2a
I0411 11:12:16.755640 21254 net.cpp:157] Top shape: 5 256 68 68 (5918720)
I0411 11:12:16.755658 21254 net.cpp:165] Memory required for data: 2853966080
I0411 11:12:16.755664 21254 layer_factory.hpp:77] Creating layer relu_u2a
I0411 11:12:16.755672 21254 net.cpp:100] Creating Layer relu_u2a
I0411 11:12:16.755676 21254 net.cpp:434] relu_u2a <- u2a
I0411 11:12:16.755679 21254 net.cpp:395] relu_u2a -> u2a (in-place)
I0411 11:12:16.755859 21254 net.cpp:150] Setting up relu_u2a
I0411 11:12:16.755868 21254 net.cpp:157] Top shape: 5 256 68 68 (5918720)
I0411 11:12:16.755870 21254 net.cpp:165] Memory required for data: 2877640960
I0411 11:12:16.755873 21254 layer_factory.hpp:77] Creating layer u2a_relu_u2a_0_split
I0411 11:12:16.755882 21254 net.cpp:100] Creating Layer u2a_relu_u2a_0_split
I0411 11:12:16.755885 21254 net.cpp:434] u2a_relu_u2a_0_split <- u2a
I0411 11:12:16.755890 21254 net.cpp:408] u2a_relu_u2a_0_split -> u2a_relu_u2a_0_split_0
I0411 11:12:16.755909 21254 net.cpp:408] u2a_relu_u2a_0_split -> u2a_relu_u2a_0_split_1
I0411 11:12:16.755949 21254 net.cpp:150] Setting up u2a_relu_u2a_0_split
I0411 11:12:16.755956 21254 net.cpp:157] Top shape: 5 256 68 68 (5918720)
I0411 11:12:16.755960 21254 net.cpp:157] Top shape: 5 256 68 68 (5918720)
I0411 11:12:16.755962 21254 net.cpp:165] Memory required for data: 2924990720
I0411 11:12:16.755964 21254 layer_factory.hpp:77] Creating layer crop_d2c-d2cc
I0411 11:12:16.755970 21254 net.cpp:100] Creating Layer crop_d2c-d2cc
I0411 11:12:16.755972 21254 net.cpp:434] crop_d2c-d2cc <- d2c_relu_d2c_0_split_1
I0411 11:12:16.755976 21254 net.cpp:434] crop_d2c-d2cc <- u2a_relu_u2a_0_split_0
I0411 11:12:16.755981 21254 net.cpp:408] crop_d2c-d2cc -> d2cc
I0411 11:12:16.756005 21254 net.cpp:150] Setting up crop_d2c-d2cc
I0411 11:12:16.756011 21254 net.cpp:157] Top shape: 5 256 68 68 (5918720)
I0411 11:12:16.756012 21254 net.cpp:165] Memory required for data: 2948665600
I0411 11:12:16.756014 21254 layer_factory.hpp:77] Creating layer concat_d2cc_u2a-b
I0411 11:12:16.756019 21254 net.cpp:100] Creating Layer concat_d2cc_u2a-b
I0411 11:12:16.756021 21254 net.cpp:434] concat_d2cc_u2a-b <- u2a_relu_u2a_0_split_1
I0411 11:12:16.756024 21254 net.cpp:434] concat_d2cc_u2a-b <- d2cc
I0411 11:12:16.756029 21254 net.cpp:408] concat_d2cc_u2a-b -> u2b
I0411 11:12:16.756048 21254 net.cpp:150] Setting up concat_d2cc_u2a-b
I0411 11:12:16.756054 21254 net.cpp:157] Top shape: 5 512 68 68 (11837440)
I0411 11:12:16.756057 21254 net.cpp:165] Memory required for data: 2996015360
I0411 11:12:16.756058 21254 layer_factory.hpp:77] Creating layer conv_u2b-c
I0411 11:12:16.756067 21254 net.cpp:100] Creating Layer conv_u2b-c
I0411 11:12:16.756069 21254 net.cpp:434] conv_u2b-c <- u2b
I0411 11:12:16.756074 21254 net.cpp:408] conv_u2b-c -> u2c
I0411 11:12:16.764251 21254 net.cpp:150] Setting up conv_u2b-c
I0411 11:12:16.764266 21254 net.cpp:157] Top shape: 5 256 66 66 (5575680)
I0411 11:12:16.764283 21254 net.cpp:165] Memory required for data: 3018318080
I0411 11:12:16.764289 21254 layer_factory.hpp:77] Creating layer relu_u2c
I0411 11:12:16.764295 21254 net.cpp:100] Creating Layer relu_u2c
I0411 11:12:16.764298 21254 net.cpp:434] relu_u2c <- u2c
I0411 11:12:16.764302 21254 net.cpp:395] relu_u2c -> u2c (in-place)
I0411 11:12:16.764488 21254 net.cpp:150] Setting up relu_u2c
I0411 11:12:16.764499 21254 net.cpp:157] Top shape: 5 256 66 66 (5575680)
I0411 11:12:16.764503 21254 net.cpp:165] Memory required for data: 3040620800
I0411 11:12:16.764504 21254 layer_factory.hpp:77] Creating layer conv_u2c-d
I0411 11:12:16.764513 21254 net.cpp:100] Creating Layer conv_u2c-d
I0411 11:12:16.764514 21254 net.cpp:434] conv_u2c-d <- u2c
I0411 11:12:16.764521 21254 net.cpp:408] conv_u2c-d -> u2d
I0411 11:12:16.768911 21254 net.cpp:150] Setting up conv_u2c-d
I0411 11:12:16.768924 21254 net.cpp:157] Top shape: 5 256 64 64 (5242880)
I0411 11:12:16.768928 21254 net.cpp:165] Memory required for data: 3061592320
I0411 11:12:16.768934 21254 layer_factory.hpp:77] Creating layer relu_u2d
I0411 11:12:16.768939 21254 net.cpp:100] Creating Layer relu_u2d
I0411 11:12:16.768940 21254 net.cpp:434] relu_u2d <- u2d
I0411 11:12:16.768946 21254 net.cpp:395] relu_u2d -> u2d (in-place)
I0411 11:12:16.769131 21254 net.cpp:150] Setting up relu_u2d
I0411 11:12:16.769140 21254 net.cpp:157] Top shape: 5 256 64 64 (5242880)
I0411 11:12:16.769142 21254 net.cpp:165] Memory required for data: 3082563840
I0411 11:12:16.769145 21254 layer_factory.hpp:77] Creating layer upconv_u2d_u1a
I0411 11:12:16.769155 21254 net.cpp:100] Creating Layer upconv_u2d_u1a
I0411 11:12:16.769157 21254 net.cpp:434] upconv_u2d_u1a <- u2d
I0411 11:12:16.769162 21254 net.cpp:408] upconv_u2d_u1a -> u1a
I0411 11:12:16.770938 21254 net.cpp:150] Setting up upconv_u2d_u1a
I0411 11:12:16.770951 21254 net.cpp:157] Top shape: 5 128 128 128 (10485760)
I0411 11:12:16.770968 21254 net.cpp:165] Memory required for data: 3124506880
I0411 11:12:16.770980 21254 layer_factory.hpp:77] Creating layer relu_u1a
I0411 11:12:16.770987 21254 net.cpp:100] Creating Layer relu_u1a
I0411 11:12:16.770989 21254 net.cpp:434] relu_u1a <- u1a
I0411 11:12:16.770994 21254 net.cpp:395] relu_u1a -> u1a (in-place)
I0411 11:12:16.771800 21254 net.cpp:150] Setting up relu_u1a
I0411 11:12:16.771811 21254 net.cpp:157] Top shape: 5 128 128 128 (10485760)
I0411 11:12:16.771814 21254 net.cpp:165] Memory required for data: 3166449920
I0411 11:12:16.771817 21254 layer_factory.hpp:77] Creating layer u1a_relu_u1a_0_split
I0411 11:12:16.771822 21254 net.cpp:100] Creating Layer u1a_relu_u1a_0_split
I0411 11:12:16.771826 21254 net.cpp:434] u1a_relu_u1a_0_split <- u1a
I0411 11:12:16.771831 21254 net.cpp:408] u1a_relu_u1a_0_split -> u1a_relu_u1a_0_split_0
I0411 11:12:16.771838 21254 net.cpp:408] u1a_relu_u1a_0_split -> u1a_relu_u1a_0_split_1
I0411 11:12:16.771880 21254 net.cpp:150] Setting up u1a_relu_u1a_0_split
I0411 11:12:16.771886 21254 net.cpp:157] Top shape: 5 128 128 128 (10485760)
I0411 11:12:16.771890 21254 net.cpp:157] Top shape: 5 128 128 128 (10485760)
I0411 11:12:16.771893 21254 net.cpp:165] Memory required for data: 3250336000
I0411 11:12:16.771894 21254 layer_factory.hpp:77] Creating layer crop_d1c-d1cc
I0411 11:12:16.771899 21254 net.cpp:100] Creating Layer crop_d1c-d1cc
I0411 11:12:16.771903 21254 net.cpp:434] crop_d1c-d1cc <- d1c_relu_d1c_0_split_1
I0411 11:12:16.771906 21254 net.cpp:434] crop_d1c-d1cc <- u1a_relu_u1a_0_split_0
I0411 11:12:16.771911 21254 net.cpp:408] crop_d1c-d1cc -> d1cc
I0411 11:12:16.771932 21254 net.cpp:150] Setting up crop_d1c-d1cc
I0411 11:12:16.771939 21254 net.cpp:157] Top shape: 5 128 128 128 (10485760)
I0411 11:12:16.771941 21254 net.cpp:165] Memory required for data: 3292279040
I0411 11:12:16.771944 21254 layer_factory.hpp:77] Creating layer concat_d1cc_u1a-b
I0411 11:12:16.771948 21254 net.cpp:100] Creating Layer concat_d1cc_u1a-b
I0411 11:12:16.771950 21254 net.cpp:434] concat_d1cc_u1a-b <- u1a_relu_u1a_0_split_1
I0411 11:12:16.771953 21254 net.cpp:434] concat_d1cc_u1a-b <- d1cc
I0411 11:12:16.771957 21254 net.cpp:408] concat_d1cc_u1a-b -> u1b
I0411 11:12:16.771978 21254 net.cpp:150] Setting up concat_d1cc_u1a-b
I0411 11:12:16.771983 21254 net.cpp:157] Top shape: 5 256 128 128 (20971520)
I0411 11:12:16.771986 21254 net.cpp:165] Memory required for data: 3376165120
I0411 11:12:16.771988 21254 layer_factory.hpp:77] Creating layer conv_u1b-c
I0411 11:12:16.771996 21254 net.cpp:100] Creating Layer conv_u1b-c
I0411 11:12:16.772001 21254 net.cpp:434] conv_u1b-c <- u1b
I0411 11:12:16.772006 21254 net.cpp:408] conv_u1b-c -> u1c
I0411 11:12:16.773905 21254 net.cpp:150] Setting up conv_u1b-c
I0411 11:12:16.773912 21254 net.cpp:157] Top shape: 5 128 126 126 (10160640)
I0411 11:12:16.773914 21254 net.cpp:165] Memory required for data: 3416807680
I0411 11:12:16.773919 21254 layer_factory.hpp:77] Creating layer relu_u1c
I0411 11:12:16.773924 21254 net.cpp:100] Creating Layer relu_u1c
I0411 11:12:16.773926 21254 net.cpp:434] relu_u1c <- u1c
I0411 11:12:16.773931 21254 net.cpp:395] relu_u1c -> u1c (in-place)
I0411 11:12:16.774099 21254 net.cpp:150] Setting up relu_u1c
I0411 11:12:16.774108 21254 net.cpp:157] Top shape: 5 128 126 126 (10160640)
I0411 11:12:16.774111 21254 net.cpp:165] Memory required for data: 3457450240
I0411 11:12:16.774113 21254 layer_factory.hpp:77] Creating layer conv_u1c-d
I0411 11:12:16.774121 21254 net.cpp:100] Creating Layer conv_u1c-d
I0411 11:12:16.774123 21254 net.cpp:434] conv_u1c-d <- u1c
I0411 11:12:16.774129 21254 net.cpp:408] conv_u1c-d -> u1d
I0411 11:12:16.776007 21254 net.cpp:150] Setting up conv_u1c-d
I0411 11:12:16.776018 21254 net.cpp:157] Top shape: 5 128 124 124 (9840640)
I0411 11:12:16.776021 21254 net.cpp:165] Memory required for data: 3496812800
I0411 11:12:16.776041 21254 layer_factory.hpp:77] Creating layer relu_u1d
I0411 11:12:16.776048 21254 net.cpp:100] Creating Layer relu_u1d
I0411 11:12:16.776051 21254 net.cpp:434] relu_u1d <- u1d
I0411 11:12:16.776056 21254 net.cpp:395] relu_u1d -> u1d (in-place)
I0411 11:12:16.776247 21254 net.cpp:150] Setting up relu_u1d
I0411 11:12:16.776257 21254 net.cpp:157] Top shape: 5 128 124 124 (9840640)
I0411 11:12:16.776258 21254 net.cpp:165] Memory required for data: 3536175360
I0411 11:12:16.776260 21254 layer_factory.hpp:77] Creating layer upconv_u1d_u0a
I0411 11:12:16.776268 21254 net.cpp:100] Creating Layer upconv_u1d_u0a
I0411 11:12:16.776271 21254 net.cpp:434] upconv_u1d_u0a <- u1d
I0411 11:12:16.776275 21254 net.cpp:408] upconv_u1d_u0a -> u0a
I0411 11:12:16.776971 21254 net.cpp:150] Setting up upconv_u1d_u0a
I0411 11:12:16.776979 21254 net.cpp:157] Top shape: 5 128 248 248 (39362560)
I0411 11:12:16.776981 21254 net.cpp:165] Memory required for data: 3693625600
I0411 11:12:16.777001 21254 layer_factory.hpp:77] Creating layer relu_u0a
I0411 11:12:16.777009 21254 net.cpp:100] Creating Layer relu_u0a
I0411 11:12:16.777011 21254 net.cpp:434] relu_u0a <- u0a
I0411 11:12:16.777014 21254 net.cpp:395] relu_u0a -> u0a (in-place)
I0411 11:12:16.777186 21254 net.cpp:150] Setting up relu_u0a
I0411 11:12:16.777194 21254 net.cpp:157] Top shape: 5 128 248 248 (39362560)
I0411 11:12:16.777197 21254 net.cpp:165] Memory required for data: 3851075840
I0411 11:12:16.777200 21254 layer_factory.hpp:77] Creating layer u0a_relu_u0a_0_split
I0411 11:12:16.777205 21254 net.cpp:100] Creating Layer u0a_relu_u0a_0_split
I0411 11:12:16.777207 21254 net.cpp:434] u0a_relu_u0a_0_split <- u0a
I0411 11:12:16.777212 21254 net.cpp:408] u0a_relu_u0a_0_split -> u0a_relu_u0a_0_split_0
I0411 11:12:16.777218 21254 net.cpp:408] u0a_relu_u0a_0_split -> u0a_relu_u0a_0_split_1
I0411 11:12:16.777257 21254 net.cpp:150] Setting up u0a_relu_u0a_0_split
I0411 11:12:16.777263 21254 net.cpp:157] Top shape: 5 128 248 248 (39362560)
I0411 11:12:16.777267 21254 net.cpp:157] Top shape: 5 128 248 248 (39362560)
I0411 11:12:16.777269 21254 net.cpp:165] Memory required for data: 4165976320
I0411 11:12:16.777272 21254 layer_factory.hpp:77] Creating layer crop_d0c-d0cc
I0411 11:12:16.777276 21254 net.cpp:100] Creating Layer crop_d0c-d0cc
I0411 11:12:16.777279 21254 net.cpp:434] crop_d0c-d0cc <- d0c_relu_d0c_0_split_1
I0411 11:12:16.777283 21254 net.cpp:434] crop_d0c-d0cc <- u0a_relu_u0a_0_split_0
I0411 11:12:16.777288 21254 net.cpp:408] crop_d0c-d0cc -> d0cc
I0411 11:12:16.777309 21254 net.cpp:150] Setting up crop_d0c-d0cc
I0411 11:12:16.777317 21254 net.cpp:157] Top shape: 5 64 248 248 (19681280)
I0411 11:12:16.777319 21254 net.cpp:165] Memory required for data: 4244701440
I0411 11:12:16.777321 21254 layer_factory.hpp:77] Creating layer concat_d0cc_u0a-b
I0411 11:12:16.777336 21254 net.cpp:100] Creating Layer concat_d0cc_u0a-b
I0411 11:12:16.777338 21254 net.cpp:434] concat_d0cc_u0a-b <- u0a_relu_u0a_0_split_1
I0411 11:12:16.777341 21254 net.cpp:434] concat_d0cc_u0a-b <- d0cc
I0411 11:12:16.777345 21254 net.cpp:408] concat_d0cc_u0a-b -> u0b
I0411 11:12:16.777366 21254 net.cpp:150] Setting up concat_d0cc_u0a-b
I0411 11:12:16.777372 21254 net.cpp:157] Top shape: 5 192 248 248 (59043840)
I0411 11:12:16.777374 21254 net.cpp:165] Memory required for data: 4480876800
I0411 11:12:16.777376 21254 layer_factory.hpp:77] Creating layer conv_u0b-c
I0411 11:12:16.777384 21254 net.cpp:100] Creating Layer conv_u0b-c
I0411 11:12:16.777386 21254 net.cpp:434] conv_u0b-c <- u0b
I0411 11:12:16.777391 21254 net.cpp:408] conv_u0b-c -> u0c
I0411 11:12:16.778291 21254 net.cpp:150] Setting up conv_u0b-c
I0411 11:12:16.778300 21254 net.cpp:157] Top shape: 5 64 246 246 (19365120)
I0411 11:12:16.778301 21254 net.cpp:165] Memory required for data: 4558337280
I0411 11:12:16.778306 21254 layer_factory.hpp:77] Creating layer relu_u0c
I0411 11:12:16.778321 21254 net.cpp:100] Creating Layer relu_u0c
I0411 11:12:16.778322 21254 net.cpp:434] relu_u0c <- u0c
I0411 11:12:16.778327 21254 net.cpp:395] relu_u0c -> u0c (in-place)
I0411 11:12:16.779127 21254 net.cpp:150] Setting up relu_u0c
I0411 11:12:16.779139 21254 net.cpp:157] Top shape: 5 64 246 246 (19365120)
I0411 11:12:16.779141 21254 net.cpp:165] Memory required for data: 4635797760
I0411 11:12:16.779145 21254 layer_factory.hpp:77] Creating layer conv_u0c-d
I0411 11:12:16.779153 21254 net.cpp:100] Creating Layer conv_u0c-d
I0411 11:12:16.779156 21254 net.cpp:434] conv_u0c-d <- u0c
I0411 11:12:16.779162 21254 net.cpp:408] conv_u0c-d -> u0d
I0411 11:12:16.779657 21254 net.cpp:150] Setting up conv_u0c-d
I0411 11:12:16.779664 21254 net.cpp:157] Top shape: 5 64 244 244 (19051520)
I0411 11:12:16.779667 21254 net.cpp:165] Memory required for data: 4712003840
I0411 11:12:16.779672 21254 layer_factory.hpp:77] Creating layer relu_u0d
I0411 11:12:16.779678 21254 net.cpp:100] Creating Layer relu_u0d
I0411 11:12:16.779680 21254 net.cpp:434] relu_u0d <- u0d
I0411 11:12:16.779685 21254 net.cpp:395] relu_u0d -> u0d (in-place)
I0411 11:12:16.779853 21254 net.cpp:150] Setting up relu_u0d
I0411 11:12:16.779862 21254 net.cpp:157] Top shape: 5 64 244 244 (19051520)
I0411 11:12:16.779865 21254 net.cpp:165] Memory required for data: 4788209920
I0411 11:12:16.779867 21254 layer_factory.hpp:77] Creating layer conv_u0d-score
I0411 11:12:16.779875 21254 net.cpp:100] Creating Layer conv_u0d-score
I0411 11:12:16.779881 21254 net.cpp:434] conv_u0d-score <- u0d
I0411 11:12:16.779886 21254 net.cpp:408] conv_u0d-score -> score
I0411 11:12:16.780159 21254 net.cpp:150] Setting up conv_u0d-score
I0411 11:12:16.780184 21254 net.cpp:157] Top shape: 5 3 244 244 (893040)
I0411 11:12:16.780186 21254 net.cpp:165] Memory required for data: 4791782080
I0411 11:12:16.780191 21254 layer_factory.hpp:77] Creating layer score_conv_u0d-score_0_split
I0411 11:12:16.780196 21254 net.cpp:100] Creating Layer score_conv_u0d-score_0_split
I0411 11:12:16.780199 21254 net.cpp:434] score_conv_u0d-score_0_split <- score
I0411 11:12:16.780202 21254 net.cpp:408] score_conv_u0d-score_0_split -> score_conv_u0d-score_0_split_0
I0411 11:12:16.780207 21254 net.cpp:408] score_conv_u0d-score_0_split -> score_conv_u0d-score_0_split_1
I0411 11:12:16.780261 21254 net.cpp:150] Setting up score_conv_u0d-score_0_split
I0411 11:12:16.780267 21254 net.cpp:157] Top shape: 5 3 244 244 (893040)
I0411 11:12:16.780270 21254 net.cpp:157] Top shape: 5 3 244 244 (893040)
I0411 11:12:16.780273 21254 net.cpp:165] Memory required for data: 4798926400
I0411 11:12:16.780275 21254 layer_factory.hpp:77] Creating layer softmax
I0411 11:12:16.780282 21254 net.cpp:100] Creating Layer softmax
I0411 11:12:16.780294 21254 net.cpp:434] softmax <- score_conv_u0d-score_0_split_0
I0411 11:12:16.780298 21254 net.cpp:408] softmax -> softmax_out
I0411 11:12:16.780536 21254 net.cpp:150] Setting up softmax
I0411 11:12:16.780544 21254 net.cpp:157] Top shape: 5 3 244 244 (893040)
I0411 11:12:16.780546 21254 net.cpp:165] Memory required for data: 4802498560
I0411 11:12:16.780550 21254 layer_factory.hpp:77] Creating layer reshapelab
I0411 11:12:16.780555 21254 net.cpp:100] Creating Layer reshapelab
I0411 11:12:16.780558 21254 net.cpp:434] reshapelab <- label
I0411 11:12:16.780563 21254 net.cpp:408] reshapelab -> label_flat
I0411 11:12:16.780591 21254 net.cpp:150] Setting up reshapelab
I0411 11:12:16.780596 21254 net.cpp:157] Top shape: 5 59536 (297680)
I0411 11:12:16.780599 21254 net.cpp:165] Memory required for data: 4803689280
I0411 11:12:16.780601 21254 layer_factory.hpp:77] Creating layer reshaperes
I0411 11:12:16.780606 21254 net.cpp:100] Creating Layer reshaperes
I0411 11:12:16.780608 21254 net.cpp:434] reshaperes <- softmax_out
I0411 11:12:16.780612 21254 net.cpp:408] reshaperes -> softmax_out_flat
I0411 11:12:16.780634 21254 net.cpp:150] Setting up reshaperes
I0411 11:12:16.780642 21254 net.cpp:157] Top shape: 5 3 59536 (893040)
I0411 11:12:16.780644 21254 net.cpp:165] Memory required for data: 4807261440
I0411 11:12:16.780647 21254 layer_factory.hpp:77] Creating layer loss
I0411 11:12:16.780853 21254 net.cpp:100] Creating Layer loss
I0411 11:12:16.780861 21254 net.cpp:434] loss <- softmax_out_flat
I0411 11:12:16.780865 21254 net.cpp:434] loss <- label_flat
I0411 11:12:16.780870 21254 net.cpp:408] loss -> loss
I0411 11:12:16.789445 21254 net.cpp:150] Setting up loss
I0411 11:12:16.789458 21254 net.cpp:157] Top shape: 3 (3)
I0411 11:12:16.789459 21254 net.cpp:160]     with loss weight 1
I0411 11:12:16.789468 21254 net.cpp:165] Memory required for data: 4807261452
I0411 11:12:16.789470 21254 layer_factory.hpp:77] Creating layer visualize
I0411 11:12:16.789476 21254 net.cpp:100] Creating Layer visualize
I0411 11:12:16.789479 21254 net.cpp:434] visualize <- score_conv_u0d-score_0_split_1
I0411 11:12:16.789485 21254 net.cpp:408] visualize -> visualize_out
I0411 11:12:16.790371 21254 net.cpp:150] Setting up visualize
I0411 11:12:16.790385 21254 net.cpp:157] Top shape: 5 3 244 244 (893040)
I0411 11:12:16.790386 21254 net.cpp:165] Memory required for data: 4810833612
I0411 11:12:16.790390 21254 layer_factory.hpp:77] Creating layer fake
I0411 11:12:16.790395 21254 net.cpp:100] Creating Layer fake
I0411 11:12:16.790397 21254 net.cpp:434] fake <- visualize_out
I0411 11:12:16.790401 21254 net.cpp:150] Setting up fake
I0411 11:12:16.790403 21254 net.cpp:165] Memory required for data: 4810833612
…
I0411 11:12:16.791296 21254 net.cpp:322] The NetState phase (1) differed from the phase (0) specified by a rule in layer visualize
I0411 11:12:16.791301 21254 net.cpp:322] The NetState phase (1) differed from the phase (0) specified by a rule in layer fake
I0411 11:12:16.791579 21254 net.cpp:58] Initializing net from parameters: 
name: "unet"
force_backward: true
state {
  phase: TEST
}
layer {
  name: "loaddata"
  type: "HDF5Data"
  top: "data"
  top: "label"
  include {
    phase: TEST
  }
  hdf5_data_param {
    source: "../caffeHDF5_validation.txt"
    batch_size: 1
  }
}
layer {
  name: "conv_d0a-b"
  type: "Convolution"
  bottom: "data"
  top: "d0b"
  param {
    lr_mult: 1
    decay_mult: 1
  }
  param {
    lr_mult: 2
    decay_mult: 0
  }
  convolution_param {
    num_output: 64
    pad: 0
    kernel_size: 3
    weight_filler {
      type: "xavier"
    }
    engine: CAFFE
  }
}
layer {
  name: "relu_d0b"
  type: "ReLU"
  bottom: "d0b"
  top: "d0b"
}
layer {
  name: "conv_d0b-c"
  type: "Convolution"
  bottom: "d0b"
  top: "d0c"
  param {
    lr_mult: 1
    decay_mult: 1
  }
  param {
    lr_mult: 2
    decay_mult: 0
  }
  convolution_param {
    num_output: 64
    pad: 0
    kernel_size: 3
    weight_filler {
      type: "xavier"
    }
    engine: CAFFE
  }
}
layer {
  name: "relu_d0c"
  type: "ReLU"
  bottom: "d0c"
  top: "d0c"
}
layer {
  name: "pool_d0c-1a"
  type: "Pooling"
  bottom: "d0c"
  top: "d1a"
  pooling_param {
    pool: MAX
    kernel_size: 2
    stride: 2
  }
}
layer {
  name: "conv_d1a-b"
  type: "Convolution"
  bottom: "d1a"
  top: "d1b"
  param {
    lr_mult: 1
    decay_mult: 1
  }
  param {
    lr_mult: 2
    decay_mult: 0
  }
  convolution_param {
    num_output: 128
    pad: 0
    kernel_size: 3
    weight_filler {
      type: "xavier"
    }
    engine: CAFFE
  }
}
layer {
  name: "relu_d1b"
  type: "ReLU"
  bottom: "d1b"
  top: "d1b"
}
layer {
  name: "conv_d1b-c"
  type: "Convolution"
  bottom: "d1b"
  top: "d1c"
  param {
    lr_mult: 1
    decay_mult: 1
  }
  param {
    lr_mult: 2
    decay_mult: 0
  }
  convolution_param {
    num_output: 128
    pad: 0
    kernel_size: 3
    weight_filler {
      type: "xavier"
    }
    engine: CAFFE
  }
}
layer {
  name: "relu_d1c"
  type: "ReLU"
  bottom: "d1c"
  top: "d1c"
}
layer {
  name: "pool_d1c-2a"
  type: "Pooling"
  bottom: "d1c"
  top: "d2a"
  pooling_param {
    pool: MAX
    kernel_size: 2
    stride: 2
  }
}
layer {
  name: "conv_d2a-b"
  type: "Convolution"
  bottom: "d2a"
  top: "d2b"
  param {
    lr_mult: 1
    decay_mult: 1
  }
  param {
    lr_mult: 2
    decay_mult: 0
  }
  convolution_param {
    num_output: 256
    pad: 0
    kernel_size: 3
    weight_filler {
      type: "xavier"
    }
    engine: CAFFE
  }
}
layer {
  name: "relu_d2b"
  type: "ReLU"
  bottom: "d2b"
  top: "d2b"
}
layer {
  name: "conv_d2b-c"
  type: "Convolution"
  bottom: "d2b"
  top: "d2c"
  param {
    lr_mult: 1
    decay_mult: 1
  }
  param {
    lr_mult: 2
    decay_mult: 0
  }
  convolution_param {
    num_output: 256
    pad: 0
    kernel_size: 3
    weight_filler {
      type: "xavier"
    }
    engine: CAFFE
  }
}
layer {
  name: "relu_d2c"
  type: "ReLU"
  bottom: "d2c"
  top: "d2c"
}
layer {
  name: "pool_d2c-3a"
  type: "Pooling"
  bottom: "d2c"
  top: "d3a"
  pooling_param {
    pool: MAX
    kernel_size: 2
    stride: 2
  }
}
layer {
  name: "conv_d3a-b"
  type: "Convolution"
  bottom: "d3a"
  top: "d3b"
  param {
    lr_mult: 1
    decay_mult: 1
  }
  param {
    lr_mult: 2
    decay_mult: 0
  }
  convolution_param {
    num_output: 512
    pad: 0
    kernel_size: 3
    weight_filler {
      type: "xavier"
    }
    engine: CAFFE
  }
}
layer {
  name: "relu_d3b"
  type: "ReLU"
  bottom: "d3b"
  top: "d3b"
}
layer {
  name: "conv_d3b-c"
  type: "Convolution"
  bottom: "d3b"
  top: "d3c"
  param {
    lr_mult: 1
    decay_mult: 1
  }
  param {
    lr_mult: 2
    decay_mult: 0
  }
  convolution_param {
    num_output: 512
    pad: 0
    kernel_size: 3
    weight_filler {
      type: "xavier"
    }
    engine: CAFFE
  }
}
layer {
  name: "relu_d3c"
  type: "ReLU"
  bottom: "d3c"
  top: "d3c"
}
layer {
  name: "pool_d3c-4a"
  type: "Pooling"
  bottom: "d3c"
  top: "d4a"
  pooling_param {
    pool: MAX
    kernel_size: 2
    stride: 2
  }
}
layer {
  name: "conv_d4a-b"
  type: "Convolution"
  bottom: "d4a"
  top: "d4b"
  param {
    lr_mult: 1
    decay_mult: 1
  }
  param {
    lr_mult: 2
    decay_mult: 0
  }
  convolution_param {
    num_output: 1024
    pad: 0
    kernel_size: 3
    weight_filler {
      type: "xavier"
    }
    engine: CAFFE
  }
}
layer {
  name: "relu_d4b"
  type: "ReLU"
  bottom: "d4b"
  top: "d4b"
}
layer {
  name: "conv_d4b-c"
  type: "Convolution"
  bottom: "d4b"
  top: "d4c"
  param {
    lr_mult: 1
    decay_mult: 1
  }
  param {
    lr_mult: 2
    decay_mult: 0
  }
  convolution_param {
    num_output: 1024
    pad: 0
    kernel_size: 3
    weight_filler {
      type: "xavier"
    }
    engine: CAFFE
  }
}
layer {
  name: "relu_d4c"
  type: "ReLU"
  bottom: "d4c"
  top: "d4c"
}
layer {
  name: "upconv_d4c_u3a"
  type: "Deconvolution"
  bottom: "d4c"
  top: "u3a"
  param {
    lr_mult: 1
    decay_mult: 1
  }
  param {
    lr_mult: 2
    decay_mult: 0
  }
  convolution_param {
    num_output: 512
    pad: 0
    kernel_size: 2
    stride: 2
    weight_filler {
      type: "xavier"
    }
  }
}
layer {
  name: "relu_u3a"
  type: "ReLU"
  bottom: "u3a"
  top: "u3a"
}
layer {
  name: "crop_d3c-d3cc"
  type: "Crop"
  bottom: "d3c"
  bottom: "u3a"
  top: "d3cc"
  crop_param {
    axis: 2
    offset: 4
  }
}
layer {
  name: "concat_d3cc_u3a-b"
  type: "Concat"
  bottom: "u3a"
  bottom: "d3cc"
  top: "u3b"
}
layer {
  name: "conv_u3b-c"
  type: "Convolution"
  bottom: "u3b"
  top: "u3c"
  param {
    lr_mult: 1
    decay_mult: 1
  }
  param {
    lr_mult: 2
    decay_mult: 0
  }
  convolution_param {
    num_output: 512
    pad: 0
    kernel_size: 3
    weight_filler {
      type: "xavier"
    }
    engine: CAFFE
  }
}
layer {
  name: "relu_u3c"
  type: "ReLU"
  bottom: "u3c"
  top: "u3c"
}
layer {
  name: "conv_u3c-d"
  type: "Convolution"
  bottom: "u3c"
  top: "u3d"
  param {
    lr_mult: 1
    decay_mult: 1
  }
  param {
    lr_mult: 2
    decay_mult: 0
  }
  convolution_param {
    num_output: 512
    pad: 0
    kernel_size: 3
    weight_filler {
      type: "xavier"
    }
    engine: CAFFE
  }
}
layer {
  name: "relu_u3d"
  type: "ReLU"
  bottom: "u3d"
  top: "u3d"
}
layer {
  name: "upconv_u3d_u2a"
  type: "Deconvolution"
  bottom: "u3d"
  top: "u2a"
  param {
    lr_mult: 1
    decay_mult: 1
  }
  param {
    lr_mult: 2
    decay_mult: 0
  }
  convolution_param {
    num_output: 256
    pad: 0
    kernel_size: 2
    stride: 2
    weight_filler {
      type: "xavier"
    }
  }
}
layer {
  name: "relu_u2a"
  type: "ReLU"
  bottom: "u2a"
  top: "u2a"
}
layer {
  name: "crop_d2c-d2cc"
  type: "Crop"
  bottom: "d2c"
  bottom: "u2a"
  top: "d2cc"
  crop_param {
    axis: 2
    offset: 16
  }
}
layer {
  name: "concat_d2cc_u2a-b"
  type: "Concat"
  bottom: "u2a"
  bottom: "d2cc"
  top: "u2b"
}
layer {
  name: "conv_u2b-c"
  type: "Convolution"
  bottom: "u2b"
  top: "u2c"
  param {
    lr_mult: 1
    decay_mult: 1
  }
  param {
    lr_mult: 2
    decay_mult: 0
  }
  convolution_param {
    num_output: 256
    pad: 0
    kernel_size: 3
    weight_filler {
      type: "xavier"
    }
    engine: CAFFE
  }
}
layer {
  name: "relu_u2c"
  type: "ReLU"
  bottom: "u2c"
  top: "u2c"
}
layer {
  name: "conv_u2c-d"
  type: "Convolution"
  bottom: "u2c"
  top: "u2d"
  param {
    lr_mult: 1
    decay_mult: 1
  }
  param {
    lr_mult: 2
    decay_mult: 0
  }
  convolution_param {
    num_output: 256
    pad: 0
    kernel_size: 3
    weight_filler {
      type: "xavier"
    }
    engine: CAFFE
  }
}
layer {
  name: "relu_u2d"
  type: "ReLU"
  bottom: "u2d"
  top: "u2d"
}
layer {
  name: "upconv_u2d_u1a"
  type: "Deconvolution"
  bottom: "u2d"
  top: "u1a"
  param {
    lr_mult: 1
    decay_mult: 1
  }
  param {
    lr_mult: 2
    decay_mult: 0
  }
  convolution_param {
    num_output: 128
    pad: 0
    kernel_size: 2
    stride: 2
    weight_filler {
      type: "xavier"
    }
  }
}
layer {
  name: "relu_u1a"
  type: "ReLU"
  bottom: "u1a"
  top: "u1a"
}
layer {
  name: "crop_d1c-d1cc"
  type: "Crop"
  bottom: "d1c"
  bottom: "u1a"
  top: "d1cc"
  crop_param {
    axis: 2
    offset: 40
  }
}
layer {
  name: "concat_d1cc_u1a-b"
  type: "Concat"
  bottom: "u1a"
  bottom: "d1cc"
  top: "u1b"
}
layer {
  name: "conv_u1b-c"
  type: "Convolution"
  bottom: "u1b"
  top: "u1c"
  param {
    lr_mult: 1
    decay_mult: 1
  }
  param {
    lr_mult: 2
    decay_mult: 0
  }
  convolution_param {
    num_output: 128
    pad: 0
    kernel_size: 3
    weight_filler {
      type: "xavier"
    }
    engine: CAFFE
  }
}
layer {
  name: "relu_u1c"
  type: "ReLU"
  bottom: "u1c"
  top: "u1c"
}
layer {
  name: "conv_u1c-d"
  type: "Convolution"
  bottom: "u1c"
  top: "u1d"
  param {
    lr_mult: 1
    decay_mult: 1
  }
  param {
    lr_mult: 2
    decay_mult: 0
  }
  convolution_param {
    num_output: 128
    pad: 0
    kernel_size: 3
    weight_filler {
      type: "xavier"
    }
    engine: CAFFE
  }
}
layer {
  name: "relu_u1d"
  type: "ReLU"
  bottom: "u1d"
  top: "u1d"
}
layer {
  name: "upconv_u1d_u0a"
  type: "Deconvolution"
  bottom: "u1d"
  top: "u0a"
  param {
    lr_mult: 1
    decay_mult: 1
  }
  param {
    lr_mult: 2
    decay_mult: 0
  }
  convolution_param {
    num_output: 128
    pad: 0
    kernel_size: 2
    stride: 2
    weight_filler {
      type: "xavier"
    }
  }
}
layer {
  name: "relu_u0a"
  type: "ReLU"
  bottom: "u0a"
  top: "u0a"
}
layer {
  name: "crop_d0c-d0cc"
  type: "Crop"
  bottom: "d0c"
  bottom: "u0a"
  top: "d0cc"
  crop_param {
    axis: 2
    offset: 88
  }
}
layer {
  name: "concat_d0cc_u0a-b"
  type: "Concat"
  bottom: "u0a"
  bottom: "d0cc"
  top: "u0b"
}
layer {
  name: "conv_u0b-c"
  type: "Convolution"
  bottom: "u0b"
  top: "u0c"
  param {
    lr_mult: 1
    decay_mult: 1
  }
  param {
    lr_mult: 2
    decay_mult: 0
  }
  convolution_param {
    num_output: 64
    pad: 0
    kernel_size: 3
    weight_filler {
      type: "xavier"
    }
    engine: CAFFE
  }
}
layer {
  name: "relu_u0c"
  type: "ReLU"
  bottom: "u0c"
  top: "u0c"
}
layer {
  name: "conv_u0c-d"
  type: "Convolution"
  bottom: "u0c"
  top: "u0d"
  param {
    lr_mult: 1
    decay_mult: 1
  }
  param {
    lr_mult: 2
    decay_mult: 0
  }
  convolution_param {
    num_output: 64
    pad: 0
    kernel_size: 3
    weight_filler {
      type: "xavier"
    }
    engine: CAFFE
  }
}
layer {
  name: "relu_u0d"
  type: "ReLU"
  bottom: "u0d"
  top: "u0d"
}
layer {
  name: "conv_u0d-score"
  type: "Convolution"
  bottom: "u0d"
  top: "score"
  param {
    lr_mult: 1
    decay_mult: 1
  }
  param {
    lr_mult: 2
    decay_mult: 0
  }
  convolution_param {
    num_output: 3
    pad: 0
    kernel_size: 1
    weight_filler {
      type: "xavier"
    }
    engine: CAFFE
  }
}
layer {
  name: "softmax"
  type: "Softmax"
  bottom: "score"
  top: "softmax_out"
}
layer {
  name: "reshapelab"
  type: "Reshape"
  bottom: "label"
  top: "label_flat"
  reshape_param {
    shape {
      dim: 0
      dim: -1
    }
  }
}
layer {
  name: "reshaperes"
  type: "Reshape"
  bottom: "softmax_out"
  top: "softmax_out_flat"
  reshape_param {
    shape {
      dim: 0
      dim: 0
      dim: -1
    }
  }
}
layer {
  name: "loss"
  type: "Python"
  bottom: "softmax_out_flat"
  bottom: "label_flat"
  top: "loss"
  loss_weight: 1
  python_param {
    module: "multiclass_f1_loss"
    layer: "F1Loss"
  }
}
I0411 11:12:16.791779 21254 layer_factory.hpp:77] Creating layer loaddata
I0411 11:12:16.791785 21254 net.cpp:100] Creating Layer loaddata
I0411 11:12:16.791790 21254 net.cpp:408] loaddata -> data
I0411 11:12:16.791795 21254 net.cpp:408] loaddata -> label
I0411 11:12:16.791800 21254 hdf5_data_layer.cpp:79] Loading list of HDF5 filenames from: ../caffeHDF5_validation.txt
I0411 11:12:16.791821 21254 hdf5_data_layer.cpp:93] Number of HDF5 files: 10
I0411 11:12:17.028889 21254 net.cpp:150] Setting up loaddata
I0411 11:12:17.028928 21254 net.cpp:157] Top shape: 1 3 428 428 (549552)
I0411 11:12:17.028934 21254 net.cpp:157] Top shape: 1 244 244 (59536)
I0411 11:12:17.028935 21254 net.cpp:165] Memory required for data: 2436352
I0411 11:12:17.028941 21254 layer_factory.hpp:77] Creating layer conv_d0a-b
I0411 11:12:17.028959 21254 net.cpp:100] Creating Layer conv_d0a-b
I0411 11:12:17.028962 21254 net.cpp:434] conv_d0a-b <- data
I0411 11:12:17.028983 21254 net.cpp:408] conv_d0a-b -> d0b
I0411 11:12:17.029464 21254 net.cpp:150] Setting up conv_d0a-b
I0411 11:12:17.029472 21254 net.cpp:157] Top shape: 1 64 426 426 (11614464)
I0411 11:12:17.029475 21254 net.cpp:165] Memory required for data: 48894208
I0411 11:12:17.029484 21254 layer_factory.hpp:77] Creating layer relu_d0b
I0411 11:12:17.029490 21254 net.cpp:100] Creating Layer relu_d0b
I0411 11:12:17.029494 21254 net.cpp:434] relu_d0b <- d0b
I0411 11:12:17.029497 21254 net.cpp:395] relu_d0b -> d0b (in-place)
I0411 11:12:17.029726 21254 net.cpp:150] Setting up relu_d0b
I0411 11:12:17.029734 21254 net.cpp:157] Top shape: 1 64 426 426 (11614464)
I0411 11:12:17.029737 21254 net.cpp:165] Memory required for data: 95352064
I0411 11:12:17.029739 21254 layer_factory.hpp:77] Creating layer conv_d0b-c
I0411 11:12:17.029747 21254 net.cpp:100] Creating Layer conv_d0b-c
I0411 11:12:17.029749 21254 net.cpp:434] conv_d0b-c <- d0b
I0411 11:12:17.029754 21254 net.cpp:408] conv_d0b-c -> d0c
I0411 11:12:17.030360 21254 net.cpp:150] Setting up conv_d0b-c
I0411 11:12:17.030367 21254 net.cpp:157] Top shape: 1 64 424 424 (11505664)
I0411 11:12:17.030369 21254 net.cpp:165] Memory required for data: 141374720
I0411 11:12:17.030390 21254 layer_factory.hpp:77] Creating layer relu_d0c
I0411 11:12:17.030395 21254 net.cpp:100] Creating Layer relu_d0c
I0411 11:12:17.030397 21254 net.cpp:434] relu_d0c <- d0c
I0411 11:12:17.030401 21254 net.cpp:395] relu_d0c -> d0c (in-place)
I0411 11:12:17.030609 21254 net.cpp:150] Setting up relu_d0c
I0411 11:12:17.030618 21254 net.cpp:157] Top shape: 1 64 424 424 (11505664)
I0411 11:12:17.030620 21254 net.cpp:165] Memory required for data: 187397376
I0411 11:12:17.030623 21254 layer_factory.hpp:77] Creating layer d0c_relu_d0c_0_split
I0411 11:12:17.030628 21254 net.cpp:100] Creating Layer d0c_relu_d0c_0_split
I0411 11:12:17.030630 21254 net.cpp:434] d0c_relu_d0c_0_split <- d0c
I0411 11:12:17.030652 21254 net.cpp:408] d0c_relu_d0c_0_split -> d0c_relu_d0c_0_split_0
I0411 11:12:17.030660 21254 net.cpp:408] d0c_relu_d0c_0_split -> d0c_relu_d0c_0_split_1
I0411 11:12:17.030701 21254 net.cpp:150] Setting up d0c_relu_d0c_0_split
I0411 11:12:17.030709 21254 net.cpp:157] Top shape: 1 64 424 424 (11505664)
I0411 11:12:17.030712 21254 net.cpp:157] Top shape: 1 64 424 424 (11505664)
I0411 11:12:17.030714 21254 net.cpp:165] Memory required for data: 279442688
I0411 11:12:17.030717 21254 layer_factory.hpp:77] Creating layer pool_d0c-1a
I0411 11:12:17.030722 21254 net.cpp:100] Creating Layer pool_d0c-1a
I0411 11:12:17.030725 21254 net.cpp:434] pool_d0c-1a <- d0c_relu_d0c_0_split_0
I0411 11:12:17.030730 21254 net.cpp:408] pool_d0c-1a -> d1a
I0411 11:12:17.030766 21254 net.cpp:150] Setting up pool_d0c-1a
I0411 11:12:17.030771 21254 net.cpp:157] Top shape: 1 64 212 212 (2876416)
I0411 11:12:17.030773 21254 net.cpp:165] Memory required for data: 290948352
I0411 11:12:17.030776 21254 layer_factory.hpp:77] Creating layer conv_d1a-b
I0411 11:12:17.030782 21254 net.cpp:100] Creating Layer conv_d1a-b
I0411 11:12:17.030784 21254 net.cpp:434] conv_d1a-b <- d1a
I0411 11:12:17.030789 21254 net.cpp:408] conv_d1a-b -> d1b
I0411 11:12:17.032392 21254 net.cpp:150] Setting up conv_d1a-b
I0411 11:12:17.032404 21254 net.cpp:157] Top shape: 1 128 210 210 (5644800)
I0411 11:12:17.032407 21254 net.cpp:165] Memory required for data: 313527552
I0411 11:12:17.032415 21254 layer_factory.hpp:77] Creating layer relu_d1b
I0411 11:12:17.032423 21254 net.cpp:100] Creating Layer relu_d1b
I0411 11:12:17.032425 21254 net.cpp:434] relu_d1b <- d1b
I0411 11:12:17.032429 21254 net.cpp:395] relu_d1b -> d1b (in-place)
I0411 11:12:17.032622 21254 net.cpp:150] Setting up relu_d1b
I0411 11:12:17.032631 21254 net.cpp:157] Top shape: 1 128 210 210 (5644800)
I0411 11:12:17.032634 21254 net.cpp:165] Memory required for data: 336106752
I0411 11:12:17.032636 21254 layer_factory.hpp:77] Creating layer conv_d1b-c
I0411 11:12:17.032644 21254 net.cpp:100] Creating Layer conv_d1b-c
I0411 11:12:17.032647 21254 net.cpp:434] conv_d1b-c <- d1b
I0411 11:12:17.032652 21254 net.cpp:408] conv_d1b-c -> d1c
I0411 11:12:17.034574 21254 net.cpp:150] Setting up conv_d1b-c
I0411 11:12:17.034586 21254 net.cpp:157] Top shape: 1 128 208 208 (5537792)
I0411 11:12:17.034590 21254 net.cpp:165] Memory required for data: 358257920
I0411 11:12:17.034595 21254 layer_factory.hpp:77] Creating layer relu_d1c
I0411 11:12:17.034600 21254 net.cpp:100] Creating Layer relu_d1c
I0411 11:12:17.034603 21254 net.cpp:434] relu_d1c <- d1c
I0411 11:12:17.034607 21254 net.cpp:395] relu_d1c -> d1c (in-place)
I0411 11:12:17.035457 21254 net.cpp:150] Setting up relu_d1c
I0411 11:12:17.035470 21254 net.cpp:157] Top shape: 1 128 208 208 (5537792)
I0411 11:12:17.035472 21254 net.cpp:165] Memory required for data: 380409088
I0411 11:12:17.035475 21254 layer_factory.hpp:77] Creating layer d1c_relu_d1c_0_split
I0411 11:12:17.035480 21254 net.cpp:100] Creating Layer d1c_relu_d1c_0_split
I0411 11:12:17.035482 21254 net.cpp:434] d1c_relu_d1c_0_split <- d1c
I0411 11:12:17.035488 21254 net.cpp:408] d1c_relu_d1c_0_split -> d1c_relu_d1c_0_split_0
I0411 11:12:17.035495 21254 net.cpp:408] d1c_relu_d1c_0_split -> d1c_relu_d1c_0_split_1
I0411 11:12:17.035538 21254 net.cpp:150] Setting up d1c_relu_d1c_0_split
I0411 11:12:17.035545 21254 net.cpp:157] Top shape: 1 128 208 208 (5537792)
I0411 11:12:17.035549 21254 net.cpp:157] Top shape: 1 128 208 208 (5537792)
I0411 11:12:17.035552 21254 net.cpp:165] Memory required for data: 424711424
I0411 11:12:17.035553 21254 layer_factory.hpp:77] Creating layer pool_d1c-2a
I0411 11:12:17.035558 21254 net.cpp:100] Creating Layer pool_d1c-2a
I0411 11:12:17.035562 21254 net.cpp:434] pool_d1c-2a <- d1c_relu_d1c_0_split_0
I0411 11:12:17.035565 21254 net.cpp:408] pool_d1c-2a -> d2a
I0411 11:12:17.035600 21254 net.cpp:150] Setting up pool_d1c-2a
I0411 11:12:17.035605 21254 net.cpp:157] Top shape: 1 128 104 104 (1384448)
I0411 11:12:17.035609 21254 net.cpp:165] Memory required for data: 430249216
I0411 11:12:17.035610 21254 layer_factory.hpp:77] Creating layer conv_d2a-b
I0411 11:12:17.035617 21254 net.cpp:100] Creating Layer conv_d2a-b
I0411 11:12:17.035620 21254 net.cpp:434] conv_d2a-b <- d2a
I0411 11:12:17.035625 21254 net.cpp:408] conv_d2a-b -> d2b
I0411 11:12:17.037595 21254 net.cpp:150] Setting up conv_d2a-b
I0411 11:12:17.037601 21254 net.cpp:157] Top shape: 1 256 102 102 (2663424)
I0411 11:12:17.037603 21254 net.cpp:165] Memory required for data: 440902912
I0411 11:12:17.037626 21254 layer_factory.hpp:77] Creating layer relu_d2b
I0411 11:12:17.037631 21254 net.cpp:100] Creating Layer relu_d2b
I0411 11:12:17.037634 21254 net.cpp:434] relu_d2b <- d2b
I0411 11:12:17.037638 21254 net.cpp:395] relu_d2b -> d2b (in-place)
I0411 11:12:17.037807 21254 net.cpp:150] Setting up relu_d2b
I0411 11:12:17.037816 21254 net.cpp:157] Top shape: 1 256 102 102 (2663424)
I0411 11:12:17.037818 21254 net.cpp:165] Memory required for data: 451556608
I0411 11:12:17.037820 21254 layer_factory.hpp:77] Creating layer conv_d2b-c
I0411 11:12:17.037827 21254 net.cpp:100] Creating Layer conv_d2b-c
I0411 11:12:17.037830 21254 net.cpp:434] conv_d2b-c <- d2b
I0411 11:12:17.037834 21254 net.cpp:408] conv_d2b-c -> d2c
I0411 11:12:17.042284 21254 net.cpp:150] Setting up conv_d2b-c
I0411 11:12:17.042295 21254 net.cpp:157] Top shape: 1 256 100 100 (2560000)
I0411 11:12:17.042313 21254 net.cpp:165] Memory required for data: 461796608
I0411 11:12:17.042318 21254 layer_factory.hpp:77] Creating layer relu_d2c
I0411 11:12:17.042337 21254 net.cpp:100] Creating Layer relu_d2c
I0411 11:12:17.042341 21254 net.cpp:434] relu_d2c <- d2c
I0411 11:12:17.042346 21254 net.cpp:395] relu_d2c -> d2c (in-place)
I0411 11:12:17.042542 21254 net.cpp:150] Setting up relu_d2c
I0411 11:12:17.042551 21254 net.cpp:157] Top shape: 1 256 100 100 (2560000)
I0411 11:12:17.042553 21254 net.cpp:165] Memory required for data: 472036608
I0411 11:12:17.042557 21254 layer_factory.hpp:77] Creating layer d2c_relu_d2c_0_split
I0411 11:12:17.042560 21254 net.cpp:100] Creating Layer d2c_relu_d2c_0_split
I0411 11:12:17.042563 21254 net.cpp:434] d2c_relu_d2c_0_split <- d2c
I0411 11:12:17.042568 21254 net.cpp:408] d2c_relu_d2c_0_split -> d2c_relu_d2c_0_split_0
I0411 11:12:17.042574 21254 net.cpp:408] d2c_relu_d2c_0_split -> d2c_relu_d2c_0_split_1
I0411 11:12:17.042614 21254 net.cpp:150] Setting up d2c_relu_d2c_0_split
I0411 11:12:17.042621 21254 net.cpp:157] Top shape: 1 256 100 100 (2560000)
I0411 11:12:17.042625 21254 net.cpp:157] Top shape: 1 256 100 100 (2560000)
I0411 11:12:17.042628 21254 net.cpp:165] Memory required for data: 492516608
I0411 11:12:17.042629 21254 layer_factory.hpp:77] Creating layer pool_d2c-3a
I0411 11:12:17.042634 21254 net.cpp:100] Creating Layer pool_d2c-3a
I0411 11:12:17.042637 21254 net.cpp:434] pool_d2c-3a <- d2c_relu_d2c_0_split_0
I0411 11:12:17.042641 21254 net.cpp:408] pool_d2c-3a -> d3a
I0411 11:12:17.042680 21254 net.cpp:150] Setting up pool_d2c-3a
I0411 11:12:17.042685 21254 net.cpp:157] Top shape: 1 256 50 50 (640000)
I0411 11:12:17.042688 21254 net.cpp:165] Memory required for data: 495076608
I0411 11:12:17.042690 21254 layer_factory.hpp:77] Creating layer conv_d3a-b
I0411 11:12:17.042697 21254 net.cpp:100] Creating Layer conv_d3a-b
I0411 11:12:17.042699 21254 net.cpp:434] conv_d3a-b <- d3a
I0411 11:12:17.042706 21254 net.cpp:408] conv_d3a-b -> d3b
I0411 11:12:17.050964 21254 net.cpp:150] Setting up conv_d3a-b
I0411 11:12:17.050976 21254 net.cpp:157] Top shape: 1 512 48 48 (1179648)
I0411 11:12:17.050994 21254 net.cpp:165] Memory required for data: 499795200
I0411 11:12:17.051000 21254 layer_factory.hpp:77] Creating layer relu_d3b
I0411 11:12:17.051005 21254 net.cpp:100] Creating Layer relu_d3b
I0411 11:12:17.051008 21254 net.cpp:434] relu_d3b <- d3b
I0411 11:12:17.051013 21254 net.cpp:395] relu_d3b -> d3b (in-place)
I0411 11:12:17.051198 21254 net.cpp:150] Setting up relu_d3b
I0411 11:12:17.051208 21254 net.cpp:157] Top shape: 1 512 48 48 (1179648)
I0411 11:12:17.051209 21254 net.cpp:165] Memory required for data: 504513792
I0411 11:12:17.051213 21254 layer_factory.hpp:77] Creating layer conv_d3b-c
I0411 11:12:17.051220 21254 net.cpp:100] Creating Layer conv_d3b-c
I0411 11:12:17.051223 21254 net.cpp:434] conv_d3b-c <- d3b
I0411 11:12:17.051229 21254 net.cpp:408] conv_d3b-c -> d3c
I0411 11:12:17.066452 21254 net.cpp:150] Setting up conv_d3b-c
I0411 11:12:17.066463 21254 net.cpp:157] Top shape: 1 512 46 46 (1083392)
I0411 11:12:17.066481 21254 net.cpp:165] Memory required for data: 508847360
I0411 11:12:17.066486 21254 layer_factory.hpp:77] Creating layer relu_d3c
I0411 11:12:17.066491 21254 net.cpp:100] Creating Layer relu_d3c
I0411 11:12:17.066494 21254 net.cpp:434] relu_d3c <- d3c
I0411 11:12:17.066499 21254 net.cpp:395] relu_d3c -> d3c (in-place)
I0411 11:12:17.067373 21254 net.cpp:150] Setting up relu_d3c
I0411 11:12:17.067385 21254 net.cpp:157] Top shape: 1 512 46 46 (1083392)
I0411 11:12:17.067402 21254 net.cpp:165] Memory required for data: 513180928
I0411 11:12:17.067405 21254 layer_factory.hpp:77] Creating layer d3c_relu_d3c_0_split
I0411 11:12:17.067410 21254 net.cpp:100] Creating Layer d3c_relu_d3c_0_split
I0411 11:12:17.067412 21254 net.cpp:434] d3c_relu_d3c_0_split <- d3c
I0411 11:12:17.067418 21254 net.cpp:408] d3c_relu_d3c_0_split -> d3c_relu_d3c_0_split_0
I0411 11:12:17.067425 21254 net.cpp:408] d3c_relu_d3c_0_split -> d3c_relu_d3c_0_split_1
I0411 11:12:17.067488 21254 net.cpp:150] Setting up d3c_relu_d3c_0_split
I0411 11:12:17.067495 21254 net.cpp:157] Top shape: 1 512 46 46 (1083392)
I0411 11:12:17.067499 21254 net.cpp:157] Top shape: 1 512 46 46 (1083392)
I0411 11:12:17.067502 21254 net.cpp:165] Memory required for data: 521848064
I0411 11:12:17.067503 21254 layer_factory.hpp:77] Creating layer pool_d3c-4a
I0411 11:12:17.067508 21254 net.cpp:100] Creating Layer pool_d3c-4a
I0411 11:12:17.067512 21254 net.cpp:434] pool_d3c-4a <- d3c_relu_d3c_0_split_0
I0411 11:12:17.067517 21254 net.cpp:408] pool_d3c-4a -> d4a
I0411 11:12:17.067551 21254 net.cpp:150] Setting up pool_d3c-4a
I0411 11:12:17.067558 21254 net.cpp:157] Top shape: 1 512 23 23 (270848)
I0411 11:12:17.067559 21254 net.cpp:165] Memory required for data: 522931456
I0411 11:12:17.067562 21254 layer_factory.hpp:77] Creating layer conv_d4a-b
I0411 11:12:17.067570 21254 net.cpp:100] Creating Layer conv_d4a-b
I0411 11:12:17.067572 21254 net.cpp:434] conv_d4a-b <- d4a
I0411 11:12:17.067579 21254 net.cpp:408] conv_d4a-b -> d4b
I0411 11:12:17.097925 21254 net.cpp:150] Setting up conv_d4a-b
I0411 11:12:17.097939 21254 net.cpp:157] Top shape: 1 1024 21 21 (451584)
I0411 11:12:17.097957 21254 net.cpp:165] Memory required for data: 524737792
I0411 11:12:17.097968 21254 layer_factory.hpp:77] Creating layer relu_d4b
I0411 11:12:17.097975 21254 net.cpp:100] Creating Layer relu_d4b
I0411 11:12:17.097977 21254 net.cpp:434] relu_d4b <- d4b
I0411 11:12:17.097982 21254 net.cpp:395] relu_d4b -> d4b (in-place)
I0411 11:12:17.098207 21254 net.cpp:150] Setting up relu_d4b
I0411 11:12:17.098217 21254 net.cpp:157] Top shape: 1 1024 21 21 (451584)
I0411 11:12:17.098218 21254 net.cpp:165] Memory required for data: 526544128
I0411 11:12:17.098222 21254 layer_factory.hpp:77] Creating layer conv_d4b-c
I0411 11:12:17.098230 21254 net.cpp:100] Creating Layer conv_d4b-c
I0411 11:12:17.098232 21254 net.cpp:434] conv_d4b-c <- d4b
I0411 11:12:17.098239 21254 net.cpp:408] conv_d4b-c -> d4c
I0411 11:12:17.153909 21254 net.cpp:150] Setting up conv_d4b-c
I0411 11:12:17.153942 21254 net.cpp:157] Top shape: 1 1024 19 19 (369664)
I0411 11:12:17.153944 21254 net.cpp:165] Memory required for data: 528022784
I0411 11:12:17.153951 21254 layer_factory.hpp:77] Creating layer relu_d4c
I0411 11:12:17.153959 21254 net.cpp:100] Creating Layer relu_d4c
I0411 11:12:17.153962 21254 net.cpp:434] relu_d4c <- d4c
I0411 11:12:17.153967 21254 net.cpp:395] relu_d4c -> d4c (in-place)
I0411 11:12:17.154247 21254 net.cpp:150] Setting up relu_d4c
I0411 11:12:17.154256 21254 net.cpp:157] Top shape: 1 1024 19 19 (369664)
I0411 11:12:17.154258 21254 net.cpp:165] Memory required for data: 529501440
I0411 11:12:17.154261 21254 layer_factory.hpp:77] Creating layer upconv_d4c_u3a
I0411 11:12:17.154269 21254 net.cpp:100] Creating Layer upconv_d4c_u3a
I0411 11:12:17.154273 21254 net.cpp:434] upconv_d4c_u3a <- d4c
I0411 11:12:17.154278 21254 net.cpp:408] upconv_d4c_u3a -> u3a
I0411 11:12:17.167125 21254 net.cpp:150] Setting up upconv_d4c_u3a
I0411 11:12:17.167137 21254 net.cpp:157] Top shape: 1 512 38 38 (739328)
I0411 11:12:17.167155 21254 net.cpp:165] Memory required for data: 532458752
I0411 11:12:17.167160 21254 layer_factory.hpp:77] Creating layer relu_u3a
I0411 11:12:17.167165 21254 net.cpp:100] Creating Layer relu_u3a
I0411 11:12:17.167168 21254 net.cpp:434] relu_u3a <- u3a
I0411 11:12:17.167174 21254 net.cpp:395] relu_u3a -> u3a (in-place)
I0411 11:12:17.167407 21254 net.cpp:150] Setting up relu_u3a
I0411 11:12:17.167415 21254 net.cpp:157] Top shape: 1 512 38 38 (739328)
I0411 11:12:17.167418 21254 net.cpp:165] Memory required for data: 535416064
I0411 11:12:17.167420 21254 layer_factory.hpp:77] Creating layer u3a_relu_u3a_0_split
I0411 11:12:17.167425 21254 net.cpp:100] Creating Layer u3a_relu_u3a_0_split
I0411 11:12:17.167428 21254 net.cpp:434] u3a_relu_u3a_0_split <- u3a
I0411 11:12:17.167448 21254 net.cpp:408] u3a_relu_u3a_0_split -> u3a_relu_u3a_0_split_0
I0411 11:12:17.167454 21254 net.cpp:408] u3a_relu_u3a_0_split -> u3a_relu_u3a_0_split_1
I0411 11:12:17.167496 21254 net.cpp:150] Setting up u3a_relu_u3a_0_split
I0411 11:12:17.167503 21254 net.cpp:157] Top shape: 1 512 38 38 (739328)
I0411 11:12:17.167506 21254 net.cpp:157] Top shape: 1 512 38 38 (739328)
I0411 11:12:17.167508 21254 net.cpp:165] Memory required for data: 541330688
I0411 11:12:17.167511 21254 layer_factory.hpp:77] Creating layer crop_d3c-d3cc
I0411 11:12:17.167521 21254 net.cpp:100] Creating Layer crop_d3c-d3cc
I0411 11:12:17.167524 21254 net.cpp:434] crop_d3c-d3cc <- d3c_relu_d3c_0_split_1
I0411 11:12:17.167528 21254 net.cpp:434] crop_d3c-d3cc <- u3a_relu_u3a_0_split_0
I0411 11:12:17.167532 21254 net.cpp:408] crop_d3c-d3cc -> d3cc
I0411 11:12:17.167557 21254 net.cpp:150] Setting up crop_d3c-d3cc
I0411 11:12:17.167562 21254 net.cpp:157] Top shape: 1 512 38 38 (739328)
I0411 11:12:17.167564 21254 net.cpp:165] Memory required for data: 544288000
I0411 11:12:17.167567 21254 layer_factory.hpp:77] Creating layer concat_d3cc_u3a-b
I0411 11:12:17.167572 21254 net.cpp:100] Creating Layer concat_d3cc_u3a-b
I0411 11:12:17.167574 21254 net.cpp:434] concat_d3cc_u3a-b <- u3a_relu_u3a_0_split_1
I0411 11:12:17.167577 21254 net.cpp:434] concat_d3cc_u3a-b <- d3cc
I0411 11:12:17.167582 21254 net.cpp:408] concat_d3cc_u3a-b -> u3b
I0411 11:12:17.167604 21254 net.cpp:150] Setting up concat_d3cc_u3a-b
I0411 11:12:17.167610 21254 net.cpp:157] Top shape: 1 1024 38 38 (1478656)
I0411 11:12:17.167613 21254 net.cpp:165] Memory required for data: 550202624
I0411 11:12:17.167615 21254 layer_factory.hpp:77] Creating layer conv_u3b-c
I0411 11:12:17.167623 21254 net.cpp:100] Creating Layer conv_u3b-c
I0411 11:12:17.167625 21254 net.cpp:434] conv_u3b-c <- u3b
I0411 11:12:17.167630 21254 net.cpp:408] conv_u3b-c -> u3c
I0411 11:12:17.196650 21254 net.cpp:150] Setting up conv_u3b-c
I0411 11:12:17.196661 21254 net.cpp:157] Top shape: 1 512 36 36 (663552)
I0411 11:12:17.196678 21254 net.cpp:165] Memory required for data: 552856832
I0411 11:12:17.196684 21254 layer_factory.hpp:77] Creating layer relu_u3c
I0411 11:12:17.196689 21254 net.cpp:100] Creating Layer relu_u3c
I0411 11:12:17.196692 21254 net.cpp:434] relu_u3c <- u3c
I0411 11:12:17.196698 21254 net.cpp:395] relu_u3c -> u3c (in-place)
I0411 11:12:17.197605 21254 net.cpp:150] Setting up relu_u3c
I0411 11:12:17.197616 21254 net.cpp:157] Top shape: 1 512 36 36 (663552)
I0411 11:12:17.197634 21254 net.cpp:165] Memory required for data: 555511040
I0411 11:12:17.197638 21254 layer_factory.hpp:77] Creating layer conv_u3c-d
I0411 11:12:17.197646 21254 net.cpp:100] Creating Layer conv_u3c-d
I0411 11:12:17.197650 21254 net.cpp:434] conv_u3c-d <- u3c
I0411 11:12:17.197656 21254 net.cpp:408] conv_u3c-d -> u3d
I0411 11:12:17.212597 21254 net.cpp:150] Setting up conv_u3c-d
I0411 11:12:17.212610 21254 net.cpp:157] Top shape: 1 512 34 34 (591872)
I0411 11:12:17.212626 21254 net.cpp:165] Memory required for data: 557878528
I0411 11:12:17.212632 21254 layer_factory.hpp:77] Creating layer relu_u3d
I0411 11:12:17.212637 21254 net.cpp:100] Creating Layer relu_u3d
I0411 11:12:17.212640 21254 net.cpp:434] relu_u3d <- u3d
I0411 11:12:17.212644 21254 net.cpp:395] relu_u3d -> u3d (in-place)
I0411 11:12:17.212858 21254 net.cpp:150] Setting up relu_u3d
I0411 11:12:17.212867 21254 net.cpp:157] Top shape: 1 512 34 34 (591872)
I0411 11:12:17.212870 21254 net.cpp:165] Memory required for data: 560246016
I0411 11:12:17.212873 21254 layer_factory.hpp:77] Creating layer upconv_u3d_u2a
I0411 11:12:17.212882 21254 net.cpp:100] Creating Layer upconv_u3d_u2a
I0411 11:12:17.212883 21254 net.cpp:434] upconv_u3d_u2a <- u3d
I0411 11:12:17.212889 21254 net.cpp:408] upconv_u3d_u2a -> u2a
I0411 11:12:17.216840 21254 net.cpp:150] Setting up upconv_u3d_u2a
I0411 11:12:17.216852 21254 net.cpp:157] Top shape: 1 256 68 68 (1183744)
I0411 11:12:17.216856 21254 net.cpp:165] Memory required for data: 564980992
I0411 11:12:17.216876 21254 layer_factory.hpp:77] Creating layer relu_u2a
I0411 11:12:17.216882 21254 net.cpp:100] Creating Layer relu_u2a
I0411 11:12:17.216886 21254 net.cpp:434] relu_u2a <- u2a
I0411 11:12:17.216889 21254 net.cpp:395] relu_u2a -> u2a (in-place)
I0411 11:12:17.217074 21254 net.cpp:150] Setting up relu_u2a
I0411 11:12:17.217083 21254 net.cpp:157] Top shape: 1 256 68 68 (1183744)
I0411 11:12:17.217087 21254 net.cpp:165] Memory required for data: 569715968
I0411 11:12:17.217088 21254 layer_factory.hpp:77] Creating layer u2a_relu_u2a_0_split
I0411 11:12:17.217093 21254 net.cpp:100] Creating Layer u2a_relu_u2a_0_split
I0411 11:12:17.217097 21254 net.cpp:434] u2a_relu_u2a_0_split <- u2a
I0411 11:12:17.217102 21254 net.cpp:408] u2a_relu_u2a_0_split -> u2a_relu_u2a_0_split_0
I0411 11:12:17.217114 21254 net.cpp:408] u2a_relu_u2a_0_split -> u2a_relu_u2a_0_split_1
I0411 11:12:17.217159 21254 net.cpp:150] Setting up u2a_relu_u2a_0_split
I0411 11:12:17.217165 21254 net.cpp:157] Top shape: 1 256 68 68 (1183744)
I0411 11:12:17.217170 21254 net.cpp:157] Top shape: 1 256 68 68 (1183744)
I0411 11:12:17.217171 21254 net.cpp:165] Memory required for data: 579185920
I0411 11:12:17.217175 21254 layer_factory.hpp:77] Creating layer crop_d2c-d2cc
I0411 11:12:17.217180 21254 net.cpp:100] Creating Layer crop_d2c-d2cc
I0411 11:12:17.217182 21254 net.cpp:434] crop_d2c-d2cc <- d2c_relu_d2c_0_split_1
I0411 11:12:17.217186 21254 net.cpp:434] crop_d2c-d2cc <- u2a_relu_u2a_0_split_0
I0411 11:12:17.217191 21254 net.cpp:408] crop_d2c-d2cc -> d2cc
I0411 11:12:17.217216 21254 net.cpp:150] Setting up crop_d2c-d2cc
I0411 11:12:17.217221 21254 net.cpp:157] Top shape: 1 256 68 68 (1183744)
I0411 11:12:17.217223 21254 net.cpp:165] Memory required for data: 583920896
I0411 11:12:17.217226 21254 layer_factory.hpp:77] Creating layer concat_d2cc_u2a-b
I0411 11:12:17.217231 21254 net.cpp:100] Creating Layer concat_d2cc_u2a-b
I0411 11:12:17.217232 21254 net.cpp:434] concat_d2cc_u2a-b <- u2a_relu_u2a_0_split_1
I0411 11:12:17.217236 21254 net.cpp:434] concat_d2cc_u2a-b <- d2cc
I0411 11:12:17.217241 21254 net.cpp:408] concat_d2cc_u2a-b -> u2b
I0411 11:12:17.217263 21254 net.cpp:150] Setting up concat_d2cc_u2a-b
I0411 11:12:17.217268 21254 net.cpp:157] Top shape: 1 512 68 68 (2367488)
I0411 11:12:17.217270 21254 net.cpp:165] Memory required for data: 593390848
I0411 11:12:17.217272 21254 layer_factory.hpp:77] Creating layer conv_u2b-c
I0411 11:12:17.217280 21254 net.cpp:100] Creating Layer conv_u2b-c
I0411 11:12:17.217283 21254 net.cpp:434] conv_u2b-c <- u2b
I0411 11:12:17.217288 21254 net.cpp:408] conv_u2b-c -> u2c
I0411 11:12:17.225503 21254 net.cpp:150] Setting up conv_u2b-c
I0411 11:12:17.225517 21254 net.cpp:157] Top shape: 1 256 66 66 (1115136)
I0411 11:12:17.225519 21254 net.cpp:165] Memory required for data: 597851392
I0411 11:12:17.225527 21254 layer_factory.hpp:77] Creating layer relu_u2c
I0411 11:12:17.225531 21254 net.cpp:100] Creating Layer relu_u2c
I0411 11:12:17.225534 21254 net.cpp:434] relu_u2c <- u2c
I0411 11:12:17.225539 21254 net.cpp:395] relu_u2c -> u2c (in-place)
I0411 11:12:17.226389 21254 net.cpp:150] Setting up relu_u2c
I0411 11:12:17.226402 21254 net.cpp:157] Top shape: 1 256 66 66 (1115136)
I0411 11:12:17.226405 21254 net.cpp:165] Memory required for data: 602311936
I0411 11:12:17.226408 21254 layer_factory.hpp:77] Creating layer conv_u2c-d
I0411 11:12:17.226416 21254 net.cpp:100] Creating Layer conv_u2c-d
I0411 11:12:17.226419 21254 net.cpp:434] conv_u2c-d <- u2c
I0411 11:12:17.226425 21254 net.cpp:408] conv_u2c-d -> u2d
I0411 11:12:17.230849 21254 net.cpp:150] Setting up conv_u2c-d
I0411 11:12:17.230860 21254 net.cpp:157] Top shape: 1 256 64 64 (1048576)
I0411 11:12:17.230878 21254 net.cpp:165] Memory required for data: 606506240
I0411 11:12:17.230885 21254 layer_factory.hpp:77] Creating layer relu_u2d
I0411 11:12:17.230890 21254 net.cpp:100] Creating Layer relu_u2d
I0411 11:12:17.230892 21254 net.cpp:434] relu_u2d <- u2d
I0411 11:12:17.230897 21254 net.cpp:395] relu_u2d -> u2d (in-place)
I0411 11:12:17.231094 21254 net.cpp:150] Setting up relu_u2d
I0411 11:12:17.231103 21254 net.cpp:157] Top shape: 1 256 64 64 (1048576)
I0411 11:12:17.231106 21254 net.cpp:165] Memory required for data: 610700544
I0411 11:12:17.231108 21254 layer_factory.hpp:77] Creating layer upconv_u2d_u1a
I0411 11:12:17.231115 21254 net.cpp:100] Creating Layer upconv_u2d_u1a
I0411 11:12:17.231118 21254 net.cpp:434] upconv_u2d_u1a <- u2d
I0411 11:12:17.231123 21254 net.cpp:408] upconv_u2d_u1a -> u1a
I0411 11:12:17.232950 21254 net.cpp:150] Setting up upconv_u2d_u1a
I0411 11:12:17.232962 21254 net.cpp:157] Top shape: 1 128 128 128 (2097152)
I0411 11:12:17.232964 21254 net.cpp:165] Memory required for data: 619089152
I0411 11:12:17.232990 21254 layer_factory.hpp:77] Creating layer relu_u1a
I0411 11:12:17.232995 21254 net.cpp:100] Creating Layer relu_u1a
I0411 11:12:17.232998 21254 net.cpp:434] relu_u1a <- u1a
I0411 11:12:17.233002 21254 net.cpp:395] relu_u1a -> u1a (in-place)
I0411 11:12:17.233204 21254 net.cpp:150] Setting up relu_u1a
I0411 11:12:17.233213 21254 net.cpp:157] Top shape: 1 128 128 128 (2097152)
I0411 11:12:17.233217 21254 net.cpp:165] Memory required for data: 627477760
I0411 11:12:17.233218 21254 layer_factory.hpp:77] Creating layer u1a_relu_u1a_0_split
I0411 11:12:17.233224 21254 net.cpp:100] Creating Layer u1a_relu_u1a_0_split
I0411 11:12:17.233227 21254 net.cpp:434] u1a_relu_u1a_0_split <- u1a
I0411 11:12:17.233232 21254 net.cpp:408] u1a_relu_u1a_0_split -> u1a_relu_u1a_0_split_0
I0411 11:12:17.233237 21254 net.cpp:408] u1a_relu_u1a_0_split -> u1a_relu_u1a_0_split_1
I0411 11:12:17.233279 21254 net.cpp:150] Setting up u1a_relu_u1a_0_split
I0411 11:12:17.233286 21254 net.cpp:157] Top shape: 1 128 128 128 (2097152)
I0411 11:12:17.233289 21254 net.cpp:157] Top shape: 1 128 128 128 (2097152)
I0411 11:12:17.233291 21254 net.cpp:165] Memory required for data: 644254976
I0411 11:12:17.233294 21254 layer_factory.hpp:77] Creating layer crop_d1c-d1cc
I0411 11:12:17.233299 21254 net.cpp:100] Creating Layer crop_d1c-d1cc
I0411 11:12:17.233302 21254 net.cpp:434] crop_d1c-d1cc <- d1c_relu_d1c_0_split_1
I0411 11:12:17.233305 21254 net.cpp:434] crop_d1c-d1cc <- u1a_relu_u1a_0_split_0
I0411 11:12:17.233324 21254 net.cpp:408] crop_d1c-d1cc -> d1cc
I0411 11:12:17.233363 21254 net.cpp:150] Setting up crop_d1c-d1cc
I0411 11:12:17.233369 21254 net.cpp:157] Top shape: 1 128 128 128 (2097152)
I0411 11:12:17.233371 21254 net.cpp:165] Memory required for data: 652643584
I0411 11:12:17.233374 21254 layer_factory.hpp:77] Creating layer concat_d1cc_u1a-b
I0411 11:12:17.233378 21254 net.cpp:100] Creating Layer concat_d1cc_u1a-b
I0411 11:12:17.233381 21254 net.cpp:434] concat_d1cc_u1a-b <- u1a_relu_u1a_0_split_1
I0411 11:12:17.233384 21254 net.cpp:434] concat_d1cc_u1a-b <- d1cc
I0411 11:12:17.233388 21254 net.cpp:408] concat_d1cc_u1a-b -> u1b
I0411 11:12:17.233410 21254 net.cpp:150] Setting up concat_d1cc_u1a-b
I0411 11:12:17.233417 21254 net.cpp:157] Top shape: 1 256 128 128 (4194304)
I0411 11:12:17.233418 21254 net.cpp:165] Memory required for data: 669420800
I0411 11:12:17.233420 21254 layer_factory.hpp:77] Creating layer conv_u1b-c
I0411 11:12:17.233428 21254 net.cpp:100] Creating Layer conv_u1b-c
I0411 11:12:17.233430 21254 net.cpp:434] conv_u1b-c <- u1b
I0411 11:12:17.233443 21254 net.cpp:408] conv_u1b-c -> u1c
I0411 11:12:17.235412 21254 net.cpp:150] Setting up conv_u1b-c
I0411 11:12:17.235420 21254 net.cpp:157] Top shape: 1 128 126 126 (2032128)
I0411 11:12:17.235424 21254 net.cpp:165] Memory required for data: 677549312
I0411 11:12:17.235429 21254 layer_factory.hpp:77] Creating layer relu_u1c
I0411 11:12:17.235432 21254 net.cpp:100] Creating Layer relu_u1c
I0411 11:12:17.235435 21254 net.cpp:434] relu_u1c <- u1c
I0411 11:12:17.235456 21254 net.cpp:395] relu_u1c -> u1c (in-place)
I0411 11:12:17.235630 21254 net.cpp:150] Setting up relu_u1c
I0411 11:12:17.235638 21254 net.cpp:157] Top shape: 1 128 126 126 (2032128)
I0411 11:12:17.235641 21254 net.cpp:165] Memory required for data: 685677824
I0411 11:12:17.235643 21254 layer_factory.hpp:77] Creating layer conv_u1c-d
I0411 11:12:17.235651 21254 net.cpp:100] Creating Layer conv_u1c-d
I0411 11:12:17.235654 21254 net.cpp:434] conv_u1c-d <- u1c
I0411 11:12:17.235659 21254 net.cpp:408] conv_u1c-d -> u1d
I0411 11:12:17.237597 21254 net.cpp:150] Setting up conv_u1c-d
I0411 11:12:17.237610 21254 net.cpp:157] Top shape: 1 128 124 124 (1968128)
I0411 11:12:17.237613 21254 net.cpp:165] Memory required for data: 693550336
I0411 11:12:17.237618 21254 layer_factory.hpp:77] Creating layer relu_u1d
I0411 11:12:17.237624 21254 net.cpp:100] Creating Layer relu_u1d
I0411 11:12:17.237627 21254 net.cpp:434] relu_u1d <- u1d
I0411 11:12:17.237632 21254 net.cpp:395] relu_u1d -> u1d (in-place)
I0411 11:12:17.238474 21254 net.cpp:150] Setting up relu_u1d
I0411 11:12:17.238486 21254 net.cpp:157] Top shape: 1 128 124 124 (1968128)
I0411 11:12:17.238503 21254 net.cpp:165] Memory required for data: 701422848
I0411 11:12:17.238507 21254 layer_factory.hpp:77] Creating layer upconv_u1d_u0a
I0411 11:12:17.238513 21254 net.cpp:100] Creating Layer upconv_u1d_u0a
I0411 11:12:17.238517 21254 net.cpp:434] upconv_u1d_u0a <- u1d
I0411 11:12:17.238523 21254 net.cpp:408] upconv_u1d_u0a -> u0a
I0411 11:12:17.239217 21254 net.cpp:150] Setting up upconv_u1d_u0a
I0411 11:12:17.239224 21254 net.cpp:157] Top shape: 1 128 248 248 (7872512)
I0411 11:12:17.239228 21254 net.cpp:165] Memory required for data: 732912896
I0411 11:12:17.239248 21254 layer_factory.hpp:77] Creating layer relu_u0a
I0411 11:12:17.239253 21254 net.cpp:100] Creating Layer relu_u0a
I0411 11:12:17.239266 21254 net.cpp:434] relu_u0a <- u0a
I0411 11:12:17.239271 21254 net.cpp:395] relu_u0a -> u0a (in-place)
I0411 11:12:17.239483 21254 net.cpp:150] Setting up relu_u0a
I0411 11:12:17.239491 21254 net.cpp:157] Top shape: 1 128 248 248 (7872512)
I0411 11:12:17.239495 21254 net.cpp:165] Memory required for data: 764402944
I0411 11:12:17.239497 21254 layer_factory.hpp:77] Creating layer u0a_relu_u0a_0_split
I0411 11:12:17.239501 21254 net.cpp:100] Creating Layer u0a_relu_u0a_0_split
I0411 11:12:17.239503 21254 net.cpp:434] u0a_relu_u0a_0_split <- u0a
I0411 11:12:17.239508 21254 net.cpp:408] u0a_relu_u0a_0_split -> u0a_relu_u0a_0_split_0
I0411 11:12:17.239514 21254 net.cpp:408] u0a_relu_u0a_0_split -> u0a_relu_u0a_0_split_1
I0411 11:12:17.239558 21254 net.cpp:150] Setting up u0a_relu_u0a_0_split
I0411 11:12:17.239564 21254 net.cpp:157] Top shape: 1 128 248 248 (7872512)
I0411 11:12:17.239567 21254 net.cpp:157] Top shape: 1 128 248 248 (7872512)
I0411 11:12:17.239570 21254 net.cpp:165] Memory required for data: 827383040
I0411 11:12:17.239573 21254 layer_factory.hpp:77] Creating layer crop_d0c-d0cc
I0411 11:12:17.239578 21254 net.cpp:100] Creating Layer crop_d0c-d0cc
I0411 11:12:17.239579 21254 net.cpp:434] crop_d0c-d0cc <- d0c_relu_d0c_0_split_1
I0411 11:12:17.239583 21254 net.cpp:434] crop_d0c-d0cc <- u0a_relu_u0a_0_split_0
I0411 11:12:17.239589 21254 net.cpp:408] crop_d0c-d0cc -> d0cc
I0411 11:12:17.239614 21254 net.cpp:150] Setting up crop_d0c-d0cc
I0411 11:12:17.239620 21254 net.cpp:157] Top shape: 1 64 248 248 (3936256)
I0411 11:12:17.239622 21254 net.cpp:165] Memory required for data: 843128064
I0411 11:12:17.239625 21254 layer_factory.hpp:77] Creating layer concat_d0cc_u0a-b
I0411 11:12:17.239629 21254 net.cpp:100] Creating Layer concat_d0cc_u0a-b
I0411 11:12:17.239631 21254 net.cpp:434] concat_d0cc_u0a-b <- u0a_relu_u0a_0_split_1
I0411 11:12:17.239635 21254 net.cpp:434] concat_d0cc_u0a-b <- d0cc
I0411 11:12:17.239639 21254 net.cpp:408] concat_d0cc_u0a-b -> u0b
I0411 11:12:17.239660 21254 net.cpp:150] Setting up concat_d0cc_u0a-b
I0411 11:12:17.239666 21254 net.cpp:157] Top shape: 1 192 248 248 (11808768)
I0411 11:12:17.239670 21254 net.cpp:165] Memory required for data: 890363136
I0411 11:12:17.239671 21254 layer_factory.hpp:77] Creating layer conv_u0b-c
I0411 11:12:17.239678 21254 net.cpp:100] Creating Layer conv_u0b-c
I0411 11:12:17.239681 21254 net.cpp:434] conv_u0b-c <- u0b
I0411 11:12:17.239686 21254 net.cpp:408] conv_u0b-c -> u0c
I0411 11:12:17.240609 21254 net.cpp:150] Setting up conv_u0b-c
I0411 11:12:17.240617 21254 net.cpp:157] Top shape: 1 64 246 246 (3873024)
I0411 11:12:17.240618 21254 net.cpp:165] Memory required for data: 905855232
I0411 11:12:17.240623 21254 layer_factory.hpp:77] Creating layer relu_u0c
I0411 11:12:17.240628 21254 net.cpp:100] Creating Layer relu_u0c
I0411 11:12:17.240630 21254 net.cpp:434] relu_u0c <- u0c
I0411 11:12:17.240634 21254 net.cpp:395] relu_u0c -> u0c (in-place)
I0411 11:12:17.240811 21254 net.cpp:150] Setting up relu_u0c
I0411 11:12:17.240819 21254 net.cpp:157] Top shape: 1 64 246 246 (3873024)
I0411 11:12:17.240821 21254 net.cpp:165] Memory required for data: 921347328
I0411 11:12:17.240824 21254 layer_factory.hpp:77] Creating layer conv_u0c-d
I0411 11:12:17.240831 21254 net.cpp:100] Creating Layer conv_u0c-d
I0411 11:12:17.240833 21254 net.cpp:434] conv_u0c-d <- u0c
I0411 11:12:17.240839 21254 net.cpp:408] conv_u0c-d -> u0d
I0411 11:12:17.241353 21254 net.cpp:150] Setting up conv_u0c-d
I0411 11:12:17.241360 21254 net.cpp:157] Top shape: 1 64 244 244 (3810304)
I0411 11:12:17.241363 21254 net.cpp:165] Memory required for data: 936588544
I0411 11:12:17.241369 21254 layer_factory.hpp:77] Creating layer relu_u0d
I0411 11:12:17.241379 21254 net.cpp:100] Creating Layer relu_u0d
I0411 11:12:17.241382 21254 net.cpp:434] relu_u0d <- u0d
I0411 11:12:17.241385 21254 net.cpp:395] relu_u0d -> u0d (in-place)
I0411 11:12:17.241564 21254 net.cpp:150] Setting up relu_u0d
I0411 11:12:17.241574 21254 net.cpp:157] Top shape: 1 64 244 244 (3810304)
I0411 11:12:17.241576 21254 net.cpp:165] Memory required for data: 951829760
I0411 11:12:17.241580 21254 layer_factory.hpp:77] Creating layer conv_u0d-score
I0411 11:12:17.241586 21254 net.cpp:100] Creating Layer conv_u0d-score
I0411 11:12:17.241588 21254 net.cpp:434] conv_u0d-score <- u0d
I0411 11:12:17.241595 21254 net.cpp:408] conv_u0d-score -> score
I0411 11:12:17.241889 21254 net.cpp:150] Setting up conv_u0d-score
I0411 11:12:17.241896 21254 net.cpp:157] Top shape: 1 3 244 244 (178608)
I0411 11:12:17.241899 21254 net.cpp:165] Memory required for data: 952544192
I0411 11:12:17.241904 21254 layer_factory.hpp:77] Creating layer softmax
I0411 11:12:17.241909 21254 net.cpp:100] Creating Layer softmax
I0411 11:12:17.241911 21254 net.cpp:434] softmax <- score
I0411 11:12:17.241915 21254 net.cpp:408] softmax -> softmax_out
I0411 11:12:17.242805 21254 net.cpp:150] Setting up softmax
I0411 11:12:17.242816 21254 net.cpp:157] Top shape: 1 3 244 244 (178608)
I0411 11:12:17.242818 21254 net.cpp:165] Memory required for data: 953258624
I0411 11:12:17.242821 21254 layer_factory.hpp:77] Creating layer reshapelab
I0411 11:12:17.242828 21254 net.cpp:100] Creating Layer reshapelab
I0411 11:12:17.242830 21254 net.cpp:434] reshapelab <- label
I0411 11:12:17.242835 21254 net.cpp:408] reshapelab -> label_flat
I0411 11:12:17.242863 21254 net.cpp:150] Setting up reshapelab
I0411 11:12:17.242867 21254 net.cpp:157] Top shape: 1 59536 (59536)
I0411 11:12:17.242869 21254 net.cpp:165] Memory required for data: 953496768
I0411 11:12:17.242871 21254 layer_factory.hpp:77] Creating layer reshaperes
I0411 11:12:17.242874 21254 net.cpp:100] Creating Layer reshaperes
I0411 11:12:17.242877 21254 net.cpp:434] reshaperes <- softmax_out
I0411 11:12:17.242882 21254 net.cpp:408] reshaperes -> softmax_out_flat
I0411 11:12:17.242919 21254 net.cpp:150] Setting up reshaperes
I0411 11:12:17.242925 21254 net.cpp:157] Top shape: 1 3 59536 (178608)
I0411 11:12:17.242928 21254 net.cpp:165] Memory required for data: 954211200
I0411 11:12:17.242931 21254 layer_factory.hpp:77] Creating layer loss
I0411 11:12:17.242988 21254 net.cpp:100] Creating Layer loss
I0411 11:12:17.242993 21254 net.cpp:434] loss <- softmax_out_flat
I0411 11:12:17.242998 21254 net.cpp:434] loss <- label_flat
I0411 11:12:17.243003 21254 net.cpp:408] loss -> loss
I0411 11:12:17.244133 21254 net.cpp:150] Setting up loss
I0411 11:12:17.244143 21254 net.cpp:157] Top shape: 3 (3)
I0411 11:12:17.244145 21254 net.cpp:160]     with loss weight 1
I0411 11:12:17.244153 21254 net.cpp:165] Memory required for data: 954211212
I0411 11:12:17.244156 21254 net.cpp:226] loss needs backward computation.
I0411 11:12:17.244159 21254 net.cpp:226] reshaperes needs backward computation.
I0411 11:12:17.244163 21254 net.cpp:228] reshapelab does not need backward computation.
I0411 11:12:17.244165 21254 net.cpp:226] softmax needs backward computation.
…
