…
I0422 22:48:56.594096 30295 solver.cpp:91] Creating training net from net file: ./unet_f1_4/unet_f1_4.prototxt
I0422 22:48:56.595330 30295 net.cpp:322] The NetState phase (0) differed from the phase (1) specified by a rule in layer loaddata
I0422 22:48:56.596065 30295 net.cpp:58] Initializing net from parameters: 
name: "unet_f1_4"
force_backward: true
state {
  phase: TRAIN
}
layer {
  name: "loaddata"
  type: "HDF5Data"
  top: "data"
  top: "label"
  include {
    phase: TRAIN
  }
  hdf5_data_param {
    source: "caffeHDF5_4.txt"
    batch_size: 5
  }
}
layer {
  name: "conv_d0a-b"
  type: "Convolution"
  bottom: "data"
  top: "d0b"
  param {
    lr_mult: 1
    decay_mult: 1
  }
  param {
    lr_mult: 2
    decay_mult: 0
  }
  convolution_param {
    num_output: 64
    pad: 0
    kernel_size: 3
    weight_filler {
      type: "xavier"
    }
    engine: CAFFE
  }
}
layer {
  name: "relu_d0b"
  type: "ReLU"
  bottom: "d0b"
  top: "d0b"
}
layer {
  name: "conv_d0b-c"
  type: "Convolution"
  bottom: "d0b"
  top: "d0c"
  param {
    lr_mult: 1
    decay_mult: 1
  }
  param {
    lr_mult: 2
    decay_mult: 0
  }
  convolution_param {
    num_output: 64
    pad: 0
    kernel_size: 3
    weight_filler {
      type: "xavier"
    }
    engine: CAFFE
  }
}
layer {
  name: "relu_d0c"
  type: "ReLU"
  bottom: "d0c"
  top: "d0c"
}
layer {
  name: "pool_d0c-1a"
  type: "Pooling"
  bottom: "d0c"
  top: "d1a"
  pooling_param {
    pool: MAX
    kernel_size: 2
    stride: 2
  }
}
layer {
  name: "conv_d1a-b"
  type: "Convolution"
  bottom: "d1a"
  top: "d1b"
  param {
    lr_mult: 1
    decay_mult: 1
  }
  param {
    lr_mult: 2
    decay_mult: 0
  }
  convolution_param {
    num_output: 128
    pad: 0
    kernel_size: 3
    weight_filler {
      type: "xavier"
    }
    engine: CAFFE
  }
}
layer {
  name: "relu_d1b"
  type: "ReLU"
  bottom: "d1b"
  top: "d1b"
}
layer {
  name: "conv_d1b-c"
  type: "Convolution"
  bottom: "d1b"
  top: "d1c"
  param {
    lr_mult: 1
    decay_mult: 1
  }
  param {
    lr_mult: 2
    decay_mult: 0
  }
  convolution_param {
    num_output: 128
    pad: 0
    kernel_size: 3
    weight_filler {
      type: "xavier"
    }
    engine: CAFFE
  }
}
layer {
  name: "relu_d1c"
  type: "ReLU"
  bottom: "d1c"
  top: "d1c"
}
layer {
  name: "pool_d1c-2a"
  type: "Pooling"
  bottom: "d1c"
  top: "d2a"
  pooling_param {
    pool: MAX
    kernel_size: 2
    stride: 2
  }
}
layer {
  name: "conv_d2a-b"
  type: "Convolution"
  bottom: "d2a"
  top: "d2b"
  param {
    lr_mult: 1
    decay_mult: 1
  }
  param {
    lr_mult: 2
    decay_mult: 0
  }
  convolution_param {
    num_output: 256
    pad: 0
    kernel_size: 3
    weight_filler {
      type: "xavier"
    }
    engine: CAFFE
  }
}
layer {
  name: "relu_d2b"
  type: "ReLU"
  bottom: "d2b"
  top: "d2b"
}
layer {
  name: "conv_d2b-c"
  type: "Convolution"
  bottom: "d2b"
  top: "d2c"
  param {
    lr_mult: 1
    decay_mult: 1
  }
  param {
    lr_mult: 2
    decay_mult: 0
  }
  convolution_param {
    num_output: 256
    pad: 0
    kernel_size: 3
    weight_filler {
      type: "xavier"
    }
    engine: CAFFE
  }
}
layer {
  name: "relu_d2c"
  type: "ReLU"
  bottom: "d2c"
  top: "d2c"
}
layer {
  name: "pool_d2c-3a"
  type: "Pooling"
  bottom: "d2c"
  top: "d3a"
  pooling_param {
    pool: MAX
    kernel_size: 2
    stride: 2
  }
}
layer {
  name: "conv_d3a-b"
  type: "Convolution"
  bottom: "d3a"
  top: "d3b"
  param {
    lr_mult: 1
    decay_mult: 1
  }
  param {
    lr_mult: 2
    decay_mult: 0
  }
  convolution_param {
    num_output: 512
    pad: 0
    kernel_size: 3
    weight_filler {
      type: "xavier"
    }
    engine: CAFFE
  }
}
layer {
  name: "relu_d3b"
  type: "ReLU"
  bottom: "d3b"
  top: "d3b"
}
layer {
  name: "conv_d3b-c"
  type: "Convolution"
  bottom: "d3b"
  top: "d3c"
  param {
    lr_mult: 1
    decay_mult: 1
  }
  param {
    lr_mult: 2
    decay_mult: 0
  }
  convolution_param {
    num_output: 512
    pad: 0
    kernel_size: 3
    weight_filler {
      type: "xavier"
    }
    engine: CAFFE
  }
}
layer {
  name: "relu_d3c"
  type: "ReLU"
  bottom: "d3c"
  top: "d3c"
}
layer {
  name: "dropout_d3c"
  type: "Dropout"
  bottom: "d3c"
  top: "d3c"
  include {
    phase: TRAIN
  }
  dropout_param {
    dropout_ratio: 0.5
  }
}
layer {
  name: "pool_d3c-4a"
  type: "Pooling"
  bottom: "d3c"
  top: "d4a"
  pooling_param {
    pool: MAX
    kernel_size: 2
    stride: 2
  }
}
layer {
  name: "conv_d4a-b"
  type: "Convolution"
  bottom: "d4a"
  top: "d4b"
  param {
    lr_mult: 1
    decay_mult: 1
  }
  param {
    lr_mult: 2
    decay_mult: 0
  }
  convolution_param {
    num_output: 1024
    pad: 0
    kernel_size: 3
    weight_filler {
      type: "xavier"
    }
    engine: CAFFE
  }
}
layer {
  name: "relu_d4b"
  type: "ReLU"
  bottom: "d4b"
  top: "d4b"
}
layer {
  name: "conv_d4b-c"
  type: "Convolution"
  bottom: "d4b"
  top: "d4c"
  param {
    lr_mult: 1
    decay_mult: 1
  }
  param {
    lr_mult: 2
    decay_mult: 0
  }
  convolution_param {
    num_output: 1024
    pad: 0
    kernel_size: 3
    weight_filler {
      type: "xavier"
    }
    engine: CAFFE
  }
}
layer {
  name: "relu_d4c"
  type: "ReLU"
  bottom: "d4c"
  top: "d4c"
}
layer {
  name: "dropout_d4c"
  type: "Dropout"
  bottom: "d4c"
  top: "d4c"
  include {
    phase: TRAIN
  }
  dropout_param {
    dropout_ratio: 0.5
  }
}
layer {
  name: "upconv_d4c_u3a"
  type: "Deconvolution"
  bottom: "d4c"
  top: "u3a"
  param {
    lr_mult: 1
    decay_mult: 1
  }
  param {
    lr_mult: 2
    decay_mult: 0
  }
  convolution_param {
    num_output: 512
    pad: 0
    kernel_size: 2
    stride: 2
    weight_filler {
      type: "xavier"
    }
  }
}
layer {
  name: "relu_u3a"
  type: "ReLU"
  bottom: "u3a"
  top: "u3a"
}
layer {
  name: "crop_d3c-d3cc"
  type: "Crop"
  bottom: "d3c"
  bottom: "u3a"
  top: "d3cc"
  crop_param {
    axis: 2
    offset: 4
  }
}
layer {
  name: "concat_d3cc_u3a-b"
  type: "Concat"
  bottom: "u3a"
  bottom: "d3cc"
  top: "u3b"
}
layer {
  name: "conv_u3b-c"
  type: "Convolution"
  bottom: "u3b"
  top: "u3c"
  param {
    lr_mult: 1
    decay_mult: 1
  }
  param {
    lr_mult: 2
    decay_mult: 0
  }
  convolution_param {
    num_output: 512
    pad: 0
    kernel_size: 3
    weight_filler {
      type: "xavier"
    }
    engine: CAFFE
  }
}
layer {
  name: "relu_u3c"
  type: "ReLU"
  bottom: "u3c"
  top: "u3c"
}
layer {
  name: "conv_u3c-d"
  type: "Convolution"
  bottom: "u3c"
  top: "u3d"
  param {
    lr_mult: 1
    decay_mult: 1
  }
  param {
    lr_mult: 2
    decay_mult: 0
  }
  convolution_param {
    num_output: 512
    pad: 0
    kernel_size: 3
    weight_filler {
      type: "xavier"
    }
    engine: CAFFE
  }
}
layer {
  name: "relu_u3d"
  type: "ReLU"
  bottom: "u3d"
  top: "u3d"
}
layer {
  name: "upconv_u3d_u2a"
  type: "Deconvolution"
  bottom: "u3d"
  top: "u2a"
  param {
    lr_mult: 1
    decay_mult: 1
  }
  param {
    lr_mult: 2
    decay_mult: 0
  }
  convolution_param {
    num_output: 256
    pad: 0
    kernel_size: 2
    stride: 2
    weight_filler {
      type: "xavier"
    }
  }
}
layer {
  name: "relu_u2a"
  type: "ReLU"
  bottom: "u2a"
  top: "u2a"
}
layer {
  name: "crop_d2c-d2cc"
  type: "Crop"
  bottom: "d2c"
  bottom: "u2a"
  top: "d2cc"
  crop_param {
    axis: 2
    offset: 16
  }
}
layer {
  name: "concat_d2cc_u2a-b"
  type: "Concat"
  bottom: "u2a"
  bottom: "d2cc"
  top: "u2b"
}
layer {
  name: "conv_u2b-c"
  type: "Convolution"
  bottom: "u2b"
  top: "u2c"
  param {
    lr_mult: 1
    decay_mult: 1
  }
  param {
    lr_mult: 2
    decay_mult: 0
  }
  convolution_param {
    num_output: 256
    pad: 0
    kernel_size: 3
    weight_filler {
      type: "xavier"
    }
    engine: CAFFE
  }
}
layer {
  name: "relu_u2c"
  type: "ReLU"
  bottom: "u2c"
  top: "u2c"
}
layer {
  name: "conv_u2c-d"
  type: "Convolution"
  bottom: "u2c"
  top: "u2d"
  param {
    lr_mult: 1
    decay_mult: 1
  }
  param {
    lr_mult: 2
    decay_mult: 0
  }
  convolution_param {
    num_output: 256
    pad: 0
    kernel_size: 3
    weight_filler {
      type: "xavier"
    }
    engine: CAFFE
  }
}
layer {
  name: "relu_u2d"
  type: "ReLU"
  bottom: "u2d"
  top: "u2d"
}
layer {
  name: "upconv_u2d_u1a"
  type: "Deconvolution"
  bottom: "u2d"
  top: "u1a"
  param {
    lr_mult: 1
    decay_mult: 1
  }
  param {
    lr_mult: 2
    decay_mult: 0
  }
  convolution_param {
    num_output: 128
    pad: 0
    kernel_size: 2
    stride: 2
    weight_filler {
      type: "xavier"
    }
  }
}
layer {
  name: "relu_u1a"
  type: "ReLU"
  bottom: "u1a"
  top: "u1a"
}
layer {
  name: "crop_d1c-d1cc"
  type: "Crop"
  bottom: "d1c"
  bottom: "u1a"
  top: "d1cc"
  crop_param {
    axis: 2
    offset: 40
  }
}
layer {
  name: "concat_d1cc_u1a-b"
  type: "Concat"
  bottom: "u1a"
  bottom: "d1cc"
  top: "u1b"
}
layer {
  name: "conv_u1b-c"
  type: "Convolution"
  bottom: "u1b"
  top: "u1c"
  param {
    lr_mult: 1
    decay_mult: 1
  }
  param {
    lr_mult: 2
    decay_mult: 0
  }
  convolution_param {
    num_output: 128
    pad: 0
    kernel_size: 3
    weight_filler {
      type: "xavier"
    }
    engine: CAFFE
  }
}
layer {
  name: "relu_u1c"
  type: "ReLU"
  bottom: "u1c"
  top: "u1c"
}
layer {
  name: "conv_u1c-d"
  type: "Convolution"
  bottom: "u1c"
  top: "u1d"
  param {
    lr_mult: 1
    decay_mult: 1
  }
  param {
    lr_mult: 2
    decay_mult: 0
  }
  convolution_param {
    num_output: 128
    pad: 0
    kernel_size: 3
    weight_filler {
      type: "xavier"
    }
    engine: CAFFE
  }
}
layer {
  name: "relu_u1d"
  type: "ReLU"
  bottom: "u1d"
  top: "u1d"
}
layer {
  name: "upconv_u1d_u0a"
  type: "Deconvolution"
  bottom: "u1d"
  top: "u0a"
  param {
    lr_mult: 1
    decay_mult: 1
  }
  param {
    lr_mult: 2
    decay_mult: 0
  }
  convolution_param {
    num_output: 128
    pad: 0
    kernel_size: 2
    stride: 2
    weight_filler {
      type: "xavier"
    }
  }
}
layer {
  name: "relu_u0a"
  type: "ReLU"
  bottom: "u0a"
  top: "u0a"
}
layer {
  name: "crop_d0c-d0cc"
  type: "Crop"
  bottom: "d0c"
  bottom: "u0a"
  top: "d0cc"
  crop_param {
    axis: 2
    offset: 88
  }
}
layer {
  name: "concat_d0cc_u0a-b"
  type: "Concat"
  bottom: "u0a"
  bottom: "d0cc"
  top: "u0b"
}
layer {
  name: "conv_u0b-c"
  type: "Convolution"
  bottom: "u0b"
  top: "u0c"
  param {
    lr_mult: 1
    decay_mult: 1
  }
  param {
    lr_mult: 2
    decay_mult: 0
  }
  convolution_param {
    num_output: 64
    pad: 0
    kernel_size: 3
    weight_filler {
      type: "xavier"
    }
    engine: CAFFE
  }
}
layer {
  name: "relu_u0c"
  type: "ReLU"
  bottom: "u0c"
  top: "u0c"
}
layer {
  name: "conv_u0c-d"
  type: "Convolution"
  bottom: "u0c"
  top: "u0d"
  param {
    lr_mult: 1
    decay_mult: 1
  }
  param {
    lr_mult: 2
    decay_mult: 0
  }
  convolution_param {
    num_output: 64
    pad: 0
    kernel_size: 3
    weight_filler {
      type: "xavier"
    }
    engine: CAFFE
  }
}
layer {
  name: "relu_u0d"
  type: "ReLU"
  bottom: "u0d"
  top: "u0d"
}
layer {
  name: "conv_u0d-score"
  type: "Convolution"
  bottom: "u0d"
  top: "score"
  param {
    lr_mult: 1
    decay_mult: 1
  }
  param {
    lr_mult: 2
    decay_mult: 0
  }
  convolution_param {
    num_output: 4
    pad: 0
    kernel_size: 1
    weight_filler {
      type: "xavier"
    }
    engine: CAFFE
  }
}
layer {
  name: "softmax"
  type: "Softmax"
  bottom: "score"
  top: "softmax_out"
}
layer {
  name: "reshapelab"
  type: "Reshape"
  bottom: "label"
  top: "label_flat"
  reshape_param {
    shape {
      dim: 0
      dim: -1
    }
  }
}
layer {
  name: "reshaperes"
  type: "Reshape"
  bottom: "softmax_out"
  top: "softmax_out_flat"
  reshape_param {
    shape {
      dim: 0
      dim: 0
      dim: -1
    }
  }
}
layer {
  name: "loss"
  type: "Python"
  bottom: "softmax_out_flat"
  bottom: "label_flat"
  top: "loss"
  loss_weight: 1
  python_param {
    module: "multiclass_f1_loss"
    layer: "F1Loss"
  }
}
layer {
  name: "visualize"
  type: "Softmax"
  bottom: "score"
  top: "visualize_out"
  include {
    phase: TRAIN
  }
}
layer {
  name: "fake"
  type: "Silence"
  bottom: "visualize_out"
  include {
    phase: TRAIN
  }
}
I0422 22:48:56.596693 30295 layer_factory.hpp:77] Creating layer loaddata
I0422 22:48:56.596714 30295 net.cpp:100] Creating Layer loaddata
I0422 22:48:56.596735 30295 net.cpp:408] loaddata -> data
I0422 22:48:56.596760 30295 net.cpp:408] loaddata -> label
I0422 22:48:56.596771 30295 hdf5_data_layer.cpp:79] Loading list of HDF5 filenames from: caffeHDF5_4.txt
I0422 22:48:56.599552 30295 hdf5_data_layer.cpp:93] Number of HDF5 files: 20
I0422 22:48:56.601254 30295 hdf5.cpp:32] Datatype class: H5T_FLOAT
I0422 22:48:57.672313 30295 hdf5.cpp:35] Datatype class: H5T_INTEGER
I0422 22:48:57.781744 30295 net.cpp:150] Setting up loaddata
I0422 22:48:57.781785 30295 net.cpp:157] Top shape: 5 3 428 428 (2747760)
I0422 22:48:57.781790 30295 net.cpp:157] Top shape: 5 244 244 (297680)
I0422 22:48:57.781791 30295 net.cpp:165] Memory required for data: 12181760
I0422 22:48:57.781796 30295 layer_factory.hpp:77] Creating layer conv_d0a-b
I0422 22:48:57.781812 30295 net.cpp:100] Creating Layer conv_d0a-b
I0422 22:48:57.781816 30295 net.cpp:434] conv_d0a-b <- data
I0422 22:48:57.781821 30295 net.cpp:408] conv_d0a-b -> d0b
I0422 22:48:57.784173 30295 net.cpp:150] Setting up conv_d0a-b
I0422 22:48:57.784188 30295 net.cpp:157] Top shape: 5 64 426 426 (58072320)
I0422 22:48:57.784205 30295 net.cpp:165] Memory required for data: 244471040
I0422 22:48:57.784214 30295 layer_factory.hpp:77] Creating layer relu_d0b
I0422 22:48:57.784220 30295 net.cpp:100] Creating Layer relu_d0b
I0422 22:48:57.784224 30295 net.cpp:434] relu_d0b <- d0b
I0422 22:48:57.784227 30295 net.cpp:395] relu_d0b -> d0b (in-place)
I0422 22:48:57.981281 30295 net.cpp:150] Setting up relu_d0b
I0422 22:48:57.981322 30295 net.cpp:157] Top shape: 5 64 426 426 (58072320)
I0422 22:48:57.981324 30295 net.cpp:165] Memory required for data: 476760320
I0422 22:48:57.981329 30295 layer_factory.hpp:77] Creating layer conv_d0b-c
I0422 22:48:57.981343 30295 net.cpp:100] Creating Layer conv_d0b-c
I0422 22:48:57.981346 30295 net.cpp:434] conv_d0b-c <- d0b
I0422 22:48:57.981353 30295 net.cpp:408] conv_d0b-c -> d0c
I0422 22:48:57.982837 30295 net.cpp:150] Setting up conv_d0b-c
I0422 22:48:57.982851 30295 net.cpp:157] Top shape: 5 64 424 424 (57528320)
I0422 22:48:57.982868 30295 net.cpp:165] Memory required for data: 706873600
I0422 22:48:57.982878 30295 layer_factory.hpp:77] Creating layer relu_d0c
I0422 22:48:57.982885 30295 net.cpp:100] Creating Layer relu_d0c
I0422 22:48:57.982887 30295 net.cpp:434] relu_d0c <- d0c
I0422 22:48:57.982892 30295 net.cpp:395] relu_d0c -> d0c (in-place)
I0422 22:48:57.983683 30295 net.cpp:150] Setting up relu_d0c
I0422 22:48:57.983695 30295 net.cpp:157] Top shape: 5 64 424 424 (57528320)
I0422 22:48:57.983697 30295 net.cpp:165] Memory required for data: 936986880
I0422 22:48:57.983716 30295 layer_factory.hpp:77] Creating layer d0c_relu_d0c_0_split
I0422 22:48:57.983721 30295 net.cpp:100] Creating Layer d0c_relu_d0c_0_split
I0422 22:48:57.983723 30295 net.cpp:434] d0c_relu_d0c_0_split <- d0c
I0422 22:48:57.983727 30295 net.cpp:408] d0c_relu_d0c_0_split -> d0c_relu_d0c_0_split_0
I0422 22:48:57.983736 30295 net.cpp:408] d0c_relu_d0c_0_split -> d0c_relu_d0c_0_split_1
I0422 22:48:57.983784 30295 net.cpp:150] Setting up d0c_relu_d0c_0_split
I0422 22:48:57.983788 30295 net.cpp:157] Top shape: 5 64 424 424 (57528320)
I0422 22:48:57.983791 30295 net.cpp:157] Top shape: 5 64 424 424 (57528320)
I0422 22:48:57.983808 30295 net.cpp:165] Memory required for data: 1397213440
I0422 22:48:57.983811 30295 layer_factory.hpp:77] Creating layer pool_d0c-1a
I0422 22:48:57.983816 30295 net.cpp:100] Creating Layer pool_d0c-1a
I0422 22:48:57.983819 30295 net.cpp:434] pool_d0c-1a <- d0c_relu_d0c_0_split_0
I0422 22:48:57.983822 30295 net.cpp:408] pool_d0c-1a -> d1a
I0422 22:48:57.983850 30295 net.cpp:150] Setting up pool_d0c-1a
I0422 22:48:57.983856 30295 net.cpp:157] Top shape: 5 64 212 212 (14382080)
I0422 22:48:57.983860 30295 net.cpp:165] Memory required for data: 1454741760
I0422 22:48:57.983861 30295 layer_factory.hpp:77] Creating layer conv_d1a-b
I0422 22:48:57.983870 30295 net.cpp:100] Creating Layer conv_d1a-b
I0422 22:48:57.983871 30295 net.cpp:434] conv_d1a-b <- d1a
I0422 22:48:57.983875 30295 net.cpp:408] conv_d1a-b -> d1b
I0422 22:48:57.984484 30295 net.cpp:150] Setting up conv_d1a-b
I0422 22:48:57.984493 30295 net.cpp:157] Top shape: 5 128 210 210 (28224000)
I0422 22:48:57.984494 30295 net.cpp:165] Memory required for data: 1567637760
I0422 22:48:57.984516 30295 layer_factory.hpp:77] Creating layer relu_d1b
I0422 22:48:57.984522 30295 net.cpp:100] Creating Layer relu_d1b
I0422 22:48:57.984525 30295 net.cpp:434] relu_d1b <- d1b
I0422 22:48:57.984529 30295 net.cpp:395] relu_d1b -> d1b (in-place)
I0422 22:48:57.984685 30295 net.cpp:150] Setting up relu_d1b
I0422 22:48:57.984694 30295 net.cpp:157] Top shape: 5 128 210 210 (28224000)
I0422 22:48:57.984696 30295 net.cpp:165] Memory required for data: 1680533760
I0422 22:48:57.984699 30295 layer_factory.hpp:77] Creating layer conv_d1b-c
I0422 22:48:57.984704 30295 net.cpp:100] Creating Layer conv_d1b-c
I0422 22:48:57.984706 30295 net.cpp:434] conv_d1b-c <- d1b
I0422 22:48:57.984711 30295 net.cpp:408] conv_d1b-c -> d1c
I0422 22:48:57.987377 30295 net.cpp:150] Setting up conv_d1b-c
I0422 22:48:57.987392 30295 net.cpp:157] Top shape: 5 128 208 208 (27688960)
I0422 22:48:57.987411 30295 net.cpp:165] Memory required for data: 1791289600
I0422 22:48:57.987416 30295 layer_factory.hpp:77] Creating layer relu_d1c
I0422 22:48:57.987421 30295 net.cpp:100] Creating Layer relu_d1c
I0422 22:48:57.987424 30295 net.cpp:434] relu_d1c <- d1c
I0422 22:48:57.987428 30295 net.cpp:395] relu_d1c -> d1c (in-place)
I0422 22:48:57.987601 30295 net.cpp:150] Setting up relu_d1c
I0422 22:48:57.987612 30295 net.cpp:157] Top shape: 5 128 208 208 (27688960)
I0422 22:48:57.987614 30295 net.cpp:165] Memory required for data: 1902045440
I0422 22:48:57.987617 30295 layer_factory.hpp:77] Creating layer d1c_relu_d1c_0_split
I0422 22:48:57.987622 30295 net.cpp:100] Creating Layer d1c_relu_d1c_0_split
I0422 22:48:57.987624 30295 net.cpp:434] d1c_relu_d1c_0_split <- d1c
I0422 22:48:57.987628 30295 net.cpp:408] d1c_relu_d1c_0_split -> d1c_relu_d1c_0_split_0
I0422 22:48:57.987635 30295 net.cpp:408] d1c_relu_d1c_0_split -> d1c_relu_d1c_0_split_1
I0422 22:48:57.987673 30295 net.cpp:150] Setting up d1c_relu_d1c_0_split
I0422 22:48:57.987680 30295 net.cpp:157] Top shape: 5 128 208 208 (27688960)
I0422 22:48:57.987684 30295 net.cpp:157] Top shape: 5 128 208 208 (27688960)
I0422 22:48:57.987686 30295 net.cpp:165] Memory required for data: 2123557120
I0422 22:48:57.987689 30295 layer_factory.hpp:77] Creating layer pool_d1c-2a
I0422 22:48:57.987694 30295 net.cpp:100] Creating Layer pool_d1c-2a
I0422 22:48:57.987696 30295 net.cpp:434] pool_d1c-2a <- d1c_relu_d1c_0_split_0
I0422 22:48:57.987700 30295 net.cpp:408] pool_d1c-2a -> d2a
I0422 22:48:57.987732 30295 net.cpp:150] Setting up pool_d1c-2a
I0422 22:48:57.987738 30295 net.cpp:157] Top shape: 5 128 104 104 (6922240)
I0422 22:48:57.987741 30295 net.cpp:165] Memory required for data: 2151246080
I0422 22:48:57.987743 30295 layer_factory.hpp:77] Creating layer conv_d2a-b
I0422 22:48:57.987751 30295 net.cpp:100] Creating Layer conv_d2a-b
I0422 22:48:57.987754 30295 net.cpp:434] conv_d2a-b <- d2a
I0422 22:48:57.987758 30295 net.cpp:408] conv_d2a-b -> d2b
I0422 22:48:57.990201 30295 net.cpp:150] Setting up conv_d2a-b
I0422 22:48:57.990214 30295 net.cpp:157] Top shape: 5 256 102 102 (13317120)
I0422 22:48:57.990216 30295 net.cpp:165] Memory required for data: 2204514560
I0422 22:48:57.990242 30295 layer_factory.hpp:77] Creating layer relu_d2b
I0422 22:48:57.990245 30295 net.cpp:100] Creating Layer relu_d2b
I0422 22:48:57.990248 30295 net.cpp:434] relu_d2b <- d2b
I0422 22:48:57.990253 30295 net.cpp:395] relu_d2b -> d2b (in-place)
I0422 22:48:57.990417 30295 net.cpp:150] Setting up relu_d2b
I0422 22:48:57.990427 30295 net.cpp:157] Top shape: 5 256 102 102 (13317120)
I0422 22:48:57.990429 30295 net.cpp:165] Memory required for data: 2257783040
I0422 22:48:57.990432 30295 layer_factory.hpp:77] Creating layer conv_d2b-c
I0422 22:48:57.990439 30295 net.cpp:100] Creating Layer conv_d2b-c
I0422 22:48:57.990442 30295 net.cpp:434] conv_d2b-c <- d2b
I0422 22:48:57.990447 30295 net.cpp:408] conv_d2b-c -> d2c
I0422 22:48:57.994381 30295 net.cpp:150] Setting up conv_d2b-c
I0422 22:48:57.994393 30295 net.cpp:157] Top shape: 5 256 100 100 (12800000)
I0422 22:48:57.994411 30295 net.cpp:165] Memory required for data: 2308983040
I0422 22:48:57.994417 30295 layer_factory.hpp:77] Creating layer relu_d2c
I0422 22:48:57.994426 30295 net.cpp:100] Creating Layer relu_d2c
I0422 22:48:57.994431 30295 net.cpp:434] relu_d2c <- d2c
I0422 22:48:57.994434 30295 net.cpp:395] relu_d2c -> d2c (in-place)
I0422 22:48:57.995133 30295 net.cpp:150] Setting up relu_d2c
I0422 22:48:57.995146 30295 net.cpp:157] Top shape: 5 256 100 100 (12800000)
I0422 22:48:57.995148 30295 net.cpp:165] Memory required for data: 2360183040
I0422 22:48:57.995167 30295 layer_factory.hpp:77] Creating layer d2c_relu_d2c_0_split
I0422 22:48:57.995173 30295 net.cpp:100] Creating Layer d2c_relu_d2c_0_split
I0422 22:48:57.995175 30295 net.cpp:434] d2c_relu_d2c_0_split <- d2c
I0422 22:48:57.995182 30295 net.cpp:408] d2c_relu_d2c_0_split -> d2c_relu_d2c_0_split_0
I0422 22:48:57.995189 30295 net.cpp:408] d2c_relu_d2c_0_split -> d2c_relu_d2c_0_split_1
I0422 22:48:57.995231 30295 net.cpp:150] Setting up d2c_relu_d2c_0_split
I0422 22:48:57.995236 30295 net.cpp:157] Top shape: 5 256 100 100 (12800000)
I0422 22:48:57.995239 30295 net.cpp:157] Top shape: 5 256 100 100 (12800000)
I0422 22:48:57.995241 30295 net.cpp:165] Memory required for data: 2462583040
I0422 22:48:57.995245 30295 layer_factory.hpp:77] Creating layer pool_d2c-3a
I0422 22:48:57.995251 30295 net.cpp:100] Creating Layer pool_d2c-3a
I0422 22:48:57.995254 30295 net.cpp:434] pool_d2c-3a <- d2c_relu_d2c_0_split_0
I0422 22:48:57.995259 30295 net.cpp:408] pool_d2c-3a -> d3a
I0422 22:48:57.995296 30295 net.cpp:150] Setting up pool_d2c-3a
I0422 22:48:57.995304 30295 net.cpp:157] Top shape: 5 256 50 50 (3200000)
I0422 22:48:57.995306 30295 net.cpp:165] Memory required for data: 2475383040
I0422 22:48:57.995308 30295 layer_factory.hpp:77] Creating layer conv_d3a-b
I0422 22:48:57.995316 30295 net.cpp:100] Creating Layer conv_d3a-b
I0422 22:48:57.995318 30295 net.cpp:434] conv_d3a-b <- d3a
I0422 22:48:57.995327 30295 net.cpp:408] conv_d3a-b -> d3b
I0422 22:48:58.003480 30295 net.cpp:150] Setting up conv_d3a-b
I0422 22:48:58.003494 30295 net.cpp:157] Top shape: 5 512 48 48 (5898240)
I0422 22:48:58.003512 30295 net.cpp:165] Memory required for data: 2498976000
I0422 22:48:58.003517 30295 layer_factory.hpp:77] Creating layer relu_d3b
I0422 22:48:58.003522 30295 net.cpp:100] Creating Layer relu_d3b
I0422 22:48:58.003525 30295 net.cpp:434] relu_d3b <- d3b
I0422 22:48:58.003531 30295 net.cpp:395] relu_d3b -> d3b (in-place)
I0422 22:48:58.003728 30295 net.cpp:150] Setting up relu_d3b
I0422 22:48:58.003738 30295 net.cpp:157] Top shape: 5 512 48 48 (5898240)
I0422 22:48:58.003741 30295 net.cpp:165] Memory required for data: 2522568960
I0422 22:48:58.003743 30295 layer_factory.hpp:77] Creating layer conv_d3b-c
I0422 22:48:58.003751 30295 net.cpp:100] Creating Layer conv_d3b-c
I0422 22:48:58.003754 30295 net.cpp:434] conv_d3b-c <- d3b
I0422 22:48:58.003760 30295 net.cpp:408] conv_d3b-c -> d3c
I0422 22:48:58.018442 30295 net.cpp:150] Setting up conv_d3b-c
I0422 22:48:58.018455 30295 net.cpp:157] Top shape: 5 512 46 46 (5416960)
I0422 22:48:58.018456 30295 net.cpp:165] Memory required for data: 2544236800
I0422 22:48:58.018478 30295 layer_factory.hpp:77] Creating layer relu_d3c
I0422 22:48:58.018484 30295 net.cpp:100] Creating Layer relu_d3c
I0422 22:48:58.018487 30295 net.cpp:434] relu_d3c <- d3c
I0422 22:48:58.018491 30295 net.cpp:395] relu_d3c -> d3c (in-place)
I0422 22:48:58.018671 30295 net.cpp:150] Setting up relu_d3c
I0422 22:48:58.018681 30295 net.cpp:157] Top shape: 5 512 46 46 (5416960)
I0422 22:48:58.018682 30295 net.cpp:165] Memory required for data: 2565904640
I0422 22:48:58.018685 30295 layer_factory.hpp:77] Creating layer dropout_d3c
I0422 22:48:58.018693 30295 net.cpp:100] Creating Layer dropout_d3c
I0422 22:48:58.018695 30295 net.cpp:434] dropout_d3c <- d3c
I0422 22:48:58.018700 30295 net.cpp:395] dropout_d3c -> d3c (in-place)
I0422 22:48:58.018740 30295 net.cpp:150] Setting up dropout_d3c
I0422 22:48:58.018765 30295 net.cpp:157] Top shape: 5 512 46 46 (5416960)
I0422 22:48:58.018767 30295 net.cpp:165] Memory required for data: 2587572480
I0422 22:48:58.018769 30295 layer_factory.hpp:77] Creating layer d3c_dropout_d3c_0_split
I0422 22:48:58.018776 30295 net.cpp:100] Creating Layer d3c_dropout_d3c_0_split
I0422 22:48:58.018779 30295 net.cpp:434] d3c_dropout_d3c_0_split <- d3c
I0422 22:48:58.018784 30295 net.cpp:408] d3c_dropout_d3c_0_split -> d3c_dropout_d3c_0_split_0
I0422 22:48:58.018790 30295 net.cpp:408] d3c_dropout_d3c_0_split -> d3c_dropout_d3c_0_split_1
I0422 22:48:58.018826 30295 net.cpp:150] Setting up d3c_dropout_d3c_0_split
I0422 22:48:58.018832 30295 net.cpp:157] Top shape: 5 512 46 46 (5416960)
I0422 22:48:58.018836 30295 net.cpp:157] Top shape: 5 512 46 46 (5416960)
I0422 22:48:58.018838 30295 net.cpp:165] Memory required for data: 2630908160
I0422 22:48:58.018841 30295 layer_factory.hpp:77] Creating layer pool_d3c-4a
I0422 22:48:58.018848 30295 net.cpp:100] Creating Layer pool_d3c-4a
I0422 22:48:58.018851 30295 net.cpp:434] pool_d3c-4a <- d3c_dropout_d3c_0_split_0
I0422 22:48:58.018854 30295 net.cpp:408] pool_d3c-4a -> d4a
I0422 22:48:58.018889 30295 net.cpp:150] Setting up pool_d3c-4a
I0422 22:48:58.018896 30295 net.cpp:157] Top shape: 5 512 23 23 (1354240)
I0422 22:48:58.018899 30295 net.cpp:165] Memory required for data: 2636325120
I0422 22:48:58.018901 30295 layer_factory.hpp:77] Creating layer conv_d4a-b
I0422 22:48:58.018908 30295 net.cpp:100] Creating Layer conv_d4a-b
I0422 22:48:58.018913 30295 net.cpp:434] conv_d4a-b <- d4a
I0422 22:48:58.018916 30295 net.cpp:408] conv_d4a-b -> d4b
I0422 22:48:58.047088 30295 net.cpp:150] Setting up conv_d4a-b
I0422 22:48:58.047102 30295 net.cpp:157] Top shape: 5 1024 21 21 (2257920)
I0422 22:48:58.047122 30295 net.cpp:165] Memory required for data: 2645356800
I0422 22:48:58.047132 30295 layer_factory.hpp:77] Creating layer relu_d4b
I0422 22:48:58.047137 30295 net.cpp:100] Creating Layer relu_d4b
I0422 22:48:58.047140 30295 net.cpp:434] relu_d4b <- d4b
I0422 22:48:58.047145 30295 net.cpp:395] relu_d4b -> d4b (in-place)
I0422 22:48:58.047955 30295 net.cpp:150] Setting up relu_d4b
I0422 22:48:58.047966 30295 net.cpp:157] Top shape: 5 1024 21 21 (2257920)
I0422 22:48:58.047967 30295 net.cpp:165] Memory required for data: 2654388480
I0422 22:48:58.047986 30295 layer_factory.hpp:77] Creating layer conv_d4b-c
I0422 22:48:58.047996 30295 net.cpp:100] Creating Layer conv_d4b-c
I0422 22:48:58.047997 30295 net.cpp:434] conv_d4b-c <- d4b
I0422 22:48:58.048007 30295 net.cpp:408] conv_d4b-c -> d4c
I0422 22:48:58.103507 30295 net.cpp:150] Setting up conv_d4b-c
I0422 22:48:58.103543 30295 net.cpp:157] Top shape: 5 1024 19 19 (1848320)
I0422 22:48:58.103545 30295 net.cpp:165] Memory required for data: 2661781760
I0422 22:48:58.103554 30295 layer_factory.hpp:77] Creating layer relu_d4c
I0422 22:48:58.103561 30295 net.cpp:100] Creating Layer relu_d4c
I0422 22:48:58.103564 30295 net.cpp:434] relu_d4c <- d4c
I0422 22:48:58.103569 30295 net.cpp:395] relu_d4c -> d4c (in-place)
I0422 22:48:58.103828 30295 net.cpp:150] Setting up relu_d4c
I0422 22:48:58.103839 30295 net.cpp:157] Top shape: 5 1024 19 19 (1848320)
I0422 22:48:58.103842 30295 net.cpp:165] Memory required for data: 2669175040
I0422 22:48:58.103843 30295 layer_factory.hpp:77] Creating layer dropout_d4c
I0422 22:48:58.103850 30295 net.cpp:100] Creating Layer dropout_d4c
I0422 22:48:58.103854 30295 net.cpp:434] dropout_d4c <- d4c
I0422 22:48:58.103860 30295 net.cpp:395] dropout_d4c -> d4c (in-place)
I0422 22:48:58.103890 30295 net.cpp:150] Setting up dropout_d4c
I0422 22:48:58.103898 30295 net.cpp:157] Top shape: 5 1024 19 19 (1848320)
I0422 22:48:58.103900 30295 net.cpp:165] Memory required for data: 2676568320
I0422 22:48:58.103902 30295 layer_factory.hpp:77] Creating layer upconv_d4c_u3a
I0422 22:48:58.103909 30295 net.cpp:100] Creating Layer upconv_d4c_u3a
I0422 22:48:58.103912 30295 net.cpp:434] upconv_d4c_u3a <- d4c
I0422 22:48:58.103952 30295 net.cpp:408] upconv_d4c_u3a -> u3a
I0422 22:48:58.117014 30295 net.cpp:150] Setting up upconv_d4c_u3a
I0422 22:48:58.117027 30295 net.cpp:157] Top shape: 5 512 38 38 (3696640)
I0422 22:48:58.117045 30295 net.cpp:165] Memory required for data: 2691354880
I0422 22:48:58.117051 30295 layer_factory.hpp:77] Creating layer relu_u3a
I0422 22:48:58.117063 30295 net.cpp:100] Creating Layer relu_u3a
I0422 22:48:58.117065 30295 net.cpp:434] relu_u3a <- u3a
I0422 22:48:58.117069 30295 net.cpp:395] relu_u3a -> u3a (in-place)
I0422 22:48:58.117264 30295 net.cpp:150] Setting up relu_u3a
I0422 22:48:58.117274 30295 net.cpp:157] Top shape: 5 512 38 38 (3696640)
I0422 22:48:58.117275 30295 net.cpp:165] Memory required for data: 2706141440
I0422 22:48:58.117278 30295 layer_factory.hpp:77] Creating layer u3a_relu_u3a_0_split
I0422 22:48:58.117283 30295 net.cpp:100] Creating Layer u3a_relu_u3a_0_split
I0422 22:48:58.117286 30295 net.cpp:434] u3a_relu_u3a_0_split <- u3a
I0422 22:48:58.117291 30295 net.cpp:408] u3a_relu_u3a_0_split -> u3a_relu_u3a_0_split_0
I0422 22:48:58.117296 30295 net.cpp:408] u3a_relu_u3a_0_split -> u3a_relu_u3a_0_split_1
I0422 22:48:58.117337 30295 net.cpp:150] Setting up u3a_relu_u3a_0_split
I0422 22:48:58.117344 30295 net.cpp:157] Top shape: 5 512 38 38 (3696640)
I0422 22:48:58.117347 30295 net.cpp:157] Top shape: 5 512 38 38 (3696640)
I0422 22:48:58.117349 30295 net.cpp:165] Memory required for data: 2735714560
I0422 22:48:58.117352 30295 layer_factory.hpp:77] Creating layer crop_d3c-d3cc
I0422 22:48:58.117358 30295 net.cpp:100] Creating Layer crop_d3c-d3cc
I0422 22:48:58.117362 30295 net.cpp:434] crop_d3c-d3cc <- d3c_dropout_d3c_0_split_1
I0422 22:48:58.117364 30295 net.cpp:434] crop_d3c-d3cc <- u3a_relu_u3a_0_split_0
I0422 22:48:58.117370 30295 net.cpp:408] crop_d3c-d3cc -> d3cc
I0422 22:48:58.117389 30295 net.cpp:150] Setting up crop_d3c-d3cc
I0422 22:48:58.117393 30295 net.cpp:157] Top shape: 5 512 38 38 (3696640)
I0422 22:48:58.117395 30295 net.cpp:165] Memory required for data: 2750501120
I0422 22:48:58.117399 30295 layer_factory.hpp:77] Creating layer concat_d3cc_u3a-b
I0422 22:48:58.117404 30295 net.cpp:100] Creating Layer concat_d3cc_u3a-b
I0422 22:48:58.117406 30295 net.cpp:434] concat_d3cc_u3a-b <- u3a_relu_u3a_0_split_1
I0422 22:48:58.117409 30295 net.cpp:434] concat_d3cc_u3a-b <- d3cc
I0422 22:48:58.117413 30295 net.cpp:408] concat_d3cc_u3a-b -> u3b
I0422 22:48:58.117432 30295 net.cpp:150] Setting up concat_d3cc_u3a-b
I0422 22:48:58.117441 30295 net.cpp:157] Top shape: 5 1024 38 38 (7393280)
I0422 22:48:58.117444 30295 net.cpp:165] Memory required for data: 2780074240
I0422 22:48:58.117462 30295 layer_factory.hpp:77] Creating layer conv_u3b-c
I0422 22:48:58.117470 30295 net.cpp:100] Creating Layer conv_u3b-c
I0422 22:48:58.117472 30295 net.cpp:434] conv_u3b-c <- u3b
I0422 22:48:58.117477 30295 net.cpp:408] conv_u3b-c -> u3c
I0422 22:48:58.146292 30295 net.cpp:150] Setting up conv_u3b-c
I0422 22:48:58.146309 30295 net.cpp:157] Top shape: 5 512 36 36 (3317760)
I0422 22:48:58.146327 30295 net.cpp:165] Memory required for data: 2793345280
I0422 22:48:58.146333 30295 layer_factory.hpp:77] Creating layer relu_u3c
I0422 22:48:58.146339 30295 net.cpp:100] Creating Layer relu_u3c
I0422 22:48:58.146342 30295 net.cpp:434] relu_u3c <- u3c
I0422 22:48:58.146349 30295 net.cpp:395] relu_u3c -> u3c (in-place)
I0422 22:48:58.146550 30295 net.cpp:150] Setting up relu_u3c
I0422 22:48:58.146560 30295 net.cpp:157] Top shape: 5 512 36 36 (3317760)
I0422 22:48:58.146562 30295 net.cpp:165] Memory required for data: 2806616320
I0422 22:48:58.146565 30295 layer_factory.hpp:77] Creating layer conv_u3c-d
I0422 22:48:58.146574 30295 net.cpp:100] Creating Layer conv_u3c-d
I0422 22:48:58.146577 30295 net.cpp:434] conv_u3c-d <- u3c
I0422 22:48:58.146584 30295 net.cpp:408] conv_u3c-d -> u3d
I0422 22:48:58.160837 30295 net.cpp:150] Setting up conv_u3c-d
I0422 22:48:58.160851 30295 net.cpp:157] Top shape: 5 512 34 34 (2959360)
I0422 22:48:58.160852 30295 net.cpp:165] Memory required for data: 2818453760
I0422 22:48:58.160873 30295 layer_factory.hpp:77] Creating layer relu_u3d
I0422 22:48:58.160893 30295 net.cpp:100] Creating Layer relu_u3d
I0422 22:48:58.160897 30295 net.cpp:434] relu_u3d <- u3d
I0422 22:48:58.160902 30295 net.cpp:395] relu_u3d -> u3d (in-place)
I0422 22:48:58.161674 30295 net.cpp:150] Setting up relu_u3d
I0422 22:48:58.161687 30295 net.cpp:157] Top shape: 5 512 34 34 (2959360)
I0422 22:48:58.161706 30295 net.cpp:165] Memory required for data: 2830291200
I0422 22:48:58.161710 30295 layer_factory.hpp:77] Creating layer upconv_u3d_u2a
I0422 22:48:58.161720 30295 net.cpp:100] Creating Layer upconv_u3d_u2a
I0422 22:48:58.161723 30295 net.cpp:434] upconv_u3d_u2a <- u3d
I0422 22:48:58.161730 30295 net.cpp:408] upconv_u3d_u2a -> u2a
I0422 22:48:58.165431 30295 net.cpp:150] Setting up upconv_u3d_u2a
I0422 22:48:58.165463 30295 net.cpp:157] Top shape: 5 256 68 68 (5918720)
I0422 22:48:58.165467 30295 net.cpp:165] Memory required for data: 2853966080
I0422 22:48:58.165488 30295 layer_factory.hpp:77] Creating layer relu_u2a
I0422 22:48:58.165493 30295 net.cpp:100] Creating Layer relu_u2a
I0422 22:48:58.165495 30295 net.cpp:434] relu_u2a <- u2a
I0422 22:48:58.165501 30295 net.cpp:395] relu_u2a -> u2a (in-place)
I0422 22:48:58.165678 30295 net.cpp:150] Setting up relu_u2a
I0422 22:48:58.165688 30295 net.cpp:157] Top shape: 5 256 68 68 (5918720)
I0422 22:48:58.165690 30295 net.cpp:165] Memory required for data: 2877640960
I0422 22:48:58.165693 30295 layer_factory.hpp:77] Creating layer u2a_relu_u2a_0_split
I0422 22:48:58.165699 30295 net.cpp:100] Creating Layer u2a_relu_u2a_0_split
I0422 22:48:58.165702 30295 net.cpp:434] u2a_relu_u2a_0_split <- u2a
I0422 22:48:58.165707 30295 net.cpp:408] u2a_relu_u2a_0_split -> u2a_relu_u2a_0_split_0
I0422 22:48:58.165720 30295 net.cpp:408] u2a_relu_u2a_0_split -> u2a_relu_u2a_0_split_1
I0422 22:48:58.165760 30295 net.cpp:150] Setting up u2a_relu_u2a_0_split
I0422 22:48:58.165783 30295 net.cpp:157] Top shape: 5 256 68 68 (5918720)
I0422 22:48:58.165789 30295 net.cpp:157] Top shape: 5 256 68 68 (5918720)
I0422 22:48:58.165807 30295 net.cpp:165] Memory required for data: 2924990720
I0422 22:48:58.165810 30295 layer_factory.hpp:77] Creating layer crop_d2c-d2cc
I0422 22:48:58.165817 30295 net.cpp:100] Creating Layer crop_d2c-d2cc
I0422 22:48:58.165818 30295 net.cpp:434] crop_d2c-d2cc <- d2c_relu_d2c_0_split_1
I0422 22:48:58.165822 30295 net.cpp:434] crop_d2c-d2cc <- u2a_relu_u2a_0_split_0
I0422 22:48:58.165827 30295 net.cpp:408] crop_d2c-d2cc -> d2cc
I0422 22:48:58.165848 30295 net.cpp:150] Setting up crop_d2c-d2cc
I0422 22:48:58.165854 30295 net.cpp:157] Top shape: 5 256 68 68 (5918720)
I0422 22:48:58.165856 30295 net.cpp:165] Memory required for data: 2948665600
I0422 22:48:58.165858 30295 layer_factory.hpp:77] Creating layer concat_d2cc_u2a-b
I0422 22:48:58.165864 30295 net.cpp:100] Creating Layer concat_d2cc_u2a-b
I0422 22:48:58.165866 30295 net.cpp:434] concat_d2cc_u2a-b <- u2a_relu_u2a_0_split_1
I0422 22:48:58.165869 30295 net.cpp:434] concat_d2cc_u2a-b <- d2cc
I0422 22:48:58.165873 30295 net.cpp:408] concat_d2cc_u2a-b -> u2b
I0422 22:48:58.165892 30295 net.cpp:150] Setting up concat_d2cc_u2a-b
I0422 22:48:58.165896 30295 net.cpp:157] Top shape: 5 512 68 68 (11837440)
I0422 22:48:58.165899 30295 net.cpp:165] Memory required for data: 2996015360
I0422 22:48:58.165901 30295 layer_factory.hpp:77] Creating layer conv_u2b-c
I0422 22:48:58.165910 30295 net.cpp:100] Creating Layer conv_u2b-c
I0422 22:48:58.165911 30295 net.cpp:434] conv_u2b-c <- u2b
I0422 22:48:58.165916 30295 net.cpp:408] conv_u2b-c -> u2c
I0422 22:48:58.173204 30295 net.cpp:150] Setting up conv_u2b-c
I0422 22:48:58.173218 30295 net.cpp:157] Top shape: 5 256 66 66 (5575680)
I0422 22:48:58.173219 30295 net.cpp:165] Memory required for data: 3018318080
I0422 22:48:58.173240 30295 layer_factory.hpp:77] Creating layer relu_u2c
I0422 22:48:58.173245 30295 net.cpp:100] Creating Layer relu_u2c
I0422 22:48:58.173249 30295 net.cpp:434] relu_u2c <- u2c
I0422 22:48:58.173254 30295 net.cpp:395] relu_u2c -> u2c (in-place)
I0422 22:48:58.173422 30295 net.cpp:150] Setting up relu_u2c
I0422 22:48:58.173465 30295 net.cpp:157] Top shape: 5 256 66 66 (5575680)
I0422 22:48:58.173467 30295 net.cpp:165] Memory required for data: 3040620800
I0422 22:48:58.173470 30295 layer_factory.hpp:77] Creating layer conv_u2c-d
I0422 22:48:58.173478 30295 net.cpp:100] Creating Layer conv_u2c-d
I0422 22:48:58.173481 30295 net.cpp:434] conv_u2c-d <- u2c
I0422 22:48:58.173487 30295 net.cpp:408] conv_u2c-d -> u2d
I0422 22:48:58.177368 30295 net.cpp:150] Setting up conv_u2c-d
I0422 22:48:58.177381 30295 net.cpp:157] Top shape: 5 256 64 64 (5242880)
I0422 22:48:58.177382 30295 net.cpp:165] Memory required for data: 3061592320
I0422 22:48:58.177403 30295 layer_factory.hpp:77] Creating layer relu_u2d
I0422 22:48:58.177409 30295 net.cpp:100] Creating Layer relu_u2d
I0422 22:48:58.177412 30295 net.cpp:434] relu_u2d <- u2d
I0422 22:48:58.177417 30295 net.cpp:395] relu_u2d -> u2d (in-place)
I0422 22:48:58.177618 30295 net.cpp:150] Setting up relu_u2d
I0422 22:48:58.177628 30295 net.cpp:157] Top shape: 5 256 64 64 (5242880)
I0422 22:48:58.177631 30295 net.cpp:165] Memory required for data: 3082563840
I0422 22:48:58.177634 30295 layer_factory.hpp:77] Creating layer upconv_u2d_u1a
I0422 22:48:58.177641 30295 net.cpp:100] Creating Layer upconv_u2d_u1a
I0422 22:48:58.177644 30295 net.cpp:434] upconv_u2d_u1a <- u2d
I0422 22:48:58.177649 30295 net.cpp:408] upconv_u2d_u1a -> u1a
I0422 22:48:58.179316 30295 net.cpp:150] Setting up upconv_u2d_u1a
I0422 22:48:58.179329 30295 net.cpp:157] Top shape: 5 128 128 128 (10485760)
I0422 22:48:58.179332 30295 net.cpp:165] Memory required for data: 3124506880
I0422 22:48:58.179358 30295 layer_factory.hpp:77] Creating layer relu_u1a
I0422 22:48:58.179363 30295 net.cpp:100] Creating Layer relu_u1a
I0422 22:48:58.179368 30295 net.cpp:434] relu_u1a <- u1a
I0422 22:48:58.179370 30295 net.cpp:395] relu_u1a -> u1a (in-place)
I0422 22:48:58.180094 30295 net.cpp:150] Setting up relu_u1a
I0422 22:48:58.180105 30295 net.cpp:157] Top shape: 5 128 128 128 (10485760)
I0422 22:48:58.180124 30295 net.cpp:165] Memory required for data: 3166449920
I0422 22:48:58.180126 30295 layer_factory.hpp:77] Creating layer u1a_relu_u1a_0_split
I0422 22:48:58.180132 30295 net.cpp:100] Creating Layer u1a_relu_u1a_0_split
I0422 22:48:58.180135 30295 net.cpp:434] u1a_relu_u1a_0_split <- u1a
I0422 22:48:58.180140 30295 net.cpp:408] u1a_relu_u1a_0_split -> u1a_relu_u1a_0_split_0
I0422 22:48:58.180146 30295 net.cpp:408] u1a_relu_u1a_0_split -> u1a_relu_u1a_0_split_1
I0422 22:48:58.180186 30295 net.cpp:150] Setting up u1a_relu_u1a_0_split
I0422 22:48:58.180191 30295 net.cpp:157] Top shape: 5 128 128 128 (10485760)
I0422 22:48:58.180194 30295 net.cpp:157] Top shape: 5 128 128 128 (10485760)
I0422 22:48:58.180197 30295 net.cpp:165] Memory required for data: 3250336000
I0422 22:48:58.180198 30295 layer_factory.hpp:77] Creating layer crop_d1c-d1cc
I0422 22:48:58.180202 30295 net.cpp:100] Creating Layer crop_d1c-d1cc
I0422 22:48:58.180205 30295 net.cpp:434] crop_d1c-d1cc <- d1c_relu_d1c_0_split_1
I0422 22:48:58.180208 30295 net.cpp:434] crop_d1c-d1cc <- u1a_relu_u1a_0_split_0
I0422 22:48:58.180212 30295 net.cpp:408] crop_d1c-d1cc -> d1cc
I0422 22:48:58.180233 30295 net.cpp:150] Setting up crop_d1c-d1cc
I0422 22:48:58.180238 30295 net.cpp:157] Top shape: 5 128 128 128 (10485760)
I0422 22:48:58.180239 30295 net.cpp:165] Memory required for data: 3292279040
I0422 22:48:58.180241 30295 layer_factory.hpp:77] Creating layer concat_d1cc_u1a-b
I0422 22:48:58.180246 30295 net.cpp:100] Creating Layer concat_d1cc_u1a-b
I0422 22:48:58.180248 30295 net.cpp:434] concat_d1cc_u1a-b <- u1a_relu_u1a_0_split_1
I0422 22:48:58.180251 30295 net.cpp:434] concat_d1cc_u1a-b <- d1cc
I0422 22:48:58.180254 30295 net.cpp:408] concat_d1cc_u1a-b -> u1b
I0422 22:48:58.180280 30295 net.cpp:150] Setting up concat_d1cc_u1a-b
I0422 22:48:58.180284 30295 net.cpp:157] Top shape: 5 256 128 128 (20971520)
I0422 22:48:58.180286 30295 net.cpp:165] Memory required for data: 3376165120
I0422 22:48:58.180289 30295 layer_factory.hpp:77] Creating layer conv_u1b-c
I0422 22:48:58.180308 30295 net.cpp:100] Creating Layer conv_u1b-c
I0422 22:48:58.180312 30295 net.cpp:434] conv_u1b-c <- u1b
I0422 22:48:58.180316 30295 net.cpp:408] conv_u1b-c -> u1c
I0422 22:48:58.181988 30295 net.cpp:150] Setting up conv_u1b-c
I0422 22:48:58.181996 30295 net.cpp:157] Top shape: 5 128 126 126 (10160640)
I0422 22:48:58.181998 30295 net.cpp:165] Memory required for data: 3416807680
I0422 22:48:58.182019 30295 layer_factory.hpp:77] Creating layer relu_u1c
I0422 22:48:58.182024 30295 net.cpp:100] Creating Layer relu_u1c
I0422 22:48:58.182025 30295 net.cpp:434] relu_u1c <- u1c
I0422 22:48:58.182031 30295 net.cpp:395] relu_u1c -> u1c (in-place)
I0422 22:48:58.182207 30295 net.cpp:150] Setting up relu_u1c
I0422 22:48:58.182215 30295 net.cpp:157] Top shape: 5 128 126 126 (10160640)
I0422 22:48:58.182219 30295 net.cpp:165] Memory required for data: 3457450240
I0422 22:48:58.182221 30295 layer_factory.hpp:77] Creating layer conv_u1c-d
I0422 22:48:58.182229 30295 net.cpp:100] Creating Layer conv_u1c-d
I0422 22:48:58.182230 30295 net.cpp:434] conv_u1c-d <- u1c
I0422 22:48:58.182235 30295 net.cpp:408] conv_u1c-d -> u1d
I0422 22:48:58.184029 30295 net.cpp:150] Setting up conv_u1c-d
I0422 22:48:58.184053 30295 net.cpp:157] Top shape: 5 128 124 124 (9840640)
I0422 22:48:58.184056 30295 net.cpp:165] Memory required for data: 3496812800
I0422 22:48:58.184059 30295 layer_factory.hpp:77] Creating layer relu_u1d
I0422 22:48:58.184082 30295 net.cpp:100] Creating Layer relu_u1d
I0422 22:48:58.184084 30295 net.cpp:434] relu_u1d <- u1d
I0422 22:48:58.184088 30295 net.cpp:395] relu_u1d -> u1d (in-place)
I0422 22:48:58.184269 30295 net.cpp:150] Setting up relu_u1d
I0422 22:48:58.184278 30295 net.cpp:157] Top shape: 5 128 124 124 (9840640)
I0422 22:48:58.184280 30295 net.cpp:165] Memory required for data: 3536175360
I0422 22:48:58.184283 30295 layer_factory.hpp:77] Creating layer upconv_u1d_u0a
I0422 22:48:58.184290 30295 net.cpp:100] Creating Layer upconv_u1d_u0a
I0422 22:48:58.184293 30295 net.cpp:434] upconv_u1d_u0a <- u1d
I0422 22:48:58.184298 30295 net.cpp:408] upconv_u1d_u0a -> u0a
I0422 22:48:58.184898 30295 net.cpp:150] Setting up upconv_u1d_u0a
I0422 22:48:58.184906 30295 net.cpp:157] Top shape: 5 128 248 248 (39362560)
I0422 22:48:58.184908 30295 net.cpp:165] Memory required for data: 3693625600
I0422 22:48:58.184928 30295 layer_factory.hpp:77] Creating layer relu_u0a
I0422 22:48:58.184934 30295 net.cpp:100] Creating Layer relu_u0a
I0422 22:48:58.184937 30295 net.cpp:434] relu_u0a <- u0a
I0422 22:48:58.184940 30295 net.cpp:395] relu_u0a -> u0a (in-place)
I0422 22:48:58.185106 30295 net.cpp:150] Setting up relu_u0a
I0422 22:48:58.185115 30295 net.cpp:157] Top shape: 5 128 248 248 (39362560)
I0422 22:48:58.185117 30295 net.cpp:165] Memory required for data: 3851075840
I0422 22:48:58.185120 30295 layer_factory.hpp:77] Creating layer u0a_relu_u0a_0_split
I0422 22:48:58.185125 30295 net.cpp:100] Creating Layer u0a_relu_u0a_0_split
I0422 22:48:58.185128 30295 net.cpp:434] u0a_relu_u0a_0_split <- u0a
I0422 22:48:58.185132 30295 net.cpp:408] u0a_relu_u0a_0_split -> u0a_relu_u0a_0_split_0
I0422 22:48:58.185138 30295 net.cpp:408] u0a_relu_u0a_0_split -> u0a_relu_u0a_0_split_1
I0422 22:48:58.185176 30295 net.cpp:150] Setting up u0a_relu_u0a_0_split
I0422 22:48:58.185183 30295 net.cpp:157] Top shape: 5 128 248 248 (39362560)
I0422 22:48:58.185186 30295 net.cpp:157] Top shape: 5 128 248 248 (39362560)
I0422 22:48:58.185189 30295 net.cpp:165] Memory required for data: 4165976320
I0422 22:48:58.185190 30295 layer_factory.hpp:77] Creating layer crop_d0c-d0cc
I0422 22:48:58.185197 30295 net.cpp:100] Creating Layer crop_d0c-d0cc
I0422 22:48:58.185199 30295 net.cpp:434] crop_d0c-d0cc <- d0c_relu_d0c_0_split_1
I0422 22:48:58.185204 30295 net.cpp:434] crop_d0c-d0cc <- u0a_relu_u0a_0_split_0
I0422 22:48:58.185207 30295 net.cpp:408] crop_d0c-d0cc -> d0cc
I0422 22:48:58.185228 30295 net.cpp:150] Setting up crop_d0c-d0cc
I0422 22:48:58.185232 30295 net.cpp:157] Top shape: 5 64 248 248 (19681280)
I0422 22:48:58.185235 30295 net.cpp:165] Memory required for data: 4244701440
I0422 22:48:58.185250 30295 layer_factory.hpp:77] Creating layer concat_d0cc_u0a-b
I0422 22:48:58.185266 30295 net.cpp:100] Creating Layer concat_d0cc_u0a-b
I0422 22:48:58.185269 30295 net.cpp:434] concat_d0cc_u0a-b <- u0a_relu_u0a_0_split_1
I0422 22:48:58.185289 30295 net.cpp:434] concat_d0cc_u0a-b <- d0cc
I0422 22:48:58.185295 30295 net.cpp:408] concat_d0cc_u0a-b -> u0b
I0422 22:48:58.185322 30295 net.cpp:150] Setting up concat_d0cc_u0a-b
I0422 22:48:58.185328 30295 net.cpp:157] Top shape: 5 192 248 248 (59043840)
I0422 22:48:58.185331 30295 net.cpp:165] Memory required for data: 4480876800
I0422 22:48:58.185333 30295 layer_factory.hpp:77] Creating layer conv_u0b-c
I0422 22:48:58.185341 30295 net.cpp:100] Creating Layer conv_u0b-c
I0422 22:48:58.185343 30295 net.cpp:434] conv_u0b-c <- u0b
I0422 22:48:58.185348 30295 net.cpp:408] conv_u0b-c -> u0c
I0422 22:48:58.186231 30295 net.cpp:150] Setting up conv_u0b-c
I0422 22:48:58.186239 30295 net.cpp:157] Top shape: 5 64 246 246 (19365120)
I0422 22:48:58.186241 30295 net.cpp:165] Memory required for data: 4558337280
I0422 22:48:58.186264 30295 layer_factory.hpp:77] Creating layer relu_u0c
I0422 22:48:58.186276 30295 net.cpp:100] Creating Layer relu_u0c
I0422 22:48:58.186280 30295 net.cpp:434] relu_u0c <- u0c
I0422 22:48:58.186282 30295 net.cpp:395] relu_u0c -> u0c (in-place)
I0422 22:48:58.187042 30295 net.cpp:150] Setting up relu_u0c
I0422 22:48:58.187054 30295 net.cpp:157] Top shape: 5 64 246 246 (19365120)
I0422 22:48:58.187057 30295 net.cpp:165] Memory required for data: 4635797760
I0422 22:48:58.187077 30295 layer_factory.hpp:77] Creating layer conv_u0c-d
I0422 22:48:58.187084 30295 net.cpp:100] Creating Layer conv_u0c-d
I0422 22:48:58.187088 30295 net.cpp:434] conv_u0c-d <- u0c
I0422 22:48:58.187108 30295 net.cpp:408] conv_u0c-d -> u0d
I0422 22:48:58.187569 30295 net.cpp:150] Setting up conv_u0c-d
I0422 22:48:58.187577 30295 net.cpp:157] Top shape: 5 64 244 244 (19051520)
I0422 22:48:58.187579 30295 net.cpp:165] Memory required for data: 4712003840
I0422 22:48:58.187599 30295 layer_factory.hpp:77] Creating layer relu_u0d
I0422 22:48:58.187603 30295 net.cpp:100] Creating Layer relu_u0d
I0422 22:48:58.187607 30295 net.cpp:434] relu_u0d <- u0d
I0422 22:48:58.187611 30295 net.cpp:395] relu_u0d -> u0d (in-place)
I0422 22:48:58.187767 30295 net.cpp:150] Setting up relu_u0d
I0422 22:48:58.187775 30295 net.cpp:157] Top shape: 5 64 244 244 (19051520)
I0422 22:48:58.187777 30295 net.cpp:165] Memory required for data: 4788209920
I0422 22:48:58.187780 30295 layer_factory.hpp:77] Creating layer conv_u0d-score
I0422 22:48:58.187788 30295 net.cpp:100] Creating Layer conv_u0d-score
I0422 22:48:58.187789 30295 net.cpp:434] conv_u0d-score <- u0d
I0422 22:48:58.187795 30295 net.cpp:408] conv_u0d-score -> score
I0422 22:48:58.188041 30295 net.cpp:150] Setting up conv_u0d-score
I0422 22:48:58.188048 30295 net.cpp:157] Top shape: 5 4 244 244 (1190720)
I0422 22:48:58.188050 30295 net.cpp:165] Memory required for data: 4792972800
I0422 22:48:58.188055 30295 layer_factory.hpp:77] Creating layer score_conv_u0d-score_0_split
I0422 22:48:58.188060 30295 net.cpp:100] Creating Layer score_conv_u0d-score_0_split
I0422 22:48:58.188062 30295 net.cpp:434] score_conv_u0d-score_0_split <- score
I0422 22:48:58.188067 30295 net.cpp:408] score_conv_u0d-score_0_split -> score_conv_u0d-score_0_split_0
I0422 22:48:58.188072 30295 net.cpp:408] score_conv_u0d-score_0_split -> score_conv_u0d-score_0_split_1
I0422 22:48:58.188109 30295 net.cpp:150] Setting up score_conv_u0d-score_0_split
I0422 22:48:58.188115 30295 net.cpp:157] Top shape: 5 4 244 244 (1190720)
I0422 22:48:58.188118 30295 net.cpp:157] Top shape: 5 4 244 244 (1190720)
I0422 22:48:58.188122 30295 net.cpp:165] Memory required for data: 4802498560
I0422 22:48:58.188123 30295 layer_factory.hpp:77] Creating layer softmax
I0422 22:48:58.188127 30295 net.cpp:100] Creating Layer softmax
I0422 22:48:58.188129 30295 net.cpp:434] softmax <- score_conv_u0d-score_0_split_0
I0422 22:48:58.188133 30295 net.cpp:408] softmax -> softmax_out
I0422 22:48:58.188354 30295 net.cpp:150] Setting up softmax
I0422 22:48:58.188365 30295 net.cpp:157] Top shape: 5 4 244 244 (1190720)
I0422 22:48:58.188367 30295 net.cpp:165] Memory required for data: 4807261440
I0422 22:48:58.188370 30295 layer_factory.hpp:77] Creating layer reshapelab
I0422 22:48:58.188377 30295 net.cpp:100] Creating Layer reshapelab
I0422 22:48:58.188380 30295 net.cpp:434] reshapelab <- label
I0422 22:48:58.188383 30295 net.cpp:408] reshapelab -> label_flat
I0422 22:48:58.188408 30295 net.cpp:150] Setting up reshapelab
I0422 22:48:58.188415 30295 net.cpp:157] Top shape: 5 59536 (297680)
I0422 22:48:58.188417 30295 net.cpp:165] Memory required for data: 4808452160
I0422 22:48:58.188419 30295 layer_factory.hpp:77] Creating layer reshaperes
I0422 22:48:58.188424 30295 net.cpp:100] Creating Layer reshaperes
I0422 22:48:58.188427 30295 net.cpp:434] reshaperes <- softmax_out
I0422 22:48:58.188431 30295 net.cpp:408] reshaperes -> softmax_out_flat
I0422 22:48:58.188452 30295 net.cpp:150] Setting up reshaperes
I0422 22:48:58.188457 30295 net.cpp:157] Top shape: 5 4 59536 (1190720)
I0422 22:48:58.188458 30295 net.cpp:165] Memory required for data: 4813215040
I0422 22:48:58.188460 30295 layer_factory.hpp:77] Creating layer loss
I0422 22:48:58.188627 30295 net.cpp:100] Creating Layer loss
I0422 22:48:58.188637 30295 net.cpp:434] loss <- softmax_out_flat
I0422 22:48:58.188640 30295 net.cpp:434] loss <- label_flat
I0422 22:48:58.188644 30295 net.cpp:408] loss -> loss
I0422 22:48:58.196929 30295 net.cpp:150] Setting up loss
I0422 22:48:58.196943 30295 net.cpp:157] Top shape: 4 (4)
I0422 22:48:58.196944 30295 net.cpp:160]     with loss weight 1
I0422 22:48:58.196975 30295 net.cpp:165] Memory required for data: 4813215056
I0422 22:48:58.196980 30295 layer_factory.hpp:77] Creating layer visualize
I0422 22:48:58.196987 30295 net.cpp:100] Creating Layer visualize
I0422 22:48:58.196990 30295 net.cpp:434] visualize <- score_conv_u0d-score_0_split_1
I0422 22:48:58.196995 30295 net.cpp:408] visualize -> visualize_out
I0422 22:48:58.197824 30295 net.cpp:150] Setting up visualize
I0422 22:48:58.197839 30295 net.cpp:157] Top shape: 5 4 244 244 (1190720)
I0422 22:48:58.197840 30295 net.cpp:165] Memory required for data: 4817977936
I0422 22:48:58.197859 30295 layer_factory.hpp:77] Creating layer fake
I0422 22:48:58.197863 30295 net.cpp:100] Creating Layer fake
I0422 22:48:58.197867 30295 net.cpp:434] fake <- visualize_out
I0422 22:48:58.197871 30295 net.cpp:150] Setting up fake
I0422 22:48:58.197875 30295 net.cpp:165] Memory required for data: 4817977936
…
I0422 22:48:58.198690 30295 net.cpp:322] The NetState phase (1) differed from the phase (0) specified by a rule in layer visualize
I0422 22:48:58.198693 30295 net.cpp:322] The NetState phase (1) differed from the phase (0) specified by a rule in layer fake
I0422 22:48:58.198940 30295 net.cpp:58] Initializing net from parameters: 
name: "unet_f1_4"
force_backward: true
state {
  phase: TEST
}
layer {
  name: "loaddata"
  type: "HDF5Data"
  top: "data"
  top: "label"
  include {
    phase: TEST
  }
  hdf5_data_param {
    source: "caffeHDF5_validation_4.txt"
    batch_size: 1
  }
}
layer {
  name: "conv_d0a-b"
  type: "Convolution"
  bottom: "data"
  top: "d0b"
  param {
    lr_mult: 1
    decay_mult: 1
  }
  param {
    lr_mult: 2
    decay_mult: 0
  }
  convolution_param {
    num_output: 64
    pad: 0
    kernel_size: 3
    weight_filler {
      type: "xavier"
    }
    engine: CAFFE
  }
}
layer {
  name: "relu_d0b"
  type: "ReLU"
  bottom: "d0b"
  top: "d0b"
}
layer {
  name: "conv_d0b-c"
  type: "Convolution"
  bottom: "d0b"
  top: "d0c"
  param {
    lr_mult: 1
    decay_mult: 1
  }
  param {
    lr_mult: 2
    decay_mult: 0
  }
  convolution_param {
    num_output: 64
    pad: 0
    kernel_size: 3
    weight_filler {
      type: "xavier"
    }
    engine: CAFFE
  }
}
layer {
  name: "relu_d0c"
  type: "ReLU"
  bottom: "d0c"
  top: "d0c"
}
layer {
  name: "pool_d0c-1a"
  type: "Pooling"
  bottom: "d0c"
  top: "d1a"
  pooling_param {
    pool: MAX
    kernel_size: 2
    stride: 2
  }
}
layer {
  name: "conv_d1a-b"
  type: "Convolution"
  bottom: "d1a"
  top: "d1b"
  param {
    lr_mult: 1
    decay_mult: 1
  }
  param {
    lr_mult: 2
    decay_mult: 0
  }
  convolution_param {
    num_output: 128
    pad: 0
    kernel_size: 3
    weight_filler {
      type: "xavier"
    }
    engine: CAFFE
  }
}
layer {
  name: "relu_d1b"
  type: "ReLU"
  bottom: "d1b"
  top: "d1b"
}
layer {
  name: "conv_d1b-c"
  type: "Convolution"
  bottom: "d1b"
  top: "d1c"
  param {
    lr_mult: 1
    decay_mult: 1
  }
  param {
    lr_mult: 2
    decay_mult: 0
  }
  convolution_param {
    num_output: 128
    pad: 0
    kernel_size: 3
    weight_filler {
      type: "xavier"
    }
    engine: CAFFE
  }
}
layer {
  name: "relu_d1c"
  type: "ReLU"
  bottom: "d1c"
  top: "d1c"
}
layer {
  name: "pool_d1c-2a"
  type: "Pooling"
  bottom: "d1c"
  top: "d2a"
  pooling_param {
    pool: MAX
    kernel_size: 2
    stride: 2
  }
}
layer {
  name: "conv_d2a-b"
  type: "Convolution"
  bottom: "d2a"
  top: "d2b"
  param {
    lr_mult: 1
    decay_mult: 1
  }
  param {
    lr_mult: 2
    decay_mult: 0
  }
  convolution_param {
    num_output: 256
    pad: 0
    kernel_size: 3
    weight_filler {
      type: "xavier"
    }
    engine: CAFFE
  }
}
layer {
  name: "relu_d2b"
  type: "ReLU"
  bottom: "d2b"
  top: "d2b"
}
layer {
  name: "conv_d2b-c"
  type: "Convolution"
  bottom: "d2b"
  top: "d2c"
  param {
    lr_mult: 1
    decay_mult: 1
  }
  param {
    lr_mult: 2
    decay_mult: 0
  }
  convolution_param {
    num_output: 256
    pad: 0
    kernel_size: 3
    weight_filler {
      type: "xavier"
    }
    engine: CAFFE
  }
}
layer {
  name: "relu_d2c"
  type: "ReLU"
  bottom: "d2c"
  top: "d2c"
}
layer {
  name: "pool_d2c-3a"
  type: "Pooling"
  bottom: "d2c"
  top: "d3a"
  pooling_param {
    pool: MAX
    kernel_size: 2
    stride: 2
  }
}
layer {
  name: "conv_d3a-b"
  type: "Convolution"
  bottom: "d3a"
  top: "d3b"
  param {
    lr_mult: 1
    decay_mult: 1
  }
  param {
    lr_mult: 2
    decay_mult: 0
  }
  convolution_param {
    num_output: 512
    pad: 0
    kernel_size: 3
    weight_filler {
      type: "xavier"
    }
    engine: CAFFE
  }
}
layer {
  name: "relu_d3b"
  type: "ReLU"
  bottom: "d3b"
  top: "d3b"
}
layer {
  name: "conv_d3b-c"
  type: "Convolution"
  bottom: "d3b"
  top: "d3c"
  param {
    lr_mult: 1
    decay_mult: 1
  }
  param {
    lr_mult: 2
    decay_mult: 0
  }
  convolution_param {
    num_output: 512
    pad: 0
    kernel_size: 3
    weight_filler {
      type: "xavier"
    }
    engine: CAFFE
  }
}
layer {
  name: "relu_d3c"
  type: "ReLU"
  bottom: "d3c"
  top: "d3c"
}
layer {
  name: "pool_d3c-4a"
  type: "Pooling"
  bottom: "d3c"
  top: "d4a"
  pooling_param {
    pool: MAX
    kernel_size: 2
    stride: 2
  }
}
layer {
  name: "conv_d4a-b"
  type: "Convolution"
  bottom: "d4a"
  top: "d4b"
  param {
    lr_mult: 1
    decay_mult: 1
  }
  param {
    lr_mult: 2
    decay_mult: 0
  }
  convolution_param {
    num_output: 1024
    pad: 0
    kernel_size: 3
    weight_filler {
      type: "xavier"
    }
    engine: CAFFE
  }
}
layer {
  name: "relu_d4b"
  type: "ReLU"
  bottom: "d4b"
  top: "d4b"
}
layer {
  name: "conv_d4b-c"
  type: "Convolution"
  bottom: "d4b"
  top: "d4c"
  param {
    lr_mult: 1
    decay_mult: 1
  }
  param {
    lr_mult: 2
    decay_mult: 0
  }
  convolution_param {
    num_output: 1024
    pad: 0
    kernel_size: 3
    weight_filler {
      type: "xavier"
    }
    engine: CAFFE
  }
}
layer {
  name: "relu_d4c"
  type: "ReLU"
  bottom: "d4c"
  top: "d4c"
}
layer {
  name: "upconv_d4c_u3a"
  type: "Deconvolution"
  bottom: "d4c"
  top: "u3a"
  param {
    lr_mult: 1
    decay_mult: 1
  }
  param {
    lr_mult: 2
    decay_mult: 0
  }
  convolution_param {
    num_output: 512
    pad: 0
    kernel_size: 2
    stride: 2
    weight_filler {
      type: "xavier"
    }
  }
}
layer {
  name: "relu_u3a"
  type: "ReLU"
  bottom: "u3a"
  top: "u3a"
}
layer {
  name: "crop_d3c-d3cc"
  type: "Crop"
  bottom: "d3c"
  bottom: "u3a"
  top: "d3cc"
  crop_param {
    axis: 2
    offset: 4
  }
}
layer {
  name: "concat_d3cc_u3a-b"
  type: "Concat"
  bottom: "u3a"
  bottom: "d3cc"
  top: "u3b"
}
layer {
  name: "conv_u3b-c"
  type: "Convolution"
  bottom: "u3b"
  top: "u3c"
  param {
    lr_mult: 1
    decay_mult: 1
  }
  param {
    lr_mult: 2
    decay_mult: 0
  }
  convolution_param {
    num_output: 512
    pad: 0
    kernel_size: 3
    weight_filler {
      type: "xavier"
    }
    engine: CAFFE
  }
}
layer {
  name: "relu_u3c"
  type: "ReLU"
  bottom: "u3c"
  top: "u3c"
}
layer {
  name: "conv_u3c-d"
  type: "Convolution"
  bottom: "u3c"
  top: "u3d"
  param {
    lr_mult: 1
    decay_mult: 1
  }
  param {
    lr_mult: 2
    decay_mult: 0
  }
  convolution_param {
    num_output: 512
    pad: 0
    kernel_size: 3
    weight_filler {
      type: "xavier"
    }
    engine: CAFFE
  }
}
layer {
  name: "relu_u3d"
  type: "ReLU"
  bottom: "u3d"
  top: "u3d"
}
layer {
  name: "upconv_u3d_u2a"
  type: "Deconvolution"
  bottom: "u3d"
  top: "u2a"
  param {
    lr_mult: 1
    decay_mult: 1
  }
  param {
    lr_mult: 2
    decay_mult: 0
  }
  convolution_param {
    num_output: 256
    pad: 0
    kernel_size: 2
    stride: 2
    weight_filler {
      type: "xavier"
    }
  }
}
layer {
  name: "relu_u2a"
  type: "ReLU"
  bottom: "u2a"
  top: "u2a"
}
layer {
  name: "crop_d2c-d2cc"
  type: "Crop"
  bottom: "d2c"
  bottom: "u2a"
  top: "d2cc"
  crop_param {
    axis: 2
    offset: 16
  }
}
layer {
  name: "concat_d2cc_u2a-b"
  type: "Concat"
  bottom: "u2a"
  bottom: "d2cc"
  top: "u2b"
}
layer {
  name: "conv_u2b-c"
  type: "Convolution"
  bottom: "u2b"
  top: "u2c"
  param {
    lr_mult: 1
    decay_mult: 1
  }
  param {
    lr_mult: 2
    decay_mult: 0
  }
  convolution_param {
    num_output: 256
    pad: 0
    kernel_size: 3
    weight_filler {
      type: "xavier"
    }
    engine: CAFFE
  }
}
layer {
  name: "relu_u2c"
  type: "ReLU"
  bottom: "u2c"
  top: "u2c"
}
layer {
  name: "conv_u2c-d"
  type: "Convolution"
  bottom: "u2c"
  top: "u2d"
  param {
    lr_mult: 1
    decay_mult: 1
  }
  param {
    lr_mult: 2
    decay_mult: 0
  }
  convolution_param {
    num_output: 256
    pad: 0
    kernel_size: 3
    weight_filler {
      type: "xavier"
    }
    engine: CAFFE
  }
}
layer {
  name: "relu_u2d"
  type: "ReLU"
  bottom: "u2d"
  top: "u2d"
}
layer {
  name: "upconv_u2d_u1a"
  type: "Deconvolution"
  bottom: "u2d"
  top: "u1a"
  param {
    lr_mult: 1
    decay_mult: 1
  }
  param {
    lr_mult: 2
    decay_mult: 0
  }
  convolution_param {
    num_output: 128
    pad: 0
    kernel_size: 2
    stride: 2
    weight_filler {
      type: "xavier"
    }
  }
}
layer {
  name: "relu_u1a"
  type: "ReLU"
  bottom: "u1a"
  top: "u1a"
}
layer {
  name: "crop_d1c-d1cc"
  type: "Crop"
  bottom: "d1c"
  bottom: "u1a"
  top: "d1cc"
  crop_param {
    axis: 2
    offset: 40
  }
}
layer {
  name: "concat_d1cc_u1a-b"
  type: "Concat"
  bottom: "u1a"
  bottom: "d1cc"
  top: "u1b"
}
layer {
  name: "conv_u1b-c"
  type: "Convolution"
  bottom: "u1b"
  top: "u1c"
  param {
    lr_mult: 1
    decay_mult: 1
  }
  param {
    lr_mult: 2
    decay_mult: 0
  }
  convolution_param {
    num_output: 128
    pad: 0
    kernel_size: 3
    weight_filler {
      type: "xavier"
    }
    engine: CAFFE
  }
}
layer {
  name: "relu_u1c"
  type: "ReLU"
  bottom: "u1c"
  top: "u1c"
}
layer {
  name: "conv_u1c-d"
  type: "Convolution"
  bottom: "u1c"
  top: "u1d"
  param {
    lr_mult: 1
    decay_mult: 1
  }
  param {
    lr_mult: 2
    decay_mult: 0
  }
  convolution_param {
    num_output: 128
    pad: 0
    kernel_size: 3
    weight_filler {
      type: "xavier"
    }
    engine: CAFFE
  }
}
layer {
  name: "relu_u1d"
  type: "ReLU"
  bottom: "u1d"
  top: "u1d"
}
layer {
  name: "upconv_u1d_u0a"
  type: "Deconvolution"
  bottom: "u1d"
  top: "u0a"
  param {
    lr_mult: 1
    decay_mult: 1
  }
  param {
    lr_mult: 2
    decay_mult: 0
  }
  convolution_param {
    num_output: 128
    pad: 0
    kernel_size: 2
    stride: 2
    weight_filler {
      type: "xavier"
    }
  }
}
layer {
  name: "relu_u0a"
  type: "ReLU"
  bottom: "u0a"
  top: "u0a"
}
layer {
  name: "crop_d0c-d0cc"
  type: "Crop"
  bottom: "d0c"
  bottom: "u0a"
  top: "d0cc"
  crop_param {
    axis: 2
    offset: 88
  }
}
layer {
  name: "concat_d0cc_u0a-b"
  type: "Concat"
  bottom: "u0a"
  bottom: "d0cc"
  top: "u0b"
}
layer {
  name: "conv_u0b-c"
  type: "Convolution"
  bottom: "u0b"
  top: "u0c"
  param {
    lr_mult: 1
    decay_mult: 1
  }
  param {
    lr_mult: 2
    decay_mult: 0
  }
  convolution_param {
    num_output: 64
    pad: 0
    kernel_size: 3
    weight_filler {
      type: "xavier"
    }
    engine: CAFFE
  }
}
layer {
  name: "relu_u0c"
  type: "ReLU"
  bottom: "u0c"
  top: "u0c"
}
layer {
  name: "conv_u0c-d"
  type: "Convolution"
  bottom: "u0c"
  top: "u0d"
  param {
    lr_mult: 1
    decay_mult: 1
  }
  param {
    lr_mult: 2
    decay_mult: 0
  }
  convolution_param {
    num_output: 64
    pad: 0
    kernel_size: 3
    weight_filler {
      type: "xavier"
    }
    engine: CAFFE
  }
}
layer {
  name: "relu_u0d"
  type: "ReLU"
  bottom: "u0d"
  top: "u0d"
}
layer {
  name: "conv_u0d-score"
  type: "Convolution"
  bottom: "u0d"
  top: "score"
  param {
    lr_mult: 1
    decay_mult: 1
  }
  param {
    lr_mult: 2
    decay_mult: 0
  }
  convolution_param {
    num_output: 4
    pad: 0
    kernel_size: 1
    weight_filler {
      type: "xavier"
    }
    engine: CAFFE
  }
}
layer {
  name: "softmax"
  type: "Softmax"
  bottom: "score"
  top: "softmax_out"
}
layer {
  name: "reshapelab"
  type: "Reshape"
  bottom: "label"
  top: "label_flat"
  reshape_param {
    shape {
      dim: 0
      dim: -1
    }
  }
}
layer {
  name: "reshaperes"
  type: "Reshape"
  bottom: "softmax_out"
  top: "softmax_out_flat"
  reshape_param {
    shape {
      dim: 0
      dim: 0
      dim: -1
    }
  }
}
layer {
  name: "loss"
  type: "Python"
  bottom: "softmax_out_flat"
  bottom: "label_flat"
  top: "loss"
  loss_weight: 1
  python_param {
    module: "multiclass_f1_loss"
    layer: "F1Loss"
  }
}
I0422 22:48:58.199154 30295 layer_factory.hpp:77] Creating layer loaddata
I0422 22:48:58.199162 30295 net.cpp:100] Creating Layer loaddata
I0422 22:48:58.199165 30295 net.cpp:408] loaddata -> data
I0422 22:48:58.199172 30295 net.cpp:408] loaddata -> label
I0422 22:48:58.199177 30295 hdf5_data_layer.cpp:79] Loading list of HDF5 filenames from: caffeHDF5_validation_4.txt
I0422 22:48:58.202594 30295 hdf5_data_layer.cpp:93] Number of HDF5 files: 10
I0422 22:48:58.461236 30295 net.cpp:150] Setting up loaddata
I0422 22:48:58.461272 30295 net.cpp:157] Top shape: 1 3 428 428 (549552)
I0422 22:48:58.461275 30295 net.cpp:157] Top shape: 1 244 244 (59536)
I0422 22:48:58.461278 30295 net.cpp:165] Memory required for data: 2436352
I0422 22:48:58.461283 30295 layer_factory.hpp:77] Creating layer conv_d0a-b
I0422 22:48:58.461298 30295 net.cpp:100] Creating Layer conv_d0a-b
I0422 22:48:58.461302 30295 net.cpp:434] conv_d0a-b <- data
I0422 22:48:58.461308 30295 net.cpp:408] conv_d0a-b -> d0b
I0422 22:48:58.461840 30295 net.cpp:150] Setting up conv_d0a-b
I0422 22:48:58.461849 30295 net.cpp:157] Top shape: 1 64 426 426 (11614464)
I0422 22:48:58.461851 30295 net.cpp:165] Memory required for data: 48894208
I0422 22:48:58.461876 30295 layer_factory.hpp:77] Creating layer relu_d0b
I0422 22:48:58.461895 30295 net.cpp:100] Creating Layer relu_d0b
I0422 22:48:58.461899 30295 net.cpp:434] relu_d0b <- d0b
I0422 22:48:58.461901 30295 net.cpp:395] relu_d0b -> d0b (in-place)
I0422 22:48:58.462147 30295 net.cpp:150] Setting up relu_d0b
I0422 22:48:58.462157 30295 net.cpp:157] Top shape: 1 64 426 426 (11614464)
I0422 22:48:58.462159 30295 net.cpp:165] Memory required for data: 95352064
I0422 22:48:58.462162 30295 layer_factory.hpp:77] Creating layer conv_d0b-c
I0422 22:48:58.462168 30295 net.cpp:100] Creating Layer conv_d0b-c
I0422 22:48:58.462170 30295 net.cpp:434] conv_d0b-c <- d0b
I0422 22:48:58.462174 30295 net.cpp:408] conv_d0b-c -> d0c
I0422 22:48:58.462759 30295 net.cpp:150] Setting up conv_d0b-c
I0422 22:48:58.462767 30295 net.cpp:157] Top shape: 1 64 424 424 (11505664)
I0422 22:48:58.462769 30295 net.cpp:165] Memory required for data: 141374720
I0422 22:48:58.462791 30295 layer_factory.hpp:77] Creating layer relu_d0c
I0422 22:48:58.462795 30295 net.cpp:100] Creating Layer relu_d0c
I0422 22:48:58.462798 30295 net.cpp:434] relu_d0c <- d0c
I0422 22:48:58.462801 30295 net.cpp:395] relu_d0c -> d0c (in-place)
I0422 22:48:58.462985 30295 net.cpp:150] Setting up relu_d0c
I0422 22:48:58.462992 30295 net.cpp:157] Top shape: 1 64 424 424 (11505664)
I0422 22:48:58.462994 30295 net.cpp:165] Memory required for data: 187397376
I0422 22:48:58.462997 30295 layer_factory.hpp:77] Creating layer d0c_relu_d0c_0_split
I0422 22:48:58.463001 30295 net.cpp:100] Creating Layer d0c_relu_d0c_0_split
I0422 22:48:58.463004 30295 net.cpp:434] d0c_relu_d0c_0_split <- d0c
I0422 22:48:58.463008 30295 net.cpp:408] d0c_relu_d0c_0_split -> d0c_relu_d0c_0_split_0
I0422 22:48:58.463014 30295 net.cpp:408] d0c_relu_d0c_0_split -> d0c_relu_d0c_0_split_1
I0422 22:48:58.463052 30295 net.cpp:150] Setting up d0c_relu_d0c_0_split
I0422 22:48:58.463058 30295 net.cpp:157] Top shape: 1 64 424 424 (11505664)
I0422 22:48:58.463063 30295 net.cpp:157] Top shape: 1 64 424 424 (11505664)
I0422 22:48:58.463064 30295 net.cpp:165] Memory required for data: 279442688
I0422 22:48:58.463066 30295 layer_factory.hpp:77] Creating layer pool_d0c-1a
I0422 22:48:58.463071 30295 net.cpp:100] Creating Layer pool_d0c-1a
I0422 22:48:58.463089 30295 net.cpp:434] pool_d0c-1a <- d0c_relu_d0c_0_split_0
I0422 22:48:58.463095 30295 net.cpp:408] pool_d0c-1a -> d1a
I0422 22:48:58.463131 30295 net.cpp:150] Setting up pool_d0c-1a
I0422 22:48:58.463138 30295 net.cpp:157] Top shape: 1 64 212 212 (2876416)
I0422 22:48:58.463141 30295 net.cpp:165] Memory required for data: 290948352
I0422 22:48:58.463143 30295 layer_factory.hpp:77] Creating layer conv_d1a-b
I0422 22:48:58.463150 30295 net.cpp:100] Creating Layer conv_d1a-b
I0422 22:48:58.463151 30295 net.cpp:434] conv_d1a-b <- d1a
I0422 22:48:58.463156 30295 net.cpp:408] conv_d1a-b -> d1b
I0422 22:48:58.464645 30295 net.cpp:150] Setting up conv_d1a-b
I0422 22:48:58.464658 30295 net.cpp:157] Top shape: 1 128 210 210 (5644800)
I0422 22:48:58.464659 30295 net.cpp:165] Memory required for data: 313527552
I0422 22:48:58.464684 30295 layer_factory.hpp:77] Creating layer relu_d1b
I0422 22:48:58.464690 30295 net.cpp:100] Creating Layer relu_d1b
I0422 22:48:58.464694 30295 net.cpp:434] relu_d1b <- d1b
I0422 22:48:58.464699 30295 net.cpp:395] relu_d1b -> d1b (in-place)
I0422 22:48:58.464870 30295 net.cpp:150] Setting up relu_d1b
I0422 22:48:58.464879 30295 net.cpp:157] Top shape: 1 128 210 210 (5644800)
I0422 22:48:58.464880 30295 net.cpp:165] Memory required for data: 336106752
I0422 22:48:58.464884 30295 layer_factory.hpp:77] Creating layer conv_d1b-c
I0422 22:48:58.464890 30295 net.cpp:100] Creating Layer conv_d1b-c
I0422 22:48:58.464892 30295 net.cpp:434] conv_d1b-c <- d1b
I0422 22:48:58.464896 30295 net.cpp:408] conv_d1b-c -> d1c
I0422 22:48:58.466768 30295 net.cpp:150] Setting up conv_d1b-c
I0422 22:48:58.466781 30295 net.cpp:157] Top shape: 1 128 208 208 (5537792)
I0422 22:48:58.466784 30295 net.cpp:165] Memory required for data: 358257920
I0422 22:48:58.466804 30295 layer_factory.hpp:77] Creating layer relu_d1c
I0422 22:48:58.466809 30295 net.cpp:100] Creating Layer relu_d1c
I0422 22:48:58.466812 30295 net.cpp:434] relu_d1c <- d1c
I0422 22:48:58.466816 30295 net.cpp:395] relu_d1c -> d1c (in-place)
I0422 22:48:58.467563 30295 net.cpp:150] Setting up relu_d1c
I0422 22:48:58.467576 30295 net.cpp:157] Top shape: 1 128 208 208 (5537792)
I0422 22:48:58.467577 30295 net.cpp:165] Memory required for data: 380409088
I0422 22:48:58.467597 30295 layer_factory.hpp:77] Creating layer d1c_relu_d1c_0_split
I0422 22:48:58.467602 30295 net.cpp:100] Creating Layer d1c_relu_d1c_0_split
I0422 22:48:58.467604 30295 net.cpp:434] d1c_relu_d1c_0_split <- d1c
I0422 22:48:58.467609 30295 net.cpp:408] d1c_relu_d1c_0_split -> d1c_relu_d1c_0_split_0
I0422 22:48:58.467617 30295 net.cpp:408] d1c_relu_d1c_0_split -> d1c_relu_d1c_0_split_1
I0422 22:48:58.467655 30295 net.cpp:150] Setting up d1c_relu_d1c_0_split
I0422 22:48:58.467659 30295 net.cpp:157] Top shape: 1 128 208 208 (5537792)
I0422 22:48:58.467664 30295 net.cpp:157] Top shape: 1 128 208 208 (5537792)
I0422 22:48:58.467664 30295 net.cpp:165] Memory required for data: 424711424
I0422 22:48:58.467667 30295 layer_factory.hpp:77] Creating layer pool_d1c-2a
I0422 22:48:58.467671 30295 net.cpp:100] Creating Layer pool_d1c-2a
I0422 22:48:58.467674 30295 net.cpp:434] pool_d1c-2a <- d1c_relu_d1c_0_split_0
I0422 22:48:58.467677 30295 net.cpp:408] pool_d1c-2a -> d2a
I0422 22:48:58.467710 30295 net.cpp:150] Setting up pool_d1c-2a
I0422 22:48:58.467713 30295 net.cpp:157] Top shape: 1 128 104 104 (1384448)
I0422 22:48:58.467715 30295 net.cpp:165] Memory required for data: 430249216
I0422 22:48:58.467717 30295 layer_factory.hpp:77] Creating layer conv_d2a-b
I0422 22:48:58.467723 30295 net.cpp:100] Creating Layer conv_d2a-b
I0422 22:48:58.467726 30295 net.cpp:434] conv_d2a-b <- d2a
I0422 22:48:58.467730 30295 net.cpp:408] conv_d2a-b -> d2b
I0422 22:48:58.469362 30295 net.cpp:150] Setting up conv_d2a-b
I0422 22:48:58.469370 30295 net.cpp:157] Top shape: 1 256 102 102 (2663424)
I0422 22:48:58.469372 30295 net.cpp:165] Memory required for data: 440902912
I0422 22:48:58.469396 30295 layer_factory.hpp:77] Creating layer relu_d2b
I0422 22:48:58.469400 30295 net.cpp:100] Creating Layer relu_d2b
I0422 22:48:58.469403 30295 net.cpp:434] relu_d2b <- d2b
I0422 22:48:58.469419 30295 net.cpp:395] relu_d2b -> d2b (in-place)
I0422 22:48:58.469615 30295 net.cpp:150] Setting up relu_d2b
I0422 22:48:58.469625 30295 net.cpp:157] Top shape: 1 256 102 102 (2663424)
I0422 22:48:58.469627 30295 net.cpp:165] Memory required for data: 451556608
I0422 22:48:58.469630 30295 layer_factory.hpp:77] Creating layer conv_d2b-c
I0422 22:48:58.469637 30295 net.cpp:100] Creating Layer conv_d2b-c
I0422 22:48:58.469640 30295 net.cpp:434] conv_d2b-c <- d2b
I0422 22:48:58.469645 30295 net.cpp:408] conv_d2b-c -> d2c
I0422 22:48:58.473628 30295 net.cpp:150] Setting up conv_d2b-c
I0422 22:48:58.473642 30295 net.cpp:157] Top shape: 1 256 100 100 (2560000)
I0422 22:48:58.473660 30295 net.cpp:165] Memory required for data: 461796608
I0422 22:48:58.473666 30295 layer_factory.hpp:77] Creating layer relu_d2c
I0422 22:48:58.473673 30295 net.cpp:100] Creating Layer relu_d2c
I0422 22:48:58.473676 30295 net.cpp:434] relu_d2c <- d2c
I0422 22:48:58.473680 30295 net.cpp:395] relu_d2c -> d2c (in-place)
I0422 22:48:58.473878 30295 net.cpp:150] Setting up relu_d2c
I0422 22:48:58.473887 30295 net.cpp:157] Top shape: 1 256 100 100 (2560000)
I0422 22:48:58.473889 30295 net.cpp:165] Memory required for data: 472036608
I0422 22:48:58.473891 30295 layer_factory.hpp:77] Creating layer d2c_relu_d2c_0_split
I0422 22:48:58.473896 30295 net.cpp:100] Creating Layer d2c_relu_d2c_0_split
I0422 22:48:58.473898 30295 net.cpp:434] d2c_relu_d2c_0_split <- d2c
I0422 22:48:58.473903 30295 net.cpp:408] d2c_relu_d2c_0_split -> d2c_relu_d2c_0_split_0
I0422 22:48:58.473908 30295 net.cpp:408] d2c_relu_d2c_0_split -> d2c_relu_d2c_0_split_1
I0422 22:48:58.473947 30295 net.cpp:150] Setting up d2c_relu_d2c_0_split
I0422 22:48:58.473953 30295 net.cpp:157] Top shape: 1 256 100 100 (2560000)
I0422 22:48:58.473956 30295 net.cpp:157] Top shape: 1 256 100 100 (2560000)
I0422 22:48:58.473958 30295 net.cpp:165] Memory required for data: 492516608
I0422 22:48:58.473960 30295 layer_factory.hpp:77] Creating layer pool_d2c-3a
I0422 22:48:58.473964 30295 net.cpp:100] Creating Layer pool_d2c-3a
I0422 22:48:58.473968 30295 net.cpp:434] pool_d2c-3a <- d2c_relu_d2c_0_split_0
I0422 22:48:58.473970 30295 net.cpp:408] pool_d2c-3a -> d3a
I0422 22:48:58.474004 30295 net.cpp:150] Setting up pool_d2c-3a
I0422 22:48:58.474010 30295 net.cpp:157] Top shape: 1 256 50 50 (640000)
I0422 22:48:58.474014 30295 net.cpp:165] Memory required for data: 495076608
I0422 22:48:58.474015 30295 layer_factory.hpp:77] Creating layer conv_d3a-b
I0422 22:48:58.474021 30295 net.cpp:100] Creating Layer conv_d3a-b
I0422 22:48:58.474023 30295 net.cpp:434] conv_d3a-b <- d3a
I0422 22:48:58.474028 30295 net.cpp:408] conv_d3a-b -> d3b
I0422 22:48:58.481364 30295 net.cpp:150] Setting up conv_d3a-b
I0422 22:48:58.481375 30295 net.cpp:157] Top shape: 1 512 48 48 (1179648)
I0422 22:48:58.481379 30295 net.cpp:165] Memory required for data: 499795200
I0422 22:48:58.481398 30295 layer_factory.hpp:77] Creating layer relu_d3b
I0422 22:48:58.481403 30295 net.cpp:100] Creating Layer relu_d3b
I0422 22:48:58.481406 30295 net.cpp:434] relu_d3b <- d3b
I0422 22:48:58.481410 30295 net.cpp:395] relu_d3b -> d3b (in-place)
I0422 22:48:58.481623 30295 net.cpp:150] Setting up relu_d3b
I0422 22:48:58.481633 30295 net.cpp:157] Top shape: 1 512 48 48 (1179648)
I0422 22:48:58.481636 30295 net.cpp:165] Memory required for data: 504513792
I0422 22:48:58.481638 30295 layer_factory.hpp:77] Creating layer conv_d3b-c
I0422 22:48:58.481647 30295 net.cpp:100] Creating Layer conv_d3b-c
I0422 22:48:58.481648 30295 net.cpp:434] conv_d3b-c <- d3b
I0422 22:48:58.481653 30295 net.cpp:408] conv_d3b-c -> d3c
I0422 22:48:58.495705 30295 net.cpp:150] Setting up conv_d3b-c
I0422 22:48:58.495719 30295 net.cpp:157] Top shape: 1 512 46 46 (1083392)
I0422 22:48:58.495721 30295 net.cpp:165] Memory required for data: 508847360
I0422 22:48:58.495743 30295 layer_factory.hpp:77] Creating layer relu_d3c
I0422 22:48:58.495746 30295 net.cpp:100] Creating Layer relu_d3c
I0422 22:48:58.495750 30295 net.cpp:434] relu_d3c <- d3c
I0422 22:48:58.495765 30295 net.cpp:395] relu_d3c -> d3c (in-place)
I0422 22:48:58.496541 30295 net.cpp:150] Setting up relu_d3c
I0422 22:48:58.496552 30295 net.cpp:157] Top shape: 1 512 46 46 (1083392)
I0422 22:48:58.496570 30295 net.cpp:165] Memory required for data: 513180928
I0422 22:48:58.496572 30295 layer_factory.hpp:77] Creating layer d3c_relu_d3c_0_split
I0422 22:48:58.496577 30295 net.cpp:100] Creating Layer d3c_relu_d3c_0_split
I0422 22:48:58.496580 30295 net.cpp:434] d3c_relu_d3c_0_split <- d3c
I0422 22:48:58.496585 30295 net.cpp:408] d3c_relu_d3c_0_split -> d3c_relu_d3c_0_split_0
I0422 22:48:58.496592 30295 net.cpp:408] d3c_relu_d3c_0_split -> d3c_relu_d3c_0_split_1
I0422 22:48:58.496646 30295 net.cpp:150] Setting up d3c_relu_d3c_0_split
I0422 22:48:58.496651 30295 net.cpp:157] Top shape: 1 512 46 46 (1083392)
I0422 22:48:58.496654 30295 net.cpp:157] Top shape: 1 512 46 46 (1083392)
I0422 22:48:58.496656 30295 net.cpp:165] Memory required for data: 521848064
I0422 22:48:58.496659 30295 layer_factory.hpp:77] Creating layer pool_d3c-4a
I0422 22:48:58.496664 30295 net.cpp:100] Creating Layer pool_d3c-4a
I0422 22:48:58.496666 30295 net.cpp:434] pool_d3c-4a <- d3c_relu_d3c_0_split_0
I0422 22:48:58.496670 30295 net.cpp:408] pool_d3c-4a -> d4a
I0422 22:48:58.496701 30295 net.cpp:150] Setting up pool_d3c-4a
I0422 22:48:58.496707 30295 net.cpp:157] Top shape: 1 512 23 23 (270848)
I0422 22:48:58.496711 30295 net.cpp:165] Memory required for data: 522931456
I0422 22:48:58.496712 30295 layer_factory.hpp:77] Creating layer conv_d4a-b
I0422 22:48:58.496719 30295 net.cpp:100] Creating Layer conv_d4a-b
I0422 22:48:58.496721 30295 net.cpp:434] conv_d4a-b <- d4a
I0422 22:48:58.496726 30295 net.cpp:408] conv_d4a-b -> d4b
I0422 22:48:58.524914 30295 net.cpp:150] Setting up conv_d4a-b
I0422 22:48:58.524927 30295 net.cpp:157] Top shape: 1 1024 21 21 (451584)
I0422 22:48:58.524946 30295 net.cpp:165] Memory required for data: 524737792
I0422 22:48:58.524956 30295 layer_factory.hpp:77] Creating layer relu_d4b
I0422 22:48:58.524961 30295 net.cpp:100] Creating Layer relu_d4b
I0422 22:48:58.524965 30295 net.cpp:434] relu_d4b <- d4b
I0422 22:48:58.524968 30295 net.cpp:395] relu_d4b -> d4b (in-place)
I0422 22:48:58.525158 30295 net.cpp:150] Setting up relu_d4b
I0422 22:48:58.525167 30295 net.cpp:157] Top shape: 1 1024 21 21 (451584)
I0422 22:48:58.525169 30295 net.cpp:165] Memory required for data: 526544128
I0422 22:48:58.525171 30295 layer_factory.hpp:77] Creating layer conv_d4b-c
I0422 22:48:58.525180 30295 net.cpp:100] Creating Layer conv_d4b-c
I0422 22:48:58.525182 30295 net.cpp:434] conv_d4b-c <- d4b
I0422 22:48:58.525188 30295 net.cpp:408] conv_d4b-c -> d4c
I0422 22:48:58.582268 30295 net.cpp:150] Setting up conv_d4b-c
I0422 22:48:58.582307 30295 net.cpp:157] Top shape: 1 1024 19 19 (369664)
I0422 22:48:58.582310 30295 net.cpp:165] Memory required for data: 528022784
I0422 22:48:58.582317 30295 layer_factory.hpp:77] Creating layer relu_d4c
I0422 22:48:58.582324 30295 net.cpp:100] Creating Layer relu_d4c
I0422 22:48:58.582329 30295 net.cpp:434] relu_d4c <- d4c
I0422 22:48:58.582334 30295 net.cpp:395] relu_d4c -> d4c (in-place)
I0422 22:48:58.582571 30295 net.cpp:150] Setting up relu_d4c
I0422 22:48:58.582579 30295 net.cpp:157] Top shape: 1 1024 19 19 (369664)
I0422 22:48:58.582582 30295 net.cpp:165] Memory required for data: 529501440
I0422 22:48:58.582586 30295 layer_factory.hpp:77] Creating layer upconv_d4c_u3a
I0422 22:48:58.582593 30295 net.cpp:100] Creating Layer upconv_d4c_u3a
I0422 22:48:58.582595 30295 net.cpp:434] upconv_d4c_u3a <- d4c
I0422 22:48:58.582602 30295 net.cpp:408] upconv_d4c_u3a -> u3a
I0422 22:48:58.595625 30295 net.cpp:150] Setting up upconv_d4c_u3a
I0422 22:48:58.595638 30295 net.cpp:157] Top shape: 1 512 38 38 (739328)
I0422 22:48:58.595640 30295 net.cpp:165] Memory required for data: 532458752
I0422 22:48:58.595645 30295 layer_factory.hpp:77] Creating layer relu_u3a
I0422 22:48:58.595650 30295 net.cpp:100] Creating Layer relu_u3a
I0422 22:48:58.595654 30295 net.cpp:434] relu_u3a <- u3a
I0422 22:48:58.595674 30295 net.cpp:395] relu_u3a -> u3a (in-place)
I0422 22:48:58.595865 30295 net.cpp:150] Setting up relu_u3a
I0422 22:48:58.595875 30295 net.cpp:157] Top shape: 1 512 38 38 (739328)
I0422 22:48:58.595877 30295 net.cpp:165] Memory required for data: 535416064
I0422 22:48:58.595880 30295 layer_factory.hpp:77] Creating layer u3a_relu_u3a_0_split
I0422 22:48:58.595885 30295 net.cpp:100] Creating Layer u3a_relu_u3a_0_split
I0422 22:48:58.595887 30295 net.cpp:434] u3a_relu_u3a_0_split <- u3a
I0422 22:48:58.595891 30295 net.cpp:408] u3a_relu_u3a_0_split -> u3a_relu_u3a_0_split_0
I0422 22:48:58.595896 30295 net.cpp:408] u3a_relu_u3a_0_split -> u3a_relu_u3a_0_split_1
I0422 22:48:58.595937 30295 net.cpp:150] Setting up u3a_relu_u3a_0_split
I0422 22:48:58.595942 30295 net.cpp:157] Top shape: 1 512 38 38 (739328)
I0422 22:48:58.595945 30295 net.cpp:157] Top shape: 1 512 38 38 (739328)
I0422 22:48:58.595947 30295 net.cpp:165] Memory required for data: 541330688
I0422 22:48:58.595950 30295 layer_factory.hpp:77] Creating layer crop_d3c-d3cc
I0422 22:48:58.595960 30295 net.cpp:100] Creating Layer crop_d3c-d3cc
I0422 22:48:58.595963 30295 net.cpp:434] crop_d3c-d3cc <- d3c_relu_d3c_0_split_1
I0422 22:48:58.595965 30295 net.cpp:434] crop_d3c-d3cc <- u3a_relu_u3a_0_split_0
I0422 22:48:58.595970 30295 net.cpp:408] crop_d3c-d3cc -> d3cc
I0422 22:48:58.595991 30295 net.cpp:150] Setting up crop_d3c-d3cc
I0422 22:48:58.595995 30295 net.cpp:157] Top shape: 1 512 38 38 (739328)
I0422 22:48:58.595998 30295 net.cpp:165] Memory required for data: 544288000
I0422 22:48:58.596000 30295 layer_factory.hpp:77] Creating layer concat_d3cc_u3a-b
I0422 22:48:58.596005 30295 net.cpp:100] Creating Layer concat_d3cc_u3a-b
I0422 22:48:58.596007 30295 net.cpp:434] concat_d3cc_u3a-b <- u3a_relu_u3a_0_split_1
I0422 22:48:58.596010 30295 net.cpp:434] concat_d3cc_u3a-b <- d3cc
I0422 22:48:58.596015 30295 net.cpp:408] concat_d3cc_u3a-b -> u3b
I0422 22:48:58.596035 30295 net.cpp:150] Setting up concat_d3cc_u3a-b
I0422 22:48:58.596040 30295 net.cpp:157] Top shape: 1 1024 38 38 (1478656)
I0422 22:48:58.596041 30295 net.cpp:165] Memory required for data: 550202624
I0422 22:48:58.596043 30295 layer_factory.hpp:77] Creating layer conv_u3b-c
I0422 22:48:58.596050 30295 net.cpp:100] Creating Layer conv_u3b-c
I0422 22:48:58.596052 30295 net.cpp:434] conv_u3b-c <- u3b
I0422 22:48:58.596057 30295 net.cpp:408] conv_u3b-c -> u3c
I0422 22:48:58.624203 30295 net.cpp:150] Setting up conv_u3b-c
I0422 22:48:58.624218 30295 net.cpp:157] Top shape: 1 512 36 36 (663552)
I0422 22:48:58.624238 30295 net.cpp:165] Memory required for data: 552856832
I0422 22:48:58.624243 30295 layer_factory.hpp:77] Creating layer relu_u3c
I0422 22:48:58.624248 30295 net.cpp:100] Creating Layer relu_u3c
I0422 22:48:58.624251 30295 net.cpp:434] relu_u3c <- u3c
I0422 22:48:58.624258 30295 net.cpp:395] relu_u3c -> u3c (in-place)
I0422 22:48:58.625113 30295 net.cpp:150] Setting up relu_u3c
I0422 22:48:58.625125 30295 net.cpp:157] Top shape: 1 512 36 36 (663552)
I0422 22:48:58.625144 30295 net.cpp:165] Memory required for data: 555511040
I0422 22:48:58.625145 30295 layer_factory.hpp:77] Creating layer conv_u3c-d
I0422 22:48:58.625154 30295 net.cpp:100] Creating Layer conv_u3c-d
I0422 22:48:58.625157 30295 net.cpp:434] conv_u3c-d <- u3c
I0422 22:48:58.625164 30295 net.cpp:408] conv_u3c-d -> u3d
I0422 22:48:58.640442 30295 net.cpp:150] Setting up conv_u3c-d
I0422 22:48:58.640455 30295 net.cpp:157] Top shape: 1 512 34 34 (591872)
I0422 22:48:58.640473 30295 net.cpp:165] Memory required for data: 557878528
I0422 22:48:58.640480 30295 layer_factory.hpp:77] Creating layer relu_u3d
I0422 22:48:58.640483 30295 net.cpp:100] Creating Layer relu_u3d
I0422 22:48:58.640486 30295 net.cpp:434] relu_u3d <- u3d
I0422 22:48:58.640492 30295 net.cpp:395] relu_u3d -> u3d (in-place)
I0422 22:48:58.640683 30295 net.cpp:150] Setting up relu_u3d
I0422 22:48:58.640692 30295 net.cpp:157] Top shape: 1 512 34 34 (591872)
I0422 22:48:58.640694 30295 net.cpp:165] Memory required for data: 560246016
I0422 22:48:58.640697 30295 layer_factory.hpp:77] Creating layer upconv_u3d_u2a
I0422 22:48:58.640722 30295 net.cpp:100] Creating Layer upconv_u3d_u2a
I0422 22:48:58.640724 30295 net.cpp:434] upconv_u3d_u2a <- u3d
I0422 22:48:58.640732 30295 net.cpp:408] upconv_u3d_u2a -> u2a
I0422 22:48:58.644465 30295 net.cpp:150] Setting up upconv_u3d_u2a
I0422 22:48:58.644477 30295 net.cpp:157] Top shape: 1 256 68 68 (1183744)
I0422 22:48:58.644479 30295 net.cpp:165] Memory required for data: 564980992
I0422 22:48:58.644501 30295 layer_factory.hpp:77] Creating layer relu_u2a
I0422 22:48:58.644507 30295 net.cpp:100] Creating Layer relu_u2a
I0422 22:48:58.644510 30295 net.cpp:434] relu_u2a <- u2a
I0422 22:48:58.644513 30295 net.cpp:395] relu_u2a -> u2a (in-place)
I0422 22:48:58.644686 30295 net.cpp:150] Setting up relu_u2a
I0422 22:48:58.644695 30295 net.cpp:157] Top shape: 1 256 68 68 (1183744)
I0422 22:48:58.644697 30295 net.cpp:165] Memory required for data: 569715968
I0422 22:48:58.644701 30295 layer_factory.hpp:77] Creating layer u2a_relu_u2a_0_split
I0422 22:48:58.644706 30295 net.cpp:100] Creating Layer u2a_relu_u2a_0_split
I0422 22:48:58.644709 30295 net.cpp:434] u2a_relu_u2a_0_split <- u2a
I0422 22:48:58.644714 30295 net.cpp:408] u2a_relu_u2a_0_split -> u2a_relu_u2a_0_split_0
I0422 22:48:58.644728 30295 net.cpp:408] u2a_relu_u2a_0_split -> u2a_relu_u2a_0_split_1
I0422 22:48:58.644773 30295 net.cpp:150] Setting up u2a_relu_u2a_0_split
I0422 22:48:58.644780 30295 net.cpp:157] Top shape: 1 256 68 68 (1183744)
I0422 22:48:58.644783 30295 net.cpp:157] Top shape: 1 256 68 68 (1183744)
I0422 22:48:58.644785 30295 net.cpp:165] Memory required for data: 579185920
I0422 22:48:58.644788 30295 layer_factory.hpp:77] Creating layer crop_d2c-d2cc
I0422 22:48:58.644794 30295 net.cpp:100] Creating Layer crop_d2c-d2cc
I0422 22:48:58.644798 30295 net.cpp:434] crop_d2c-d2cc <- d2c_relu_d2c_0_split_1
I0422 22:48:58.644801 30295 net.cpp:434] crop_d2c-d2cc <- u2a_relu_u2a_0_split_0
I0422 22:48:58.644807 30295 net.cpp:408] crop_d2c-d2cc -> d2cc
I0422 22:48:58.644834 30295 net.cpp:150] Setting up crop_d2c-d2cc
I0422 22:48:58.644840 30295 net.cpp:157] Top shape: 1 256 68 68 (1183744)
I0422 22:48:58.644843 30295 net.cpp:165] Memory required for data: 583920896
I0422 22:48:58.644845 30295 layer_factory.hpp:77] Creating layer concat_d2cc_u2a-b
I0422 22:48:58.644851 30295 net.cpp:100] Creating Layer concat_d2cc_u2a-b
I0422 22:48:58.644855 30295 net.cpp:434] concat_d2cc_u2a-b <- u2a_relu_u2a_0_split_1
I0422 22:48:58.644857 30295 net.cpp:434] concat_d2cc_u2a-b <- d2cc
I0422 22:48:58.644862 30295 net.cpp:408] concat_d2cc_u2a-b -> u2b
I0422 22:48:58.644887 30295 net.cpp:150] Setting up concat_d2cc_u2a-b
I0422 22:48:58.644894 30295 net.cpp:157] Top shape: 1 512 68 68 (2367488)
I0422 22:48:58.644896 30295 net.cpp:165] Memory required for data: 593390848
I0422 22:48:58.644898 30295 layer_factory.hpp:77] Creating layer conv_u2b-c
I0422 22:48:58.644907 30295 net.cpp:100] Creating Layer conv_u2b-c
I0422 22:48:58.644909 30295 net.cpp:434] conv_u2b-c <- u2b
I0422 22:48:58.644914 30295 net.cpp:408] conv_u2b-c -> u2c
I0422 22:48:58.652603 30295 net.cpp:150] Setting up conv_u2b-c
I0422 22:48:58.652616 30295 net.cpp:157] Top shape: 1 256 66 66 (1115136)
I0422 22:48:58.652618 30295 net.cpp:165] Memory required for data: 597851392
I0422 22:48:58.652639 30295 layer_factory.hpp:77] Creating layer relu_u2c
I0422 22:48:58.652644 30295 net.cpp:100] Creating Layer relu_u2c
I0422 22:48:58.652647 30295 net.cpp:434] relu_u2c <- u2c
I0422 22:48:58.652652 30295 net.cpp:395] relu_u2c -> u2c (in-place)
I0422 22:48:58.653466 30295 net.cpp:150] Setting up relu_u2c
I0422 22:48:58.653478 30295 net.cpp:157] Top shape: 1 256 66 66 (1115136)
I0422 22:48:58.653497 30295 net.cpp:165] Memory required for data: 602311936
I0422 22:48:58.653501 30295 layer_factory.hpp:77] Creating layer conv_u2c-d
I0422 22:48:58.653508 30295 net.cpp:100] Creating Layer conv_u2c-d
I0422 22:48:58.653512 30295 net.cpp:434] conv_u2c-d <- u2c
I0422 22:48:58.653517 30295 net.cpp:408] conv_u2c-d -> u2d
I0422 22:48:58.657631 30295 net.cpp:150] Setting up conv_u2c-d
I0422 22:48:58.657655 30295 net.cpp:157] Top shape: 1 256 64 64 (1048576)
I0422 22:48:58.657673 30295 net.cpp:165] Memory required for data: 606506240
I0422 22:48:58.657680 30295 layer_factory.hpp:77] Creating layer relu_u2d
I0422 22:48:58.657685 30295 net.cpp:100] Creating Layer relu_u2d
I0422 22:48:58.657688 30295 net.cpp:434] relu_u2d <- u2d
I0422 22:48:58.657694 30295 net.cpp:395] relu_u2d -> u2d (in-place)
I0422 22:48:58.657902 30295 net.cpp:150] Setting up relu_u2d
I0422 22:48:58.657910 30295 net.cpp:157] Top shape: 1 256 64 64 (1048576)
I0422 22:48:58.657912 30295 net.cpp:165] Memory required for data: 610700544
I0422 22:48:58.657914 30295 layer_factory.hpp:77] Creating layer upconv_u2d_u1a
I0422 22:48:58.657922 30295 net.cpp:100] Creating Layer upconv_u2d_u1a
I0422 22:48:58.657925 30295 net.cpp:434] upconv_u2d_u1a <- u2d
I0422 22:48:58.657932 30295 net.cpp:408] upconv_u2d_u1a -> u1a
I0422 22:48:58.659657 30295 net.cpp:150] Setting up upconv_u2d_u1a
I0422 22:48:58.659670 30295 net.cpp:157] Top shape: 1 128 128 128 (2097152)
I0422 22:48:58.659672 30295 net.cpp:165] Memory required for data: 619089152
I0422 22:48:58.659698 30295 layer_factory.hpp:77] Creating layer relu_u1a
I0422 22:48:58.659703 30295 net.cpp:100] Creating Layer relu_u1a
I0422 22:48:58.659706 30295 net.cpp:434] relu_u1a <- u1a
I0422 22:48:58.659711 30295 net.cpp:395] relu_u1a -> u1a (in-place)
I0422 22:48:58.659884 30295 net.cpp:150] Setting up relu_u1a
I0422 22:48:58.659893 30295 net.cpp:157] Top shape: 1 128 128 128 (2097152)
I0422 22:48:58.659895 30295 net.cpp:165] Memory required for data: 627477760
I0422 22:48:58.659898 30295 layer_factory.hpp:77] Creating layer u1a_relu_u1a_0_split
I0422 22:48:58.659904 30295 net.cpp:100] Creating Layer u1a_relu_u1a_0_split
I0422 22:48:58.659906 30295 net.cpp:434] u1a_relu_u1a_0_split <- u1a
I0422 22:48:58.659911 30295 net.cpp:408] u1a_relu_u1a_0_split -> u1a_relu_u1a_0_split_0
I0422 22:48:58.659919 30295 net.cpp:408] u1a_relu_u1a_0_split -> u1a_relu_u1a_0_split_1
I0422 22:48:58.659961 30295 net.cpp:150] Setting up u1a_relu_u1a_0_split
I0422 22:48:58.659968 30295 net.cpp:157] Top shape: 1 128 128 128 (2097152)
I0422 22:48:58.659971 30295 net.cpp:157] Top shape: 1 128 128 128 (2097152)
I0422 22:48:58.659973 30295 net.cpp:165] Memory required for data: 644254976
I0422 22:48:58.659976 30295 layer_factory.hpp:77] Creating layer crop_d1c-d1cc
I0422 22:48:58.659981 30295 net.cpp:100] Creating Layer crop_d1c-d1cc
I0422 22:48:58.659986 30295 net.cpp:434] crop_d1c-d1cc <- d1c_relu_d1c_0_split_1
I0422 22:48:58.659989 30295 net.cpp:434] crop_d1c-d1cc <- u1a_relu_u1a_0_split_0
I0422 22:48:58.659994 30295 net.cpp:408] crop_d1c-d1cc -> d1cc
I0422 22:48:58.660019 30295 net.cpp:150] Setting up crop_d1c-d1cc
I0422 22:48:58.660027 30295 net.cpp:157] Top shape: 1 128 128 128 (2097152)
I0422 22:48:58.660028 30295 net.cpp:165] Memory required for data: 652643584
I0422 22:48:58.660030 30295 layer_factory.hpp:77] Creating layer concat_d1cc_u1a-b
I0422 22:48:58.660034 30295 net.cpp:100] Creating Layer concat_d1cc_u1a-b
I0422 22:48:58.660038 30295 net.cpp:434] concat_d1cc_u1a-b <- u1a_relu_u1a_0_split_1
I0422 22:48:58.660042 30295 net.cpp:434] concat_d1cc_u1a-b <- d1cc
I0422 22:48:58.660046 30295 net.cpp:408] concat_d1cc_u1a-b -> u1b
I0422 22:48:58.660070 30295 net.cpp:150] Setting up concat_d1cc_u1a-b
I0422 22:48:58.660079 30295 net.cpp:157] Top shape: 1 256 128 128 (4194304)
I0422 22:48:58.660080 30295 net.cpp:165] Memory required for data: 669420800
I0422 22:48:58.660082 30295 layer_factory.hpp:77] Creating layer conv_u1b-c
I0422 22:48:58.660090 30295 net.cpp:100] Creating Layer conv_u1b-c
I0422 22:48:58.660094 30295 net.cpp:434] conv_u1b-c <- u1b
I0422 22:48:58.660099 30295 net.cpp:408] conv_u1b-c -> u1c
I0422 22:48:58.661859 30295 net.cpp:150] Setting up conv_u1b-c
I0422 22:48:58.661866 30295 net.cpp:157] Top shape: 1 128 126 126 (2032128)
I0422 22:48:58.661870 30295 net.cpp:165] Memory required for data: 677549312
I0422 22:48:58.661890 30295 layer_factory.hpp:77] Creating layer relu_u1c
I0422 22:48:58.661895 30295 net.cpp:100] Creating Layer relu_u1c
I0422 22:48:58.661907 30295 net.cpp:434] relu_u1c <- u1c
I0422 22:48:58.661913 30295 net.cpp:395] relu_u1c -> u1c (in-place)
I0422 22:48:58.662081 30295 net.cpp:150] Setting up relu_u1c
I0422 22:48:58.662089 30295 net.cpp:157] Top shape: 1 128 126 126 (2032128)
I0422 22:48:58.662091 30295 net.cpp:165] Memory required for data: 685677824
I0422 22:48:58.662094 30295 layer_factory.hpp:77] Creating layer conv_u1c-d
I0422 22:48:58.662102 30295 net.cpp:100] Creating Layer conv_u1c-d
I0422 22:48:58.662106 30295 net.cpp:434] conv_u1c-d <- u1c
I0422 22:48:58.662111 30295 net.cpp:408] conv_u1c-d -> u1d
I0422 22:48:58.663964 30295 net.cpp:150] Setting up conv_u1c-d
I0422 22:48:58.663976 30295 net.cpp:157] Top shape: 1 128 124 124 (1968128)
I0422 22:48:58.663980 30295 net.cpp:165] Memory required for data: 693550336
I0422 22:48:58.664000 30295 layer_factory.hpp:77] Creating layer relu_u1d
I0422 22:48:58.664006 30295 net.cpp:100] Creating Layer relu_u1d
I0422 22:48:58.664010 30295 net.cpp:434] relu_u1d <- u1d
I0422 22:48:58.664013 30295 net.cpp:395] relu_u1d -> u1d (in-place)
I0422 22:48:58.664816 30295 net.cpp:150] Setting up relu_u1d
I0422 22:48:58.664829 30295 net.cpp:157] Top shape: 1 128 124 124 (1968128)
I0422 22:48:58.664846 30295 net.cpp:165] Memory required for data: 701422848
I0422 22:48:58.664849 30295 layer_factory.hpp:77] Creating layer upconv_u1d_u0a
I0422 22:48:58.664856 30295 net.cpp:100] Creating Layer upconv_u1d_u0a
I0422 22:48:58.664860 30295 net.cpp:434] upconv_u1d_u0a <- u1d
I0422 22:48:58.664868 30295 net.cpp:408] upconv_u1d_u0a -> u0a
I0422 22:48:58.665547 30295 net.cpp:150] Setting up upconv_u1d_u0a
I0422 22:48:58.665556 30295 net.cpp:157] Top shape: 1 128 248 248 (7872512)
I0422 22:48:58.665575 30295 net.cpp:165] Memory required for data: 732912896
I0422 22:48:58.665581 30295 layer_factory.hpp:77] Creating layer relu_u0a
I0422 22:48:58.665585 30295 net.cpp:100] Creating Layer relu_u0a
I0422 22:48:58.665594 30295 net.cpp:434] relu_u0a <- u0a
I0422 22:48:58.665598 30295 net.cpp:395] relu_u0a -> u0a (in-place)
I0422 22:48:58.665794 30295 net.cpp:150] Setting up relu_u0a
I0422 22:48:58.665803 30295 net.cpp:157] Top shape: 1 128 248 248 (7872512)
I0422 22:48:58.665805 30295 net.cpp:165] Memory required for data: 764402944
I0422 22:48:58.665808 30295 layer_factory.hpp:77] Creating layer u0a_relu_u0a_0_split
I0422 22:48:58.665812 30295 net.cpp:100] Creating Layer u0a_relu_u0a_0_split
I0422 22:48:58.665815 30295 net.cpp:434] u0a_relu_u0a_0_split <- u0a
I0422 22:48:58.665820 30295 net.cpp:408] u0a_relu_u0a_0_split -> u0a_relu_u0a_0_split_0
I0422 22:48:58.665827 30295 net.cpp:408] u0a_relu_u0a_0_split -> u0a_relu_u0a_0_split_1
I0422 22:48:58.665871 30295 net.cpp:150] Setting up u0a_relu_u0a_0_split
I0422 22:48:58.665877 30295 net.cpp:157] Top shape: 1 128 248 248 (7872512)
I0422 22:48:58.665881 30295 net.cpp:157] Top shape: 1 128 248 248 (7872512)
I0422 22:48:58.665884 30295 net.cpp:165] Memory required for data: 827383040
I0422 22:48:58.665885 30295 layer_factory.hpp:77] Creating layer crop_d0c-d0cc
I0422 22:48:58.665891 30295 net.cpp:100] Creating Layer crop_d0c-d0cc
I0422 22:48:58.665894 30295 net.cpp:434] crop_d0c-d0cc <- d0c_relu_d0c_0_split_1
I0422 22:48:58.665899 30295 net.cpp:434] crop_d0c-d0cc <- u0a_relu_u0a_0_split_0
I0422 22:48:58.665904 30295 net.cpp:408] crop_d0c-d0cc -> d0cc
I0422 22:48:58.665930 30295 net.cpp:150] Setting up crop_d0c-d0cc
I0422 22:48:58.665938 30295 net.cpp:157] Top shape: 1 64 248 248 (3936256)
I0422 22:48:58.665941 30295 net.cpp:165] Memory required for data: 843128064
I0422 22:48:58.665943 30295 layer_factory.hpp:77] Creating layer concat_d0cc_u0a-b
I0422 22:48:58.665946 30295 net.cpp:100] Creating Layer concat_d0cc_u0a-b
I0422 22:48:58.665949 30295 net.cpp:434] concat_d0cc_u0a-b <- u0a_relu_u0a_0_split_1
I0422 22:48:58.665953 30295 net.cpp:434] concat_d0cc_u0a-b <- d0cc
I0422 22:48:58.665957 30295 net.cpp:408] concat_d0cc_u0a-b -> u0b
I0422 22:48:58.665980 30295 net.cpp:150] Setting up concat_d0cc_u0a-b
I0422 22:48:58.665984 30295 net.cpp:157] Top shape: 1 192 248 248 (11808768)
I0422 22:48:58.665999 30295 net.cpp:165] Memory required for data: 890363136
I0422 22:48:58.666002 30295 layer_factory.hpp:77] Creating layer conv_u0b-c
I0422 22:48:58.666012 30295 net.cpp:100] Creating Layer conv_u0b-c
I0422 22:48:58.666014 30295 net.cpp:434] conv_u0b-c <- u0b
I0422 22:48:58.666020 30295 net.cpp:408] conv_u0b-c -> u0c
I0422 22:48:58.666893 30295 net.cpp:150] Setting up conv_u0b-c
I0422 22:48:58.666901 30295 net.cpp:157] Top shape: 1 64 246 246 (3873024)
I0422 22:48:58.666903 30295 net.cpp:165] Memory required for data: 905855232
I0422 22:48:58.666924 30295 layer_factory.hpp:77] Creating layer relu_u0c
I0422 22:48:58.666929 30295 net.cpp:100] Creating Layer relu_u0c
I0422 22:48:58.666931 30295 net.cpp:434] relu_u0c <- u0c
I0422 22:48:58.666935 30295 net.cpp:395] relu_u0c -> u0c (in-place)
I0422 22:48:58.667105 30295 net.cpp:150] Setting up relu_u0c
I0422 22:48:58.667114 30295 net.cpp:157] Top shape: 1 64 246 246 (3873024)
I0422 22:48:58.667116 30295 net.cpp:165] Memory required for data: 921347328
I0422 22:48:58.667119 30295 layer_factory.hpp:77] Creating layer conv_u0c-d
I0422 22:48:58.667127 30295 net.cpp:100] Creating Layer conv_u0c-d
I0422 22:48:58.667130 30295 net.cpp:434] conv_u0c-d <- u0c
I0422 22:48:58.667135 30295 net.cpp:408] conv_u0c-d -> u0d
I0422 22:48:58.667628 30295 net.cpp:150] Setting up conv_u0c-d
I0422 22:48:58.667634 30295 net.cpp:157] Top shape: 1 64 244 244 (3810304)
I0422 22:48:58.667636 30295 net.cpp:165] Memory required for data: 936588544
I0422 22:48:58.667657 30295 layer_factory.hpp:77] Creating layer relu_u0d
I0422 22:48:58.667668 30295 net.cpp:100] Creating Layer relu_u0d
I0422 22:48:58.667671 30295 net.cpp:434] relu_u0d <- u0d
I0422 22:48:58.667675 30295 net.cpp:395] relu_u0d -> u0d (in-place)
I0422 22:48:58.667840 30295 net.cpp:150] Setting up relu_u0d
I0422 22:48:58.667847 30295 net.cpp:157] Top shape: 1 64 244 244 (3810304)
I0422 22:48:58.667850 30295 net.cpp:165] Memory required for data: 951829760
I0422 22:48:58.667853 30295 layer_factory.hpp:77] Creating layer conv_u0d-score
I0422 22:48:58.667860 30295 net.cpp:100] Creating Layer conv_u0d-score
I0422 22:48:58.667862 30295 net.cpp:434] conv_u0d-score <- u0d
I0422 22:48:58.667870 30295 net.cpp:408] conv_u0d-score -> score
I0422 22:48:58.668143 30295 net.cpp:150] Setting up conv_u0d-score
I0422 22:48:58.668149 30295 net.cpp:157] Top shape: 1 4 244 244 (238144)
I0422 22:48:58.668151 30295 net.cpp:165] Memory required for data: 952782336
I0422 22:48:58.668157 30295 layer_factory.hpp:77] Creating layer softmax
I0422 22:48:58.668162 30295 net.cpp:100] Creating Layer softmax
I0422 22:48:58.668164 30295 net.cpp:434] softmax <- score
I0422 22:48:58.668169 30295 net.cpp:408] softmax -> softmax_out
I0422 22:48:58.669018 30295 net.cpp:150] Setting up softmax
I0422 22:48:58.669029 30295 net.cpp:157] Top shape: 1 4 244 244 (238144)
I0422 22:48:58.669031 30295 net.cpp:165] Memory required for data: 953734912
I0422 22:48:58.669050 30295 layer_factory.hpp:77] Creating layer reshapelab
I0422 22:48:58.669057 30295 net.cpp:100] Creating Layer reshapelab
I0422 22:48:58.669060 30295 net.cpp:434] reshapelab <- label
I0422 22:48:58.669065 30295 net.cpp:408] reshapelab -> label_flat
I0422 22:48:58.669093 30295 net.cpp:150] Setting up reshapelab
I0422 22:48:58.669100 30295 net.cpp:157] Top shape: 1 59536 (59536)
I0422 22:48:58.669102 30295 net.cpp:165] Memory required for data: 953973056
I0422 22:48:58.669104 30295 layer_factory.hpp:77] Creating layer reshaperes
I0422 22:48:58.669109 30295 net.cpp:100] Creating Layer reshaperes
I0422 22:48:58.669113 30295 net.cpp:434] reshaperes <- softmax_out
I0422 22:48:58.669118 30295 net.cpp:408] reshaperes -> softmax_out_flat
I0422 22:48:58.669144 30295 net.cpp:150] Setting up reshaperes
I0422 22:48:58.669148 30295 net.cpp:157] Top shape: 1 4 59536 (238144)
I0422 22:48:58.669152 30295 net.cpp:165] Memory required for data: 954925632
I0422 22:48:58.669154 30295 layer_factory.hpp:77] Creating layer loss
I0422 22:48:58.669193 30295 net.cpp:100] Creating Layer loss
I0422 22:48:58.669196 30295 net.cpp:434] loss <- softmax_out_flat
I0422 22:48:58.669215 30295 net.cpp:434] loss <- label_flat
I0422 22:48:58.669220 30295 net.cpp:408] loss -> loss
I0422 22:48:58.670349 30295 net.cpp:150] Setting up loss
I0422 22:48:58.670361 30295 net.cpp:157] Top shape: 4 (4)
I0422 22:48:58.670363 30295 net.cpp:160]     with loss weight 1
I0422 22:48:58.670388 30295 net.cpp:165] Memory required for data: 954925648
I0422 22:48:58.670392 30295 net.cpp:226] loss needs backward computation.
I0422 22:48:58.670395 30295 net.cpp:226] reshaperes needs backward computation.
I0422 22:48:58.670398 30295 net.cpp:228] reshapelab does not need backward computation.
I0422 22:48:58.670402 30295 net.cpp:226] softmax needs backward computation.
…
