…
I0421 20:12:20.992233  6613 solver.cpp:91] Creating training net from net file: ./unet_weighted_3/unet_weighted_3.prototxt
I0421 20:12:20.992691  6613 net.cpp:322] The NetState phase (0) differed from the phase (1) specified by a rule in layer loaddata
I0421 20:12:20.993247  6613 net.cpp:58] Initializing net from parameters: 
name: "unet_weighted_3"
force_backward: true
state {
  phase: TRAIN
}
layer {
  name: "loaddata"
  type: "HDF5Data"
  top: "data"
  top: "label"
  top: "weights"
  include {
    phase: TRAIN
  }
  hdf5_data_param {
    source: "caffeHDF5_3.txt"
    batch_size: 5
  }
}
layer {
  name: "conv_d0a-b"
  type: "Convolution"
  bottom: "data"
  top: "d0b"
  param {
    lr_mult: 1
    decay_mult: 1
  }
  param {
    lr_mult: 2
    decay_mult: 0
  }
  convolution_param {
    num_output: 64
    pad: 0
    kernel_size: 3
    weight_filler {
      type: "xavier"
    }
    engine: CAFFE
  }
}
layer {
  name: "relu_d0b"
  type: "ReLU"
  bottom: "d0b"
  top: "d0b"
}
layer {
  name: "conv_d0b-c"
  type: "Convolution"
  bottom: "d0b"
  top: "d0c"
  param {
    lr_mult: 1
    decay_mult: 1
  }
  param {
    lr_mult: 2
    decay_mult: 0
  }
  convolution_param {
    num_output: 64
    pad: 0
    kernel_size: 3
    weight_filler {
      type: "xavier"
    }
    engine: CAFFE
  }
}
layer {
  name: "relu_d0c"
  type: "ReLU"
  bottom: "d0c"
  top: "d0c"
}
layer {
  name: "pool_d0c-1a"
  type: "Pooling"
  bottom: "d0c"
  top: "d1a"
  pooling_param {
    pool: MAX
    kernel_size: 2
    stride: 2
  }
}
layer {
  name: "conv_d1a-b"
  type: "Convolution"
  bottom: "d1a"
  top: "d1b"
  param {
    lr_mult: 1
    decay_mult: 1
  }
  param {
    lr_mult: 2
    decay_mult: 0
  }
  convolution_param {
    num_output: 128
    pad: 0
    kernel_size: 3
    weight_filler {
      type: "xavier"
    }
    engine: CAFFE
  }
}
layer {
  name: "relu_d1b"
  type: "ReLU"
  bottom: "d1b"
  top: "d1b"
}
layer {
  name: "conv_d1b-c"
  type: "Convolution"
  bottom: "d1b"
  top: "d1c"
  param {
    lr_mult: 1
    decay_mult: 1
  }
  param {
    lr_mult: 2
    decay_mult: 0
  }
  convolution_param {
    num_output: 128
    pad: 0
    kernel_size: 3
    weight_filler {
      type: "xavier"
    }
    engine: CAFFE
  }
}
layer {
  name: "relu_d1c"
  type: "ReLU"
  bottom: "d1c"
  top: "d1c"
}
layer {
  name: "pool_d1c-2a"
  type: "Pooling"
  bottom: "d1c"
  top: "d2a"
  pooling_param {
    pool: MAX
    kernel_size: 2
    stride: 2
  }
}
layer {
  name: "conv_d2a-b"
  type: "Convolution"
  bottom: "d2a"
  top: "d2b"
  param {
    lr_mult: 1
    decay_mult: 1
  }
  param {
    lr_mult: 2
    decay_mult: 0
  }
  convolution_param {
    num_output: 256
    pad: 0
    kernel_size: 3
    weight_filler {
      type: "xavier"
    }
    engine: CAFFE
  }
}
layer {
  name: "relu_d2b"
  type: "ReLU"
  bottom: "d2b"
  top: "d2b"
}
layer {
  name: "conv_d2b-c"
  type: "Convolution"
  bottom: "d2b"
  top: "d2c"
  param {
    lr_mult: 1
    decay_mult: 1
  }
  param {
    lr_mult: 2
    decay_mult: 0
  }
  convolution_param {
    num_output: 256
    pad: 0
    kernel_size: 3
    weight_filler {
      type: "xavier"
    }
    engine: CAFFE
  }
}
layer {
  name: "relu_d2c"
  type: "ReLU"
  bottom: "d2c"
  top: "d2c"
}
layer {
  name: "pool_d2c-3a"
  type: "Pooling"
  bottom: "d2c"
  top: "d3a"
  pooling_param {
    pool: MAX
    kernel_size: 2
    stride: 2
  }
}
layer {
  name: "conv_d3a-b"
  type: "Convolution"
  bottom: "d3a"
  top: "d3b"
  param {
    lr_mult: 1
    decay_mult: 1
  }
  param {
    lr_mult: 2
    decay_mult: 0
  }
  convolution_param {
    num_output: 512
    pad: 0
    kernel_size: 3
    weight_filler {
      type: "xavier"
    }
    engine: CAFFE
  }
}
layer {
  name: "relu_d3b"
  type: "ReLU"
  bottom: "d3b"
  top: "d3b"
}
layer {
  name: "conv_d3b-c"
  type: "Convolution"
  bottom: "d3b"
  top: "d3c"
  param {
    lr_mult: 1
    decay_mult: 1
  }
  param {
    lr_mult: 2
    decay_mult: 0
  }
  convolution_param {
    num_output: 512
    pad: 0
    kernel_size: 3
    weight_filler {
      type: "xavier"
    }
    engine: CAFFE
  }
}
layer {
  name: "relu_d3c"
  type: "ReLU"
  bottom: "d3c"
  top: "d3c"
}
layer {
  name: "dropout_d3c"
  type: "Dropout"
  bottom: "d3c"
  top: "d3c"
  include {
    phase: TRAIN
  }
  dropout_param {
    dropout_ratio: 0.5
  }
}
layer {
  name: "pool_d3c-4a"
  type: "Pooling"
  bottom: "d3c"
  top: "d4a"
  pooling_param {
    pool: MAX
    kernel_size: 2
    stride: 2
  }
}
layer {
  name: "conv_d4a-b"
  type: "Convolution"
  bottom: "d4a"
  top: "d4b"
  param {
    lr_mult: 1
    decay_mult: 1
  }
  param {
    lr_mult: 2
    decay_mult: 0
  }
  convolution_param {
    num_output: 1024
    pad: 0
    kernel_size: 3
    weight_filler {
      type: "xavier"
    }
    engine: CAFFE
  }
}
layer {
  name: "relu_d4b"
  type: "ReLU"
  bottom: "d4b"
  top: "d4b"
}
layer {
  name: "conv_d4b-c"
  type: "Convolution"
  bottom: "d4b"
  top: "d4c"
  param {
    lr_mult: 1
    decay_mult: 1
  }
  param {
    lr_mult: 2
    decay_mult: 0
  }
  convolution_param {
    num_output: 1024
    pad: 0
    kernel_size: 3
    weight_filler {
      type: "xavier"
    }
    engine: CAFFE
  }
}
layer {
  name: "relu_d4c"
  type: "ReLU"
  bottom: "d4c"
  top: "d4c"
}
layer {
  name: "dropout_d4c"
  type: "Dropout"
  bottom: "d4c"
  top: "d4c"
  include {
    phase: TRAIN
  }
  dropout_param {
    dropout_ratio: 0.5
  }
}
layer {
  name: "upconv_d4c_u3a"
  type: "Deconvolution"
  bottom: "d4c"
  top: "u3a"
  param {
    lr_mult: 1
    decay_mult: 1
  }
  param {
    lr_mult: 2
    decay_mult: 0
  }
  convolution_param {
    num_output: 512
    pad: 0
    kernel_size: 2
    stride: 2
    weight_filler {
      type: "xavier"
    }
  }
}
layer {
  name: "relu_u3a"
  type: "ReLU"
  bottom: "u3a"
  top: "u3a"
}
layer {
  name: "crop_d3c-d3cc"
  type: "Crop"
  bottom: "d3c"
  bottom: "u3a"
  top: "d3cc"
  crop_param {
    axis: 2
    offset: 4
  }
}
layer {
  name: "concat_d3cc_u3a-b"
  type: "Concat"
  bottom: "u3a"
  bottom: "d3cc"
  top: "u3b"
}
layer {
  name: "conv_u3b-c"
  type: "Convolution"
  bottom: "u3b"
  top: "u3c"
  param {
    lr_mult: 1
    decay_mult: 1
  }
  param {
    lr_mult: 2
    decay_mult: 0
  }
  convolution_param {
    num_output: 512
    pad: 0
    kernel_size: 3
    weight_filler {
      type: "xavier"
    }
    engine: CAFFE
  }
}
layer {
  name: "relu_u3c"
  type: "ReLU"
  bottom: "u3c"
  top: "u3c"
}
layer {
  name: "conv_u3c-d"
  type: "Convolution"
  bottom: "u3c"
  top: "u3d"
  param {
    lr_mult: 1
    decay_mult: 1
  }
  param {
    lr_mult: 2
    decay_mult: 0
  }
  convolution_param {
    num_output: 512
    pad: 0
    kernel_size: 3
    weight_filler {
      type: "xavier"
    }
    engine: CAFFE
  }
}
layer {
  name: "relu_u3d"
  type: "ReLU"
  bottom: "u3d"
  top: "u3d"
}
layer {
  name: "upconv_u3d_u2a"
  type: "Deconvolution"
  bottom: "u3d"
  top: "u2a"
  param {
    lr_mult: 1
    decay_mult: 1
  }
  param {
    lr_mult: 2
    decay_mult: 0
  }
  convolution_param {
    num_output: 256
    pad: 0
    kernel_size: 2
    stride: 2
    weight_filler {
      type: "xavier"
    }
  }
}
layer {
  name: "relu_u2a"
  type: "ReLU"
  bottom: "u2a"
  top: "u2a"
}
layer {
  name: "crop_d2c-d2cc"
  type: "Crop"
  bottom: "d2c"
  bottom: "u2a"
  top: "d2cc"
  crop_param {
    axis: 2
    offset: 16
  }
}
layer {
  name: "concat_d2cc_u2a-b"
  type: "Concat"
  bottom: "u2a"
  bottom: "d2cc"
  top: "u2b"
}
layer {
  name: "conv_u2b-c"
  type: "Convolution"
  bottom: "u2b"
  top: "u2c"
  param {
    lr_mult: 1
    decay_mult: 1
  }
  param {
    lr_mult: 2
    decay_mult: 0
  }
  convolution_param {
    num_output: 256
    pad: 0
    kernel_size: 3
    weight_filler {
      type: "xavier"
    }
    engine: CAFFE
  }
}
layer {
  name: "relu_u2c"
  type: "ReLU"
  bottom: "u2c"
  top: "u2c"
}
layer {
  name: "conv_u2c-d"
  type: "Convolution"
  bottom: "u2c"
  top: "u2d"
  param {
    lr_mult: 1
    decay_mult: 1
  }
  param {
    lr_mult: 2
    decay_mult: 0
  }
  convolution_param {
    num_output: 256
    pad: 0
    kernel_size: 3
    weight_filler {
      type: "xavier"
    }
    engine: CAFFE
  }
}
layer {
  name: "relu_u2d"
  type: "ReLU"
  bottom: "u2d"
  top: "u2d"
}
layer {
  name: "upconv_u2d_u1a"
  type: "Deconvolution"
  bottom: "u2d"
  top: "u1a"
  param {
    lr_mult: 1
    decay_mult: 1
  }
  param {
    lr_mult: 2
    decay_mult: 0
  }
  convolution_param {
    num_output: 128
    pad: 0
    kernel_size: 2
    stride: 2
    weight_filler {
      type: "xavier"
    }
  }
}
layer {
  name: "relu_u1a"
  type: "ReLU"
  bottom: "u1a"
  top: "u1a"
}
layer {
  name: "crop_d1c-d1cc"
  type: "Crop"
  bottom: "d1c"
  bottom: "u1a"
  top: "d1cc"
  crop_param {
    axis: 2
    offset: 40
  }
}
layer {
  name: "concat_d1cc_u1a-b"
  type: "Concat"
  bottom: "u1a"
  bottom: "d1cc"
  top: "u1b"
}
layer {
  name: "conv_u1b-c"
  type: "Convolution"
  bottom: "u1b"
  top: "u1c"
  param {
    lr_mult: 1
    decay_mult: 1
  }
  param {
    lr_mult: 2
    decay_mult: 0
  }
  convolution_param {
    num_output: 128
    pad: 0
    kernel_size: 3
    weight_filler {
      type: "xavier"
    }
    engine: CAFFE
  }
}
layer {
  name: "relu_u1c"
  type: "ReLU"
  bottom: "u1c"
  top: "u1c"
}
layer {
  name: "conv_u1c-d"
  type: "Convolution"
  bottom: "u1c"
  top: "u1d"
  param {
    lr_mult: 1
    decay_mult: 1
  }
  param {
    lr_mult: 2
    decay_mult: 0
  }
  convolution_param {
    num_output: 128
    pad: 0
    kernel_size: 3
    weight_filler {
      type: "xavier"
    }
    engine: CAFFE
  }
}
layer {
  name: "relu_u1d"
  type: "ReLU"
  bottom: "u1d"
  top: "u1d"
}
layer {
  name: "upconv_u1d_u0a"
  type: "Deconvolution"
  bottom: "u1d"
  top: "u0a"
  param {
    lr_mult: 1
    decay_mult: 1
  }
  param {
    lr_mult: 2
    decay_mult: 0
  }
  convolution_param {
    num_output: 128
    pad: 0
    kernel_size: 2
    stride: 2
    weight_filler {
      type: "xavier"
    }
  }
}
layer {
  name: "relu_u0a"
  type: "ReLU"
  bottom: "u0a"
  top: "u0a"
}
layer {
  name: "crop_d0c-d0cc"
  type: "Crop"
  bottom: "d0c"
  bottom: "u0a"
  top: "d0cc"
  crop_param {
    axis: 2
    offset: 88
  }
}
layer {
  name: "concat_d0cc_u0a-b"
  type: "Concat"
  bottom: "u0a"
  bottom: "d0cc"
  top: "u0b"
}
layer {
  name: "conv_u0b-c"
  type: "Convolution"
  bottom: "u0b"
  top: "u0c"
  param {
    lr_mult: 1
    decay_mult: 1
  }
  param {
    lr_mult: 2
    decay_mult: 0
  }
  convolution_param {
    num_output: 64
    pad: 0
    kernel_size: 3
    weight_filler {
      type: "xavier"
    }
    engine: CAFFE
  }
}
layer {
  name: "relu_u0c"
  type: "ReLU"
  bottom: "u0c"
  top: "u0c"
}
layer {
  name: "conv_u0c-d"
  type: "Convolution"
  bottom: "u0c"
  top: "u0d"
  param {
    lr_mult: 1
    decay_mult: 1
  }
  param {
    lr_mult: 2
    decay_mult: 0
  }
  convolution_param {
    num_output: 64
    pad: 0
    kernel_size: 3
    weight_filler {
      type: "xavier"
    }
    engine: CAFFE
  }
}
layer {
  name: "relu_u0d"
  type: "ReLU"
  bottom: "u0d"
  top: "u0d"
}
layer {
  name: "conv_u0d-score"
  type: "Convolution"
  bottom: "u0d"
  top: "score"
  param {
    lr_mult: 1
    decay_mult: 1
  }
  param {
    lr_mult: 2
    decay_mult: 0
  }
  convolution_param {
    num_output: 3
    pad: 0
    kernel_size: 1
    weight_filler {
      type: "xavier"
    }
    engine: CAFFE
  }
}
layer {
  name: "loss"
  type: "SoftmaxWithLoss"
  bottom: "score"
  bottom: "label"
  bottom: "weights"
  top: "loss"
  loss_weight: 1
}
layer {
  name: "visualize"
  type: "Softmax"
  bottom: "score"
  top: "visualize_out"
  include {
    phase: TRAIN
  }
}
layer {
  name: "fake"
  type: "Silence"
  bottom: "visualize_out"
  include {
    phase: TRAIN
  }
}
I0421 20:12:20.993567  6613 layer_factory.hpp:77] Creating layer loaddata
I0421 20:12:20.993579  6613 net.cpp:100] Creating Layer loaddata
I0421 20:12:20.993583  6613 net.cpp:408] loaddata -> data
I0421 20:12:20.993592  6613 net.cpp:408] loaddata -> label
I0421 20:12:20.993597  6613 net.cpp:408] loaddata -> weights
I0421 20:12:20.993607  6613 hdf5_data_layer.cpp:79] Loading list of HDF5 filenames from: caffeHDF5_3.txt
I0421 20:12:20.993635  6613 hdf5_data_layer.cpp:93] Number of HDF5 files: 20
I0421 20:12:20.994560  6613 hdf5.cpp:32] Datatype class: H5T_FLOAT
I0421 20:12:21.928633  6613 hdf5.cpp:35] Datatype class: H5T_INTEGER
I0421 20:12:22.141600  6613 net.cpp:150] Setting up loaddata
I0421 20:12:22.141641  6613 net.cpp:157] Top shape: 5 3 428 428 (2747760)
I0421 20:12:22.141646  6613 net.cpp:157] Top shape: 5 244 244 (297680)
I0421 20:12:22.141649  6613 net.cpp:157] Top shape: 5 244 244 (297680)
I0421 20:12:22.141652  6613 net.cpp:165] Memory required for data: 13372480
I0421 20:12:22.141657  6613 layer_factory.hpp:77] Creating layer conv_d0a-b
I0421 20:12:22.141674  6613 net.cpp:100] Creating Layer conv_d0a-b
I0421 20:12:22.141679  6613 net.cpp:434] conv_d0a-b <- data
I0421 20:12:22.141685  6613 net.cpp:408] conv_d0a-b -> d0b
I0421 20:12:22.144137  6613 net.cpp:150] Setting up conv_d0a-b
I0421 20:12:22.144150  6613 net.cpp:157] Top shape: 5 64 426 426 (58072320)
I0421 20:12:22.144170  6613 net.cpp:165] Memory required for data: 245661760
I0421 20:12:22.144179  6613 layer_factory.hpp:77] Creating layer relu_d0b
I0421 20:12:22.144186  6613 net.cpp:100] Creating Layer relu_d0b
I0421 20:12:22.144188  6613 net.cpp:434] relu_d0b <- d0b
I0421 20:12:22.144192  6613 net.cpp:395] relu_d0b -> d0b (in-place)
I0421 20:12:22.636473  6613 net.cpp:150] Setting up relu_d0b
I0421 20:12:22.636512  6613 net.cpp:157] Top shape: 5 64 426 426 (58072320)
I0421 20:12:22.636515  6613 net.cpp:165] Memory required for data: 477951040
I0421 20:12:22.636519  6613 layer_factory.hpp:77] Creating layer conv_d0b-c
I0421 20:12:22.636534  6613 net.cpp:100] Creating Layer conv_d0b-c
I0421 20:12:22.636538  6613 net.cpp:434] conv_d0b-c <- d0b
I0421 20:12:22.636545  6613 net.cpp:408] conv_d0b-c -> d0c
I0421 20:12:22.638165  6613 net.cpp:150] Setting up conv_d0b-c
I0421 20:12:22.638180  6613 net.cpp:157] Top shape: 5 64 424 424 (57528320)
I0421 20:12:22.638183  6613 net.cpp:165] Memory required for data: 708064320
I0421 20:12:22.638208  6613 layer_factory.hpp:77] Creating layer relu_d0c
I0421 20:12:22.638217  6613 net.cpp:100] Creating Layer relu_d0c
I0421 20:12:22.638221  6613 net.cpp:434] relu_d0c <- d0c
I0421 20:12:22.638226  6613 net.cpp:395] relu_d0c -> d0c (in-place)
I0421 20:12:22.639009  6613 net.cpp:150] Setting up relu_d0c
I0421 20:12:22.639021  6613 net.cpp:157] Top shape: 5 64 424 424 (57528320)
I0421 20:12:22.639024  6613 net.cpp:165] Memory required for data: 938177600
I0421 20:12:22.639044  6613 layer_factory.hpp:77] Creating layer d0c_relu_d0c_0_split
I0421 20:12:22.639048  6613 net.cpp:100] Creating Layer d0c_relu_d0c_0_split
I0421 20:12:22.639050  6613 net.cpp:434] d0c_relu_d0c_0_split <- d0c
I0421 20:12:22.639055  6613 net.cpp:408] d0c_relu_d0c_0_split -> d0c_relu_d0c_0_split_0
I0421 20:12:22.639061  6613 net.cpp:408] d0c_relu_d0c_0_split -> d0c_relu_d0c_0_split_1
I0421 20:12:22.639113  6613 net.cpp:150] Setting up d0c_relu_d0c_0_split
I0421 20:12:22.639134  6613 net.cpp:157] Top shape: 5 64 424 424 (57528320)
I0421 20:12:22.639139  6613 net.cpp:157] Top shape: 5 64 424 424 (57528320)
I0421 20:12:22.639142  6613 net.cpp:165] Memory required for data: 1398404160
I0421 20:12:22.639143  6613 layer_factory.hpp:77] Creating layer pool_d0c-1a
I0421 20:12:22.639149  6613 net.cpp:100] Creating Layer pool_d0c-1a
I0421 20:12:22.639153  6613 net.cpp:434] pool_d0c-1a <- d0c_relu_d0c_0_split_0
I0421 20:12:22.639158  6613 net.cpp:408] pool_d0c-1a -> d1a
I0421 20:12:22.639189  6613 net.cpp:150] Setting up pool_d0c-1a
I0421 20:12:22.639195  6613 net.cpp:157] Top shape: 5 64 212 212 (14382080)
I0421 20:12:22.639199  6613 net.cpp:165] Memory required for data: 1455932480
I0421 20:12:22.639200  6613 layer_factory.hpp:77] Creating layer conv_d1a-b
I0421 20:12:22.639207  6613 net.cpp:100] Creating Layer conv_d1a-b
I0421 20:12:22.639210  6613 net.cpp:434] conv_d1a-b <- d1a
I0421 20:12:22.639215  6613 net.cpp:408] conv_d1a-b -> d1b
I0421 20:12:22.639910  6613 net.cpp:150] Setting up conv_d1a-b
I0421 20:12:22.639919  6613 net.cpp:157] Top shape: 5 128 210 210 (28224000)
I0421 20:12:22.639920  6613 net.cpp:165] Memory required for data: 1568828480
I0421 20:12:22.639943  6613 layer_factory.hpp:77] Creating layer relu_d1b
I0421 20:12:22.639967  6613 net.cpp:100] Creating Layer relu_d1b
I0421 20:12:22.639986  6613 net.cpp:434] relu_d1b <- d1b
I0421 20:12:22.639991  6613 net.cpp:395] relu_d1b -> d1b (in-place)
I0421 20:12:22.640156  6613 net.cpp:150] Setting up relu_d1b
I0421 20:12:22.640166  6613 net.cpp:157] Top shape: 5 128 210 210 (28224000)
I0421 20:12:22.640167  6613 net.cpp:165] Memory required for data: 1681724480
I0421 20:12:22.640171  6613 layer_factory.hpp:77] Creating layer conv_d1b-c
I0421 20:12:22.640178  6613 net.cpp:100] Creating Layer conv_d1b-c
I0421 20:12:22.640180  6613 net.cpp:434] conv_d1b-c <- d1b
I0421 20:12:22.640185  6613 net.cpp:408] conv_d1b-c -> d1c
I0421 20:12:22.642242  6613 net.cpp:150] Setting up conv_d1b-c
I0421 20:12:22.642273  6613 net.cpp:157] Top shape: 5 128 208 208 (27688960)
I0421 20:12:22.642277  6613 net.cpp:165] Memory required for data: 1792480320
I0421 20:12:22.642282  6613 layer_factory.hpp:77] Creating layer relu_d1c
I0421 20:12:22.642287  6613 net.cpp:100] Creating Layer relu_d1c
I0421 20:12:22.642292  6613 net.cpp:434] relu_d1c <- d1c
I0421 20:12:22.642295  6613 net.cpp:395] relu_d1c -> d1c (in-place)
I0421 20:12:22.642467  6613 net.cpp:150] Setting up relu_d1c
I0421 20:12:22.642475  6613 net.cpp:157] Top shape: 5 128 208 208 (27688960)
I0421 20:12:22.642479  6613 net.cpp:165] Memory required for data: 1903236160
I0421 20:12:22.642482  6613 layer_factory.hpp:77] Creating layer d1c_relu_d1c_0_split
I0421 20:12:22.642488  6613 net.cpp:100] Creating Layer d1c_relu_d1c_0_split
I0421 20:12:22.642489  6613 net.cpp:434] d1c_relu_d1c_0_split <- d1c
I0421 20:12:22.642494  6613 net.cpp:408] d1c_relu_d1c_0_split -> d1c_relu_d1c_0_split_0
I0421 20:12:22.642500  6613 net.cpp:408] d1c_relu_d1c_0_split -> d1c_relu_d1c_0_split_1
I0421 20:12:22.642535  6613 net.cpp:150] Setting up d1c_relu_d1c_0_split
I0421 20:12:22.642540  6613 net.cpp:157] Top shape: 5 128 208 208 (27688960)
I0421 20:12:22.642544  6613 net.cpp:157] Top shape: 5 128 208 208 (27688960)
I0421 20:12:22.642546  6613 net.cpp:165] Memory required for data: 2124747840
I0421 20:12:22.642549  6613 layer_factory.hpp:77] Creating layer pool_d1c-2a
I0421 20:12:22.642554  6613 net.cpp:100] Creating Layer pool_d1c-2a
I0421 20:12:22.642556  6613 net.cpp:434] pool_d1c-2a <- d1c_relu_d1c_0_split_0
I0421 20:12:22.642560  6613 net.cpp:408] pool_d1c-2a -> d2a
I0421 20:12:22.642588  6613 net.cpp:150] Setting up pool_d1c-2a
I0421 20:12:22.642592  6613 net.cpp:157] Top shape: 5 128 104 104 (6922240)
I0421 20:12:22.642596  6613 net.cpp:165] Memory required for data: 2152436800
I0421 20:12:22.642598  6613 layer_factory.hpp:77] Creating layer conv_d2a-b
I0421 20:12:22.642604  6613 net.cpp:100] Creating Layer conv_d2a-b
I0421 20:12:22.642607  6613 net.cpp:434] conv_d2a-b <- d2a
I0421 20:12:22.642612  6613 net.cpp:408] conv_d2a-b -> d2b
I0421 20:12:22.645318  6613 net.cpp:150] Setting up conv_d2a-b
I0421 20:12:22.645329  6613 net.cpp:157] Top shape: 5 256 102 102 (13317120)
I0421 20:12:22.645332  6613 net.cpp:165] Memory required for data: 2205705280
I0421 20:12:22.645352  6613 layer_factory.hpp:77] Creating layer relu_d2b
I0421 20:12:22.645359  6613 net.cpp:100] Creating Layer relu_d2b
I0421 20:12:22.645361  6613 net.cpp:434] relu_d2b <- d2b
I0421 20:12:22.645365  6613 net.cpp:395] relu_d2b -> d2b (in-place)
I0421 20:12:22.645553  6613 net.cpp:150] Setting up relu_d2b
I0421 20:12:22.645563  6613 net.cpp:157] Top shape: 5 256 102 102 (13317120)
I0421 20:12:22.645565  6613 net.cpp:165] Memory required for data: 2258973760
I0421 20:12:22.645568  6613 layer_factory.hpp:77] Creating layer conv_d2b-c
I0421 20:12:22.645576  6613 net.cpp:100] Creating Layer conv_d2b-c
I0421 20:12:22.645579  6613 net.cpp:434] conv_d2b-c <- d2b
I0421 20:12:22.645584  6613 net.cpp:408] conv_d2b-c -> d2c
I0421 20:12:22.649909  6613 net.cpp:150] Setting up conv_d2b-c
I0421 20:12:22.649921  6613 net.cpp:157] Top shape: 5 256 100 100 (12800000)
I0421 20:12:22.649924  6613 net.cpp:165] Memory required for data: 2310173760
I0421 20:12:22.649945  6613 layer_factory.hpp:77] Creating layer relu_d2c
I0421 20:12:22.649983  6613 net.cpp:100] Creating Layer relu_d2c
I0421 20:12:22.649987  6613 net.cpp:434] relu_d2c <- d2c
I0421 20:12:22.649992  6613 net.cpp:395] relu_d2c -> d2c (in-place)
I0421 20:12:22.650709  6613 net.cpp:150] Setting up relu_d2c
I0421 20:12:22.650720  6613 net.cpp:157] Top shape: 5 256 100 100 (12800000)
I0421 20:12:22.650723  6613 net.cpp:165] Memory required for data: 2361373760
I0421 20:12:22.650743  6613 layer_factory.hpp:77] Creating layer d2c_relu_d2c_0_split
I0421 20:12:22.650748  6613 net.cpp:100] Creating Layer d2c_relu_d2c_0_split
I0421 20:12:22.650750  6613 net.cpp:434] d2c_relu_d2c_0_split <- d2c
I0421 20:12:22.650760  6613 net.cpp:408] d2c_relu_d2c_0_split -> d2c_relu_d2c_0_split_0
I0421 20:12:22.650766  6613 net.cpp:408] d2c_relu_d2c_0_split -> d2c_relu_d2c_0_split_1
I0421 20:12:22.650820  6613 net.cpp:150] Setting up d2c_relu_d2c_0_split
I0421 20:12:22.650827  6613 net.cpp:157] Top shape: 5 256 100 100 (12800000)
I0421 20:12:22.650847  6613 net.cpp:157] Top shape: 5 256 100 100 (12800000)
I0421 20:12:22.650849  6613 net.cpp:165] Memory required for data: 2463773760
I0421 20:12:22.650852  6613 layer_factory.hpp:77] Creating layer pool_d2c-3a
I0421 20:12:22.650857  6613 net.cpp:100] Creating Layer pool_d2c-3a
I0421 20:12:22.650861  6613 net.cpp:434] pool_d2c-3a <- d2c_relu_d2c_0_split_0
I0421 20:12:22.650864  6613 net.cpp:408] pool_d2c-3a -> d3a
I0421 20:12:22.650897  6613 net.cpp:150] Setting up pool_d2c-3a
I0421 20:12:22.650902  6613 net.cpp:157] Top shape: 5 256 50 50 (3200000)
I0421 20:12:22.650905  6613 net.cpp:165] Memory required for data: 2476573760
I0421 20:12:22.650907  6613 layer_factory.hpp:77] Creating layer conv_d3a-b
I0421 20:12:22.650916  6613 net.cpp:100] Creating Layer conv_d3a-b
I0421 20:12:22.650919  6613 net.cpp:434] conv_d3a-b <- d3a
I0421 20:12:22.650924  6613 net.cpp:408] conv_d3a-b -> d3b
I0421 20:12:22.660017  6613 net.cpp:150] Setting up conv_d3a-b
I0421 20:12:22.660029  6613 net.cpp:157] Top shape: 5 512 48 48 (5898240)
I0421 20:12:22.660048  6613 net.cpp:165] Memory required for data: 2500166720
I0421 20:12:22.660054  6613 layer_factory.hpp:77] Creating layer relu_d3b
I0421 20:12:22.660060  6613 net.cpp:100] Creating Layer relu_d3b
I0421 20:12:22.660063  6613 net.cpp:434] relu_d3b <- d3b
I0421 20:12:22.660068  6613 net.cpp:395] relu_d3b -> d3b (in-place)
I0421 20:12:22.660284  6613 net.cpp:150] Setting up relu_d3b
I0421 20:12:22.660293  6613 net.cpp:157] Top shape: 5 512 48 48 (5898240)
I0421 20:12:22.660296  6613 net.cpp:165] Memory required for data: 2523759680
I0421 20:12:22.660298  6613 layer_factory.hpp:77] Creating layer conv_d3b-c
I0421 20:12:22.660307  6613 net.cpp:100] Creating Layer conv_d3b-c
I0421 20:12:22.660310  6613 net.cpp:434] conv_d3b-c <- d3b
I0421 20:12:22.660316  6613 net.cpp:408] conv_d3b-c -> d3c
I0421 20:12:22.675648  6613 net.cpp:150] Setting up conv_d3b-c
I0421 20:12:22.675662  6613 net.cpp:157] Top shape: 5 512 46 46 (5416960)
I0421 20:12:22.675679  6613 net.cpp:165] Memory required for data: 2545427520
I0421 20:12:22.675684  6613 layer_factory.hpp:77] Creating layer relu_d3c
I0421 20:12:22.675691  6613 net.cpp:100] Creating Layer relu_d3c
I0421 20:12:22.675694  6613 net.cpp:434] relu_d3c <- d3c
I0421 20:12:22.675698  6613 net.cpp:395] relu_d3c -> d3c (in-place)
I0421 20:12:22.675915  6613 net.cpp:150] Setting up relu_d3c
I0421 20:12:22.675925  6613 net.cpp:157] Top shape: 5 512 46 46 (5416960)
I0421 20:12:22.675928  6613 net.cpp:165] Memory required for data: 2567095360
I0421 20:12:22.675931  6613 layer_factory.hpp:77] Creating layer dropout_d3c
I0421 20:12:22.675937  6613 net.cpp:100] Creating Layer dropout_d3c
I0421 20:12:22.675940  6613 net.cpp:434] dropout_d3c <- d3c
I0421 20:12:22.675945  6613 net.cpp:395] dropout_d3c -> d3c (in-place)
I0421 20:12:22.675972  6613 net.cpp:150] Setting up dropout_d3c
I0421 20:12:22.675979  6613 net.cpp:157] Top shape: 5 512 46 46 (5416960)
I0421 20:12:22.675981  6613 net.cpp:165] Memory required for data: 2588763200
I0421 20:12:22.675984  6613 layer_factory.hpp:77] Creating layer d3c_dropout_d3c_0_split
I0421 20:12:22.676007  6613 net.cpp:100] Creating Layer d3c_dropout_d3c_0_split
I0421 20:12:22.676020  6613 net.cpp:434] d3c_dropout_d3c_0_split <- d3c
I0421 20:12:22.676024  6613 net.cpp:408] d3c_dropout_d3c_0_split -> d3c_dropout_d3c_0_split_0
I0421 20:12:22.676031  6613 net.cpp:408] d3c_dropout_d3c_0_split -> d3c_dropout_d3c_0_split_1
I0421 20:12:22.676070  6613 net.cpp:150] Setting up d3c_dropout_d3c_0_split
I0421 20:12:22.676077  6613 net.cpp:157] Top shape: 5 512 46 46 (5416960)
I0421 20:12:22.676080  6613 net.cpp:157] Top shape: 5 512 46 46 (5416960)
I0421 20:12:22.676084  6613 net.cpp:165] Memory required for data: 2632098880
I0421 20:12:22.676085  6613 layer_factory.hpp:77] Creating layer pool_d3c-4a
I0421 20:12:22.676092  6613 net.cpp:100] Creating Layer pool_d3c-4a
I0421 20:12:22.676095  6613 net.cpp:434] pool_d3c-4a <- d3c_dropout_d3c_0_split_0
I0421 20:12:22.676100  6613 net.cpp:408] pool_d3c-4a -> d4a
I0421 20:12:22.676136  6613 net.cpp:150] Setting up pool_d3c-4a
I0421 20:12:22.676141  6613 net.cpp:157] Top shape: 5 512 23 23 (1354240)
I0421 20:12:22.676143  6613 net.cpp:165] Memory required for data: 2637515840
I0421 20:12:22.676146  6613 layer_factory.hpp:77] Creating layer conv_d4a-b
I0421 20:12:22.676156  6613 net.cpp:100] Creating Layer conv_d4a-b
I0421 20:12:22.676158  6613 net.cpp:434] conv_d4a-b <- d4a
I0421 20:12:22.676162  6613 net.cpp:408] conv_d4a-b -> d4b
I0421 20:12:22.706478  6613 net.cpp:150] Setting up conv_d4a-b
I0421 20:12:22.706496  6613 net.cpp:157] Top shape: 5 1024 21 21 (2257920)
I0421 20:12:22.706497  6613 net.cpp:165] Memory required for data: 2646547520
I0421 20:12:22.706524  6613 layer_factory.hpp:77] Creating layer relu_d4b
I0421 20:12:22.706534  6613 net.cpp:100] Creating Layer relu_d4b
I0421 20:12:22.706538  6613 net.cpp:434] relu_d4b <- d4b
I0421 20:12:22.706543  6613 net.cpp:395] relu_d4b -> d4b (in-place)
I0421 20:12:22.707360  6613 net.cpp:150] Setting up relu_d4b
I0421 20:12:22.707375  6613 net.cpp:157] Top shape: 5 1024 21 21 (2257920)
I0421 20:12:22.707376  6613 net.cpp:165] Memory required for data: 2655579200
I0421 20:12:22.707379  6613 layer_factory.hpp:77] Creating layer conv_d4b-c
I0421 20:12:22.707389  6613 net.cpp:100] Creating Layer conv_d4b-c
I0421 20:12:22.707409  6613 net.cpp:434] conv_d4b-c <- d4b
I0421 20:12:22.707419  6613 net.cpp:408] conv_d4b-c -> d4c
I0421 20:12:22.770171  6613 net.cpp:150] Setting up conv_d4b-c
I0421 20:12:22.770207  6613 net.cpp:157] Top shape: 5 1024 19 19 (1848320)
I0421 20:12:22.770210  6613 net.cpp:165] Memory required for data: 2662972480
I0421 20:12:22.770218  6613 layer_factory.hpp:77] Creating layer relu_d4c
I0421 20:12:22.770226  6613 net.cpp:100] Creating Layer relu_d4c
I0421 20:12:22.770231  6613 net.cpp:434] relu_d4c <- d4c
I0421 20:12:22.770237  6613 net.cpp:395] relu_d4c -> d4c (in-place)
I0421 20:12:22.770486  6613 net.cpp:150] Setting up relu_d4c
I0421 20:12:22.770496  6613 net.cpp:157] Top shape: 5 1024 19 19 (1848320)
I0421 20:12:22.770498  6613 net.cpp:165] Memory required for data: 2670365760
I0421 20:12:22.770501  6613 layer_factory.hpp:77] Creating layer dropout_d4c
I0421 20:12:22.770509  6613 net.cpp:100] Creating Layer dropout_d4c
I0421 20:12:22.770511  6613 net.cpp:434] dropout_d4c <- d4c
I0421 20:12:22.770516  6613 net.cpp:395] dropout_d4c -> d4c (in-place)
I0421 20:12:22.770546  6613 net.cpp:150] Setting up dropout_d4c
I0421 20:12:22.770553  6613 net.cpp:157] Top shape: 5 1024 19 19 (1848320)
I0421 20:12:22.770555  6613 net.cpp:165] Memory required for data: 2677759040
I0421 20:12:22.770557  6613 layer_factory.hpp:77] Creating layer upconv_d4c_u3a
I0421 20:12:22.770568  6613 net.cpp:100] Creating Layer upconv_d4c_u3a
I0421 20:12:22.770572  6613 net.cpp:434] upconv_d4c_u3a <- d4c
I0421 20:12:22.770578  6613 net.cpp:408] upconv_d4c_u3a -> u3a
I0421 20:12:22.784807  6613 net.cpp:150] Setting up upconv_d4c_u3a
I0421 20:12:22.784821  6613 net.cpp:157] Top shape: 5 512 38 38 (3696640)
I0421 20:12:22.784838  6613 net.cpp:165] Memory required for data: 2692545600
I0421 20:12:22.784844  6613 layer_factory.hpp:77] Creating layer relu_u3a
I0421 20:12:22.784889  6613 net.cpp:100] Creating Layer relu_u3a
I0421 20:12:22.784893  6613 net.cpp:434] relu_u3a <- u3a
I0421 20:12:22.784899  6613 net.cpp:395] relu_u3a -> u3a (in-place)
I0421 20:12:22.785120  6613 net.cpp:150] Setting up relu_u3a
I0421 20:12:22.785130  6613 net.cpp:157] Top shape: 5 512 38 38 (3696640)
I0421 20:12:22.785133  6613 net.cpp:165] Memory required for data: 2707332160
I0421 20:12:22.785136  6613 layer_factory.hpp:77] Creating layer u3a_relu_u3a_0_split
I0421 20:12:22.785142  6613 net.cpp:100] Creating Layer u3a_relu_u3a_0_split
I0421 20:12:22.785145  6613 net.cpp:434] u3a_relu_u3a_0_split <- u3a
I0421 20:12:22.785154  6613 net.cpp:408] u3a_relu_u3a_0_split -> u3a_relu_u3a_0_split_0
I0421 20:12:22.785162  6613 net.cpp:408] u3a_relu_u3a_0_split -> u3a_relu_u3a_0_split_1
I0421 20:12:22.785205  6613 net.cpp:150] Setting up u3a_relu_u3a_0_split
I0421 20:12:22.785212  6613 net.cpp:157] Top shape: 5 512 38 38 (3696640)
I0421 20:12:22.785217  6613 net.cpp:157] Top shape: 5 512 38 38 (3696640)
I0421 20:12:22.785218  6613 net.cpp:165] Memory required for data: 2736905280
I0421 20:12:22.785221  6613 layer_factory.hpp:77] Creating layer crop_d3c-d3cc
I0421 20:12:22.785228  6613 net.cpp:100] Creating Layer crop_d3c-d3cc
I0421 20:12:22.785231  6613 net.cpp:434] crop_d3c-d3cc <- d3c_dropout_d3c_0_split_1
I0421 20:12:22.785236  6613 net.cpp:434] crop_d3c-d3cc <- u3a_relu_u3a_0_split_0
I0421 20:12:22.785243  6613 net.cpp:408] crop_d3c-d3cc -> d3cc
I0421 20:12:22.785267  6613 net.cpp:150] Setting up crop_d3c-d3cc
I0421 20:12:22.785275  6613 net.cpp:157] Top shape: 5 512 38 38 (3696640)
I0421 20:12:22.785277  6613 net.cpp:165] Memory required for data: 2751691840
I0421 20:12:22.785280  6613 layer_factory.hpp:77] Creating layer concat_d3cc_u3a-b
I0421 20:12:22.785285  6613 net.cpp:100] Creating Layer concat_d3cc_u3a-b
I0421 20:12:22.785290  6613 net.cpp:434] concat_d3cc_u3a-b <- u3a_relu_u3a_0_split_1
I0421 20:12:22.785293  6613 net.cpp:434] concat_d3cc_u3a-b <- d3cc
I0421 20:12:22.785298  6613 net.cpp:408] concat_d3cc_u3a-b -> u3b
I0421 20:12:22.785323  6613 net.cpp:150] Setting up concat_d3cc_u3a-b
I0421 20:12:22.785331  6613 net.cpp:157] Top shape: 5 1024 38 38 (7393280)
I0421 20:12:22.785333  6613 net.cpp:165] Memory required for data: 2781264960
I0421 20:12:22.785336  6613 layer_factory.hpp:77] Creating layer conv_u3b-c
I0421 20:12:22.785346  6613 net.cpp:100] Creating Layer conv_u3b-c
I0421 20:12:22.785349  6613 net.cpp:434] conv_u3b-c <- u3b
I0421 20:12:22.785356  6613 net.cpp:408] conv_u3b-c -> u3c
I0421 20:12:22.815407  6613 net.cpp:150] Setting up conv_u3b-c
I0421 20:12:22.815423  6613 net.cpp:157] Top shape: 5 512 36 36 (3317760)
I0421 20:12:22.815441  6613 net.cpp:165] Memory required for data: 2794536000
I0421 20:12:22.815448  6613 layer_factory.hpp:77] Creating layer relu_u3c
I0421 20:12:22.815454  6613 net.cpp:100] Creating Layer relu_u3c
I0421 20:12:22.815457  6613 net.cpp:434] relu_u3c <- u3c
I0421 20:12:22.815464  6613 net.cpp:395] relu_u3c -> u3c (in-place)
I0421 20:12:22.815706  6613 net.cpp:150] Setting up relu_u3c
I0421 20:12:22.815716  6613 net.cpp:157] Top shape: 5 512 36 36 (3317760)
I0421 20:12:22.815717  6613 net.cpp:165] Memory required for data: 2807807040
I0421 20:12:22.815721  6613 layer_factory.hpp:77] Creating layer conv_u3c-d
I0421 20:12:22.815731  6613 net.cpp:100] Creating Layer conv_u3c-d
I0421 20:12:22.815733  6613 net.cpp:434] conv_u3c-d <- u3c
I0421 20:12:22.815740  6613 net.cpp:408] conv_u3c-d -> u3d
I0421 20:12:22.831324  6613 net.cpp:150] Setting up conv_u3c-d
I0421 20:12:22.831338  6613 net.cpp:157] Top shape: 5 512 34 34 (2959360)
I0421 20:12:22.831341  6613 net.cpp:165] Memory required for data: 2819644480
I0421 20:12:22.831346  6613 layer_factory.hpp:77] Creating layer relu_u3d
I0421 20:12:22.831353  6613 net.cpp:100] Creating Layer relu_u3d
I0421 20:12:22.831373  6613 net.cpp:434] relu_u3d <- u3d
I0421 20:12:22.831377  6613 net.cpp:395] relu_u3d -> u3d (in-place)
I0421 20:12:22.832193  6613 net.cpp:150] Setting up relu_u3d
I0421 20:12:22.832254  6613 net.cpp:157] Top shape: 5 512 34 34 (2959360)
I0421 20:12:22.832257  6613 net.cpp:165] Memory required for data: 2831481920
I0421 20:12:22.832260  6613 layer_factory.hpp:77] Creating layer upconv_u3d_u2a
I0421 20:12:22.832267  6613 net.cpp:100] Creating Layer upconv_u3d_u2a
I0421 20:12:22.832273  6613 net.cpp:434] upconv_u3d_u2a <- u3d
I0421 20:12:22.832278  6613 net.cpp:408] upconv_u3d_u2a -> u2a
I0421 20:12:22.836130  6613 net.cpp:150] Setting up upconv_u3d_u2a
I0421 20:12:22.836143  6613 net.cpp:157] Top shape: 5 256 68 68 (5918720)
I0421 20:12:22.836161  6613 net.cpp:165] Memory required for data: 2855156800
I0421 20:12:22.836166  6613 layer_factory.hpp:77] Creating layer relu_u2a
I0421 20:12:22.836171  6613 net.cpp:100] Creating Layer relu_u2a
I0421 20:12:22.836174  6613 net.cpp:434] relu_u2a <- u2a
I0421 20:12:22.836180  6613 net.cpp:395] relu_u2a -> u2a (in-place)
I0421 20:12:22.836393  6613 net.cpp:150] Setting up relu_u2a
I0421 20:12:22.836402  6613 net.cpp:157] Top shape: 5 256 68 68 (5918720)
I0421 20:12:22.836405  6613 net.cpp:165] Memory required for data: 2878831680
I0421 20:12:22.836408  6613 layer_factory.hpp:77] Creating layer u2a_relu_u2a_0_split
I0421 20:12:22.836414  6613 net.cpp:100] Creating Layer u2a_relu_u2a_0_split
I0421 20:12:22.836416  6613 net.cpp:434] u2a_relu_u2a_0_split <- u2a
I0421 20:12:22.836423  6613 net.cpp:408] u2a_relu_u2a_0_split -> u2a_relu_u2a_0_split_0
I0421 20:12:22.836432  6613 net.cpp:408] u2a_relu_u2a_0_split -> u2a_relu_u2a_0_split_1
I0421 20:12:22.836477  6613 net.cpp:150] Setting up u2a_relu_u2a_0_split
I0421 20:12:22.836484  6613 net.cpp:157] Top shape: 5 256 68 68 (5918720)
I0421 20:12:22.836488  6613 net.cpp:157] Top shape: 5 256 68 68 (5918720)
I0421 20:12:22.836490  6613 net.cpp:165] Memory required for data: 2926181440
I0421 20:12:22.836493  6613 layer_factory.hpp:77] Creating layer crop_d2c-d2cc
I0421 20:12:22.836500  6613 net.cpp:100] Creating Layer crop_d2c-d2cc
I0421 20:12:22.836503  6613 net.cpp:434] crop_d2c-d2cc <- d2c_relu_d2c_0_split_1
I0421 20:12:22.836509  6613 net.cpp:434] crop_d2c-d2cc <- u2a_relu_u2a_0_split_0
I0421 20:12:22.836515  6613 net.cpp:408] crop_d2c-d2cc -> d2cc
I0421 20:12:22.836540  6613 net.cpp:150] Setting up crop_d2c-d2cc
I0421 20:12:22.836549  6613 net.cpp:157] Top shape: 5 256 68 68 (5918720)
I0421 20:12:22.836551  6613 net.cpp:165] Memory required for data: 2949856320
I0421 20:12:22.836554  6613 layer_factory.hpp:77] Creating layer concat_d2cc_u2a-b
I0421 20:12:22.836558  6613 net.cpp:100] Creating Layer concat_d2cc_u2a-b
I0421 20:12:22.836561  6613 net.cpp:434] concat_d2cc_u2a-b <- u2a_relu_u2a_0_split_1
I0421 20:12:22.836566  6613 net.cpp:434] concat_d2cc_u2a-b <- d2cc
I0421 20:12:22.836580  6613 net.cpp:408] concat_d2cc_u2a-b -> u2b
I0421 20:12:22.836602  6613 net.cpp:150] Setting up concat_d2cc_u2a-b
I0421 20:12:22.836608  6613 net.cpp:157] Top shape: 5 512 68 68 (11837440)
I0421 20:12:22.836612  6613 net.cpp:165] Memory required for data: 2997206080
I0421 20:12:22.836616  6613 layer_factory.hpp:77] Creating layer conv_u2b-c
I0421 20:12:22.836625  6613 net.cpp:100] Creating Layer conv_u2b-c
I0421 20:12:22.836628  6613 net.cpp:434] conv_u2b-c <- u2b
I0421 20:12:22.836637  6613 net.cpp:408] conv_u2b-c -> u2c
I0421 20:12:22.844576  6613 net.cpp:150] Setting up conv_u2b-c
I0421 20:12:22.844588  6613 net.cpp:157] Top shape: 5 256 66 66 (5575680)
I0421 20:12:22.844591  6613 net.cpp:165] Memory required for data: 3019508800
I0421 20:12:22.844612  6613 layer_factory.hpp:77] Creating layer relu_u2c
I0421 20:12:22.844619  6613 net.cpp:100] Creating Layer relu_u2c
I0421 20:12:22.844620  6613 net.cpp:434] relu_u2c <- u2c
I0421 20:12:22.844626  6613 net.cpp:395] relu_u2c -> u2c (in-place)
I0421 20:12:22.844848  6613 net.cpp:150] Setting up relu_u2c
I0421 20:12:22.844858  6613 net.cpp:157] Top shape: 5 256 66 66 (5575680)
I0421 20:12:22.844861  6613 net.cpp:165] Memory required for data: 3041811520
I0421 20:12:22.844863  6613 layer_factory.hpp:77] Creating layer conv_u2c-d
I0421 20:12:22.844873  6613 net.cpp:100] Creating Layer conv_u2c-d
I0421 20:12:22.844893  6613 net.cpp:434] conv_u2c-d <- u2c
I0421 20:12:22.844900  6613 net.cpp:408] conv_u2c-d -> u2d
I0421 20:12:22.849285  6613 net.cpp:150] Setting up conv_u2c-d
I0421 20:12:22.849298  6613 net.cpp:157] Top shape: 5 256 64 64 (5242880)
I0421 20:12:22.849301  6613 net.cpp:165] Memory required for data: 3062783040
I0421 20:12:22.849323  6613 layer_factory.hpp:77] Creating layer relu_u2d
I0421 20:12:22.849328  6613 net.cpp:100] Creating Layer relu_u2d
I0421 20:12:22.849331  6613 net.cpp:434] relu_u2d <- u2d
I0421 20:12:22.849336  6613 net.cpp:395] relu_u2d -> u2d (in-place)
I0421 20:12:22.849555  6613 net.cpp:150] Setting up relu_u2d
I0421 20:12:22.849565  6613 net.cpp:157] Top shape: 5 256 64 64 (5242880)
I0421 20:12:22.849567  6613 net.cpp:165] Memory required for data: 3083754560
I0421 20:12:22.849570  6613 layer_factory.hpp:77] Creating layer upconv_u2d_u1a
I0421 20:12:22.849578  6613 net.cpp:100] Creating Layer upconv_u2d_u1a
I0421 20:12:22.849582  6613 net.cpp:434] upconv_u2d_u1a <- u2d
I0421 20:12:22.849588  6613 net.cpp:408] upconv_u2d_u1a -> u1a
I0421 20:12:22.851519  6613 net.cpp:150] Setting up upconv_u2d_u1a
I0421 20:12:22.851532  6613 net.cpp:157] Top shape: 5 128 128 128 (10485760)
I0421 20:12:22.851534  6613 net.cpp:165] Memory required for data: 3125697600
I0421 20:12:22.851562  6613 layer_factory.hpp:77] Creating layer relu_u1a
I0421 20:12:22.851567  6613 net.cpp:100] Creating Layer relu_u1a
I0421 20:12:22.851570  6613 net.cpp:434] relu_u1a <- u1a
I0421 20:12:22.851574  6613 net.cpp:395] relu_u1a -> u1a (in-place)
I0421 20:12:22.852412  6613 net.cpp:150] Setting up relu_u1a
I0421 20:12:22.852427  6613 net.cpp:157] Top shape: 5 128 128 128 (10485760)
I0421 20:12:22.852444  6613 net.cpp:165] Memory required for data: 3167640640
I0421 20:12:22.852447  6613 layer_factory.hpp:77] Creating layer u1a_relu_u1a_0_split
I0421 20:12:22.852453  6613 net.cpp:100] Creating Layer u1a_relu_u1a_0_split
I0421 20:12:22.852457  6613 net.cpp:434] u1a_relu_u1a_0_split <- u1a
I0421 20:12:22.852463  6613 net.cpp:408] u1a_relu_u1a_0_split -> u1a_relu_u1a_0_split_0
I0421 20:12:22.852469  6613 net.cpp:408] u1a_relu_u1a_0_split -> u1a_relu_u1a_0_split_1
I0421 20:12:22.852517  6613 net.cpp:150] Setting up u1a_relu_u1a_0_split
I0421 20:12:22.852526  6613 net.cpp:157] Top shape: 5 128 128 128 (10485760)
I0421 20:12:22.852530  6613 net.cpp:157] Top shape: 5 128 128 128 (10485760)
I0421 20:12:22.852532  6613 net.cpp:165] Memory required for data: 3251526720
I0421 20:12:22.852536  6613 layer_factory.hpp:77] Creating layer crop_d1c-d1cc
I0421 20:12:22.852543  6613 net.cpp:100] Creating Layer crop_d1c-d1cc
I0421 20:12:22.852547  6613 net.cpp:434] crop_d1c-d1cc <- d1c_relu_d1c_0_split_1
I0421 20:12:22.852551  6613 net.cpp:434] crop_d1c-d1cc <- u1a_relu_u1a_0_split_0
I0421 20:12:22.852558  6613 net.cpp:408] crop_d1c-d1cc -> d1cc
I0421 20:12:22.852583  6613 net.cpp:150] Setting up crop_d1c-d1cc
I0421 20:12:22.852589  6613 net.cpp:157] Top shape: 5 128 128 128 (10485760)
I0421 20:12:22.852592  6613 net.cpp:165] Memory required for data: 3293469760
I0421 20:12:22.852596  6613 layer_factory.hpp:77] Creating layer concat_d1cc_u1a-b
I0421 20:12:22.852602  6613 net.cpp:100] Creating Layer concat_d1cc_u1a-b
I0421 20:12:22.852604  6613 net.cpp:434] concat_d1cc_u1a-b <- u1a_relu_u1a_0_split_1
I0421 20:12:22.852608  6613 net.cpp:434] concat_d1cc_u1a-b <- d1cc
I0421 20:12:22.852613  6613 net.cpp:408] concat_d1cc_u1a-b -> u1b
I0421 20:12:22.852638  6613 net.cpp:150] Setting up concat_d1cc_u1a-b
I0421 20:12:22.852644  6613 net.cpp:157] Top shape: 5 256 128 128 (20971520)
I0421 20:12:22.852648  6613 net.cpp:165] Memory required for data: 3377355840
I0421 20:12:22.852650  6613 layer_factory.hpp:77] Creating layer conv_u1b-c
I0421 20:12:22.852659  6613 net.cpp:100] Creating Layer conv_u1b-c
I0421 20:12:22.852663  6613 net.cpp:434] conv_u1b-c <- u1b
I0421 20:12:22.852669  6613 net.cpp:408] conv_u1b-c -> u1c
I0421 20:12:22.854638  6613 net.cpp:150] Setting up conv_u1b-c
I0421 20:12:22.854647  6613 net.cpp:157] Top shape: 5 128 126 126 (10160640)
I0421 20:12:22.854662  6613 net.cpp:165] Memory required for data: 3417998400
I0421 20:12:22.854668  6613 layer_factory.hpp:77] Creating layer relu_u1c
I0421 20:12:22.854673  6613 net.cpp:100] Creating Layer relu_u1c
I0421 20:12:22.854676  6613 net.cpp:434] relu_u1c <- u1c
I0421 20:12:22.854681  6613 net.cpp:395] relu_u1c -> u1c (in-place)
I0421 20:12:22.854863  6613 net.cpp:150] Setting up relu_u1c
I0421 20:12:22.854872  6613 net.cpp:157] Top shape: 5 128 126 126 (10160640)
I0421 20:12:22.854876  6613 net.cpp:165] Memory required for data: 3458640960
I0421 20:12:22.854877  6613 layer_factory.hpp:77] Creating layer conv_u1c-d
I0421 20:12:22.854887  6613 net.cpp:100] Creating Layer conv_u1c-d
I0421 20:12:22.854892  6613 net.cpp:434] conv_u1c-d <- u1c
I0421 20:12:22.854898  6613 net.cpp:408] conv_u1c-d -> u1d
I0421 20:12:22.856897  6613 net.cpp:150] Setting up conv_u1c-d
I0421 20:12:22.856909  6613 net.cpp:157] Top shape: 5 128 124 124 (9840640)
I0421 20:12:22.856912  6613 net.cpp:165] Memory required for data: 3498003520
I0421 20:12:22.856932  6613 layer_factory.hpp:77] Creating layer relu_u1d
I0421 20:12:22.856940  6613 net.cpp:100] Creating Layer relu_u1d
I0421 20:12:22.856942  6613 net.cpp:434] relu_u1d <- u1d
I0421 20:12:22.856947  6613 net.cpp:395] relu_u1d -> u1d (in-place)
I0421 20:12:22.857149  6613 net.cpp:150] Setting up relu_u1d
I0421 20:12:22.857159  6613 net.cpp:157] Top shape: 5 128 124 124 (9840640)
I0421 20:12:22.857162  6613 net.cpp:165] Memory required for data: 3537366080
I0421 20:12:22.857165  6613 layer_factory.hpp:77] Creating layer upconv_u1d_u0a
I0421 20:12:22.857172  6613 net.cpp:100] Creating Layer upconv_u1d_u0a
I0421 20:12:22.857177  6613 net.cpp:434] upconv_u1d_u0a <- u1d
I0421 20:12:22.857183  6613 net.cpp:408] upconv_u1d_u0a -> u0a
I0421 20:12:22.857900  6613 net.cpp:150] Setting up upconv_u1d_u0a
I0421 20:12:22.857909  6613 net.cpp:157] Top shape: 5 128 248 248 (39362560)
I0421 20:12:22.857911  6613 net.cpp:165] Memory required for data: 3694816320
I0421 20:12:22.857931  6613 layer_factory.hpp:77] Creating layer relu_u0a
I0421 20:12:22.857938  6613 net.cpp:100] Creating Layer relu_u0a
I0421 20:12:22.857939  6613 net.cpp:434] relu_u0a <- u0a
I0421 20:12:22.857944  6613 net.cpp:395] relu_u0a -> u0a (in-place)
I0421 20:12:22.858356  6613 net.cpp:150] Setting up relu_u0a
I0421 20:12:22.858379  6613 net.cpp:157] Top shape: 5 128 248 248 (39362560)
I0421 20:12:22.858382  6613 net.cpp:165] Memory required for data: 3852266560
I0421 20:12:22.858384  6613 layer_factory.hpp:77] Creating layer u0a_relu_u0a_0_split
I0421 20:12:22.858404  6613 net.cpp:100] Creating Layer u0a_relu_u0a_0_split
I0421 20:12:22.858407  6613 net.cpp:434] u0a_relu_u0a_0_split <- u0a
I0421 20:12:22.858412  6613 net.cpp:408] u0a_relu_u0a_0_split -> u0a_relu_u0a_0_split_0
I0421 20:12:22.858418  6613 net.cpp:408] u0a_relu_u0a_0_split -> u0a_relu_u0a_0_split_1
I0421 20:12:22.858464  6613 net.cpp:150] Setting up u0a_relu_u0a_0_split
I0421 20:12:22.858471  6613 net.cpp:157] Top shape: 5 128 248 248 (39362560)
I0421 20:12:22.858474  6613 net.cpp:157] Top shape: 5 128 248 248 (39362560)
I0421 20:12:22.858477  6613 net.cpp:165] Memory required for data: 4167167040
I0421 20:12:22.858479  6613 layer_factory.hpp:77] Creating layer crop_d0c-d0cc
I0421 20:12:22.858487  6613 net.cpp:100] Creating Layer crop_d0c-d0cc
I0421 20:12:22.858490  6613 net.cpp:434] crop_d0c-d0cc <- d0c_relu_d0c_0_split_1
I0421 20:12:22.858495  6613 net.cpp:434] crop_d0c-d0cc <- u0a_relu_u0a_0_split_0
I0421 20:12:22.858500  6613 net.cpp:408] crop_d0c-d0cc -> d0cc
I0421 20:12:22.858525  6613 net.cpp:150] Setting up crop_d0c-d0cc
I0421 20:12:22.858530  6613 net.cpp:157] Top shape: 5 64 248 248 (19681280)
I0421 20:12:22.858532  6613 net.cpp:165] Memory required for data: 4245892160
I0421 20:12:22.858551  6613 layer_factory.hpp:77] Creating layer concat_d0cc_u0a-b
I0421 20:12:22.858556  6613 net.cpp:100] Creating Layer concat_d0cc_u0a-b
I0421 20:12:22.858559  6613 net.cpp:434] concat_d0cc_u0a-b <- u0a_relu_u0a_0_split_1
I0421 20:12:22.858562  6613 net.cpp:434] concat_d0cc_u0a-b <- d0cc
I0421 20:12:22.858583  6613 net.cpp:408] concat_d0cc_u0a-b -> u0b
I0421 20:12:22.858613  6613 net.cpp:150] Setting up concat_d0cc_u0a-b
I0421 20:12:22.858621  6613 net.cpp:157] Top shape: 5 192 248 248 (59043840)
I0421 20:12:22.858623  6613 net.cpp:165] Memory required for data: 4482067520
I0421 20:12:22.858626  6613 layer_factory.hpp:77] Creating layer conv_u0b-c
I0421 20:12:22.858635  6613 net.cpp:100] Creating Layer conv_u0b-c
I0421 20:12:22.858639  6613 net.cpp:434] conv_u0b-c <- u0b
I0421 20:12:22.858644  6613 net.cpp:408] conv_u0b-c -> u0c
I0421 20:12:22.859591  6613 net.cpp:150] Setting up conv_u0b-c
I0421 20:12:22.859599  6613 net.cpp:157] Top shape: 5 64 246 246 (19365120)
I0421 20:12:22.859601  6613 net.cpp:165] Memory required for data: 4559528000
I0421 20:12:22.859606  6613 layer_factory.hpp:77] Creating layer relu_u0c
I0421 20:12:22.859621  6613 net.cpp:100] Creating Layer relu_u0c
I0421 20:12:22.859623  6613 net.cpp:434] relu_u0c <- u0c
I0421 20:12:22.859627  6613 net.cpp:395] relu_u0c -> u0c (in-place)
I0421 20:12:22.860594  6613 net.cpp:150] Setting up relu_u0c
I0421 20:12:22.860605  6613 net.cpp:157] Top shape: 5 64 246 246 (19365120)
I0421 20:12:22.860625  6613 net.cpp:165] Memory required for data: 4636988480
I0421 20:12:22.860628  6613 layer_factory.hpp:77] Creating layer conv_u0c-d
I0421 20:12:22.860636  6613 net.cpp:100] Creating Layer conv_u0c-d
I0421 20:12:22.860641  6613 net.cpp:434] conv_u0c-d <- u0c
I0421 20:12:22.860646  6613 net.cpp:408] conv_u0c-d -> u0d
I0421 20:12:22.861182  6613 net.cpp:150] Setting up conv_u0c-d
I0421 20:12:22.861191  6613 net.cpp:157] Top shape: 5 64 244 244 (19051520)
I0421 20:12:22.861192  6613 net.cpp:165] Memory required for data: 4713194560
I0421 20:12:22.861213  6613 layer_factory.hpp:77] Creating layer relu_u0d
I0421 20:12:22.861218  6613 net.cpp:100] Creating Layer relu_u0d
I0421 20:12:22.861235  6613 net.cpp:434] relu_u0d <- u0d
I0421 20:12:22.861239  6613 net.cpp:395] relu_u0d -> u0d (in-place)
I0421 20:12:22.861412  6613 net.cpp:150] Setting up relu_u0d
I0421 20:12:22.861419  6613 net.cpp:157] Top shape: 5 64 244 244 (19051520)
I0421 20:12:22.861421  6613 net.cpp:165] Memory required for data: 4789400640
I0421 20:12:22.861424  6613 layer_factory.hpp:77] Creating layer conv_u0d-score
I0421 20:12:22.861433  6613 net.cpp:100] Creating Layer conv_u0d-score
I0421 20:12:22.861443  6613 net.cpp:434] conv_u0d-score <- u0d
I0421 20:12:22.861466  6613 net.cpp:408] conv_u0d-score -> score
I0421 20:12:22.861781  6613 net.cpp:150] Setting up conv_u0d-score
I0421 20:12:22.861804  6613 net.cpp:157] Top shape: 5 3 244 244 (893040)
I0421 20:12:22.861806  6613 net.cpp:165] Memory required for data: 4792972800
I0421 20:12:22.861825  6613 layer_factory.hpp:77] Creating layer score_conv_u0d-score_0_split
I0421 20:12:22.861830  6613 net.cpp:100] Creating Layer score_conv_u0d-score_0_split
I0421 20:12:22.861834  6613 net.cpp:434] score_conv_u0d-score_0_split <- score
I0421 20:12:22.861838  6613 net.cpp:408] score_conv_u0d-score_0_split -> score_conv_u0d-score_0_split_0
I0421 20:12:22.861845  6613 net.cpp:408] score_conv_u0d-score_0_split -> score_conv_u0d-score_0_split_1
I0421 20:12:22.861886  6613 net.cpp:150] Setting up score_conv_u0d-score_0_split
I0421 20:12:22.861892  6613 net.cpp:157] Top shape: 5 3 244 244 (893040)
I0421 20:12:22.861896  6613 net.cpp:157] Top shape: 5 3 244 244 (893040)
I0421 20:12:22.861897  6613 net.cpp:165] Memory required for data: 4800117120
I0421 20:12:22.861901  6613 layer_factory.hpp:77] Creating layer loss
I0421 20:12:22.861906  6613 net.cpp:100] Creating Layer loss
I0421 20:12:22.861908  6613 net.cpp:434] loss <- score_conv_u0d-score_0_split_0
I0421 20:12:22.861912  6613 net.cpp:434] loss <- label
I0421 20:12:22.861917  6613 net.cpp:434] loss <- weights
I0421 20:12:22.861923  6613 net.cpp:408] loss -> loss
I0421 20:12:22.861929  6613 layer_factory.hpp:77] Creating layer loss
I0421 20:12:22.864424  6613 net.cpp:150] Setting up loss
I0421 20:12:22.864435  6613 net.cpp:157] Top shape: (1)
I0421 20:12:22.864437  6613 net.cpp:160]     with loss weight 1
I0421 20:12:22.864478  6613 net.cpp:165] Memory required for data: 4800117124
I0421 20:12:22.864482  6613 layer_factory.hpp:77] Creating layer visualize
I0421 20:12:22.864490  6613 net.cpp:100] Creating Layer visualize
I0421 20:12:22.864495  6613 net.cpp:434] visualize <- score_conv_u0d-score_0_split_1
I0421 20:12:22.864500  6613 net.cpp:408] visualize -> visualize_out
I0421 20:12:22.865286  6613 net.cpp:150] Setting up visualize
I0421 20:12:22.865298  6613 net.cpp:157] Top shape: 5 3 244 244 (893040)
I0421 20:12:22.865316  6613 net.cpp:165] Memory required for data: 4803689284
I0421 20:12:22.865319  6613 layer_factory.hpp:77] Creating layer fake
I0421 20:12:22.865325  6613 net.cpp:100] Creating Layer fake
I0421 20:12:22.865327  6613 net.cpp:434] fake <- visualize_out
I0421 20:12:22.865332  6613 net.cpp:150] Setting up fake
I0421 20:12:22.865334  6613 net.cpp:165] Memory required for data: 4803689284
…
I0421 20:12:22.866353  6613 net.cpp:322] The NetState phase (1) differed from the phase (0) specified by a rule in layer visualize
I0421 20:12:22.866358  6613 net.cpp:322] The NetState phase (1) differed from the phase (0) specified by a rule in layer fake
I0421 20:12:22.866612  6613 net.cpp:58] Initializing net from parameters: 
name: "unet_weighted_3"
force_backward: true
state {
  phase: TEST
}
layer {
  name: "loaddata"
  type: "HDF5Data"
  top: "data"
  top: "label"
  top: "weights"
  include {
    phase: TEST
  }
  hdf5_data_param {
    source: "caffeHDF5_validation_3.txt"
    batch_size: 1
  }
}
layer {
  name: "conv_d0a-b"
  type: "Convolution"
  bottom: "data"
  top: "d0b"
  param {
    lr_mult: 1
    decay_mult: 1
  }
  param {
    lr_mult: 2
    decay_mult: 0
  }
  convolution_param {
    num_output: 64
    pad: 0
    kernel_size: 3
    weight_filler {
      type: "xavier"
    }
    engine: CAFFE
  }
}
layer {
  name: "relu_d0b"
  type: "ReLU"
  bottom: "d0b"
  top: "d0b"
}
layer {
  name: "conv_d0b-c"
  type: "Convolution"
  bottom: "d0b"
  top: "d0c"
  param {
    lr_mult: 1
    decay_mult: 1
  }
  param {
    lr_mult: 2
    decay_mult: 0
  }
  convolution_param {
    num_output: 64
    pad: 0
    kernel_size: 3
    weight_filler {
      type: "xavier"
    }
    engine: CAFFE
  }
}
layer {
  name: "relu_d0c"
  type: "ReLU"
  bottom: "d0c"
  top: "d0c"
}
layer {
  name: "pool_d0c-1a"
  type: "Pooling"
  bottom: "d0c"
  top: "d1a"
  pooling_param {
    pool: MAX
    kernel_size: 2
    stride: 2
  }
}
layer {
  name: "conv_d1a-b"
  type: "Convolution"
  bottom: "d1a"
  top: "d1b"
  param {
    lr_mult: 1
    decay_mult: 1
  }
  param {
    lr_mult: 2
    decay_mult: 0
  }
  convolution_param {
    num_output: 128
    pad: 0
    kernel_size: 3
    weight_filler {
      type: "xavier"
    }
    engine: CAFFE
  }
}
layer {
  name: "relu_d1b"
  type: "ReLU"
  bottom: "d1b"
  top: "d1b"
}
layer {
  name: "conv_d1b-c"
  type: "Convolution"
  bottom: "d1b"
  top: "d1c"
  param {
    lr_mult: 1
    decay_mult: 1
  }
  param {
    lr_mult: 2
    decay_mult: 0
  }
  convolution_param {
    num_output: 128
    pad: 0
    kernel_size: 3
    weight_filler {
      type: "xavier"
    }
    engine: CAFFE
  }
}
layer {
  name: "relu_d1c"
  type: "ReLU"
  bottom: "d1c"
  top: "d1c"
}
layer {
  name: "pool_d1c-2a"
  type: "Pooling"
  bottom: "d1c"
  top: "d2a"
  pooling_param {
    pool: MAX
    kernel_size: 2
    stride: 2
  }
}
layer {
  name: "conv_d2a-b"
  type: "Convolution"
  bottom: "d2a"
  top: "d2b"
  param {
    lr_mult: 1
    decay_mult: 1
  }
  param {
    lr_mult: 2
    decay_mult: 0
  }
  convolution_param {
    num_output: 256
    pad: 0
    kernel_size: 3
    weight_filler {
      type: "xavier"
    }
    engine: CAFFE
  }
}
layer {
  name: "relu_d2b"
  type: "ReLU"
  bottom: "d2b"
  top: "d2b"
}
layer {
  name: "conv_d2b-c"
  type: "Convolution"
  bottom: "d2b"
  top: "d2c"
  param {
    lr_mult: 1
    decay_mult: 1
  }
  param {
    lr_mult: 2
    decay_mult: 0
  }
  convolution_param {
    num_output: 256
    pad: 0
    kernel_size: 3
    weight_filler {
      type: "xavier"
    }
    engine: CAFFE
  }
}
layer {
  name: "relu_d2c"
  type: "ReLU"
  bottom: "d2c"
  top: "d2c"
}
layer {
  name: "pool_d2c-3a"
  type: "Pooling"
  bottom: "d2c"
  top: "d3a"
  pooling_param {
    pool: MAX
    kernel_size: 2
    stride: 2
  }
}
layer {
  name: "conv_d3a-b"
  type: "Convolution"
  bottom: "d3a"
  top: "d3b"
  param {
    lr_mult: 1
    decay_mult: 1
  }
  param {
    lr_mult: 2
    decay_mult: 0
  }
  convolution_param {
    num_output: 512
    pad: 0
    kernel_size: 3
    weight_filler {
      type: "xavier"
    }
    engine: CAFFE
  }
}
layer {
  name: "relu_d3b"
  type: "ReLU"
  bottom: "d3b"
  top: "d3b"
}
layer {
  name: "conv_d3b-c"
  type: "Convolution"
  bottom: "d3b"
  top: "d3c"
  param {
    lr_mult: 1
    decay_mult: 1
  }
  param {
    lr_mult: 2
    decay_mult: 0
  }
  convolution_param {
    num_output: 512
    pad: 0
    kernel_size: 3
    weight_filler {
      type: "xavier"
    }
    engine: CAFFE
  }
}
layer {
  name: "relu_d3c"
  type: "ReLU"
  bottom: "d3c"
  top: "d3c"
}
layer {
  name: "pool_d3c-4a"
  type: "Pooling"
  bottom: "d3c"
  top: "d4a"
  pooling_param {
    pool: MAX
    kernel_size: 2
    stride: 2
  }
}
layer {
  name: "conv_d4a-b"
  type: "Convolution"
  bottom: "d4a"
  top: "d4b"
  param {
    lr_mult: 1
    decay_mult: 1
  }
  param {
    lr_mult: 2
    decay_mult: 0
  }
  convolution_param {
    num_output: 1024
    pad: 0
    kernel_size: 3
    weight_filler {
      type: "xavier"
    }
    engine: CAFFE
  }
}
layer {
  name: "relu_d4b"
  type: "ReLU"
  bottom: "d4b"
  top: "d4b"
}
layer {
  name: "conv_d4b-c"
  type: "Convolution"
  bottom: "d4b"
  top: "d4c"
  param {
    lr_mult: 1
    decay_mult: 1
  }
  param {
    lr_mult: 2
    decay_mult: 0
  }
  convolution_param {
    num_output: 1024
    pad: 0
    kernel_size: 3
    weight_filler {
      type: "xavier"
    }
    engine: CAFFE
  }
}
layer {
  name: "relu_d4c"
  type: "ReLU"
  bottom: "d4c"
  top: "d4c"
}
layer {
  name: "upconv_d4c_u3a"
  type: "Deconvolution"
  bottom: "d4c"
  top: "u3a"
  param {
    lr_mult: 1
    decay_mult: 1
  }
  param {
    lr_mult: 2
    decay_mult: 0
  }
  convolution_param {
    num_output: 512
    pad: 0
    kernel_size: 2
    stride: 2
    weight_filler {
      type: "xavier"
    }
  }
}
layer {
  name: "relu_u3a"
  type: "ReLU"
  bottom: "u3a"
  top: "u3a"
}
layer {
  name: "crop_d3c-d3cc"
  type: "Crop"
  bottom: "d3c"
  bottom: "u3a"
  top: "d3cc"
  crop_param {
    axis: 2
    offset: 4
  }
}
layer {
  name: "concat_d3cc_u3a-b"
  type: "Concat"
  bottom: "u3a"
  bottom: "d3cc"
  top: "u3b"
}
layer {
  name: "conv_u3b-c"
  type: "Convolution"
  bottom: "u3b"
  top: "u3c"
  param {
    lr_mult: 1
    decay_mult: 1
  }
  param {
    lr_mult: 2
    decay_mult: 0
  }
  convolution_param {
    num_output: 512
    pad: 0
    kernel_size: 3
    weight_filler {
      type: "xavier"
    }
    engine: CAFFE
  }
}
layer {
  name: "relu_u3c"
  type: "ReLU"
  bottom: "u3c"
  top: "u3c"
}
layer {
  name: "conv_u3c-d"
  type: "Convolution"
  bottom: "u3c"
  top: "u3d"
  param {
    lr_mult: 1
    decay_mult: 1
  }
  param {
    lr_mult: 2
    decay_mult: 0
  }
  convolution_param {
    num_output: 512
    pad: 0
    kernel_size: 3
    weight_filler {
      type: "xavier"
    }
    engine: CAFFE
  }
}
layer {
  name: "relu_u3d"
  type: "ReLU"
  bottom: "u3d"
  top: "u3d"
}
layer {
  name: "upconv_u3d_u2a"
  type: "Deconvolution"
  bottom: "u3d"
  top: "u2a"
  param {
    lr_mult: 1
    decay_mult: 1
  }
  param {
    lr_mult: 2
    decay_mult: 0
  }
  convolution_param {
    num_output: 256
    pad: 0
    kernel_size: 2
    stride: 2
    weight_filler {
      type: "xavier"
    }
  }
}
layer {
  name: "relu_u2a"
  type: "ReLU"
  bottom: "u2a"
  top: "u2a"
}
layer {
  name: "crop_d2c-d2cc"
  type: "Crop"
  bottom: "d2c"
  bottom: "u2a"
  top: "d2cc"
  crop_param {
    axis: 2
    offset: 16
  }
}
layer {
  name: "concat_d2cc_u2a-b"
  type: "Concat"
  bottom: "u2a"
  bottom: "d2cc"
  top: "u2b"
}
layer {
  name: "conv_u2b-c"
  type: "Convolution"
  bottom: "u2b"
  top: "u2c"
  param {
    lr_mult: 1
    decay_mult: 1
  }
  param {
    lr_mult: 2
    decay_mult: 0
  }
  convolution_param {
    num_output: 256
    pad: 0
    kernel_size: 3
    weight_filler {
      type: "xavier"
    }
    engine: CAFFE
  }
}
layer {
  name: "relu_u2c"
  type: "ReLU"
  bottom: "u2c"
  top: "u2c"
}
layer {
  name: "conv_u2c-d"
  type: "Convolution"
  bottom: "u2c"
  top: "u2d"
  param {
    lr_mult: 1
    decay_mult: 1
  }
  param {
    lr_mult: 2
    decay_mult: 0
  }
  convolution_param {
    num_output: 256
    pad: 0
    kernel_size: 3
    weight_filler {
      type: "xavier"
    }
    engine: CAFFE
  }
}
layer {
  name: "relu_u2d"
  type: "ReLU"
  bottom: "u2d"
  top: "u2d"
}
layer {
  name: "upconv_u2d_u1a"
  type: "Deconvolution"
  bottom: "u2d"
  top: "u1a"
  param {
    lr_mult: 1
    decay_mult: 1
  }
  param {
    lr_mult: 2
    decay_mult: 0
  }
  convolution_param {
    num_output: 128
    pad: 0
    kernel_size: 2
    stride: 2
    weight_filler {
      type: "xavier"
    }
  }
}
layer {
  name: "relu_u1a"
  type: "ReLU"
  bottom: "u1a"
  top: "u1a"
}
layer {
  name: "crop_d1c-d1cc"
  type: "Crop"
  bottom: "d1c"
  bottom: "u1a"
  top: "d1cc"
  crop_param {
    axis: 2
    offset: 40
  }
}
layer {
  name: "concat_d1cc_u1a-b"
  type: "Concat"
  bottom: "u1a"
  bottom: "d1cc"
  top: "u1b"
}
layer {
  name: "conv_u1b-c"
  type: "Convolution"
  bottom: "u1b"
  top: "u1c"
  param {
    lr_mult: 1
    decay_mult: 1
  }
  param {
    lr_mult: 2
    decay_mult: 0
  }
  convolution_param {
    num_output: 128
    pad: 0
    kernel_size: 3
    weight_filler {
      type: "xavier"
    }
    engine: CAFFE
  }
}
layer {
  name: "relu_u1c"
  type: "ReLU"
  bottom: "u1c"
  top: "u1c"
}
layer {
  name: "conv_u1c-d"
  type: "Convolution"
  bottom: "u1c"
  top: "u1d"
  param {
    lr_mult: 1
    decay_mult: 1
  }
  param {
    lr_mult: 2
    decay_mult: 0
  }
  convolution_param {
    num_output: 128
    pad: 0
    kernel_size: 3
    weight_filler {
      type: "xavier"
    }
    engine: CAFFE
  }
}
layer {
  name: "relu_u1d"
  type: "ReLU"
  bottom: "u1d"
  top: "u1d"
}
layer {
  name: "upconv_u1d_u0a"
  type: "Deconvolution"
  bottom: "u1d"
  top: "u0a"
  param {
    lr_mult: 1
    decay_mult: 1
  }
  param {
    lr_mult: 2
    decay_mult: 0
  }
  convolution_param {
    num_output: 128
    pad: 0
    kernel_size: 2
    stride: 2
    weight_filler {
      type: "xavier"
    }
  }
}
layer {
  name: "relu_u0a"
  type: "ReLU"
  bottom: "u0a"
  top: "u0a"
}
layer {
  name: "crop_d0c-d0cc"
  type: "Crop"
  bottom: "d0c"
  bottom: "u0a"
  top: "d0cc"
  crop_param {
    axis: 2
    offset: 88
  }
}
layer {
  name: "concat_d0cc_u0a-b"
  type: "Concat"
  bottom: "u0a"
  bottom: "d0cc"
  top: "u0b"
}
layer {
  name: "conv_u0b-c"
  type: "Convolution"
  bottom: "u0b"
  top: "u0c"
  param {
    lr_mult: 1
    decay_mult: 1
  }
  param {
    lr_mult: 2
    decay_mult: 0
  }
  convolution_param {
    num_output: 64
    pad: 0
    kernel_size: 3
    weight_filler {
      type: "xavier"
    }
    engine: CAFFE
  }
}
layer {
  name: "relu_u0c"
  type: "ReLU"
  bottom: "u0c"
  top: "u0c"
}
layer {
  name: "conv_u0c-d"
  type: "Convolution"
  bottom: "u0c"
  top: "u0d"
  param {
    lr_mult: 1
    decay_mult: 1
  }
  param {
    lr_mult: 2
    decay_mult: 0
  }
  convolution_param {
    num_output: 64
    pad: 0
    kernel_size: 3
    weight_filler {
      type: "xavier"
    }
    engine: CAFFE
  }
}
layer {
  name: "relu_u0d"
  type: "ReLU"
  bottom: "u0d"
  top: "u0d"
}
layer {
  name: "conv_u0d-score"
  type: "Convolution"
  bottom: "u0d"
  top: "score"
  param {
    lr_mult: 1
    decay_mult: 1
  }
  param {
    lr_mult: 2
    decay_mult: 0
  }
  convolution_param {
    num_output: 3
    pad: 0
    kernel_size: 1
    weight_filler {
      type: "xavier"
    }
    engine: CAFFE
  }
}
layer {
  name: "loss"
  type: "SoftmaxWithLoss"
  bottom: "score"
  bottom: "label"
  bottom: "weights"
  top: "loss"
  loss_weight: 1
}
I0421 20:12:22.866847  6613 layer_factory.hpp:77] Creating layer loaddata
I0421 20:12:22.866858  6613 net.cpp:100] Creating Layer loaddata
I0421 20:12:22.866861  6613 net.cpp:408] loaddata -> data
I0421 20:12:22.866869  6613 net.cpp:408] loaddata -> label
I0421 20:12:22.866874  6613 net.cpp:408] loaddata -> weights
I0421 20:12:22.866880  6613 hdf5_data_layer.cpp:79] Loading list of HDF5 filenames from: caffeHDF5_validation_3.txt
I0421 20:12:22.866906  6613 hdf5_data_layer.cpp:93] Number of HDF5 files: 10
I0421 20:12:23.149178  6613 net.cpp:150] Setting up loaddata
I0421 20:12:23.149219  6613 net.cpp:157] Top shape: 1 3 428 428 (549552)
I0421 20:12:23.149224  6613 net.cpp:157] Top shape: 1 244 244 (59536)
I0421 20:12:23.149226  6613 net.cpp:157] Top shape: 1 244 244 (59536)
I0421 20:12:23.149229  6613 net.cpp:165] Memory required for data: 2674496
I0421 20:12:23.149235  6613 layer_factory.hpp:77] Creating layer conv_d0a-b
I0421 20:12:23.149250  6613 net.cpp:100] Creating Layer conv_d0a-b
I0421 20:12:23.149253  6613 net.cpp:434] conv_d0a-b <- data
I0421 20:12:23.149260  6613 net.cpp:408] conv_d0a-b -> d0b
I0421 20:12:23.149751  6613 net.cpp:150] Setting up conv_d0a-b
I0421 20:12:23.149761  6613 net.cpp:157] Top shape: 1 64 426 426 (11614464)
I0421 20:12:23.149777  6613 net.cpp:165] Memory required for data: 49132352
I0421 20:12:23.149785  6613 layer_factory.hpp:77] Creating layer relu_d0b
I0421 20:12:23.149806  6613 net.cpp:100] Creating Layer relu_d0b
I0421 20:12:23.149809  6613 net.cpp:434] relu_d0b <- d0b
I0421 20:12:23.149813  6613 net.cpp:395] relu_d0b -> d0b (in-place)
I0421 20:12:23.150044  6613 net.cpp:150] Setting up relu_d0b
I0421 20:12:23.150053  6613 net.cpp:157] Top shape: 1 64 426 426 (11614464)
I0421 20:12:23.150079  6613 net.cpp:165] Memory required for data: 95590208
I0421 20:12:23.150081  6613 layer_factory.hpp:77] Creating layer conv_d0b-c
I0421 20:12:23.150105  6613 net.cpp:100] Creating Layer conv_d0b-c
I0421 20:12:23.150107  6613 net.cpp:434] conv_d0b-c <- d0b
I0421 20:12:23.150115  6613 net.cpp:408] conv_d0b-c -> d0c
I0421 20:12:23.151613  6613 net.cpp:150] Setting up conv_d0b-c
I0421 20:12:23.151626  6613 net.cpp:157] Top shape: 1 64 424 424 (11505664)
I0421 20:12:23.151628  6613 net.cpp:165] Memory required for data: 141612864
I0421 20:12:23.151654  6613 layer_factory.hpp:77] Creating layer relu_d0c
I0421 20:12:23.151659  6613 net.cpp:100] Creating Layer relu_d0c
I0421 20:12:23.151664  6613 net.cpp:434] relu_d0c <- d0c
I0421 20:12:23.151669  6613 net.cpp:395] relu_d0c -> d0c (in-place)
I0421 20:12:23.151849  6613 net.cpp:150] Setting up relu_d0c
I0421 20:12:23.151857  6613 net.cpp:157] Top shape: 1 64 424 424 (11505664)
I0421 20:12:23.151860  6613 net.cpp:165] Memory required for data: 187635520
I0421 20:12:23.151862  6613 layer_factory.hpp:77] Creating layer d0c_relu_d0c_0_split
I0421 20:12:23.151868  6613 net.cpp:100] Creating Layer d0c_relu_d0c_0_split
I0421 20:12:23.151870  6613 net.cpp:434] d0c_relu_d0c_0_split <- d0c
I0421 20:12:23.151875  6613 net.cpp:408] d0c_relu_d0c_0_split -> d0c_relu_d0c_0_split_0
I0421 20:12:23.151880  6613 net.cpp:408] d0c_relu_d0c_0_split -> d0c_relu_d0c_0_split_1
I0421 20:12:23.151922  6613 net.cpp:150] Setting up d0c_relu_d0c_0_split
I0421 20:12:23.151928  6613 net.cpp:157] Top shape: 1 64 424 424 (11505664)
I0421 20:12:23.151932  6613 net.cpp:157] Top shape: 1 64 424 424 (11505664)
I0421 20:12:23.151933  6613 net.cpp:165] Memory required for data: 279680832
I0421 20:12:23.151937  6613 layer_factory.hpp:77] Creating layer pool_d0c-1a
I0421 20:12:23.151942  6613 net.cpp:100] Creating Layer pool_d0c-1a
I0421 20:12:23.151944  6613 net.cpp:434] pool_d0c-1a <- d0c_relu_d0c_0_split_0
I0421 20:12:23.151948  6613 net.cpp:408] pool_d0c-1a -> d1a
I0421 20:12:23.151983  6613 net.cpp:150] Setting up pool_d0c-1a
I0421 20:12:23.151988  6613 net.cpp:157] Top shape: 1 64 212 212 (2876416)
I0421 20:12:23.151991  6613 net.cpp:165] Memory required for data: 291186496
I0421 20:12:23.151993  6613 layer_factory.hpp:77] Creating layer conv_d1a-b
I0421 20:12:23.152000  6613 net.cpp:100] Creating Layer conv_d1a-b
I0421 20:12:23.152004  6613 net.cpp:434] conv_d1a-b <- d1a
I0421 20:12:23.152009  6613 net.cpp:408] conv_d1a-b -> d1b
I0421 20:12:23.153496  6613 net.cpp:150] Setting up conv_d1a-b
I0421 20:12:23.153508  6613 net.cpp:157] Top shape: 1 128 210 210 (5644800)
I0421 20:12:23.153528  6613 net.cpp:165] Memory required for data: 313765696
I0421 20:12:23.153537  6613 layer_factory.hpp:77] Creating layer relu_d1b
I0421 20:12:23.153543  6613 net.cpp:100] Creating Layer relu_d1b
I0421 20:12:23.153547  6613 net.cpp:434] relu_d1b <- d1b
I0421 20:12:23.153551  6613 net.cpp:395] relu_d1b -> d1b (in-place)
I0421 20:12:23.153743  6613 net.cpp:150] Setting up relu_d1b
I0421 20:12:23.153753  6613 net.cpp:157] Top shape: 1 128 210 210 (5644800)
I0421 20:12:23.153770  6613 net.cpp:165] Memory required for data: 336344896
I0421 20:12:23.153774  6613 layer_factory.hpp:77] Creating layer conv_d1b-c
I0421 20:12:23.153796  6613 net.cpp:100] Creating Layer conv_d1b-c
I0421 20:12:23.153798  6613 net.cpp:434] conv_d1b-c <- d1b
I0421 20:12:23.153805  6613 net.cpp:408] conv_d1b-c -> d1c
I0421 20:12:23.154829  6613 net.cpp:150] Setting up conv_d1b-c
I0421 20:12:23.154836  6613 net.cpp:157] Top shape: 1 128 208 208 (5537792)
I0421 20:12:23.154839  6613 net.cpp:165] Memory required for data: 358496064
I0421 20:12:23.154860  6613 layer_factory.hpp:77] Creating layer relu_d1c
I0421 20:12:23.154865  6613 net.cpp:100] Creating Layer relu_d1c
I0421 20:12:23.154866  6613 net.cpp:434] relu_d1c <- d1c
I0421 20:12:23.154870  6613 net.cpp:395] relu_d1c -> d1c (in-place)
I0421 20:12:23.155614  6613 net.cpp:150] Setting up relu_d1c
I0421 20:12:23.155627  6613 net.cpp:157] Top shape: 1 128 208 208 (5537792)
I0421 20:12:23.155628  6613 net.cpp:165] Memory required for data: 380647232
I0421 20:12:23.155663  6613 layer_factory.hpp:77] Creating layer d1c_relu_d1c_0_split
I0421 20:12:23.155684  6613 net.cpp:100] Creating Layer d1c_relu_d1c_0_split
I0421 20:12:23.155688  6613 net.cpp:434] d1c_relu_d1c_0_split <- d1c
I0421 20:12:23.155694  6613 net.cpp:408] d1c_relu_d1c_0_split -> d1c_relu_d1c_0_split_0
I0421 20:12:23.155699  6613 net.cpp:408] d1c_relu_d1c_0_split -> d1c_relu_d1c_0_split_1
I0421 20:12:23.155745  6613 net.cpp:150] Setting up d1c_relu_d1c_0_split
I0421 20:12:23.155752  6613 net.cpp:157] Top shape: 1 128 208 208 (5537792)
I0421 20:12:23.155755  6613 net.cpp:157] Top shape: 1 128 208 208 (5537792)
I0421 20:12:23.155757  6613 net.cpp:165] Memory required for data: 424949568
I0421 20:12:23.155761  6613 layer_factory.hpp:77] Creating layer pool_d1c-2a
I0421 20:12:23.155766  6613 net.cpp:100] Creating Layer pool_d1c-2a
I0421 20:12:23.155767  6613 net.cpp:434] pool_d1c-2a <- d1c_relu_d1c_0_split_0
I0421 20:12:23.155772  6613 net.cpp:408] pool_d1c-2a -> d2a
I0421 20:12:23.155807  6613 net.cpp:150] Setting up pool_d1c-2a
I0421 20:12:23.155813  6613 net.cpp:157] Top shape: 1 128 104 104 (1384448)
I0421 20:12:23.155817  6613 net.cpp:165] Memory required for data: 430487360
I0421 20:12:23.155818  6613 layer_factory.hpp:77] Creating layer conv_d2a-b
I0421 20:12:23.155825  6613 net.cpp:100] Creating Layer conv_d2a-b
I0421 20:12:23.155828  6613 net.cpp:434] conv_d2a-b <- d2a
I0421 20:12:23.155833  6613 net.cpp:408] conv_d2a-b -> d2b
I0421 20:12:23.158521  6613 net.cpp:150] Setting up conv_d2a-b
I0421 20:12:23.158535  6613 net.cpp:157] Top shape: 1 256 102 102 (2663424)
I0421 20:12:23.158536  6613 net.cpp:165] Memory required for data: 441141056
I0421 20:12:23.158561  6613 layer_factory.hpp:77] Creating layer relu_d2b
I0421 20:12:23.158566  6613 net.cpp:100] Creating Layer relu_d2b
I0421 20:12:23.158570  6613 net.cpp:434] relu_d2b <- d2b
I0421 20:12:23.158574  6613 net.cpp:395] relu_d2b -> d2b (in-place)
I0421 20:12:23.158751  6613 net.cpp:150] Setting up relu_d2b
I0421 20:12:23.158761  6613 net.cpp:157] Top shape: 1 256 102 102 (2663424)
I0421 20:12:23.158764  6613 net.cpp:165] Memory required for data: 451794752
I0421 20:12:23.158767  6613 layer_factory.hpp:77] Creating layer conv_d2b-c
I0421 20:12:23.158774  6613 net.cpp:100] Creating Layer conv_d2b-c
I0421 20:12:23.158776  6613 net.cpp:434] conv_d2b-c <- d2b
I0421 20:12:23.158782  6613 net.cpp:408] conv_d2b-c -> d2c
I0421 20:12:23.163045  6613 net.cpp:150] Setting up conv_d2b-c
I0421 20:12:23.163058  6613 net.cpp:157] Top shape: 1 256 100 100 (2560000)
I0421 20:12:23.163061  6613 net.cpp:165] Memory required for data: 462034752
I0421 20:12:23.163084  6613 layer_factory.hpp:77] Creating layer relu_d2c
I0421 20:12:23.163090  6613 net.cpp:100] Creating Layer relu_d2c
I0421 20:12:23.163094  6613 net.cpp:434] relu_d2c <- d2c
I0421 20:12:23.163097  6613 net.cpp:395] relu_d2c -> d2c (in-place)
I0421 20:12:23.163278  6613 net.cpp:150] Setting up relu_d2c
I0421 20:12:23.163288  6613 net.cpp:157] Top shape: 1 256 100 100 (2560000)
I0421 20:12:23.163290  6613 net.cpp:165] Memory required for data: 472274752
I0421 20:12:23.163293  6613 layer_factory.hpp:77] Creating layer d2c_relu_d2c_0_split
I0421 20:12:23.163298  6613 net.cpp:100] Creating Layer d2c_relu_d2c_0_split
I0421 20:12:23.163301  6613 net.cpp:434] d2c_relu_d2c_0_split <- d2c
I0421 20:12:23.163306  6613 net.cpp:408] d2c_relu_d2c_0_split -> d2c_relu_d2c_0_split_0
I0421 20:12:23.163312  6613 net.cpp:408] d2c_relu_d2c_0_split -> d2c_relu_d2c_0_split_1
I0421 20:12:23.163357  6613 net.cpp:150] Setting up d2c_relu_d2c_0_split
I0421 20:12:23.163363  6613 net.cpp:157] Top shape: 1 256 100 100 (2560000)
I0421 20:12:23.163367  6613 net.cpp:157] Top shape: 1 256 100 100 (2560000)
I0421 20:12:23.163368  6613 net.cpp:165] Memory required for data: 492754752
I0421 20:12:23.163372  6613 layer_factory.hpp:77] Creating layer pool_d2c-3a
I0421 20:12:23.163377  6613 net.cpp:100] Creating Layer pool_d2c-3a
I0421 20:12:23.163379  6613 net.cpp:434] pool_d2c-3a <- d2c_relu_d2c_0_split_0
I0421 20:12:23.163398  6613 net.cpp:408] pool_d2c-3a -> d3a
I0421 20:12:23.163435  6613 net.cpp:150] Setting up pool_d2c-3a
I0421 20:12:23.163442  6613 net.cpp:157] Top shape: 1 256 50 50 (640000)
I0421 20:12:23.163445  6613 net.cpp:165] Memory required for data: 495314752
I0421 20:12:23.163447  6613 layer_factory.hpp:77] Creating layer conv_d3a-b
I0421 20:12:23.163455  6613 net.cpp:100] Creating Layer conv_d3a-b
I0421 20:12:23.163457  6613 net.cpp:434] conv_d3a-b <- d3a
I0421 20:12:23.163462  6613 net.cpp:408] conv_d3a-b -> d3b
I0421 20:12:23.171247  6613 net.cpp:150] Setting up conv_d3a-b
I0421 20:12:23.171260  6613 net.cpp:157] Top shape: 1 512 48 48 (1179648)
I0421 20:12:23.171262  6613 net.cpp:165] Memory required for data: 500033344
I0421 20:12:23.171284  6613 layer_factory.hpp:77] Creating layer relu_d3b
I0421 20:12:23.171288  6613 net.cpp:100] Creating Layer relu_d3b
I0421 20:12:23.171293  6613 net.cpp:434] relu_d3b <- d3b
I0421 20:12:23.171296  6613 net.cpp:395] relu_d3b -> d3b (in-place)
I0421 20:12:23.171473  6613 net.cpp:150] Setting up relu_d3b
I0421 20:12:23.171481  6613 net.cpp:157] Top shape: 1 512 48 48 (1179648)
I0421 20:12:23.171483  6613 net.cpp:165] Memory required for data: 504751936
I0421 20:12:23.171486  6613 layer_factory.hpp:77] Creating layer conv_d3b-c
I0421 20:12:23.171494  6613 net.cpp:100] Creating Layer conv_d3b-c
I0421 20:12:23.171496  6613 net.cpp:434] conv_d3b-c <- d3b
I0421 20:12:23.171501  6613 net.cpp:408] conv_d3b-c -> d3c
I0421 20:12:23.186830  6613 net.cpp:150] Setting up conv_d3b-c
I0421 20:12:23.186841  6613 net.cpp:157] Top shape: 1 512 46 46 (1083392)
I0421 20:12:23.186843  6613 net.cpp:165] Memory required for data: 509085504
I0421 20:12:23.186866  6613 layer_factory.hpp:77] Creating layer relu_d3c
I0421 20:12:23.186870  6613 net.cpp:100] Creating Layer relu_d3c
I0421 20:12:23.186873  6613 net.cpp:434] relu_d3c <- d3c
I0421 20:12:23.186877  6613 net.cpp:395] relu_d3c -> d3c (in-place)
I0421 20:12:23.187623  6613 net.cpp:150] Setting up relu_d3c
I0421 20:12:23.187633  6613 net.cpp:157] Top shape: 1 512 46 46 (1083392)
I0421 20:12:23.187636  6613 net.cpp:165] Memory required for data: 513419072
I0421 20:12:23.187654  6613 layer_factory.hpp:77] Creating layer d3c_relu_d3c_0_split
I0421 20:12:23.187660  6613 net.cpp:100] Creating Layer d3c_relu_d3c_0_split
I0421 20:12:23.187664  6613 net.cpp:434] d3c_relu_d3c_0_split <- d3c
I0421 20:12:23.187669  6613 net.cpp:408] d3c_relu_d3c_0_split -> d3c_relu_d3c_0_split_0
I0421 20:12:23.187675  6613 net.cpp:408] d3c_relu_d3c_0_split -> d3c_relu_d3c_0_split_1
I0421 20:12:23.187718  6613 net.cpp:150] Setting up d3c_relu_d3c_0_split
I0421 20:12:23.187723  6613 net.cpp:157] Top shape: 1 512 46 46 (1083392)
I0421 20:12:23.187726  6613 net.cpp:157] Top shape: 1 512 46 46 (1083392)
I0421 20:12:23.187728  6613 net.cpp:165] Memory required for data: 522086208
I0421 20:12:23.187731  6613 layer_factory.hpp:77] Creating layer pool_d3c-4a
I0421 20:12:23.187736  6613 net.cpp:100] Creating Layer pool_d3c-4a
I0421 20:12:23.187738  6613 net.cpp:434] pool_d3c-4a <- d3c_relu_d3c_0_split_0
I0421 20:12:23.187742  6613 net.cpp:408] pool_d3c-4a -> d4a
I0421 20:12:23.187775  6613 net.cpp:150] Setting up pool_d3c-4a
I0421 20:12:23.187779  6613 net.cpp:157] Top shape: 1 512 23 23 (270848)
I0421 20:12:23.187782  6613 net.cpp:165] Memory required for data: 523169600
I0421 20:12:23.187783  6613 layer_factory.hpp:77] Creating layer conv_d4a-b
I0421 20:12:23.187791  6613 net.cpp:100] Creating Layer conv_d4a-b
I0421 20:12:23.187793  6613 net.cpp:434] conv_d4a-b <- d4a
I0421 20:12:23.187798  6613 net.cpp:408] conv_d4a-b -> d4b
I0421 20:12:23.217059  6613 net.cpp:150] Setting up conv_d4a-b
I0421 20:12:23.217070  6613 net.cpp:157] Top shape: 1 1024 21 21 (451584)
I0421 20:12:23.217072  6613 net.cpp:165] Memory required for data: 524975936
I0421 20:12:23.217082  6613 layer_factory.hpp:77] Creating layer relu_d4b
I0421 20:12:23.217087  6613 net.cpp:100] Creating Layer relu_d4b
I0421 20:12:23.217092  6613 net.cpp:434] relu_d4b <- d4b
I0421 20:12:23.217095  6613 net.cpp:395] relu_d4b -> d4b (in-place)
I0421 20:12:23.217280  6613 net.cpp:150] Setting up relu_d4b
I0421 20:12:23.217288  6613 net.cpp:157] Top shape: 1 1024 21 21 (451584)
I0421 20:12:23.217290  6613 net.cpp:165] Memory required for data: 526782272
I0421 20:12:23.217293  6613 layer_factory.hpp:77] Creating layer conv_d4b-c
I0421 20:12:23.217300  6613 net.cpp:100] Creating Layer conv_d4b-c
I0421 20:12:23.217303  6613 net.cpp:434] conv_d4b-c <- d4b
I0421 20:12:23.217308  6613 net.cpp:408] conv_d4b-c -> d4c
I0421 20:12:23.276298  6613 net.cpp:150] Setting up conv_d4b-c
I0421 20:12:23.276317  6613 net.cpp:157] Top shape: 1 1024 19 19 (369664)
I0421 20:12:23.276319  6613 net.cpp:165] Memory required for data: 528260928
I0421 20:12:23.276327  6613 layer_factory.hpp:77] Creating layer relu_d4c
I0421 20:12:23.276335  6613 net.cpp:100] Creating Layer relu_d4c
I0421 20:12:23.276340  6613 net.cpp:434] relu_d4c <- d4c
I0421 20:12:23.276345  6613 net.cpp:395] relu_d4c -> d4c (in-place)
I0421 20:12:23.276583  6613 net.cpp:150] Setting up relu_d4c
I0421 20:12:23.276589  6613 net.cpp:157] Top shape: 1 1024 19 19 (369664)
I0421 20:12:23.276592  6613 net.cpp:165] Memory required for data: 529739584
I0421 20:12:23.276594  6613 layer_factory.hpp:77] Creating layer upconv_d4c_u3a
I0421 20:12:23.276602  6613 net.cpp:100] Creating Layer upconv_d4c_u3a
I0421 20:12:23.276604  6613 net.cpp:434] upconv_d4c_u3a <- d4c
I0421 20:12:23.276610  6613 net.cpp:408] upconv_d4c_u3a -> u3a
I0421 20:12:23.290032  6613 net.cpp:150] Setting up upconv_d4c_u3a
I0421 20:12:23.290043  6613 net.cpp:157] Top shape: 1 512 38 38 (739328)
I0421 20:12:23.290045  6613 net.cpp:165] Memory required for data: 532696896
I0421 20:12:23.290050  6613 layer_factory.hpp:77] Creating layer relu_u3a
I0421 20:12:23.290055  6613 net.cpp:100] Creating Layer relu_u3a
I0421 20:12:23.290058  6613 net.cpp:434] relu_u3a <- u3a
I0421 20:12:23.290062  6613 net.cpp:395] relu_u3a -> u3a (in-place)
I0421 20:12:23.290233  6613 net.cpp:150] Setting up relu_u3a
I0421 20:12:23.290240  6613 net.cpp:157] Top shape: 1 512 38 38 (739328)
I0421 20:12:23.290242  6613 net.cpp:165] Memory required for data: 535654208
I0421 20:12:23.290244  6613 layer_factory.hpp:77] Creating layer u3a_relu_u3a_0_split
I0421 20:12:23.290249  6613 net.cpp:100] Creating Layer u3a_relu_u3a_0_split
I0421 20:12:23.290251  6613 net.cpp:434] u3a_relu_u3a_0_split <- u3a
I0421 20:12:23.290256  6613 net.cpp:408] u3a_relu_u3a_0_split -> u3a_relu_u3a_0_split_0
I0421 20:12:23.290262  6613 net.cpp:408] u3a_relu_u3a_0_split -> u3a_relu_u3a_0_split_1
I0421 20:12:23.290300  6613 net.cpp:150] Setting up u3a_relu_u3a_0_split
I0421 20:12:23.290305  6613 net.cpp:157] Top shape: 1 512 38 38 (739328)
I0421 20:12:23.290310  6613 net.cpp:157] Top shape: 1 512 38 38 (739328)
I0421 20:12:23.290311  6613 net.cpp:165] Memory required for data: 541568832
I0421 20:12:23.290313  6613 layer_factory.hpp:77] Creating layer crop_d3c-d3cc
I0421 20:12:23.290323  6613 net.cpp:100] Creating Layer crop_d3c-d3cc
I0421 20:12:23.290328  6613 net.cpp:434] crop_d3c-d3cc <- d3c_relu_d3c_0_split_1
I0421 20:12:23.290330  6613 net.cpp:434] crop_d3c-d3cc <- u3a_relu_u3a_0_split_0
I0421 20:12:23.290334  6613 net.cpp:408] crop_d3c-d3cc -> d3cc
I0421 20:12:23.290355  6613 net.cpp:150] Setting up crop_d3c-d3cc
I0421 20:12:23.290360  6613 net.cpp:157] Top shape: 1 512 38 38 (739328)
I0421 20:12:23.290362  6613 net.cpp:165] Memory required for data: 544526144
I0421 20:12:23.290364  6613 layer_factory.hpp:77] Creating layer concat_d3cc_u3a-b
I0421 20:12:23.290369  6613 net.cpp:100] Creating Layer concat_d3cc_u3a-b
I0421 20:12:23.290371  6613 net.cpp:434] concat_d3cc_u3a-b <- u3a_relu_u3a_0_split_1
I0421 20:12:23.290374  6613 net.cpp:434] concat_d3cc_u3a-b <- d3cc
I0421 20:12:23.290379  6613 net.cpp:408] concat_d3cc_u3a-b -> u3b
I0421 20:12:23.290397  6613 net.cpp:150] Setting up concat_d3cc_u3a-b
I0421 20:12:23.290401  6613 net.cpp:157] Top shape: 1 1024 38 38 (1478656)
I0421 20:12:23.290403  6613 net.cpp:165] Memory required for data: 550440768
I0421 20:12:23.290405  6613 layer_factory.hpp:77] Creating layer conv_u3b-c
I0421 20:12:23.290447  6613 net.cpp:100] Creating Layer conv_u3b-c
I0421 20:12:23.290452  6613 net.cpp:434] conv_u3b-c <- u3b
I0421 20:12:23.290457  6613 net.cpp:408] conv_u3b-c -> u3c
I0421 20:12:23.319391  6613 net.cpp:150] Setting up conv_u3b-c
I0421 20:12:23.319402  6613 net.cpp:157] Top shape: 1 512 36 36 (663552)
I0421 20:12:23.319406  6613 net.cpp:165] Memory required for data: 553094976
I0421 20:12:23.319411  6613 layer_factory.hpp:77] Creating layer relu_u3c
I0421 20:12:23.319416  6613 net.cpp:100] Creating Layer relu_u3c
I0421 20:12:23.319418  6613 net.cpp:434] relu_u3c <- u3c
I0421 20:12:23.319423  6613 net.cpp:395] relu_u3c -> u3c (in-place)
I0421 20:12:23.320152  6613 net.cpp:150] Setting up relu_u3c
I0421 20:12:23.320163  6613 net.cpp:157] Top shape: 1 512 36 36 (663552)
I0421 20:12:23.320164  6613 net.cpp:165] Memory required for data: 555749184
I0421 20:12:23.320168  6613 layer_factory.hpp:77] Creating layer conv_u3c-d
I0421 20:12:23.320175  6613 net.cpp:100] Creating Layer conv_u3c-d
I0421 20:12:23.320178  6613 net.cpp:434] conv_u3c-d <- u3c
I0421 20:12:23.320184  6613 net.cpp:408] conv_u3c-d -> u3d
I0421 20:12:23.334777  6613 net.cpp:150] Setting up conv_u3c-d
I0421 20:12:23.334787  6613 net.cpp:157] Top shape: 1 512 34 34 (591872)
I0421 20:12:23.334789  6613 net.cpp:165] Memory required for data: 558116672
I0421 20:12:23.334794  6613 layer_factory.hpp:77] Creating layer relu_u3d
I0421 20:12:23.334800  6613 net.cpp:100] Creating Layer relu_u3d
I0421 20:12:23.334802  6613 net.cpp:434] relu_u3d <- u3d
I0421 20:12:23.334806  6613 net.cpp:395] relu_u3d -> u3d (in-place)
I0421 20:12:23.334971  6613 net.cpp:150] Setting up relu_u3d
I0421 20:12:23.334978  6613 net.cpp:157] Top shape: 1 512 34 34 (591872)
I0421 20:12:23.334980  6613 net.cpp:165] Memory required for data: 560484160
I0421 20:12:23.334983  6613 layer_factory.hpp:77] Creating layer upconv_u3d_u2a
I0421 20:12:23.334988  6613 net.cpp:100] Creating Layer upconv_u3d_u2a
I0421 20:12:23.334991  6613 net.cpp:434] upconv_u3d_u2a <- u3d
I0421 20:12:23.334996  6613 net.cpp:408] upconv_u3d_u2a -> u2a
I0421 20:12:23.338717  6613 net.cpp:150] Setting up upconv_u3d_u2a
I0421 20:12:23.338727  6613 net.cpp:157] Top shape: 1 256 68 68 (1183744)
I0421 20:12:23.338731  6613 net.cpp:165] Memory required for data: 565219136
I0421 20:12:23.338735  6613 layer_factory.hpp:77] Creating layer relu_u2a
I0421 20:12:23.338740  6613 net.cpp:100] Creating Layer relu_u2a
I0421 20:12:23.338743  6613 net.cpp:434] relu_u2a <- u2a
I0421 20:12:23.338748  6613 net.cpp:395] relu_u2a -> u2a (in-place)
I0421 20:12:23.338953  6613 net.cpp:150] Setting up relu_u2a
I0421 20:12:23.338960  6613 net.cpp:157] Top shape: 1 256 68 68 (1183744)
I0421 20:12:23.338963  6613 net.cpp:165] Memory required for data: 569954112
I0421 20:12:23.338965  6613 layer_factory.hpp:77] Creating layer u2a_relu_u2a_0_split
I0421 20:12:23.338970  6613 net.cpp:100] Creating Layer u2a_relu_u2a_0_split
I0421 20:12:23.338973  6613 net.cpp:434] u2a_relu_u2a_0_split <- u2a
I0421 20:12:23.338979  6613 net.cpp:408] u2a_relu_u2a_0_split -> u2a_relu_u2a_0_split_0
I0421 20:12:23.338985  6613 net.cpp:408] u2a_relu_u2a_0_split -> u2a_relu_u2a_0_split_1
I0421 20:12:23.339027  6613 net.cpp:150] Setting up u2a_relu_u2a_0_split
I0421 20:12:23.339031  6613 net.cpp:157] Top shape: 1 256 68 68 (1183744)
I0421 20:12:23.339035  6613 net.cpp:157] Top shape: 1 256 68 68 (1183744)
I0421 20:12:23.339037  6613 net.cpp:165] Memory required for data: 579424064
I0421 20:12:23.339040  6613 layer_factory.hpp:77] Creating layer crop_d2c-d2cc
I0421 20:12:23.339046  6613 net.cpp:100] Creating Layer crop_d2c-d2cc
I0421 20:12:23.339048  6613 net.cpp:434] crop_d2c-d2cc <- d2c_relu_d2c_0_split_1
I0421 20:12:23.339052  6613 net.cpp:434] crop_d2c-d2cc <- u2a_relu_u2a_0_split_0
I0421 20:12:23.339056  6613 net.cpp:408] crop_d2c-d2cc -> d2cc
I0421 20:12:23.339078  6613 net.cpp:150] Setting up crop_d2c-d2cc
I0421 20:12:23.339083  6613 net.cpp:157] Top shape: 1 256 68 68 (1183744)
I0421 20:12:23.339085  6613 net.cpp:165] Memory required for data: 584159040
I0421 20:12:23.339108  6613 layer_factory.hpp:77] Creating layer concat_d2cc_u2a-b
I0421 20:12:23.339113  6613 net.cpp:100] Creating Layer concat_d2cc_u2a-b
I0421 20:12:23.339115  6613 net.cpp:434] concat_d2cc_u2a-b <- u2a_relu_u2a_0_split_1
I0421 20:12:23.339120  6613 net.cpp:434] concat_d2cc_u2a-b <- d2cc
I0421 20:12:23.339125  6613 net.cpp:408] concat_d2cc_u2a-b -> u2b
I0421 20:12:23.339149  6613 net.cpp:150] Setting up concat_d2cc_u2a-b
I0421 20:12:23.339154  6613 net.cpp:157] Top shape: 1 512 68 68 (2367488)
I0421 20:12:23.339156  6613 net.cpp:165] Memory required for data: 593628992
I0421 20:12:23.339159  6613 layer_factory.hpp:77] Creating layer conv_u2b-c
I0421 20:12:23.339165  6613 net.cpp:100] Creating Layer conv_u2b-c
I0421 20:12:23.339169  6613 net.cpp:434] conv_u2b-c <- u2b
I0421 20:12:23.339174  6613 net.cpp:408] conv_u2b-c -> u2c
I0421 20:12:23.347573  6613 net.cpp:150] Setting up conv_u2b-c
I0421 20:12:23.347584  6613 net.cpp:157] Top shape: 1 256 66 66 (1115136)
I0421 20:12:23.347585  6613 net.cpp:165] Memory required for data: 598089536
I0421 20:12:23.347591  6613 layer_factory.hpp:77] Creating layer relu_u2c
I0421 20:12:23.347596  6613 net.cpp:100] Creating Layer relu_u2c
I0421 20:12:23.347599  6613 net.cpp:434] relu_u2c <- u2c
I0421 20:12:23.347604  6613 net.cpp:395] relu_u2c -> u2c (in-place)
I0421 20:12:23.348393  6613 net.cpp:150] Setting up relu_u2c
I0421 20:12:23.348403  6613 net.cpp:157] Top shape: 1 256 66 66 (1115136)
I0421 20:12:23.348405  6613 net.cpp:165] Memory required for data: 602550080
I0421 20:12:23.348408  6613 layer_factory.hpp:77] Creating layer conv_u2c-d
I0421 20:12:23.348417  6613 net.cpp:100] Creating Layer conv_u2c-d
I0421 20:12:23.348420  6613 net.cpp:434] conv_u2c-d <- u2c
I0421 20:12:23.348426  6613 net.cpp:408] conv_u2c-d -> u2d
I0421 20:12:23.353037  6613 net.cpp:150] Setting up conv_u2c-d
I0421 20:12:23.353049  6613 net.cpp:157] Top shape: 1 256 64 64 (1048576)
I0421 20:12:23.353050  6613 net.cpp:165] Memory required for data: 606744384
I0421 20:12:23.353056  6613 layer_factory.hpp:77] Creating layer relu_u2d
I0421 20:12:23.353061  6613 net.cpp:100] Creating Layer relu_u2d
I0421 20:12:23.353065  6613 net.cpp:434] relu_u2d <- u2d
I0421 20:12:23.353070  6613 net.cpp:395] relu_u2d -> u2d (in-place)
I0421 20:12:23.353241  6613 net.cpp:150] Setting up relu_u2d
I0421 20:12:23.353248  6613 net.cpp:157] Top shape: 1 256 64 64 (1048576)
I0421 20:12:23.353251  6613 net.cpp:165] Memory required for data: 610938688
I0421 20:12:23.353253  6613 layer_factory.hpp:77] Creating layer upconv_u2d_u1a
I0421 20:12:23.353260  6613 net.cpp:100] Creating Layer upconv_u2d_u1a
I0421 20:12:23.353263  6613 net.cpp:434] upconv_u2d_u1a <- u2d
I0421 20:12:23.353269  6613 net.cpp:408] upconv_u2d_u1a -> u1a
I0421 20:12:23.354315  6613 net.cpp:150] Setting up upconv_u2d_u1a
I0421 20:12:23.354321  6613 net.cpp:157] Top shape: 1 128 128 128 (2097152)
I0421 20:12:23.354323  6613 net.cpp:165] Memory required for data: 619327296
I0421 20:12:23.354334  6613 layer_factory.hpp:77] Creating layer relu_u1a
I0421 20:12:23.354339  6613 net.cpp:100] Creating Layer relu_u1a
I0421 20:12:23.354341  6613 net.cpp:434] relu_u1a <- u1a
I0421 20:12:23.354346  6613 net.cpp:395] relu_u1a -> u1a (in-place)
I0421 20:12:23.354517  6613 net.cpp:150] Setting up relu_u1a
I0421 20:12:23.354523  6613 net.cpp:157] Top shape: 1 128 128 128 (2097152)
I0421 20:12:23.354526  6613 net.cpp:165] Memory required for data: 627715904
I0421 20:12:23.354528  6613 layer_factory.hpp:77] Creating layer u1a_relu_u1a_0_split
I0421 20:12:23.354533  6613 net.cpp:100] Creating Layer u1a_relu_u1a_0_split
I0421 20:12:23.354537  6613 net.cpp:434] u1a_relu_u1a_0_split <- u1a
I0421 20:12:23.354540  6613 net.cpp:408] u1a_relu_u1a_0_split -> u1a_relu_u1a_0_split_0
I0421 20:12:23.354547  6613 net.cpp:408] u1a_relu_u1a_0_split -> u1a_relu_u1a_0_split_1
I0421 20:12:23.354589  6613 net.cpp:150] Setting up u1a_relu_u1a_0_split
I0421 20:12:23.354593  6613 net.cpp:157] Top shape: 1 128 128 128 (2097152)
I0421 20:12:23.354596  6613 net.cpp:157] Top shape: 1 128 128 128 (2097152)
I0421 20:12:23.354614  6613 net.cpp:165] Memory required for data: 644493120
I0421 20:12:23.354617  6613 layer_factory.hpp:77] Creating layer crop_d1c-d1cc
I0421 20:12:23.354638  6613 net.cpp:100] Creating Layer crop_d1c-d1cc
I0421 20:12:23.354641  6613 net.cpp:434] crop_d1c-d1cc <- d1c_relu_d1c_0_split_1
I0421 20:12:23.354645  6613 net.cpp:434] crop_d1c-d1cc <- u1a_relu_u1a_0_split_0
I0421 20:12:23.354651  6613 net.cpp:408] crop_d1c-d1cc -> d1cc
I0421 20:12:23.354692  6613 net.cpp:150] Setting up crop_d1c-d1cc
I0421 20:12:23.354696  6613 net.cpp:157] Top shape: 1 128 128 128 (2097152)
I0421 20:12:23.354698  6613 net.cpp:165] Memory required for data: 652881728
I0421 20:12:23.354701  6613 layer_factory.hpp:77] Creating layer concat_d1cc_u1a-b
I0421 20:12:23.354707  6613 net.cpp:100] Creating Layer concat_d1cc_u1a-b
I0421 20:12:23.354708  6613 net.cpp:434] concat_d1cc_u1a-b <- u1a_relu_u1a_0_split_1
I0421 20:12:23.354712  6613 net.cpp:434] concat_d1cc_u1a-b <- d1cc
I0421 20:12:23.354717  6613 net.cpp:408] concat_d1cc_u1a-b -> u1b
I0421 20:12:23.354737  6613 net.cpp:150] Setting up concat_d1cc_u1a-b
I0421 20:12:23.354742  6613 net.cpp:157] Top shape: 1 256 128 128 (4194304)
I0421 20:12:23.354743  6613 net.cpp:165] Memory required for data: 669658944
I0421 20:12:23.354746  6613 layer_factory.hpp:77] Creating layer conv_u1b-c
I0421 20:12:23.354753  6613 net.cpp:100] Creating Layer conv_u1b-c
I0421 20:12:23.354755  6613 net.cpp:434] conv_u1b-c <- u1b
I0421 20:12:23.354760  6613 net.cpp:408] conv_u1b-c -> u1c
I0421 20:12:23.357636  6613 net.cpp:150] Setting up conv_u1b-c
I0421 20:12:23.357647  6613 net.cpp:157] Top shape: 1 128 126 126 (2032128)
I0421 20:12:23.357650  6613 net.cpp:165] Memory required for data: 677787456
I0421 20:12:23.357656  6613 layer_factory.hpp:77] Creating layer relu_u1c
I0421 20:12:23.357661  6613 net.cpp:100] Creating Layer relu_u1c
I0421 20:12:23.357666  6613 net.cpp:434] relu_u1c <- u1c
I0421 20:12:23.357669  6613 net.cpp:395] relu_u1c -> u1c (in-place)
I0421 20:12:23.357861  6613 net.cpp:150] Setting up relu_u1c
I0421 20:12:23.357867  6613 net.cpp:157] Top shape: 1 128 126 126 (2032128)
I0421 20:12:23.357870  6613 net.cpp:165] Memory required for data: 685915968
I0421 20:12:23.357872  6613 layer_factory.hpp:77] Creating layer conv_u1c-d
I0421 20:12:23.357880  6613 net.cpp:100] Creating Layer conv_u1c-d
I0421 20:12:23.357883  6613 net.cpp:434] conv_u1c-d <- u1c
I0421 20:12:23.357889  6613 net.cpp:408] conv_u1c-d -> u1d
I0421 20:12:23.359010  6613 net.cpp:150] Setting up conv_u1c-d
I0421 20:12:23.359017  6613 net.cpp:157] Top shape: 1 128 124 124 (1968128)
I0421 20:12:23.359020  6613 net.cpp:165] Memory required for data: 693788480
I0421 20:12:23.359025  6613 layer_factory.hpp:77] Creating layer relu_u1d
I0421 20:12:23.359028  6613 net.cpp:100] Creating Layer relu_u1d
I0421 20:12:23.359031  6613 net.cpp:434] relu_u1d <- u1d
I0421 20:12:23.359036  6613 net.cpp:395] relu_u1d -> u1d (in-place)
I0421 20:12:23.359839  6613 net.cpp:150] Setting up relu_u1d
I0421 20:12:23.359853  6613 net.cpp:157] Top shape: 1 128 124 124 (1968128)
I0421 20:12:23.359855  6613 net.cpp:165] Memory required for data: 701660992
I0421 20:12:23.359874  6613 layer_factory.hpp:77] Creating layer upconv_u1d_u0a
I0421 20:12:23.359882  6613 net.cpp:100] Creating Layer upconv_u1d_u0a
I0421 20:12:23.359885  6613 net.cpp:434] upconv_u1d_u0a <- u1d
I0421 20:12:23.359891  6613 net.cpp:408] upconv_u1d_u0a -> u0a
I0421 20:12:23.360591  6613 net.cpp:150] Setting up upconv_u1d_u0a
I0421 20:12:23.360600  6613 net.cpp:157] Top shape: 1 128 248 248 (7872512)
I0421 20:12:23.360602  6613 net.cpp:165] Memory required for data: 733151040
I0421 20:12:23.360607  6613 layer_factory.hpp:77] Creating layer relu_u0a
I0421 20:12:23.360613  6613 net.cpp:100] Creating Layer relu_u0a
I0421 20:12:23.360616  6613 net.cpp:434] relu_u0a <- u0a
I0421 20:12:23.360620  6613 net.cpp:395] relu_u0a -> u0a (in-place)
I0421 20:12:23.360795  6613 net.cpp:150] Setting up relu_u0a
I0421 20:12:23.360803  6613 net.cpp:157] Top shape: 1 128 248 248 (7872512)
I0421 20:12:23.360821  6613 net.cpp:165] Memory required for data: 764641088
I0421 20:12:23.360824  6613 layer_factory.hpp:77] Creating layer u0a_relu_u0a_0_split
I0421 20:12:23.360829  6613 net.cpp:100] Creating Layer u0a_relu_u0a_0_split
I0421 20:12:23.360833  6613 net.cpp:434] u0a_relu_u0a_0_split <- u0a
I0421 20:12:23.360838  6613 net.cpp:408] u0a_relu_u0a_0_split -> u0a_relu_u0a_0_split_0
I0421 20:12:23.360846  6613 net.cpp:408] u0a_relu_u0a_0_split -> u0a_relu_u0a_0_split_1
I0421 20:12:23.360904  6613 net.cpp:150] Setting up u0a_relu_u0a_0_split
I0421 20:12:23.360911  6613 net.cpp:157] Top shape: 1 128 248 248 (7872512)
I0421 20:12:23.360914  6613 net.cpp:157] Top shape: 1 128 248 248 (7872512)
I0421 20:12:23.360916  6613 net.cpp:165] Memory required for data: 827621184
I0421 20:12:23.360919  6613 layer_factory.hpp:77] Creating layer crop_d0c-d0cc
I0421 20:12:23.360924  6613 net.cpp:100] Creating Layer crop_d0c-d0cc
I0421 20:12:23.360927  6613 net.cpp:434] crop_d0c-d0cc <- d0c_relu_d0c_0_split_1
I0421 20:12:23.360931  6613 net.cpp:434] crop_d0c-d0cc <- u0a_relu_u0a_0_split_0
I0421 20:12:23.360936  6613 net.cpp:408] crop_d0c-d0cc -> d0cc
I0421 20:12:23.360960  6613 net.cpp:150] Setting up crop_d0c-d0cc
I0421 20:12:23.360965  6613 net.cpp:157] Top shape: 1 64 248 248 (3936256)
I0421 20:12:23.360966  6613 net.cpp:165] Memory required for data: 843366208
I0421 20:12:23.360968  6613 layer_factory.hpp:77] Creating layer concat_d0cc_u0a-b
I0421 20:12:23.360973  6613 net.cpp:100] Creating Layer concat_d0cc_u0a-b
I0421 20:12:23.360975  6613 net.cpp:434] concat_d0cc_u0a-b <- u0a_relu_u0a_0_split_1
I0421 20:12:23.360980  6613 net.cpp:434] concat_d0cc_u0a-b <- d0cc
I0421 20:12:23.360983  6613 net.cpp:408] concat_d0cc_u0a-b -> u0b
I0421 20:12:23.361006  6613 net.cpp:150] Setting up concat_d0cc_u0a-b
I0421 20:12:23.361009  6613 net.cpp:157] Top shape: 1 192 248 248 (11808768)
I0421 20:12:23.361011  6613 net.cpp:165] Memory required for data: 890601280
I0421 20:12:23.361013  6613 layer_factory.hpp:77] Creating layer conv_u0b-c
I0421 20:12:23.361021  6613 net.cpp:100] Creating Layer conv_u0b-c
I0421 20:12:23.361024  6613 net.cpp:434] conv_u0b-c <- u0b
I0421 20:12:23.361029  6613 net.cpp:408] conv_u0b-c -> u0c
I0421 20:12:23.361970  6613 net.cpp:150] Setting up conv_u0b-c
I0421 20:12:23.361979  6613 net.cpp:157] Top shape: 1 64 246 246 (3873024)
I0421 20:12:23.361980  6613 net.cpp:165] Memory required for data: 906093376
I0421 20:12:23.362001  6613 layer_factory.hpp:77] Creating layer relu_u0c
I0421 20:12:23.362005  6613 net.cpp:100] Creating Layer relu_u0c
I0421 20:12:23.362009  6613 net.cpp:434] relu_u0c <- u0c
I0421 20:12:23.362012  6613 net.cpp:395] relu_u0c -> u0c (in-place)
I0421 20:12:23.362180  6613 net.cpp:150] Setting up relu_u0c
I0421 20:12:23.362190  6613 net.cpp:157] Top shape: 1 64 246 246 (3873024)
I0421 20:12:23.362192  6613 net.cpp:165] Memory required for data: 921585472
I0421 20:12:23.362195  6613 layer_factory.hpp:77] Creating layer conv_u0c-d
I0421 20:12:23.362200  6613 net.cpp:100] Creating Layer conv_u0c-d
I0421 20:12:23.362202  6613 net.cpp:434] conv_u0c-d <- u0c
I0421 20:12:23.362208  6613 net.cpp:408] conv_u0c-d -> u0d
I0421 20:12:23.362700  6613 net.cpp:150] Setting up conv_u0c-d
I0421 20:12:23.362707  6613 net.cpp:157] Top shape: 1 64 244 244 (3810304)
I0421 20:12:23.362709  6613 net.cpp:165] Memory required for data: 936826688
I0421 20:12:23.362730  6613 layer_factory.hpp:77] Creating layer relu_u0d
I0421 20:12:23.362741  6613 net.cpp:100] Creating Layer relu_u0d
I0421 20:12:23.362746  6613 net.cpp:434] relu_u0d <- u0d
I0421 20:12:23.362749  6613 net.cpp:395] relu_u0d -> u0d (in-place)
I0421 20:12:23.363596  6613 net.cpp:150] Setting up relu_u0d
I0421 20:12:23.363605  6613 net.cpp:157] Top shape: 1 64 244 244 (3810304)
I0421 20:12:23.363607  6613 net.cpp:165] Memory required for data: 952067904
I0421 20:12:23.363626  6613 layer_factory.hpp:77] Creating layer conv_u0d-score
I0421 20:12:23.363633  6613 net.cpp:100] Creating Layer conv_u0d-score
I0421 20:12:23.363636  6613 net.cpp:434] conv_u0d-score <- u0d
I0421 20:12:23.363652  6613 net.cpp:408] conv_u0d-score -> score
I0421 20:12:23.363946  6613 net.cpp:150] Setting up conv_u0d-score
I0421 20:12:23.363955  6613 net.cpp:157] Top shape: 1 3 244 244 (178608)
I0421 20:12:23.363958  6613 net.cpp:165] Memory required for data: 952782336
I0421 20:12:23.363963  6613 layer_factory.hpp:77] Creating layer loss
I0421 20:12:23.363968  6613 net.cpp:100] Creating Layer loss
I0421 20:12:23.363971  6613 net.cpp:434] loss <- score
I0421 20:12:23.363976  6613 net.cpp:434] loss <- label
I0421 20:12:23.363978  6613 net.cpp:434] loss <- weights
I0421 20:12:23.363983  6613 net.cpp:408] loss -> loss
…
