…
I0421 20:12:35.825469  6760 solver.cpp:91] Creating training net from net file: ./unet_weighted_4/unet_weighted_4.prototxt
I0421 20:12:35.825891  6760 net.cpp:322] The NetState phase (0) differed from the phase (1) specified by a rule in layer loaddata
I0421 20:12:35.826213  6760 net.cpp:58] Initializing net from parameters: 
name: "unet_weighted_4"
force_backward: true
state {
  phase: TRAIN
}
layer {
  name: "loaddata"
  type: "HDF5Data"
  top: "data"
  top: "label"
  top: "weights"
  include {
    phase: TRAIN
  }
  hdf5_data_param {
    source: "caffeHDF5_4.txt"
    batch_size: 5
  }
}
layer {
  name: "conv_d0a-b"
  type: "Convolution"
  bottom: "data"
  top: "d0b"
  param {
    lr_mult: 1
    decay_mult: 1
  }
  param {
    lr_mult: 2
    decay_mult: 0
  }
  convolution_param {
    num_output: 64
    pad: 0
    kernel_size: 3
    weight_filler {
      type: "xavier"
    }
    engine: CAFFE
  }
}
layer {
  name: "relu_d0b"
  type: "ReLU"
  bottom: "d0b"
  top: "d0b"
}
layer {
  name: "conv_d0b-c"
  type: "Convolution"
  bottom: "d0b"
  top: "d0c"
  param {
    lr_mult: 1
    decay_mult: 1
  }
  param {
    lr_mult: 2
    decay_mult: 0
  }
  convolution_param {
    num_output: 64
    pad: 0
    kernel_size: 3
    weight_filler {
      type: "xavier"
    }
    engine: CAFFE
  }
}
layer {
  name: "relu_d0c"
  type: "ReLU"
  bottom: "d0c"
  top: "d0c"
}
layer {
  name: "pool_d0c-1a"
  type: "Pooling"
  bottom: "d0c"
  top: "d1a"
  pooling_param {
    pool: MAX
    kernel_size: 2
    stride: 2
  }
}
layer {
  name: "conv_d1a-b"
  type: "Convolution"
  bottom: "d1a"
  top: "d1b"
  param {
    lr_mult: 1
    decay_mult: 1
  }
  param {
    lr_mult: 2
    decay_mult: 0
  }
  convolution_param {
    num_output: 128
    pad: 0
    kernel_size: 3
    weight_filler {
      type: "xavier"
    }
    engine: CAFFE
  }
}
layer {
  name: "relu_d1b"
  type: "ReLU"
  bottom: "d1b"
  top: "d1b"
}
layer {
  name: "conv_d1b-c"
  type: "Convolution"
  bottom: "d1b"
  top: "d1c"
  param {
    lr_mult: 1
    decay_mult: 1
  }
  param {
    lr_mult: 2
    decay_mult: 0
  }
  convolution_param {
    num_output: 128
    pad: 0
    kernel_size: 3
    weight_filler {
      type: "xavier"
    }
    engine: CAFFE
  }
}
layer {
  name: "relu_d1c"
  type: "ReLU"
  bottom: "d1c"
  top: "d1c"
}
layer {
  name: "pool_d1c-2a"
  type: "Pooling"
  bottom: "d1c"
  top: "d2a"
  pooling_param {
    pool: MAX
    kernel_size: 2
    stride: 2
  }
}
layer {
  name: "conv_d2a-b"
  type: "Convolution"
  bottom: "d2a"
  top: "d2b"
  param {
    lr_mult: 1
    decay_mult: 1
  }
  param {
    lr_mult: 2
    decay_mult: 0
  }
  convolution_param {
    num_output: 256
    pad: 0
    kernel_size: 3
    weight_filler {
      type: "xavier"
    }
    engine: CAFFE
  }
}
layer {
  name: "relu_d2b"
  type: "ReLU"
  bottom: "d2b"
  top: "d2b"
}
layer {
  name: "conv_d2b-c"
  type: "Convolution"
  bottom: "d2b"
  top: "d2c"
  param {
    lr_mult: 1
    decay_mult: 1
  }
  param {
    lr_mult: 2
    decay_mult: 0
  }
  convolution_param {
    num_output: 256
    pad: 0
    kernel_size: 3
    weight_filler {
      type: "xavier"
    }
    engine: CAFFE
  }
}
layer {
  name: "relu_d2c"
  type: "ReLU"
  bottom: "d2c"
  top: "d2c"
}
layer {
  name: "pool_d2c-3a"
  type: "Pooling"
  bottom: "d2c"
  top: "d3a"
  pooling_param {
    pool: MAX
    kernel_size: 2
    stride: 2
  }
}
layer {
  name: "conv_d3a-b"
  type: "Convolution"
  bottom: "d3a"
  top: "d3b"
  param {
    lr_mult: 1
    decay_mult: 1
  }
  param {
    lr_mult: 2
    decay_mult: 0
  }
  convolution_param {
    num_output: 512
    pad: 0
    kernel_size: 3
    weight_filler {
      type: "xavier"
    }
    engine: CAFFE
  }
}
layer {
  name: "relu_d3b"
  type: "ReLU"
  bottom: "d3b"
  top: "d3b"
}
layer {
  name: "conv_d3b-c"
  type: "Convolution"
  bottom: "d3b"
  top: "d3c"
  param {
    lr_mult: 1
    decay_mult: 1
  }
  param {
    lr_mult: 2
    decay_mult: 0
  }
  convolution_param {
    num_output: 512
    pad: 0
    kernel_size: 3
    weight_filler {
      type: "xavier"
    }
    engine: CAFFE
  }
}
layer {
  name: "relu_d3c"
  type: "ReLU"
  bottom: "d3c"
  top: "d3c"
}
layer {
  name: "dropout_d3c"
  type: "Dropout"
  bottom: "d3c"
  top: "d3c"
  include {
    phase: TRAIN
  }
  dropout_param {
    dropout_ratio: 0.5
  }
}
layer {
  name: "pool_d3c-4a"
  type: "Pooling"
  bottom: "d3c"
  top: "d4a"
  pooling_param {
    pool: MAX
    kernel_size: 2
    stride: 2
  }
}
layer {
  name: "conv_d4a-b"
  type: "Convolution"
  bottom: "d4a"
  top: "d4b"
  param {
    lr_mult: 1
    decay_mult: 1
  }
  param {
    lr_mult: 2
    decay_mult: 0
  }
  convolution_param {
    num_output: 1024
    pad: 0
    kernel_size: 3
    weight_filler {
      type: "xavier"
    }
    engine: CAFFE
  }
}
layer {
  name: "relu_d4b"
  type: "ReLU"
  bottom: "d4b"
  top: "d4b"
}
layer {
  name: "conv_d4b-c"
  type: "Convolution"
  bottom: "d4b"
  top: "d4c"
  param {
    lr_mult: 1
    decay_mult: 1
  }
  param {
    lr_mult: 2
    decay_mult: 0
  }
  convolution_param {
    num_output: 1024
    pad: 0
    kernel_size: 3
    weight_filler {
      type: "xavier"
    }
    engine: CAFFE
  }
}
layer {
  name: "relu_d4c"
  type: "ReLU"
  bottom: "d4c"
  top: "d4c"
}
layer {
  name: "dropout_d4c"
  type: "Dropout"
  bottom: "d4c"
  top: "d4c"
  include {
    phase: TRAIN
  }
  dropout_param {
    dropout_ratio: 0.5
  }
}
layer {
  name: "upconv_d4c_u3a"
  type: "Deconvolution"
  bottom: "d4c"
  top: "u3a"
  param {
    lr_mult: 1
    decay_mult: 1
  }
  param {
    lr_mult: 2
    decay_mult: 0
  }
  convolution_param {
    num_output: 512
    pad: 0
    kernel_size: 2
    stride: 2
    weight_filler {
      type: "xavier"
    }
  }
}
layer {
  name: "relu_u3a"
  type: "ReLU"
  bottom: "u3a"
  top: "u3a"
}
layer {
  name: "crop_d3c-d3cc"
  type: "Crop"
  bottom: "d3c"
  bottom: "u3a"
  top: "d3cc"
  crop_param {
    axis: 2
    offset: 4
  }
}
layer {
  name: "concat_d3cc_u3a-b"
  type: "Concat"
  bottom: "u3a"
  bottom: "d3cc"
  top: "u3b"
}
layer {
  name: "conv_u3b-c"
  type: "Convolution"
  bottom: "u3b"
  top: "u3c"
  param {
    lr_mult: 1
    decay_mult: 1
  }
  param {
    lr_mult: 2
    decay_mult: 0
  }
  convolution_param {
    num_output: 512
    pad: 0
    kernel_size: 3
    weight_filler {
      type: "xavier"
    }
    engine: CAFFE
  }
}
layer {
  name: "relu_u3c"
  type: "ReLU"
  bottom: "u3c"
  top: "u3c"
}
layer {
  name: "conv_u3c-d"
  type: "Convolution"
  bottom: "u3c"
  top: "u3d"
  param {
    lr_mult: 1
    decay_mult: 1
  }
  param {
    lr_mult: 2
    decay_mult: 0
  }
  convolution_param {
    num_output: 512
    pad: 0
    kernel_size: 3
    weight_filler {
      type: "xavier"
    }
    engine: CAFFE
  }
}
layer {
  name: "relu_u3d"
  type: "ReLU"
  bottom: "u3d"
  top: "u3d"
}
layer {
  name: "upconv_u3d_u2a"
  type: "Deconvolution"
  bottom: "u3d"
  top: "u2a"
  param {
    lr_mult: 1
    decay_mult: 1
  }
  param {
    lr_mult: 2
    decay_mult: 0
  }
  convolution_param {
    num_output: 256
    pad: 0
    kernel_size: 2
    stride: 2
    weight_filler {
      type: "xavier"
    }
  }
}
layer {
  name: "relu_u2a"
  type: "ReLU"
  bottom: "u2a"
  top: "u2a"
}
layer {
  name: "crop_d2c-d2cc"
  type: "Crop"
  bottom: "d2c"
  bottom: "u2a"
  top: "d2cc"
  crop_param {
    axis: 2
    offset: 16
  }
}
layer {
  name: "concat_d2cc_u2a-b"
  type: "Concat"
  bottom: "u2a"
  bottom: "d2cc"
  top: "u2b"
}
layer {
  name: "conv_u2b-c"
  type: "Convolution"
  bottom: "u2b"
  top: "u2c"
  param {
    lr_mult: 1
    decay_mult: 1
  }
  param {
    lr_mult: 2
    decay_mult: 0
  }
  convolution_param {
    num_output: 256
    pad: 0
    kernel_size: 3
    weight_filler {
      type: "xavier"
    }
    engine: CAFFE
  }
}
layer {
  name: "relu_u2c"
  type: "ReLU"
  bottom: "u2c"
  top: "u2c"
}
layer {
  name: "conv_u2c-d"
  type: "Convolution"
  bottom: "u2c"
  top: "u2d"
  param {
    lr_mult: 1
    decay_mult: 1
  }
  param {
    lr_mult: 2
    decay_mult: 0
  }
  convolution_param {
    num_output: 256
    pad: 0
    kernel_size: 3
    weight_filler {
      type: "xavier"
    }
    engine: CAFFE
  }
}
layer {
  name: "relu_u2d"
  type: "ReLU"
  bottom: "u2d"
  top: "u2d"
}
layer {
  name: "upconv_u2d_u1a"
  type: "Deconvolution"
  bottom: "u2d"
  top: "u1a"
  param {
    lr_mult: 1
    decay_mult: 1
  }
  param {
    lr_mult: 2
    decay_mult: 0
  }
  convolution_param {
    num_output: 128
    pad: 0
    kernel_size: 2
    stride: 2
    weight_filler {
      type: "xavier"
    }
  }
}
layer {
  name: "relu_u1a"
  type: "ReLU"
  bottom: "u1a"
  top: "u1a"
}
layer {
  name: "crop_d1c-d1cc"
  type: "Crop"
  bottom: "d1c"
  bottom: "u1a"
  top: "d1cc"
  crop_param {
    axis: 2
    offset: 40
  }
}
layer {
  name: "concat_d1cc_u1a-b"
  type: "Concat"
  bottom: "u1a"
  bottom: "d1cc"
  top: "u1b"
}
layer {
  name: "conv_u1b-c"
  type: "Convolution"
  bottom: "u1b"
  top: "u1c"
  param {
    lr_mult: 1
    decay_mult: 1
  }
  param {
    lr_mult: 2
    decay_mult: 0
  }
  convolution_param {
    num_output: 128
    pad: 0
    kernel_size: 3
    weight_filler {
      type: "xavier"
    }
    engine: CAFFE
  }
}
layer {
  name: "relu_u1c"
  type: "ReLU"
  bottom: "u1c"
  top: "u1c"
}
layer {
  name: "conv_u1c-d"
  type: "Convolution"
  bottom: "u1c"
  top: "u1d"
  param {
    lr_mult: 1
    decay_mult: 1
  }
  param {
    lr_mult: 2
    decay_mult: 0
  }
  convolution_param {
    num_output: 128
    pad: 0
    kernel_size: 3
    weight_filler {
      type: "xavier"
    }
    engine: CAFFE
  }
}
layer {
  name: "relu_u1d"
  type: "ReLU"
  bottom: "u1d"
  top: "u1d"
}
layer {
  name: "upconv_u1d_u0a"
  type: "Deconvolution"
  bottom: "u1d"
  top: "u0a"
  param {
    lr_mult: 1
    decay_mult: 1
  }
  param {
    lr_mult: 2
    decay_mult: 0
  }
  convolution_param {
    num_output: 128
    pad: 0
    kernel_size: 2
    stride: 2
    weight_filler {
      type: "xavier"
    }
  }
}
layer {
  name: "relu_u0a"
  type: "ReLU"
  bottom: "u0a"
  top: "u0a"
}
layer {
  name: "crop_d0c-d0cc"
  type: "Crop"
  bottom: "d0c"
  bottom: "u0a"
  top: "d0cc"
  crop_param {
    axis: 2
    offset: 88
  }
}
layer {
  name: "concat_d0cc_u0a-b"
  type: "Concat"
  bottom: "u0a"
  bottom: "d0cc"
  top: "u0b"
}
layer {
  name: "conv_u0b-c"
  type: "Convolution"
  bottom: "u0b"
  top: "u0c"
  param {
    lr_mult: 1
    decay_mult: 1
  }
  param {
    lr_mult: 2
    decay_mult: 0
  }
  convolution_param {
    num_output: 64
    pad: 0
    kernel_size: 3
    weight_filler {
      type: "xavier"
    }
    engine: CAFFE
  }
}
layer {
  name: "relu_u0c"
  type: "ReLU"
  bottom: "u0c"
  top: "u0c"
}
layer {
  name: "conv_u0c-d"
  type: "Convolution"
  bottom: "u0c"
  top: "u0d"
  param {
    lr_mult: 1
    decay_mult: 1
  }
  param {
    lr_mult: 2
    decay_mult: 0
  }
  convolution_param {
    num_output: 64
    pad: 0
    kernel_size: 3
    weight_filler {
      type: "xavier"
    }
    engine: CAFFE
  }
}
layer {
  name: "relu_u0d"
  type: "ReLU"
  bottom: "u0d"
  top: "u0d"
}
layer {
  name: "conv_u0d-score"
  type: "Convolution"
  bottom: "u0d"
  top: "score"
  param {
    lr_mult: 1
    decay_mult: 1
  }
  param {
    lr_mult: 2
    decay_mult: 0
  }
  convolution_param {
    num_output: 4
    pad: 0
    kernel_size: 1
    weight_filler {
      type: "xavier"
    }
    engine: CAFFE
  }
}
layer {
  name: "loss"
  type: "SoftmaxWithLoss"
  bottom: "score"
  bottom: "label"
  bottom: "weights"
  top: "loss"
  loss_weight: 1
}
layer {
  name: "visualize"
  type: "Softmax"
  bottom: "score"
  top: "visualize_out"
  include {
    phase: TRAIN
  }
}
layer {
  name: "fake"
  type: "Silence"
  bottom: "visualize_out"
  include {
    phase: TRAIN
  }
}
I0421 20:12:35.826475  6760 layer_factory.hpp:77] Creating layer loaddata
I0421 20:12:35.826485  6760 net.cpp:100] Creating Layer loaddata
I0421 20:12:35.826489  6760 net.cpp:408] loaddata -> data
I0421 20:12:35.826498  6760 net.cpp:408] loaddata -> label
I0421 20:12:35.826503  6760 net.cpp:408] loaddata -> weights
I0421 20:12:35.826514  6760 hdf5_data_layer.cpp:79] Loading list of HDF5 filenames from: caffeHDF5_4.txt
I0421 20:12:35.826541  6760 hdf5_data_layer.cpp:93] Number of HDF5 files: 20
I0421 20:12:35.827437  6760 hdf5.cpp:32] Datatype class: H5T_FLOAT
I0421 20:12:36.819839  6760 hdf5.cpp:35] Datatype class: H5T_INTEGER
I0421 20:12:37.054311  6760 net.cpp:150] Setting up loaddata
I0421 20:12:37.054338  6760 net.cpp:157] Top shape: 5 3 428 428 (2747760)
I0421 20:12:37.054358  6760 net.cpp:157] Top shape: 5 244 244 (297680)
I0421 20:12:37.054361  6760 net.cpp:157] Top shape: 5 244 244 (297680)
I0421 20:12:37.054364  6760 net.cpp:165] Memory required for data: 13372480
I0421 20:12:37.054369  6760 layer_factory.hpp:77] Creating layer conv_d0a-b
I0421 20:12:37.054385  6760 net.cpp:100] Creating Layer conv_d0a-b
I0421 20:12:37.054388  6760 net.cpp:434] conv_d0a-b <- data
I0421 20:12:37.054395  6760 net.cpp:408] conv_d0a-b -> d0b
I0421 20:12:37.056928  6760 net.cpp:150] Setting up conv_d0a-b
I0421 20:12:37.056942  6760 net.cpp:157] Top shape: 5 64 426 426 (58072320)
I0421 20:12:37.056946  6760 net.cpp:165] Memory required for data: 245661760
I0421 20:12:37.056972  6760 layer_factory.hpp:77] Creating layer relu_d0b
I0421 20:12:37.056978  6760 net.cpp:100] Creating Layer relu_d0b
I0421 20:12:37.056980  6760 net.cpp:434] relu_d0b <- d0b
I0421 20:12:37.056984  6760 net.cpp:395] relu_d0b -> d0b (in-place)
I0421 20:12:38.856752  6760 net.cpp:150] Setting up relu_d0b
I0421 20:12:38.856775  6760 net.cpp:157] Top shape: 5 64 426 426 (58072320)
I0421 20:12:38.856794  6760 net.cpp:165] Memory required for data: 477951040
I0421 20:12:38.856798  6760 layer_factory.hpp:77] Creating layer conv_d0b-c
I0421 20:12:38.856813  6760 net.cpp:100] Creating Layer conv_d0b-c
I0421 20:12:38.856817  6760 net.cpp:434] conv_d0b-c <- d0b
I0421 20:12:38.856823  6760 net.cpp:408] conv_d0b-c -> d0c
I0421 20:12:38.858418  6760 net.cpp:150] Setting up conv_d0b-c
I0421 20:12:38.858433  6760 net.cpp:157] Top shape: 5 64 424 424 (57528320)
I0421 20:12:38.858436  6760 net.cpp:165] Memory required for data: 708064320
I0421 20:12:38.858465  6760 layer_factory.hpp:77] Creating layer relu_d0c
I0421 20:12:38.858474  6760 net.cpp:100] Creating Layer relu_d0c
I0421 20:12:38.858476  6760 net.cpp:434] relu_d0c <- d0c
I0421 20:12:38.858480  6760 net.cpp:395] relu_d0c -> d0c (in-place)
I0421 20:12:38.859300  6760 net.cpp:150] Setting up relu_d0c
I0421 20:12:38.859313  6760 net.cpp:157] Top shape: 5 64 424 424 (57528320)
I0421 20:12:38.859333  6760 net.cpp:165] Memory required for data: 938177600
I0421 20:12:38.859335  6760 layer_factory.hpp:77] Creating layer d0c_relu_d0c_0_split
I0421 20:12:38.859341  6760 net.cpp:100] Creating Layer d0c_relu_d0c_0_split
I0421 20:12:38.859344  6760 net.cpp:434] d0c_relu_d0c_0_split <- d0c
I0421 20:12:38.859349  6760 net.cpp:408] d0c_relu_d0c_0_split -> d0c_relu_d0c_0_split_0
I0421 20:12:38.859354  6760 net.cpp:408] d0c_relu_d0c_0_split -> d0c_relu_d0c_0_split_1
I0421 20:12:38.859407  6760 net.cpp:150] Setting up d0c_relu_d0c_0_split
I0421 20:12:38.859412  6760 net.cpp:157] Top shape: 5 64 424 424 (57528320)
I0421 20:12:38.859431  6760 net.cpp:157] Top shape: 5 64 424 424 (57528320)
I0421 20:12:38.859433  6760 net.cpp:165] Memory required for data: 1398404160
I0421 20:12:38.859436  6760 layer_factory.hpp:77] Creating layer pool_d0c-1a
I0421 20:12:38.859443  6760 net.cpp:100] Creating Layer pool_d0c-1a
I0421 20:12:38.859447  6760 net.cpp:434] pool_d0c-1a <- d0c_relu_d0c_0_split_0
I0421 20:12:38.859452  6760 net.cpp:408] pool_d0c-1a -> d1a
I0421 20:12:38.859483  6760 net.cpp:150] Setting up pool_d0c-1a
I0421 20:12:38.859491  6760 net.cpp:157] Top shape: 5 64 212 212 (14382080)
I0421 20:12:38.859494  6760 net.cpp:165] Memory required for data: 1455932480
I0421 20:12:38.859496  6760 layer_factory.hpp:77] Creating layer conv_d1a-b
I0421 20:12:38.859503  6760 net.cpp:100] Creating Layer conv_d1a-b
I0421 20:12:38.859506  6760 net.cpp:434] conv_d1a-b <- d1a
I0421 20:12:38.859513  6760 net.cpp:408] conv_d1a-b -> d1b
I0421 20:12:38.860178  6760 net.cpp:150] Setting up conv_d1a-b
I0421 20:12:38.860185  6760 net.cpp:157] Top shape: 5 128 210 210 (28224000)
I0421 20:12:38.860188  6760 net.cpp:165] Memory required for data: 1568828480
I0421 20:12:38.860195  6760 layer_factory.hpp:77] Creating layer relu_d1b
I0421 20:12:38.860285  6760 net.cpp:100] Creating Layer relu_d1b
I0421 20:12:38.860290  6760 net.cpp:434] relu_d1b <- d1b
I0421 20:12:38.860293  6760 net.cpp:395] relu_d1b -> d1b (in-place)
I0421 20:12:38.860474  6760 net.cpp:150] Setting up relu_d1b
I0421 20:12:38.860486  6760 net.cpp:157] Top shape: 5 128 210 210 (28224000)
I0421 20:12:38.860488  6760 net.cpp:165] Memory required for data: 1681724480
I0421 20:12:38.860491  6760 layer_factory.hpp:77] Creating layer conv_d1b-c
I0421 20:12:38.860498  6760 net.cpp:100] Creating Layer conv_d1b-c
I0421 20:12:38.860502  6760 net.cpp:434] conv_d1b-c <- d1b
I0421 20:12:38.860507  6760 net.cpp:408] conv_d1b-c -> d1c
I0421 20:12:38.862457  6760 net.cpp:150] Setting up conv_d1b-c
I0421 20:12:38.862471  6760 net.cpp:157] Top shape: 5 128 208 208 (27688960)
I0421 20:12:38.862473  6760 net.cpp:165] Memory required for data: 1792480320
I0421 20:12:38.862479  6760 layer_factory.hpp:77] Creating layer relu_d1c
I0421 20:12:38.862484  6760 net.cpp:100] Creating Layer relu_d1c
I0421 20:12:38.862488  6760 net.cpp:434] relu_d1c <- d1c
I0421 20:12:38.862494  6760 net.cpp:395] relu_d1c -> d1c (in-place)
I0421 20:12:38.862673  6760 net.cpp:150] Setting up relu_d1c
I0421 20:12:38.862684  6760 net.cpp:157] Top shape: 5 128 208 208 (27688960)
I0421 20:12:38.862686  6760 net.cpp:165] Memory required for data: 1903236160
I0421 20:12:38.862689  6760 layer_factory.hpp:77] Creating layer d1c_relu_d1c_0_split
I0421 20:12:38.862694  6760 net.cpp:100] Creating Layer d1c_relu_d1c_0_split
I0421 20:12:38.862696  6760 net.cpp:434] d1c_relu_d1c_0_split <- d1c
I0421 20:12:38.862701  6760 net.cpp:408] d1c_relu_d1c_0_split -> d1c_relu_d1c_0_split_0
I0421 20:12:38.862709  6760 net.cpp:408] d1c_relu_d1c_0_split -> d1c_relu_d1c_0_split_1
I0421 20:12:38.862746  6760 net.cpp:150] Setting up d1c_relu_d1c_0_split
I0421 20:12:38.862751  6760 net.cpp:157] Top shape: 5 128 208 208 (27688960)
I0421 20:12:38.862756  6760 net.cpp:157] Top shape: 5 128 208 208 (27688960)
I0421 20:12:38.862757  6760 net.cpp:165] Memory required for data: 2124747840
I0421 20:12:38.862761  6760 layer_factory.hpp:77] Creating layer pool_d1c-2a
I0421 20:12:38.862766  6760 net.cpp:100] Creating Layer pool_d1c-2a
I0421 20:12:38.862769  6760 net.cpp:434] pool_d1c-2a <- d1c_relu_d1c_0_split_0
I0421 20:12:38.862773  6760 net.cpp:408] pool_d1c-2a -> d2a
I0421 20:12:38.862807  6760 net.cpp:150] Setting up pool_d1c-2a
I0421 20:12:38.862812  6760 net.cpp:157] Top shape: 5 128 104 104 (6922240)
I0421 20:12:38.862815  6760 net.cpp:165] Memory required for data: 2152436800
I0421 20:12:38.862818  6760 layer_factory.hpp:77] Creating layer conv_d2a-b
I0421 20:12:38.862825  6760 net.cpp:100] Creating Layer conv_d2a-b
I0421 20:12:38.862828  6760 net.cpp:434] conv_d2a-b <- d2a
I0421 20:12:38.862834  6760 net.cpp:408] conv_d2a-b -> d2b
I0421 20:12:38.865540  6760 net.cpp:150] Setting up conv_d2a-b
I0421 20:12:38.865553  6760 net.cpp:157] Top shape: 5 256 102 102 (13317120)
I0421 20:12:38.865556  6760 net.cpp:165] Memory required for data: 2205705280
I0421 20:12:38.865566  6760 layer_factory.hpp:77] Creating layer relu_d2b
I0421 20:12:38.865572  6760 net.cpp:100] Creating Layer relu_d2b
I0421 20:12:38.865576  6760 net.cpp:434] relu_d2b <- d2b
I0421 20:12:38.865582  6760 net.cpp:395] relu_d2b -> d2b (in-place)
I0421 20:12:38.865767  6760 net.cpp:150] Setting up relu_d2b
I0421 20:12:38.865777  6760 net.cpp:157] Top shape: 5 256 102 102 (13317120)
I0421 20:12:38.865779  6760 net.cpp:165] Memory required for data: 2258973760
I0421 20:12:38.865782  6760 layer_factory.hpp:77] Creating layer conv_d2b-c
I0421 20:12:38.865792  6760 net.cpp:100] Creating Layer conv_d2b-c
I0421 20:12:38.865794  6760 net.cpp:434] conv_d2b-c <- d2b
I0421 20:12:38.865799  6760 net.cpp:408] conv_d2b-c -> d2c
I0421 20:12:38.874577  6760 net.cpp:150] Setting up conv_d2b-c
I0421 20:12:38.874593  6760 net.cpp:157] Top shape: 5 256 100 100 (12800000)
I0421 20:12:38.874595  6760 net.cpp:165] Memory required for data: 2310173760
I0421 20:12:38.874617  6760 layer_factory.hpp:77] Creating layer relu_d2c
I0421 20:12:38.874641  6760 net.cpp:100] Creating Layer relu_d2c
I0421 20:12:38.874646  6760 net.cpp:434] relu_d2c <- d2c
I0421 20:12:38.874651  6760 net.cpp:395] relu_d2c -> d2c (in-place)
I0421 20:12:38.878183  6760 net.cpp:150] Setting up relu_d2c
I0421 20:12:38.878199  6760 net.cpp:157] Top shape: 5 256 100 100 (12800000)
I0421 20:12:38.878219  6760 net.cpp:165] Memory required for data: 2361373760
I0421 20:12:38.878222  6760 layer_factory.hpp:77] Creating layer d2c_relu_d2c_0_split
I0421 20:12:38.878228  6760 net.cpp:100] Creating Layer d2c_relu_d2c_0_split
I0421 20:12:38.878232  6760 net.cpp:434] d2c_relu_d2c_0_split <- d2c
I0421 20:12:38.878237  6760 net.cpp:408] d2c_relu_d2c_0_split -> d2c_relu_d2c_0_split_0
I0421 20:12:38.878245  6760 net.cpp:408] d2c_relu_d2c_0_split -> d2c_relu_d2c_0_split_1
I0421 20:12:38.878309  6760 net.cpp:150] Setting up d2c_relu_d2c_0_split
I0421 20:12:38.878316  6760 net.cpp:157] Top shape: 5 256 100 100 (12800000)
I0421 20:12:38.878320  6760 net.cpp:157] Top shape: 5 256 100 100 (12800000)
I0421 20:12:38.878322  6760 net.cpp:165] Memory required for data: 2463773760
I0421 20:12:38.878325  6760 layer_factory.hpp:77] Creating layer pool_d2c-3a
I0421 20:12:38.878330  6760 net.cpp:100] Creating Layer pool_d2c-3a
I0421 20:12:38.878334  6760 net.cpp:434] pool_d2c-3a <- d2c_relu_d2c_0_split_0
I0421 20:12:38.878340  6760 net.cpp:408] pool_d2c-3a -> d3a
I0421 20:12:38.878372  6760 net.cpp:150] Setting up pool_d2c-3a
I0421 20:12:38.878381  6760 net.cpp:157] Top shape: 5 256 50 50 (3200000)
I0421 20:12:38.878383  6760 net.cpp:165] Memory required for data: 2476573760
I0421 20:12:38.878386  6760 layer_factory.hpp:77] Creating layer conv_d3a-b
I0421 20:12:38.878393  6760 net.cpp:100] Creating Layer conv_d3a-b
I0421 20:12:38.878396  6760 net.cpp:434] conv_d3a-b <- d3a
I0421 20:12:38.878402  6760 net.cpp:408] conv_d3a-b -> d3b
I0421 20:12:38.887398  6760 net.cpp:150] Setting up conv_d3a-b
I0421 20:12:38.887411  6760 net.cpp:157] Top shape: 5 512 48 48 (5898240)
I0421 20:12:38.887413  6760 net.cpp:165] Memory required for data: 2500166720
I0421 20:12:38.887419  6760 layer_factory.hpp:77] Creating layer relu_d3b
I0421 20:12:38.887424  6760 net.cpp:100] Creating Layer relu_d3b
I0421 20:12:38.887428  6760 net.cpp:434] relu_d3b <- d3b
I0421 20:12:38.887432  6760 net.cpp:395] relu_d3b -> d3b (in-place)
I0421 20:12:38.887651  6760 net.cpp:150] Setting up relu_d3b
I0421 20:12:38.887661  6760 net.cpp:157] Top shape: 5 512 48 48 (5898240)
I0421 20:12:38.887663  6760 net.cpp:165] Memory required for data: 2523759680
I0421 20:12:38.887666  6760 layer_factory.hpp:77] Creating layer conv_d3b-c
I0421 20:12:38.887676  6760 net.cpp:100] Creating Layer conv_d3b-c
I0421 20:12:38.887679  6760 net.cpp:434] conv_d3b-c <- d3b
I0421 20:12:38.887688  6760 net.cpp:408] conv_d3b-c -> d3c
I0421 20:12:38.903522  6760 net.cpp:150] Setting up conv_d3b-c
I0421 20:12:38.903537  6760 net.cpp:157] Top shape: 5 512 46 46 (5416960)
I0421 20:12:38.903539  6760 net.cpp:165] Memory required for data: 2545427520
I0421 20:12:38.903560  6760 layer_factory.hpp:77] Creating layer relu_d3c
I0421 20:12:38.903568  6760 net.cpp:100] Creating Layer relu_d3c
I0421 20:12:38.903571  6760 net.cpp:434] relu_d3c <- d3c
I0421 20:12:38.903575  6760 net.cpp:395] relu_d3c -> d3c (in-place)
I0421 20:12:38.903779  6760 net.cpp:150] Setting up relu_d3c
I0421 20:12:38.903789  6760 net.cpp:157] Top shape: 5 512 46 46 (5416960)
I0421 20:12:38.903791  6760 net.cpp:165] Memory required for data: 2567095360
I0421 20:12:38.903794  6760 layer_factory.hpp:77] Creating layer dropout_d3c
I0421 20:12:38.903800  6760 net.cpp:100] Creating Layer dropout_d3c
I0421 20:12:38.903803  6760 net.cpp:434] dropout_d3c <- d3c
I0421 20:12:38.903808  6760 net.cpp:395] dropout_d3c -> d3c (in-place)
I0421 20:12:38.903834  6760 net.cpp:150] Setting up dropout_d3c
I0421 20:12:38.903838  6760 net.cpp:157] Top shape: 5 512 46 46 (5416960)
I0421 20:12:38.903841  6760 net.cpp:165] Memory required for data: 2588763200
I0421 20:12:38.903843  6760 layer_factory.hpp:77] Creating layer d3c_dropout_d3c_0_split
I0421 20:12:38.903864  6760 net.cpp:100] Creating Layer d3c_dropout_d3c_0_split
I0421 20:12:38.903867  6760 net.cpp:434] d3c_dropout_d3c_0_split <- d3c
I0421 20:12:38.903872  6760 net.cpp:408] d3c_dropout_d3c_0_split -> d3c_dropout_d3c_0_split_0
I0421 20:12:38.903879  6760 net.cpp:408] d3c_dropout_d3c_0_split -> d3c_dropout_d3c_0_split_1
I0421 20:12:38.903925  6760 net.cpp:150] Setting up d3c_dropout_d3c_0_split
I0421 20:12:38.903933  6760 net.cpp:157] Top shape: 5 512 46 46 (5416960)
I0421 20:12:38.903935  6760 net.cpp:157] Top shape: 5 512 46 46 (5416960)
I0421 20:12:38.903939  6760 net.cpp:165] Memory required for data: 2632098880
I0421 20:12:38.903940  6760 layer_factory.hpp:77] Creating layer pool_d3c-4a
I0421 20:12:38.903945  6760 net.cpp:100] Creating Layer pool_d3c-4a
I0421 20:12:38.903947  6760 net.cpp:434] pool_d3c-4a <- d3c_dropout_d3c_0_split_0
I0421 20:12:38.903954  6760 net.cpp:408] pool_d3c-4a -> d4a
I0421 20:12:38.903985  6760 net.cpp:150] Setting up pool_d3c-4a
I0421 20:12:38.903995  6760 net.cpp:157] Top shape: 5 512 23 23 (1354240)
I0421 20:12:38.903996  6760 net.cpp:165] Memory required for data: 2637515840
I0421 20:12:38.904000  6760 layer_factory.hpp:77] Creating layer conv_d4a-b
I0421 20:12:38.904007  6760 net.cpp:100] Creating Layer conv_d4a-b
I0421 20:12:38.904011  6760 net.cpp:434] conv_d4a-b <- d4a
I0421 20:12:38.904014  6760 net.cpp:408] conv_d4a-b -> d4b
I0421 20:12:38.935921  6760 net.cpp:150] Setting up conv_d4a-b
I0421 20:12:38.935937  6760 net.cpp:157] Top shape: 5 1024 21 21 (2257920)
I0421 20:12:38.935940  6760 net.cpp:165] Memory required for data: 2646547520
I0421 20:12:38.935967  6760 layer_factory.hpp:77] Creating layer relu_d4b
I0421 20:12:38.935976  6760 net.cpp:100] Creating Layer relu_d4b
I0421 20:12:38.935979  6760 net.cpp:434] relu_d4b <- d4b
I0421 20:12:38.935983  6760 net.cpp:395] relu_d4b -> d4b (in-place)
I0421 20:12:38.937695  6760 net.cpp:150] Setting up relu_d4b
I0421 20:12:38.937712  6760 net.cpp:157] Top shape: 5 1024 21 21 (2257920)
I0421 20:12:38.937716  6760 net.cpp:165] Memory required for data: 2655579200
I0421 20:12:38.937718  6760 layer_factory.hpp:77] Creating layer conv_d4b-c
I0421 20:12:38.937729  6760 net.cpp:100] Creating Layer conv_d4b-c
I0421 20:12:38.937733  6760 net.cpp:434] conv_d4b-c <- d4b
I0421 20:12:38.937741  6760 net.cpp:408] conv_d4b-c -> d4c
I0421 20:12:38.997961  6760 net.cpp:150] Setting up conv_d4b-c
I0421 20:12:38.997984  6760 net.cpp:157] Top shape: 5 1024 19 19 (1848320)
I0421 20:12:38.997987  6760 net.cpp:165] Memory required for data: 2662972480
I0421 20:12:38.998001  6760 layer_factory.hpp:77] Creating layer relu_d4c
I0421 20:12:38.998009  6760 net.cpp:100] Creating Layer relu_d4c
I0421 20:12:38.998013  6760 net.cpp:434] relu_d4c <- d4c
I0421 20:12:38.998019  6760 net.cpp:395] relu_d4c -> d4c (in-place)
I0421 20:12:38.998293  6760 net.cpp:150] Setting up relu_d4c
I0421 20:12:38.998303  6760 net.cpp:157] Top shape: 5 1024 19 19 (1848320)
I0421 20:12:38.998306  6760 net.cpp:165] Memory required for data: 2670365760
I0421 20:12:38.998308  6760 layer_factory.hpp:77] Creating layer dropout_d4c
I0421 20:12:38.998316  6760 net.cpp:100] Creating Layer dropout_d4c
I0421 20:12:38.998318  6760 net.cpp:434] dropout_d4c <- d4c
I0421 20:12:38.998324  6760 net.cpp:395] dropout_d4c -> d4c (in-place)
I0421 20:12:38.998350  6760 net.cpp:150] Setting up dropout_d4c
I0421 20:12:38.998358  6760 net.cpp:157] Top shape: 5 1024 19 19 (1848320)
I0421 20:12:38.998360  6760 net.cpp:165] Memory required for data: 2677759040
I0421 20:12:38.998363  6760 layer_factory.hpp:77] Creating layer upconv_d4c_u3a
I0421 20:12:38.998371  6760 net.cpp:100] Creating Layer upconv_d4c_u3a
I0421 20:12:38.998374  6760 net.cpp:434] upconv_d4c_u3a <- d4c
I0421 20:12:38.998379  6760 net.cpp:408] upconv_d4c_u3a -> u3a
I0421 20:12:39.011863  6760 net.cpp:150] Setting up upconv_d4c_u3a
I0421 20:12:39.011876  6760 net.cpp:157] Top shape: 5 512 38 38 (3696640)
I0421 20:12:39.011878  6760 net.cpp:165] Memory required for data: 2692545600
I0421 20:12:39.011884  6760 layer_factory.hpp:77] Creating layer relu_u3a
I0421 20:12:39.011934  6760 net.cpp:100] Creating Layer relu_u3a
I0421 20:12:39.011937  6760 net.cpp:434] relu_u3a <- u3a
I0421 20:12:39.011942  6760 net.cpp:395] relu_u3a -> u3a (in-place)
I0421 20:12:39.012166  6760 net.cpp:150] Setting up relu_u3a
I0421 20:12:39.012176  6760 net.cpp:157] Top shape: 5 512 38 38 (3696640)
I0421 20:12:39.012179  6760 net.cpp:165] Memory required for data: 2707332160
I0421 20:12:39.012181  6760 layer_factory.hpp:77] Creating layer u3a_relu_u3a_0_split
I0421 20:12:39.012187  6760 net.cpp:100] Creating Layer u3a_relu_u3a_0_split
I0421 20:12:39.012190  6760 net.cpp:434] u3a_relu_u3a_0_split <- u3a
I0421 20:12:39.012197  6760 net.cpp:408] u3a_relu_u3a_0_split -> u3a_relu_u3a_0_split_0
I0421 20:12:39.012202  6760 net.cpp:408] u3a_relu_u3a_0_split -> u3a_relu_u3a_0_split_1
I0421 20:12:39.012243  6760 net.cpp:150] Setting up u3a_relu_u3a_0_split
I0421 20:12:39.012249  6760 net.cpp:157] Top shape: 5 512 38 38 (3696640)
I0421 20:12:39.012253  6760 net.cpp:157] Top shape: 5 512 38 38 (3696640)
I0421 20:12:39.012255  6760 net.cpp:165] Memory required for data: 2736905280
I0421 20:12:39.012259  6760 layer_factory.hpp:77] Creating layer crop_d3c-d3cc
I0421 20:12:39.012265  6760 net.cpp:100] Creating Layer crop_d3c-d3cc
I0421 20:12:39.012269  6760 net.cpp:434] crop_d3c-d3cc <- d3c_dropout_d3c_0_split_1
I0421 20:12:39.012272  6760 net.cpp:434] crop_d3c-d3cc <- u3a_relu_u3a_0_split_0
I0421 20:12:39.012277  6760 net.cpp:408] crop_d3c-d3cc -> d3cc
I0421 20:12:39.012298  6760 net.cpp:150] Setting up crop_d3c-d3cc
I0421 20:12:39.012303  6760 net.cpp:157] Top shape: 5 512 38 38 (3696640)
I0421 20:12:39.012305  6760 net.cpp:165] Memory required for data: 2751691840
I0421 20:12:39.012308  6760 layer_factory.hpp:77] Creating layer concat_d3cc_u3a-b
I0421 20:12:39.012315  6760 net.cpp:100] Creating Layer concat_d3cc_u3a-b
I0421 20:12:39.012317  6760 net.cpp:434] concat_d3cc_u3a-b <- u3a_relu_u3a_0_split_1
I0421 20:12:39.012321  6760 net.cpp:434] concat_d3cc_u3a-b <- d3cc
I0421 20:12:39.012326  6760 net.cpp:408] concat_d3cc_u3a-b -> u3b
I0421 20:12:39.012348  6760 net.cpp:150] Setting up concat_d3cc_u3a-b
I0421 20:12:39.012356  6760 net.cpp:157] Top shape: 5 1024 38 38 (7393280)
I0421 20:12:39.012358  6760 net.cpp:165] Memory required for data: 2781264960
I0421 20:12:39.012361  6760 layer_factory.hpp:77] Creating layer conv_u3b-c
I0421 20:12:39.012369  6760 net.cpp:100] Creating Layer conv_u3b-c
I0421 20:12:39.012372  6760 net.cpp:434] conv_u3b-c <- u3b
I0421 20:12:39.012378  6760 net.cpp:408] conv_u3b-c -> u3c
I0421 20:12:39.041538  6760 net.cpp:150] Setting up conv_u3b-c
I0421 20:12:39.041553  6760 net.cpp:157] Top shape: 5 512 36 36 (3317760)
I0421 20:12:39.041556  6760 net.cpp:165] Memory required for data: 2794536000
I0421 20:12:39.041579  6760 layer_factory.hpp:77] Creating layer relu_u3c
I0421 20:12:39.041584  6760 net.cpp:100] Creating Layer relu_u3c
I0421 20:12:39.041587  6760 net.cpp:434] relu_u3c <- u3c
I0421 20:12:39.041594  6760 net.cpp:395] relu_u3c -> u3c (in-place)
I0421 20:12:39.041801  6760 net.cpp:150] Setting up relu_u3c
I0421 20:12:39.041810  6760 net.cpp:157] Top shape: 5 512 36 36 (3317760)
I0421 20:12:39.041813  6760 net.cpp:165] Memory required for data: 2807807040
I0421 20:12:39.041816  6760 layer_factory.hpp:77] Creating layer conv_u3c-d
I0421 20:12:39.041826  6760 net.cpp:100] Creating Layer conv_u3c-d
I0421 20:12:39.041827  6760 net.cpp:434] conv_u3c-d <- u3c
I0421 20:12:39.041833  6760 net.cpp:408] conv_u3c-d -> u3d
I0421 20:12:39.057199  6760 net.cpp:150] Setting up conv_u3c-d
I0421 20:12:39.057210  6760 net.cpp:157] Top shape: 5 512 34 34 (2959360)
I0421 20:12:39.057212  6760 net.cpp:165] Memory required for data: 2819644480
I0421 20:12:39.057229  6760 layer_factory.hpp:77] Creating layer relu_u3d
I0421 20:12:39.057235  6760 net.cpp:100] Creating Layer relu_u3d
I0421 20:12:39.057237  6760 net.cpp:434] relu_u3d <- u3d
I0421 20:12:39.057242  6760 net.cpp:395] relu_u3d -> u3d (in-place)
I0421 20:12:39.058097  6760 net.cpp:150] Setting up relu_u3d
I0421 20:12:39.058125  6760 net.cpp:157] Top shape: 5 512 34 34 (2959360)
I0421 20:12:39.058146  6760 net.cpp:165] Memory required for data: 2831481920
I0421 20:12:39.058148  6760 layer_factory.hpp:77] Creating layer upconv_u3d_u2a
I0421 20:12:39.058171  6760 net.cpp:100] Creating Layer upconv_u3d_u2a
I0421 20:12:39.058174  6760 net.cpp:434] upconv_u3d_u2a <- u3d
I0421 20:12:39.058181  6760 net.cpp:408] upconv_u3d_u2a -> u2a
I0421 20:12:39.062093  6760 net.cpp:150] Setting up upconv_u3d_u2a
I0421 20:12:39.062106  6760 net.cpp:157] Top shape: 5 256 68 68 (5918720)
I0421 20:12:39.062109  6760 net.cpp:165] Memory required for data: 2855156800
I0421 20:12:39.062114  6760 layer_factory.hpp:77] Creating layer relu_u2a
I0421 20:12:39.062119  6760 net.cpp:100] Creating Layer relu_u2a
I0421 20:12:39.062121  6760 net.cpp:434] relu_u2a <- u2a
I0421 20:12:39.062126  6760 net.cpp:395] relu_u2a -> u2a (in-place)
I0421 20:12:39.062335  6760 net.cpp:150] Setting up relu_u2a
I0421 20:12:39.062345  6760 net.cpp:157] Top shape: 5 256 68 68 (5918720)
I0421 20:12:39.062347  6760 net.cpp:165] Memory required for data: 2878831680
I0421 20:12:39.062350  6760 layer_factory.hpp:77] Creating layer u2a_relu_u2a_0_split
I0421 20:12:39.062355  6760 net.cpp:100] Creating Layer u2a_relu_u2a_0_split
I0421 20:12:39.062358  6760 net.cpp:434] u2a_relu_u2a_0_split <- u2a
I0421 20:12:39.062363  6760 net.cpp:408] u2a_relu_u2a_0_split -> u2a_relu_u2a_0_split_0
I0421 20:12:39.062386  6760 net.cpp:408] u2a_relu_u2a_0_split -> u2a_relu_u2a_0_split_1
I0421 20:12:39.062427  6760 net.cpp:150] Setting up u2a_relu_u2a_0_split
I0421 20:12:39.062433  6760 net.cpp:157] Top shape: 5 256 68 68 (5918720)
I0421 20:12:39.062436  6760 net.cpp:157] Top shape: 5 256 68 68 (5918720)
I0421 20:12:39.062439  6760 net.cpp:165] Memory required for data: 2926181440
I0421 20:12:39.062441  6760 layer_factory.hpp:77] Creating layer crop_d2c-d2cc
I0421 20:12:39.062449  6760 net.cpp:100] Creating Layer crop_d2c-d2cc
I0421 20:12:39.062453  6760 net.cpp:434] crop_d2c-d2cc <- d2c_relu_d2c_0_split_1
I0421 20:12:39.062456  6760 net.cpp:434] crop_d2c-d2cc <- u2a_relu_u2a_0_split_0
I0421 20:12:39.062463  6760 net.cpp:408] crop_d2c-d2cc -> d2cc
I0421 20:12:39.062484  6760 net.cpp:150] Setting up crop_d2c-d2cc
I0421 20:12:39.062489  6760 net.cpp:157] Top shape: 5 256 68 68 (5918720)
I0421 20:12:39.062492  6760 net.cpp:165] Memory required for data: 2949856320
I0421 20:12:39.062494  6760 layer_factory.hpp:77] Creating layer concat_d2cc_u2a-b
I0421 20:12:39.062500  6760 net.cpp:100] Creating Layer concat_d2cc_u2a-b
I0421 20:12:39.062502  6760 net.cpp:434] concat_d2cc_u2a-b <- u2a_relu_u2a_0_split_1
I0421 20:12:39.062506  6760 net.cpp:434] concat_d2cc_u2a-b <- d2cc
I0421 20:12:39.062510  6760 net.cpp:408] concat_d2cc_u2a-b -> u2b
I0421 20:12:39.062530  6760 net.cpp:150] Setting up concat_d2cc_u2a-b
I0421 20:12:39.062537  6760 net.cpp:157] Top shape: 5 512 68 68 (11837440)
I0421 20:12:39.062541  6760 net.cpp:165] Memory required for data: 2997206080
I0421 20:12:39.062542  6760 layer_factory.hpp:77] Creating layer conv_u2b-c
I0421 20:12:39.062551  6760 net.cpp:100] Creating Layer conv_u2b-c
I0421 20:12:39.062554  6760 net.cpp:434] conv_u2b-c <- u2b
I0421 20:12:39.062561  6760 net.cpp:408] conv_u2b-c -> u2c
I0421 20:12:39.070576  6760 net.cpp:150] Setting up conv_u2b-c
I0421 20:12:39.070590  6760 net.cpp:157] Top shape: 5 256 66 66 (5575680)
I0421 20:12:39.070591  6760 net.cpp:165] Memory required for data: 3019508800
I0421 20:12:39.070613  6760 layer_factory.hpp:77] Creating layer relu_u2c
I0421 20:12:39.070618  6760 net.cpp:100] Creating Layer relu_u2c
I0421 20:12:39.070621  6760 net.cpp:434] relu_u2c <- u2c
I0421 20:12:39.070626  6760 net.cpp:395] relu_u2c -> u2c (in-place)
I0421 20:12:39.070824  6760 net.cpp:150] Setting up relu_u2c
I0421 20:12:39.070833  6760 net.cpp:157] Top shape: 5 256 66 66 (5575680)
I0421 20:12:39.070835  6760 net.cpp:165] Memory required for data: 3041811520
I0421 20:12:39.070838  6760 layer_factory.hpp:77] Creating layer conv_u2c-d
I0421 20:12:39.070849  6760 net.cpp:100] Creating Layer conv_u2c-d
I0421 20:12:39.070866  6760 net.cpp:434] conv_u2c-d <- u2c
I0421 20:12:39.070873  6760 net.cpp:408] conv_u2c-d -> u2d
I0421 20:12:39.075062  6760 net.cpp:150] Setting up conv_u2c-d
I0421 20:12:39.075075  6760 net.cpp:157] Top shape: 5 256 64 64 (5242880)
I0421 20:12:39.075078  6760 net.cpp:165] Memory required for data: 3062783040
I0421 20:12:39.075098  6760 layer_factory.hpp:77] Creating layer relu_u2d
I0421 20:12:39.075104  6760 net.cpp:100] Creating Layer relu_u2d
I0421 20:12:39.075109  6760 net.cpp:434] relu_u2d <- u2d
I0421 20:12:39.075112  6760 net.cpp:395] relu_u2d -> u2d (in-place)
I0421 20:12:39.075294  6760 net.cpp:150] Setting up relu_u2d
I0421 20:12:39.075304  6760 net.cpp:157] Top shape: 5 256 64 64 (5242880)
I0421 20:12:39.075306  6760 net.cpp:165] Memory required for data: 3083754560
I0421 20:12:39.075309  6760 layer_factory.hpp:77] Creating layer upconv_u2d_u1a
I0421 20:12:39.075315  6760 net.cpp:100] Creating Layer upconv_u2d_u1a
I0421 20:12:39.075318  6760 net.cpp:434] upconv_u2d_u1a <- u2d
I0421 20:12:39.075323  6760 net.cpp:408] upconv_u2d_u1a -> u1a
I0421 20:12:39.077021  6760 net.cpp:150] Setting up upconv_u2d_u1a
I0421 20:12:39.077034  6760 net.cpp:157] Top shape: 5 128 128 128 (10485760)
I0421 20:12:39.077036  6760 net.cpp:165] Memory required for data: 3125697600
I0421 20:12:39.077054  6760 layer_factory.hpp:77] Creating layer relu_u1a
I0421 20:12:39.077057  6760 net.cpp:100] Creating Layer relu_u1a
I0421 20:12:39.077060  6760 net.cpp:434] relu_u1a <- u1a
I0421 20:12:39.077064  6760 net.cpp:395] relu_u1a -> u1a (in-place)
I0421 20:12:39.077772  6760 net.cpp:150] Setting up relu_u1a
I0421 20:12:39.077785  6760 net.cpp:157] Top shape: 5 128 128 128 (10485760)
I0421 20:12:39.077786  6760 net.cpp:165] Memory required for data: 3167640640
I0421 20:12:39.077790  6760 layer_factory.hpp:77] Creating layer u1a_relu_u1a_0_split
I0421 20:12:39.077800  6760 net.cpp:100] Creating Layer u1a_relu_u1a_0_split
I0421 20:12:39.077803  6760 net.cpp:434] u1a_relu_u1a_0_split <- u1a
I0421 20:12:39.077810  6760 net.cpp:408] u1a_relu_u1a_0_split -> u1a_relu_u1a_0_split_0
I0421 20:12:39.077816  6760 net.cpp:408] u1a_relu_u1a_0_split -> u1a_relu_u1a_0_split_1
I0421 20:12:39.077872  6760 net.cpp:150] Setting up u1a_relu_u1a_0_split
I0421 20:12:39.077877  6760 net.cpp:157] Top shape: 5 128 128 128 (10485760)
I0421 20:12:39.077880  6760 net.cpp:157] Top shape: 5 128 128 128 (10485760)
I0421 20:12:39.077883  6760 net.cpp:165] Memory required for data: 3251526720
I0421 20:12:39.077885  6760 layer_factory.hpp:77] Creating layer crop_d1c-d1cc
I0421 20:12:39.077890  6760 net.cpp:100] Creating Layer crop_d1c-d1cc
I0421 20:12:39.077893  6760 net.cpp:434] crop_d1c-d1cc <- d1c_relu_d1c_0_split_1
I0421 20:12:39.077896  6760 net.cpp:434] crop_d1c-d1cc <- u1a_relu_u1a_0_split_0
I0421 20:12:39.077900  6760 net.cpp:408] crop_d1c-d1cc -> d1cc
I0421 20:12:39.077921  6760 net.cpp:150] Setting up crop_d1c-d1cc
I0421 20:12:39.077925  6760 net.cpp:157] Top shape: 5 128 128 128 (10485760)
I0421 20:12:39.077927  6760 net.cpp:165] Memory required for data: 3293469760
I0421 20:12:39.077930  6760 layer_factory.hpp:77] Creating layer concat_d1cc_u1a-b
I0421 20:12:39.077934  6760 net.cpp:100] Creating Layer concat_d1cc_u1a-b
I0421 20:12:39.077937  6760 net.cpp:434] concat_d1cc_u1a-b <- u1a_relu_u1a_0_split_1
I0421 20:12:39.077941  6760 net.cpp:434] concat_d1cc_u1a-b <- d1cc
I0421 20:12:39.077945  6760 net.cpp:408] concat_d1cc_u1a-b -> u1b
I0421 20:12:39.077965  6760 net.cpp:150] Setting up concat_d1cc_u1a-b
I0421 20:12:39.077968  6760 net.cpp:157] Top shape: 5 256 128 128 (20971520)
I0421 20:12:39.077970  6760 net.cpp:165] Memory required for data: 3377355840
I0421 20:12:39.077972  6760 layer_factory.hpp:77] Creating layer conv_u1b-c
I0421 20:12:39.077981  6760 net.cpp:100] Creating Layer conv_u1b-c
I0421 20:12:39.077983  6760 net.cpp:434] conv_u1b-c <- u1b
I0421 20:12:39.077987  6760 net.cpp:408] conv_u1b-c -> u1c
I0421 20:12:39.079707  6760 net.cpp:150] Setting up conv_u1b-c
I0421 20:12:39.079715  6760 net.cpp:157] Top shape: 5 128 126 126 (10160640)
I0421 20:12:39.079744  6760 net.cpp:165] Memory required for data: 3417998400
I0421 20:12:39.079751  6760 layer_factory.hpp:77] Creating layer relu_u1c
I0421 20:12:39.079757  6760 net.cpp:100] Creating Layer relu_u1c
I0421 20:12:39.079761  6760 net.cpp:434] relu_u1c <- u1c
I0421 20:12:39.079763  6760 net.cpp:395] relu_u1c -> u1c (in-place)
I0421 20:12:39.079931  6760 net.cpp:150] Setting up relu_u1c
I0421 20:12:39.079941  6760 net.cpp:157] Top shape: 5 128 126 126 (10160640)
I0421 20:12:39.079943  6760 net.cpp:165] Memory required for data: 3458640960
I0421 20:12:39.079946  6760 layer_factory.hpp:77] Creating layer conv_u1c-d
I0421 20:12:39.079953  6760 net.cpp:100] Creating Layer conv_u1c-d
I0421 20:12:39.079957  6760 net.cpp:434] conv_u1c-d <- u1c
I0421 20:12:39.079962  6760 net.cpp:408] conv_u1c-d -> u1d
I0421 20:12:39.081746  6760 net.cpp:150] Setting up conv_u1c-d
I0421 20:12:39.081758  6760 net.cpp:157] Top shape: 5 128 124 124 (9840640)
I0421 20:12:39.081761  6760 net.cpp:165] Memory required for data: 3498003520
I0421 20:12:39.081784  6760 layer_factory.hpp:77] Creating layer relu_u1d
I0421 20:12:39.081804  6760 net.cpp:100] Creating Layer relu_u1d
I0421 20:12:39.081805  6760 net.cpp:434] relu_u1d <- u1d
I0421 20:12:39.081812  6760 net.cpp:395] relu_u1d -> u1d (in-place)
I0421 20:12:39.081986  6760 net.cpp:150] Setting up relu_u1d
I0421 20:12:39.081995  6760 net.cpp:157] Top shape: 5 128 124 124 (9840640)
I0421 20:12:39.081997  6760 net.cpp:165] Memory required for data: 3537366080
I0421 20:12:39.082000  6760 layer_factory.hpp:77] Creating layer upconv_u1d_u0a
I0421 20:12:39.082007  6760 net.cpp:100] Creating Layer upconv_u1d_u0a
I0421 20:12:39.082010  6760 net.cpp:434] upconv_u1d_u0a <- u1d
I0421 20:12:39.082015  6760 net.cpp:408] upconv_u1d_u0a -> u0a
I0421 20:12:39.082630  6760 net.cpp:150] Setting up upconv_u1d_u0a
I0421 20:12:39.082638  6760 net.cpp:157] Top shape: 5 128 248 248 (39362560)
I0421 20:12:39.082639  6760 net.cpp:165] Memory required for data: 3694816320
I0421 20:12:39.082644  6760 layer_factory.hpp:77] Creating layer relu_u0a
I0421 20:12:39.082664  6760 net.cpp:100] Creating Layer relu_u0a
I0421 20:12:39.082667  6760 net.cpp:434] relu_u0a <- u0a
I0421 20:12:39.082672  6760 net.cpp:395] relu_u0a -> u0a (in-place)
I0421 20:12:39.082835  6760 net.cpp:150] Setting up relu_u0a
I0421 20:12:39.082844  6760 net.cpp:157] Top shape: 5 128 248 248 (39362560)
I0421 20:12:39.082846  6760 net.cpp:165] Memory required for data: 3852266560
I0421 20:12:39.082849  6760 layer_factory.hpp:77] Creating layer u0a_relu_u0a_0_split
I0421 20:12:39.082854  6760 net.cpp:100] Creating Layer u0a_relu_u0a_0_split
I0421 20:12:39.082857  6760 net.cpp:434] u0a_relu_u0a_0_split <- u0a
I0421 20:12:39.082861  6760 net.cpp:408] u0a_relu_u0a_0_split -> u0a_relu_u0a_0_split_0
I0421 20:12:39.082868  6760 net.cpp:408] u0a_relu_u0a_0_split -> u0a_relu_u0a_0_split_1
I0421 20:12:39.082906  6760 net.cpp:150] Setting up u0a_relu_u0a_0_split
I0421 20:12:39.082912  6760 net.cpp:157] Top shape: 5 128 248 248 (39362560)
I0421 20:12:39.082916  6760 net.cpp:157] Top shape: 5 128 248 248 (39362560)
I0421 20:12:39.082917  6760 net.cpp:165] Memory required for data: 4167167040
I0421 20:12:39.082919  6760 layer_factory.hpp:77] Creating layer crop_d0c-d0cc
I0421 20:12:39.082926  6760 net.cpp:100] Creating Layer crop_d0c-d0cc
I0421 20:12:39.082929  6760 net.cpp:434] crop_d0c-d0cc <- d0c_relu_d0c_0_split_1
I0421 20:12:39.082932  6760 net.cpp:434] crop_d0c-d0cc <- u0a_relu_u0a_0_split_0
I0421 20:12:39.082937  6760 net.cpp:408] crop_d0c-d0cc -> d0cc
I0421 20:12:39.082958  6760 net.cpp:150] Setting up crop_d0c-d0cc
I0421 20:12:39.082962  6760 net.cpp:157] Top shape: 5 64 248 248 (19681280)
I0421 20:12:39.082964  6760 net.cpp:165] Memory required for data: 4245892160
I0421 20:12:39.082967  6760 layer_factory.hpp:77] Creating layer concat_d0cc_u0a-b
I0421 20:12:39.082972  6760 net.cpp:100] Creating Layer concat_d0cc_u0a-b
I0421 20:12:39.082973  6760 net.cpp:434] concat_d0cc_u0a-b <- u0a_relu_u0a_0_split_1
I0421 20:12:39.082978  6760 net.cpp:434] concat_d0cc_u0a-b <- d0cc
I0421 20:12:39.082994  6760 net.cpp:408] concat_d0cc_u0a-b -> u0b
I0421 20:12:39.083016  6760 net.cpp:150] Setting up concat_d0cc_u0a-b
I0421 20:12:39.083020  6760 net.cpp:157] Top shape: 5 192 248 248 (59043840)
I0421 20:12:39.083022  6760 net.cpp:165] Memory required for data: 4482067520
I0421 20:12:39.083024  6760 layer_factory.hpp:77] Creating layer conv_u0b-c
I0421 20:12:39.083036  6760 net.cpp:100] Creating Layer conv_u0b-c
I0421 20:12:39.083039  6760 net.cpp:434] conv_u0b-c <- u0b
I0421 20:12:39.083042  6760 net.cpp:408] conv_u0b-c -> u0c
I0421 20:12:39.083874  6760 net.cpp:150] Setting up conv_u0b-c
I0421 20:12:39.083883  6760 net.cpp:157] Top shape: 5 64 246 246 (19365120)
I0421 20:12:39.083884  6760 net.cpp:165] Memory required for data: 4559528000
I0421 20:12:39.083889  6760 layer_factory.hpp:77] Creating layer relu_u0c
I0421 20:12:39.083907  6760 net.cpp:100] Creating Layer relu_u0c
I0421 20:12:39.083911  6760 net.cpp:434] relu_u0c <- u0c
I0421 20:12:39.083914  6760 net.cpp:395] relu_u0c -> u0c (in-place)
I0421 20:12:39.084699  6760 net.cpp:150] Setting up relu_u0c
I0421 20:12:39.084712  6760 net.cpp:157] Top shape: 5 64 246 246 (19365120)
I0421 20:12:39.084715  6760 net.cpp:165] Memory required for data: 4636988480
I0421 20:12:39.084718  6760 layer_factory.hpp:77] Creating layer conv_u0c-d
I0421 20:12:39.084736  6760 net.cpp:100] Creating Layer conv_u0c-d
I0421 20:12:39.084738  6760 net.cpp:434] conv_u0c-d <- u0c
I0421 20:12:39.084743  6760 net.cpp:408] conv_u0c-d -> u0d
I0421 20:12:39.085238  6760 net.cpp:150] Setting up conv_u0c-d
I0421 20:12:39.085247  6760 net.cpp:157] Top shape: 5 64 244 244 (19051520)
I0421 20:12:39.085248  6760 net.cpp:165] Memory required for data: 4713194560
I0421 20:12:39.085253  6760 layer_factory.hpp:77] Creating layer relu_u0d
I0421 20:12:39.085258  6760 net.cpp:100] Creating Layer relu_u0d
I0421 20:12:39.085259  6760 net.cpp:434] relu_u0d <- u0d
I0421 20:12:39.085266  6760 net.cpp:395] relu_u0d -> u0d (in-place)
I0421 20:12:39.085485  6760 net.cpp:150] Setting up relu_u0d
I0421 20:12:39.085494  6760 net.cpp:157] Top shape: 5 64 244 244 (19051520)
I0421 20:12:39.085497  6760 net.cpp:165] Memory required for data: 4789400640
I0421 20:12:39.085500  6760 layer_factory.hpp:77] Creating layer conv_u0d-score
I0421 20:12:39.085508  6760 net.cpp:100] Creating Layer conv_u0d-score
I0421 20:12:39.085510  6760 net.cpp:434] conv_u0d-score <- u0d
I0421 20:12:39.085516  6760 net.cpp:408] conv_u0d-score -> score
I0421 20:12:39.085822  6760 net.cpp:150] Setting up conv_u0d-score
I0421 20:12:39.085845  6760 net.cpp:157] Top shape: 5 4 244 244 (1190720)
I0421 20:12:39.085847  6760 net.cpp:165] Memory required for data: 4794163520
I0421 20:12:39.085851  6760 layer_factory.hpp:77] Creating layer score_conv_u0d-score_0_split
I0421 20:12:39.085861  6760 net.cpp:100] Creating Layer score_conv_u0d-score_0_split
I0421 20:12:39.085865  6760 net.cpp:434] score_conv_u0d-score_0_split <- score
I0421 20:12:39.085870  6760 net.cpp:408] score_conv_u0d-score_0_split -> score_conv_u0d-score_0_split_0
I0421 20:12:39.085875  6760 net.cpp:408] score_conv_u0d-score_0_split -> score_conv_u0d-score_0_split_1
I0421 20:12:39.085909  6760 net.cpp:150] Setting up score_conv_u0d-score_0_split
I0421 20:12:39.085916  6760 net.cpp:157] Top shape: 5 4 244 244 (1190720)
I0421 20:12:39.085917  6760 net.cpp:157] Top shape: 5 4 244 244 (1190720)
I0421 20:12:39.085919  6760 net.cpp:165] Memory required for data: 4803689280
I0421 20:12:39.085922  6760 layer_factory.hpp:77] Creating layer loss
I0421 20:12:39.085927  6760 net.cpp:100] Creating Layer loss
I0421 20:12:39.085928  6760 net.cpp:434] loss <- score_conv_u0d-score_0_split_0
I0421 20:12:39.085932  6760 net.cpp:434] loss <- label
I0421 20:12:39.085934  6760 net.cpp:434] loss <- weights
I0421 20:12:39.085954  6760 net.cpp:408] loss -> loss
I0421 20:12:39.085960  6760 layer_factory.hpp:77] Creating layer loss
I0421 20:12:39.089624  6760 net.cpp:150] Setting up loss
I0421 20:12:39.089638  6760 net.cpp:157] Top shape: (1)
I0421 20:12:39.089642  6760 net.cpp:160]     with loss weight 1
I0421 20:12:39.089685  6760 net.cpp:165] Memory required for data: 4803689284
I0421 20:12:39.089689  6760 layer_factory.hpp:77] Creating layer visualize
I0421 20:12:39.089695  6760 net.cpp:100] Creating Layer visualize
I0421 20:12:39.089699  6760 net.cpp:434] visualize <- score_conv_u0d-score_0_split_1
I0421 20:12:39.089706  6760 net.cpp:408] visualize -> visualize_out
I0421 20:12:39.090517  6760 net.cpp:150] Setting up visualize
I0421 20:12:39.090530  6760 net.cpp:157] Top shape: 5 4 244 244 (1190720)
I0421 20:12:39.090533  6760 net.cpp:165] Memory required for data: 4808452164
I0421 20:12:39.090535  6760 layer_factory.hpp:77] Creating layer fake
I0421 20:12:39.090546  6760 net.cpp:100] Creating Layer fake
I0421 20:12:39.090548  6760 net.cpp:434] fake <- visualize_out
I0421 20:12:39.090553  6760 net.cpp:150] Setting up fake
I0421 20:12:39.090555  6760 net.cpp:165] Memory required for data: 4808452164
…
I0421 20:12:39.091401  6760 net.cpp:322] The NetState phase (1) differed from the phase (0) specified by a rule in layer visualize
I0421 20:12:39.091403  6760 net.cpp:322] The NetState phase (1) differed from the phase (0) specified by a rule in layer fake
I0421 20:12:39.091650  6760 net.cpp:58] Initializing net from parameters: 
name: "unet_weighted_4"
force_backward: true
state {
  phase: TEST
}
layer {
  name: "loaddata"
  type: "HDF5Data"
  top: "data"
  top: "label"
  top: "weights"
  include {
    phase: TEST
  }
  hdf5_data_param {
    source: "caffeHDF5_validation_4.txt"
    batch_size: 1
  }
}
layer {
  name: "conv_d0a-b"
  type: "Convolution"
  bottom: "data"
  top: "d0b"
  param {
    lr_mult: 1
    decay_mult: 1
  }
  param {
    lr_mult: 2
    decay_mult: 0
  }
  convolution_param {
    num_output: 64
    pad: 0
    kernel_size: 3
    weight_filler {
      type: "xavier"
    }
    engine: CAFFE
  }
}
layer {
  name: "relu_d0b"
  type: "ReLU"
  bottom: "d0b"
  top: "d0b"
}
layer {
  name: "conv_d0b-c"
  type: "Convolution"
  bottom: "d0b"
  top: "d0c"
  param {
    lr_mult: 1
    decay_mult: 1
  }
  param {
    lr_mult: 2
    decay_mult: 0
  }
  convolution_param {
    num_output: 64
    pad: 0
    kernel_size: 3
    weight_filler {
      type: "xavier"
    }
    engine: CAFFE
  }
}
layer {
  name: "relu_d0c"
  type: "ReLU"
  bottom: "d0c"
  top: "d0c"
}
layer {
  name: "pool_d0c-1a"
  type: "Pooling"
  bottom: "d0c"
  top: "d1a"
  pooling_param {
    pool: MAX
    kernel_size: 2
    stride: 2
  }
}
layer {
  name: "conv_d1a-b"
  type: "Convolution"
  bottom: "d1a"
  top: "d1b"
  param {
    lr_mult: 1
    decay_mult: 1
  }
  param {
    lr_mult: 2
    decay_mult: 0
  }
  convolution_param {
    num_output: 128
    pad: 0
    kernel_size: 3
    weight_filler {
      type: "xavier"
    }
    engine: CAFFE
  }
}
layer {
  name: "relu_d1b"
  type: "ReLU"
  bottom: "d1b"
  top: "d1b"
}
layer {
  name: "conv_d1b-c"
  type: "Convolution"
  bottom: "d1b"
  top: "d1c"
  param {
    lr_mult: 1
    decay_mult: 1
  }
  param {
    lr_mult: 2
    decay_mult: 0
  }
  convolution_param {
    num_output: 128
    pad: 0
    kernel_size: 3
    weight_filler {
      type: "xavier"
    }
    engine: CAFFE
  }
}
layer {
  name: "relu_d1c"
  type: "ReLU"
  bottom: "d1c"
  top: "d1c"
}
layer {
  name: "pool_d1c-2a"
  type: "Pooling"
  bottom: "d1c"
  top: "d2a"
  pooling_param {
    pool: MAX
    kernel_size: 2
    stride: 2
  }
}
layer {
  name: "conv_d2a-b"
  type: "Convolution"
  bottom: "d2a"
  top: "d2b"
  param {
    lr_mult: 1
    decay_mult: 1
  }
  param {
    lr_mult: 2
    decay_mult: 0
  }
  convolution_param {
    num_output: 256
    pad: 0
    kernel_size: 3
    weight_filler {
      type: "xavier"
    }
    engine: CAFFE
  }
}
layer {
  name: "relu_d2b"
  type: "ReLU"
  bottom: "d2b"
  top: "d2b"
}
layer {
  name: "conv_d2b-c"
  type: "Convolution"
  bottom: "d2b"
  top: "d2c"
  param {
    lr_mult: 1
    decay_mult: 1
  }
  param {
    lr_mult: 2
    decay_mult: 0
  }
  convolution_param {
    num_output: 256
    pad: 0
    kernel_size: 3
    weight_filler {
      type: "xavier"
    }
    engine: CAFFE
  }
}
layer {
  name: "relu_d2c"
  type: "ReLU"
  bottom: "d2c"
  top: "d2c"
}
layer {
  name: "pool_d2c-3a"
  type: "Pooling"
  bottom: "d2c"
  top: "d3a"
  pooling_param {
    pool: MAX
    kernel_size: 2
    stride: 2
  }
}
layer {
  name: "conv_d3a-b"
  type: "Convolution"
  bottom: "d3a"
  top: "d3b"
  param {
    lr_mult: 1
    decay_mult: 1
  }
  param {
    lr_mult: 2
    decay_mult: 0
  }
  convolution_param {
    num_output: 512
    pad: 0
    kernel_size: 3
    weight_filler {
      type: "xavier"
    }
    engine: CAFFE
  }
}
layer {
  name: "relu_d3b"
  type: "ReLU"
  bottom: "d3b"
  top: "d3b"
}
layer {
  name: "conv_d3b-c"
  type: "Convolution"
  bottom: "d3b"
  top: "d3c"
  param {
    lr_mult: 1
    decay_mult: 1
  }
  param {
    lr_mult: 2
    decay_mult: 0
  }
  convolution_param {
    num_output: 512
    pad: 0
    kernel_size: 3
    weight_filler {
      type: "xavier"
    }
    engine: CAFFE
  }
}
layer {
  name: "relu_d3c"
  type: "ReLU"
  bottom: "d3c"
  top: "d3c"
}
layer {
  name: "pool_d3c-4a"
  type: "Pooling"
  bottom: "d3c"
  top: "d4a"
  pooling_param {
    pool: MAX
    kernel_size: 2
    stride: 2
  }
}
layer {
  name: "conv_d4a-b"
  type: "Convolution"
  bottom: "d4a"
  top: "d4b"
  param {
    lr_mult: 1
    decay_mult: 1
  }
  param {
    lr_mult: 2
    decay_mult: 0
  }
  convolution_param {
    num_output: 1024
    pad: 0
    kernel_size: 3
    weight_filler {
      type: "xavier"
    }
    engine: CAFFE
  }
}
layer {
  name: "relu_d4b"
  type: "ReLU"
  bottom: "d4b"
  top: "d4b"
}
layer {
  name: "conv_d4b-c"
  type: "Convolution"
  bottom: "d4b"
  top: "d4c"
  param {
    lr_mult: 1
    decay_mult: 1
  }
  param {
    lr_mult: 2
    decay_mult: 0
  }
  convolution_param {
    num_output: 1024
    pad: 0
    kernel_size: 3
    weight_filler {
      type: "xavier"
    }
    engine: CAFFE
  }
}
layer {
  name: "relu_d4c"
  type: "ReLU"
  bottom: "d4c"
  top: "d4c"
}
layer {
  name: "upconv_d4c_u3a"
  type: "Deconvolution"
  bottom: "d4c"
  top: "u3a"
  param {
    lr_mult: 1
    decay_mult: 1
  }
  param {
    lr_mult: 2
    decay_mult: 0
  }
  convolution_param {
    num_output: 512
    pad: 0
    kernel_size: 2
    stride: 2
    weight_filler {
      type: "xavier"
    }
  }
}
layer {
  name: "relu_u3a"
  type: "ReLU"
  bottom: "u3a"
  top: "u3a"
}
layer {
  name: "crop_d3c-d3cc"
  type: "Crop"
  bottom: "d3c"
  bottom: "u3a"
  top: "d3cc"
  crop_param {
    axis: 2
    offset: 4
  }
}
layer {
  name: "concat_d3cc_u3a-b"
  type: "Concat"
  bottom: "u3a"
  bottom: "d3cc"
  top: "u3b"
}
layer {
  name: "conv_u3b-c"
  type: "Convolution"
  bottom: "u3b"
  top: "u3c"
  param {
    lr_mult: 1
    decay_mult: 1
  }
  param {
    lr_mult: 2
    decay_mult: 0
  }
  convolution_param {
    num_output: 512
    pad: 0
    kernel_size: 3
    weight_filler {
      type: "xavier"
    }
    engine: CAFFE
  }
}
layer {
  name: "relu_u3c"
  type: "ReLU"
  bottom: "u3c"
  top: "u3c"
}
layer {
  name: "conv_u3c-d"
  type: "Convolution"
  bottom: "u3c"
  top: "u3d"
  param {
    lr_mult: 1
    decay_mult: 1
  }
  param {
    lr_mult: 2
    decay_mult: 0
  }
  convolution_param {
    num_output: 512
    pad: 0
    kernel_size: 3
    weight_filler {
      type: "xavier"
    }
    engine: CAFFE
  }
}
layer {
  name: "relu_u3d"
  type: "ReLU"
  bottom: "u3d"
  top: "u3d"
}
layer {
  name: "upconv_u3d_u2a"
  type: "Deconvolution"
  bottom: "u3d"
  top: "u2a"
  param {
    lr_mult: 1
    decay_mult: 1
  }
  param {
    lr_mult: 2
    decay_mult: 0
  }
  convolution_param {
    num_output: 256
    pad: 0
    kernel_size: 2
    stride: 2
    weight_filler {
      type: "xavier"
    }
  }
}
layer {
  name: "relu_u2a"
  type: "ReLU"
  bottom: "u2a"
  top: "u2a"
}
layer {
  name: "crop_d2c-d2cc"
  type: "Crop"
  bottom: "d2c"
  bottom: "u2a"
  top: "d2cc"
  crop_param {
    axis: 2
    offset: 16
  }
}
layer {
  name: "concat_d2cc_u2a-b"
  type: "Concat"
  bottom: "u2a"
  bottom: "d2cc"
  top: "u2b"
}
layer {
  name: "conv_u2b-c"
  type: "Convolution"
  bottom: "u2b"
  top: "u2c"
  param {
    lr_mult: 1
    decay_mult: 1
  }
  param {
    lr_mult: 2
    decay_mult: 0
  }
  convolution_param {
    num_output: 256
    pad: 0
    kernel_size: 3
    weight_filler {
      type: "xavier"
    }
    engine: CAFFE
  }
}
layer {
  name: "relu_u2c"
  type: "ReLU"
  bottom: "u2c"
  top: "u2c"
}
layer {
  name: "conv_u2c-d"
  type: "Convolution"
  bottom: "u2c"
  top: "u2d"
  param {
    lr_mult: 1
    decay_mult: 1
  }
  param {
    lr_mult: 2
    decay_mult: 0
  }
  convolution_param {
    num_output: 256
    pad: 0
    kernel_size: 3
    weight_filler {
      type: "xavier"
    }
    engine: CAFFE
  }
}
layer {
  name: "relu_u2d"
  type: "ReLU"
  bottom: "u2d"
  top: "u2d"
}
layer {
  name: "upconv_u2d_u1a"
  type: "Deconvolution"
  bottom: "u2d"
  top: "u1a"
  param {
    lr_mult: 1
    decay_mult: 1
  }
  param {
    lr_mult: 2
    decay_mult: 0
  }
  convolution_param {
    num_output: 128
    pad: 0
    kernel_size: 2
    stride: 2
    weight_filler {
      type: "xavier"
    }
  }
}
layer {
  name: "relu_u1a"
  type: "ReLU"
  bottom: "u1a"
  top: "u1a"
}
layer {
  name: "crop_d1c-d1cc"
  type: "Crop"
  bottom: "d1c"
  bottom: "u1a"
  top: "d1cc"
  crop_param {
    axis: 2
    offset: 40
  }
}
layer {
  name: "concat_d1cc_u1a-b"
  type: "Concat"
  bottom: "u1a"
  bottom: "d1cc"
  top: "u1b"
}
layer {
  name: "conv_u1b-c"
  type: "Convolution"
  bottom: "u1b"
  top: "u1c"
  param {
    lr_mult: 1
    decay_mult: 1
  }
  param {
    lr_mult: 2
    decay_mult: 0
  }
  convolution_param {
    num_output: 128
    pad: 0
    kernel_size: 3
    weight_filler {
      type: "xavier"
    }
    engine: CAFFE
  }
}
layer {
  name: "relu_u1c"
  type: "ReLU"
  bottom: "u1c"
  top: "u1c"
}
layer {
  name: "conv_u1c-d"
  type: "Convolution"
  bottom: "u1c"
  top: "u1d"
  param {
    lr_mult: 1
    decay_mult: 1
  }
  param {
    lr_mult: 2
    decay_mult: 0
  }
  convolution_param {
    num_output: 128
    pad: 0
    kernel_size: 3
    weight_filler {
      type: "xavier"
    }
    engine: CAFFE
  }
}
layer {
  name: "relu_u1d"
  type: "ReLU"
  bottom: "u1d"
  top: "u1d"
}
layer {
  name: "upconv_u1d_u0a"
  type: "Deconvolution"
  bottom: "u1d"
  top: "u0a"
  param {
    lr_mult: 1
    decay_mult: 1
  }
  param {
    lr_mult: 2
    decay_mult: 0
  }
  convolution_param {
    num_output: 128
    pad: 0
    kernel_size: 2
    stride: 2
    weight_filler {
      type: "xavier"
    }
  }
}
layer {
  name: "relu_u0a"
  type: "ReLU"
  bottom: "u0a"
  top: "u0a"
}
layer {
  name: "crop_d0c-d0cc"
  type: "Crop"
  bottom: "d0c"
  bottom: "u0a"
  top: "d0cc"
  crop_param {
    axis: 2
    offset: 88
  }
}
layer {
  name: "concat_d0cc_u0a-b"
  type: "Concat"
  bottom: "u0a"
  bottom: "d0cc"
  top: "u0b"
}
layer {
  name: "conv_u0b-c"
  type: "Convolution"
  bottom: "u0b"
  top: "u0c"
  param {
    lr_mult: 1
    decay_mult: 1
  }
  param {
    lr_mult: 2
    decay_mult: 0
  }
  convolution_param {
    num_output: 64
    pad: 0
    kernel_size: 3
    weight_filler {
      type: "xavier"
    }
    engine: CAFFE
  }
}
layer {
  name: "relu_u0c"
  type: "ReLU"
  bottom: "u0c"
  top: "u0c"
}
layer {
  name: "conv_u0c-d"
  type: "Convolution"
  bottom: "u0c"
  top: "u0d"
  param {
    lr_mult: 1
    decay_mult: 1
  }
  param {
    lr_mult: 2
    decay_mult: 0
  }
  convolution_param {
    num_output: 64
    pad: 0
    kernel_size: 3
    weight_filler {
      type: "xavier"
    }
    engine: CAFFE
  }
}
layer {
  name: "relu_u0d"
  type: "ReLU"
  bottom: "u0d"
  top: "u0d"
}
layer {
  name: "conv_u0d-score"
  type: "Convolution"
  bottom: "u0d"
  top: "score"
  param {
    lr_mult: 1
    decay_mult: 1
  }
  param {
    lr_mult: 2
    decay_mult: 0
  }
  convolution_param {
    num_output: 4
    pad: 0
    kernel_size: 1
    weight_filler {
      type: "xavier"
    }
    engine: CAFFE
  }
}
layer {
  name: "loss"
  type: "SoftmaxWithLoss"
  bottom: "score"
  bottom: "label"
  bottom: "weights"
  top: "loss"
  loss_weight: 1
}
I0421 20:12:39.091840  6760 layer_factory.hpp:77] Creating layer loaddata
I0421 20:12:39.091847  6760 net.cpp:100] Creating Layer loaddata
I0421 20:12:39.091850  6760 net.cpp:408] loaddata -> data
I0421 20:12:39.091857  6760 net.cpp:408] loaddata -> label
I0421 20:12:39.091861  6760 net.cpp:408] loaddata -> weights
I0421 20:12:39.091866  6760 hdf5_data_layer.cpp:79] Loading list of HDF5 filenames from: caffeHDF5_validation_4.txt
I0421 20:12:39.091886  6760 hdf5_data_layer.cpp:93] Number of HDF5 files: 10
I0421 20:12:39.392886  6760 net.cpp:150] Setting up loaddata
I0421 20:12:39.392910  6760 net.cpp:157] Top shape: 1 3 428 428 (549552)
I0421 20:12:39.392915  6760 net.cpp:157] Top shape: 1 244 244 (59536)
I0421 20:12:39.392917  6760 net.cpp:157] Top shape: 1 244 244 (59536)
I0421 20:12:39.392920  6760 net.cpp:165] Memory required for data: 2674496
I0421 20:12:39.392925  6760 layer_factory.hpp:77] Creating layer conv_d0a-b
I0421 20:12:39.392942  6760 net.cpp:100] Creating Layer conv_d0a-b
I0421 20:12:39.392946  6760 net.cpp:434] conv_d0a-b <- data
I0421 20:12:39.392952  6760 net.cpp:408] conv_d0a-b -> d0b
I0421 20:12:39.393383  6760 net.cpp:150] Setting up conv_d0a-b
I0421 20:12:39.393391  6760 net.cpp:157] Top shape: 1 64 426 426 (11614464)
I0421 20:12:39.393393  6760 net.cpp:165] Memory required for data: 49132352
I0421 20:12:39.393402  6760 layer_factory.hpp:77] Creating layer relu_d0b
I0421 20:12:39.393409  6760 net.cpp:100] Creating Layer relu_d0b
I0421 20:12:39.393411  6760 net.cpp:434] relu_d0b <- d0b
I0421 20:12:39.393415  6760 net.cpp:395] relu_d0b -> d0b (in-place)
I0421 20:12:39.393661  6760 net.cpp:150] Setting up relu_d0b
I0421 20:12:39.393668  6760 net.cpp:157] Top shape: 1 64 426 426 (11614464)
I0421 20:12:39.393694  6760 net.cpp:165] Memory required for data: 95590208
I0421 20:12:39.393697  6760 layer_factory.hpp:77] Creating layer conv_d0b-c
I0421 20:12:39.393705  6760 net.cpp:100] Creating Layer conv_d0b-c
I0421 20:12:39.393707  6760 net.cpp:434] conv_d0b-c <- d0b
I0421 20:12:39.393713  6760 net.cpp:408] conv_d0b-c -> d0c
I0421 20:12:39.395253  6760 net.cpp:150] Setting up conv_d0b-c
I0421 20:12:39.395264  6760 net.cpp:157] Top shape: 1 64 424 424 (11505664)
I0421 20:12:39.395267  6760 net.cpp:165] Memory required for data: 141612864
I0421 20:12:39.395277  6760 layer_factory.hpp:77] Creating layer relu_d0c
I0421 20:12:39.395282  6760 net.cpp:100] Creating Layer relu_d0c
I0421 20:12:39.395285  6760 net.cpp:434] relu_d0c <- d0c
I0421 20:12:39.395289  6760 net.cpp:395] relu_d0c -> d0c (in-place)
I0421 20:12:39.395486  6760 net.cpp:150] Setting up relu_d0c
I0421 20:12:39.395493  6760 net.cpp:157] Top shape: 1 64 424 424 (11505664)
I0421 20:12:39.395495  6760 net.cpp:165] Memory required for data: 187635520
I0421 20:12:39.395498  6760 layer_factory.hpp:77] Creating layer d0c_relu_d0c_0_split
I0421 20:12:39.395504  6760 net.cpp:100] Creating Layer d0c_relu_d0c_0_split
I0421 20:12:39.395508  6760 net.cpp:434] d0c_relu_d0c_0_split <- d0c
I0421 20:12:39.395512  6760 net.cpp:408] d0c_relu_d0c_0_split -> d0c_relu_d0c_0_split_0
I0421 20:12:39.395519  6760 net.cpp:408] d0c_relu_d0c_0_split -> d0c_relu_d0c_0_split_1
I0421 20:12:39.395562  6760 net.cpp:150] Setting up d0c_relu_d0c_0_split
I0421 20:12:39.395567  6760 net.cpp:157] Top shape: 1 64 424 424 (11505664)
I0421 20:12:39.395570  6760 net.cpp:157] Top shape: 1 64 424 424 (11505664)
I0421 20:12:39.395572  6760 net.cpp:165] Memory required for data: 279680832
I0421 20:12:39.395576  6760 layer_factory.hpp:77] Creating layer pool_d0c-1a
I0421 20:12:39.395581  6760 net.cpp:100] Creating Layer pool_d0c-1a
I0421 20:12:39.395584  6760 net.cpp:434] pool_d0c-1a <- d0c_relu_d0c_0_split_0
I0421 20:12:39.395588  6760 net.cpp:408] pool_d0c-1a -> d1a
I0421 20:12:39.395625  6760 net.cpp:150] Setting up pool_d0c-1a
I0421 20:12:39.395629  6760 net.cpp:157] Top shape: 1 64 212 212 (2876416)
I0421 20:12:39.395632  6760 net.cpp:165] Memory required for data: 291186496
I0421 20:12:39.395633  6760 layer_factory.hpp:77] Creating layer conv_d1a-b
I0421 20:12:39.395642  6760 net.cpp:100] Creating Layer conv_d1a-b
I0421 20:12:39.395643  6760 net.cpp:434] conv_d1a-b <- d1a
I0421 20:12:39.395648  6760 net.cpp:408] conv_d1a-b -> d1b
I0421 20:12:39.397207  6760 net.cpp:150] Setting up conv_d1a-b
I0421 20:12:39.397222  6760 net.cpp:157] Top shape: 1 128 210 210 (5644800)
I0421 20:12:39.397225  6760 net.cpp:165] Memory required for data: 313765696
I0421 20:12:39.397233  6760 layer_factory.hpp:77] Creating layer relu_d1b
I0421 20:12:39.397240  6760 net.cpp:100] Creating Layer relu_d1b
I0421 20:12:39.397243  6760 net.cpp:434] relu_d1b <- d1b
I0421 20:12:39.397248  6760 net.cpp:395] relu_d1b -> d1b (in-place)
I0421 20:12:39.397452  6760 net.cpp:150] Setting up relu_d1b
I0421 20:12:39.397464  6760 net.cpp:157] Top shape: 1 128 210 210 (5644800)
I0421 20:12:39.397466  6760 net.cpp:165] Memory required for data: 336344896
I0421 20:12:39.397469  6760 layer_factory.hpp:77] Creating layer conv_d1b-c
I0421 20:12:39.397477  6760 net.cpp:100] Creating Layer conv_d1b-c
I0421 20:12:39.397480  6760 net.cpp:434] conv_d1b-c <- d1b
I0421 20:12:39.397485  6760 net.cpp:408] conv_d1b-c -> d1c
I0421 20:12:39.398591  6760 net.cpp:150] Setting up conv_d1b-c
I0421 20:12:39.398600  6760 net.cpp:157] Top shape: 1 128 208 208 (5537792)
I0421 20:12:39.398602  6760 net.cpp:165] Memory required for data: 358496064
I0421 20:12:39.398623  6760 layer_factory.hpp:77] Creating layer relu_d1c
I0421 20:12:39.398628  6760 net.cpp:100] Creating Layer relu_d1c
I0421 20:12:39.398630  6760 net.cpp:434] relu_d1c <- d1c
I0421 20:12:39.398634  6760 net.cpp:395] relu_d1c -> d1c (in-place)
I0421 20:12:39.399495  6760 net.cpp:150] Setting up relu_d1c
I0421 20:12:39.399519  6760 net.cpp:157] Top shape: 1 128 208 208 (5537792)
I0421 20:12:39.399523  6760 net.cpp:165] Memory required for data: 380647232
I0421 20:12:39.399555  6760 layer_factory.hpp:77] Creating layer d1c_relu_d1c_0_split
I0421 20:12:39.399562  6760 net.cpp:100] Creating Layer d1c_relu_d1c_0_split
I0421 20:12:39.399565  6760 net.cpp:434] d1c_relu_d1c_0_split <- d1c
I0421 20:12:39.399571  6760 net.cpp:408] d1c_relu_d1c_0_split -> d1c_relu_d1c_0_split_0
I0421 20:12:39.399579  6760 net.cpp:408] d1c_relu_d1c_0_split -> d1c_relu_d1c_0_split_1
I0421 20:12:39.399624  6760 net.cpp:150] Setting up d1c_relu_d1c_0_split
I0421 20:12:39.399632  6760 net.cpp:157] Top shape: 1 128 208 208 (5537792)
I0421 20:12:39.399636  6760 net.cpp:157] Top shape: 1 128 208 208 (5537792)
I0421 20:12:39.399637  6760 net.cpp:165] Memory required for data: 424949568
I0421 20:12:39.399641  6760 layer_factory.hpp:77] Creating layer pool_d1c-2a
I0421 20:12:39.399646  6760 net.cpp:100] Creating Layer pool_d1c-2a
I0421 20:12:39.399648  6760 net.cpp:434] pool_d1c-2a <- d1c_relu_d1c_0_split_0
I0421 20:12:39.399653  6760 net.cpp:408] pool_d1c-2a -> d2a
I0421 20:12:39.399689  6760 net.cpp:150] Setting up pool_d1c-2a
I0421 20:12:39.399695  6760 net.cpp:157] Top shape: 1 128 104 104 (1384448)
I0421 20:12:39.399698  6760 net.cpp:165] Memory required for data: 430487360
I0421 20:12:39.399700  6760 layer_factory.hpp:77] Creating layer conv_d2a-b
I0421 20:12:39.399708  6760 net.cpp:100] Creating Layer conv_d2a-b
I0421 20:12:39.399710  6760 net.cpp:434] conv_d2a-b <- d2a
I0421 20:12:39.399715  6760 net.cpp:408] conv_d2a-b -> d2b
I0421 20:12:39.402520  6760 net.cpp:150] Setting up conv_d2a-b
I0421 20:12:39.402534  6760 net.cpp:157] Top shape: 1 256 102 102 (2663424)
I0421 20:12:39.402536  6760 net.cpp:165] Memory required for data: 441141056
I0421 20:12:39.402561  6760 layer_factory.hpp:77] Creating layer relu_d2b
I0421 20:12:39.402567  6760 net.cpp:100] Creating Layer relu_d2b
I0421 20:12:39.402570  6760 net.cpp:434] relu_d2b <- d2b
I0421 20:12:39.402575  6760 net.cpp:395] relu_d2b -> d2b (in-place)
I0421 20:12:39.402760  6760 net.cpp:150] Setting up relu_d2b
I0421 20:12:39.402770  6760 net.cpp:157] Top shape: 1 256 102 102 (2663424)
I0421 20:12:39.402772  6760 net.cpp:165] Memory required for data: 451794752
I0421 20:12:39.402775  6760 layer_factory.hpp:77] Creating layer conv_d2b-c
I0421 20:12:39.402782  6760 net.cpp:100] Creating Layer conv_d2b-c
I0421 20:12:39.402786  6760 net.cpp:434] conv_d2b-c <- d2b
I0421 20:12:39.402791  6760 net.cpp:408] conv_d2b-c -> d2c
I0421 20:12:39.407253  6760 net.cpp:150] Setting up conv_d2b-c
I0421 20:12:39.407268  6760 net.cpp:157] Top shape: 1 256 100 100 (2560000)
I0421 20:12:39.407270  6760 net.cpp:165] Memory required for data: 462034752
I0421 20:12:39.407276  6760 layer_factory.hpp:77] Creating layer relu_d2c
I0421 20:12:39.407284  6760 net.cpp:100] Creating Layer relu_d2c
I0421 20:12:39.407287  6760 net.cpp:434] relu_d2c <- d2c
I0421 20:12:39.407291  6760 net.cpp:395] relu_d2c -> d2c (in-place)
I0421 20:12:39.407480  6760 net.cpp:150] Setting up relu_d2c
I0421 20:12:39.407490  6760 net.cpp:157] Top shape: 1 256 100 100 (2560000)
I0421 20:12:39.407492  6760 net.cpp:165] Memory required for data: 472274752
I0421 20:12:39.407495  6760 layer_factory.hpp:77] Creating layer d2c_relu_d2c_0_split
I0421 20:12:39.407500  6760 net.cpp:100] Creating Layer d2c_relu_d2c_0_split
I0421 20:12:39.407503  6760 net.cpp:434] d2c_relu_d2c_0_split <- d2c
I0421 20:12:39.407508  6760 net.cpp:408] d2c_relu_d2c_0_split -> d2c_relu_d2c_0_split_0
I0421 20:12:39.407515  6760 net.cpp:408] d2c_relu_d2c_0_split -> d2c_relu_d2c_0_split_1
I0421 20:12:39.407560  6760 net.cpp:150] Setting up d2c_relu_d2c_0_split
I0421 20:12:39.407567  6760 net.cpp:157] Top shape: 1 256 100 100 (2560000)
I0421 20:12:39.407570  6760 net.cpp:157] Top shape: 1 256 100 100 (2560000)
I0421 20:12:39.407573  6760 net.cpp:165] Memory required for data: 492754752
I0421 20:12:39.407577  6760 layer_factory.hpp:77] Creating layer pool_d2c-3a
I0421 20:12:39.407582  6760 net.cpp:100] Creating Layer pool_d2c-3a
I0421 20:12:39.407583  6760 net.cpp:434] pool_d2c-3a <- d2c_relu_d2c_0_split_0
I0421 20:12:39.407601  6760 net.cpp:408] pool_d2c-3a -> d3a
I0421 20:12:39.407641  6760 net.cpp:150] Setting up pool_d2c-3a
I0421 20:12:39.407649  6760 net.cpp:157] Top shape: 1 256 50 50 (640000)
I0421 20:12:39.407650  6760 net.cpp:165] Memory required for data: 495314752
I0421 20:12:39.407654  6760 layer_factory.hpp:77] Creating layer conv_d3a-b
I0421 20:12:39.407661  6760 net.cpp:100] Creating Layer conv_d3a-b
I0421 20:12:39.407663  6760 net.cpp:434] conv_d3a-b <- d3a
I0421 20:12:39.407668  6760 net.cpp:408] conv_d3a-b -> d3b
I0421 20:12:39.416024  6760 net.cpp:150] Setting up conv_d3a-b
I0421 20:12:39.416039  6760 net.cpp:157] Top shape: 1 512 48 48 (1179648)
I0421 20:12:39.416041  6760 net.cpp:165] Memory required for data: 500033344
I0421 20:12:39.416064  6760 layer_factory.hpp:77] Creating layer relu_d3b
I0421 20:12:39.416069  6760 net.cpp:100] Creating Layer relu_d3b
I0421 20:12:39.416072  6760 net.cpp:434] relu_d3b <- d3b
I0421 20:12:39.416077  6760 net.cpp:395] relu_d3b -> d3b (in-place)
I0421 20:12:39.416265  6760 net.cpp:150] Setting up relu_d3b
I0421 20:12:39.416275  6760 net.cpp:157] Top shape: 1 512 48 48 (1179648)
I0421 20:12:39.416278  6760 net.cpp:165] Memory required for data: 504751936
I0421 20:12:39.416280  6760 layer_factory.hpp:77] Creating layer conv_d3b-c
I0421 20:12:39.416287  6760 net.cpp:100] Creating Layer conv_d3b-c
I0421 20:12:39.416290  6760 net.cpp:434] conv_d3b-c <- d3b
I0421 20:12:39.416296  6760 net.cpp:408] conv_d3b-c -> d3c
I0421 20:12:39.432483  6760 net.cpp:150] Setting up conv_d3b-c
I0421 20:12:39.432494  6760 net.cpp:157] Top shape: 1 512 46 46 (1083392)
I0421 20:12:39.432497  6760 net.cpp:165] Memory required for data: 509085504
I0421 20:12:39.432503  6760 layer_factory.hpp:77] Creating layer relu_d3c
I0421 20:12:39.432508  6760 net.cpp:100] Creating Layer relu_d3c
I0421 20:12:39.432512  6760 net.cpp:434] relu_d3c <- d3c
I0421 20:12:39.432515  6760 net.cpp:395] relu_d3c -> d3c (in-place)
I0421 20:12:39.433290  6760 net.cpp:150] Setting up relu_d3c
I0421 20:12:39.433300  6760 net.cpp:157] Top shape: 1 512 46 46 (1083392)
I0421 20:12:39.433302  6760 net.cpp:165] Memory required for data: 513419072
I0421 20:12:39.433305  6760 layer_factory.hpp:77] Creating layer d3c_relu_d3c_0_split
I0421 20:12:39.433311  6760 net.cpp:100] Creating Layer d3c_relu_d3c_0_split
I0421 20:12:39.433315  6760 net.cpp:434] d3c_relu_d3c_0_split <- d3c
I0421 20:12:39.433320  6760 net.cpp:408] d3c_relu_d3c_0_split -> d3c_relu_d3c_0_split_0
I0421 20:12:39.433326  6760 net.cpp:408] d3c_relu_d3c_0_split -> d3c_relu_d3c_0_split_1
I0421 20:12:39.433388  6760 net.cpp:150] Setting up d3c_relu_d3c_0_split
I0421 20:12:39.433393  6760 net.cpp:157] Top shape: 1 512 46 46 (1083392)
I0421 20:12:39.433398  6760 net.cpp:157] Top shape: 1 512 46 46 (1083392)
I0421 20:12:39.433399  6760 net.cpp:165] Memory required for data: 522086208
I0421 20:12:39.433403  6760 layer_factory.hpp:77] Creating layer pool_d3c-4a
I0421 20:12:39.433406  6760 net.cpp:100] Creating Layer pool_d3c-4a
I0421 20:12:39.433409  6760 net.cpp:434] pool_d3c-4a <- d3c_relu_d3c_0_split_0
I0421 20:12:39.433413  6760 net.cpp:408] pool_d3c-4a -> d4a
I0421 20:12:39.433456  6760 net.cpp:150] Setting up pool_d3c-4a
I0421 20:12:39.433461  6760 net.cpp:157] Top shape: 1 512 23 23 (270848)
I0421 20:12:39.433464  6760 net.cpp:165] Memory required for data: 523169600
I0421 20:12:39.433465  6760 layer_factory.hpp:77] Creating layer conv_d4a-b
I0421 20:12:39.433475  6760 net.cpp:100] Creating Layer conv_d4a-b
I0421 20:12:39.433476  6760 net.cpp:434] conv_d4a-b <- d4a
I0421 20:12:39.433481  6760 net.cpp:408] conv_d4a-b -> d4b
I0421 20:12:39.467420  6760 net.cpp:150] Setting up conv_d4a-b
I0421 20:12:39.467437  6760 net.cpp:157] Top shape: 1 1024 21 21 (451584)
I0421 20:12:39.467440  6760 net.cpp:165] Memory required for data: 524975936
I0421 20:12:39.467453  6760 layer_factory.hpp:77] Creating layer relu_d4b
I0421 20:12:39.467458  6760 net.cpp:100] Creating Layer relu_d4b
I0421 20:12:39.467463  6760 net.cpp:434] relu_d4b <- d4b
I0421 20:12:39.467468  6760 net.cpp:395] relu_d4b -> d4b (in-place)
I0421 20:12:39.467684  6760 net.cpp:150] Setting up relu_d4b
I0421 20:12:39.467692  6760 net.cpp:157] Top shape: 1 1024 21 21 (451584)
I0421 20:12:39.467695  6760 net.cpp:165] Memory required for data: 526782272
I0421 20:12:39.467697  6760 layer_factory.hpp:77] Creating layer conv_d4b-c
I0421 20:12:39.467706  6760 net.cpp:100] Creating Layer conv_d4b-c
I0421 20:12:39.467710  6760 net.cpp:434] conv_d4b-c <- d4b
I0421 20:12:39.467715  6760 net.cpp:408] conv_d4b-c -> d4c
I0421 20:12:39.530472  6760 net.cpp:150] Setting up conv_d4b-c
I0421 20:12:39.530494  6760 net.cpp:157] Top shape: 1 1024 19 19 (369664)
I0421 20:12:39.530496  6760 net.cpp:165] Memory required for data: 528260928
I0421 20:12:39.530504  6760 layer_factory.hpp:77] Creating layer relu_d4c
I0421 20:12:39.530513  6760 net.cpp:100] Creating Layer relu_d4c
I0421 20:12:39.530517  6760 net.cpp:434] relu_d4c <- d4c
I0421 20:12:39.530522  6760 net.cpp:395] relu_d4c -> d4c (in-place)
I0421 20:12:39.530746  6760 net.cpp:150] Setting up relu_d4c
I0421 20:12:39.530753  6760 net.cpp:157] Top shape: 1 1024 19 19 (369664)
I0421 20:12:39.530755  6760 net.cpp:165] Memory required for data: 529739584
I0421 20:12:39.530757  6760 layer_factory.hpp:77] Creating layer upconv_d4c_u3a
I0421 20:12:39.530766  6760 net.cpp:100] Creating Layer upconv_d4c_u3a
I0421 20:12:39.530769  6760 net.cpp:434] upconv_d4c_u3a <- d4c
I0421 20:12:39.530774  6760 net.cpp:408] upconv_d4c_u3a -> u3a
I0421 20:12:39.544795  6760 net.cpp:150] Setting up upconv_d4c_u3a
I0421 20:12:39.544806  6760 net.cpp:157] Top shape: 1 512 38 38 (739328)
I0421 20:12:39.544807  6760 net.cpp:165] Memory required for data: 532696896
I0421 20:12:39.544813  6760 layer_factory.hpp:77] Creating layer relu_u3a
I0421 20:12:39.544817  6760 net.cpp:100] Creating Layer relu_u3a
I0421 20:12:39.544821  6760 net.cpp:434] relu_u3a <- u3a
I0421 20:12:39.544826  6760 net.cpp:395] relu_u3a -> u3a (in-place)
I0421 20:12:39.545024  6760 net.cpp:150] Setting up relu_u3a
I0421 20:12:39.545030  6760 net.cpp:157] Top shape: 1 512 38 38 (739328)
I0421 20:12:39.545033  6760 net.cpp:165] Memory required for data: 535654208
I0421 20:12:39.545037  6760 layer_factory.hpp:77] Creating layer u3a_relu_u3a_0_split
I0421 20:12:39.545042  6760 net.cpp:100] Creating Layer u3a_relu_u3a_0_split
I0421 20:12:39.545043  6760 net.cpp:434] u3a_relu_u3a_0_split <- u3a
I0421 20:12:39.545049  6760 net.cpp:408] u3a_relu_u3a_0_split -> u3a_relu_u3a_0_split_0
I0421 20:12:39.545055  6760 net.cpp:408] u3a_relu_u3a_0_split -> u3a_relu_u3a_0_split_1
I0421 20:12:39.545099  6760 net.cpp:150] Setting up u3a_relu_u3a_0_split
I0421 20:12:39.545102  6760 net.cpp:157] Top shape: 1 512 38 38 (739328)
I0421 20:12:39.545106  6760 net.cpp:157] Top shape: 1 512 38 38 (739328)
I0421 20:12:39.545109  6760 net.cpp:165] Memory required for data: 541568832
I0421 20:12:39.545110  6760 layer_factory.hpp:77] Creating layer crop_d3c-d3cc
I0421 20:12:39.545120  6760 net.cpp:100] Creating Layer crop_d3c-d3cc
I0421 20:12:39.545125  6760 net.cpp:434] crop_d3c-d3cc <- d3c_relu_d3c_0_split_1
I0421 20:12:39.545128  6760 net.cpp:434] crop_d3c-d3cc <- u3a_relu_u3a_0_split_0
I0421 20:12:39.545133  6760 net.cpp:408] crop_d3c-d3cc -> d3cc
I0421 20:12:39.545156  6760 net.cpp:150] Setting up crop_d3c-d3cc
I0421 20:12:39.545161  6760 net.cpp:157] Top shape: 1 512 38 38 (739328)
I0421 20:12:39.545163  6760 net.cpp:165] Memory required for data: 544526144
I0421 20:12:39.545166  6760 layer_factory.hpp:77] Creating layer concat_d3cc_u3a-b
I0421 20:12:39.545171  6760 net.cpp:100] Creating Layer concat_d3cc_u3a-b
I0421 20:12:39.545173  6760 net.cpp:434] concat_d3cc_u3a-b <- u3a_relu_u3a_0_split_1
I0421 20:12:39.545176  6760 net.cpp:434] concat_d3cc_u3a-b <- d3cc
I0421 20:12:39.545181  6760 net.cpp:408] concat_d3cc_u3a-b -> u3b
I0421 20:12:39.545202  6760 net.cpp:150] Setting up concat_d3cc_u3a-b
I0421 20:12:39.545207  6760 net.cpp:157] Top shape: 1 1024 38 38 (1478656)
I0421 20:12:39.545209  6760 net.cpp:165] Memory required for data: 550440768
I0421 20:12:39.545212  6760 layer_factory.hpp:77] Creating layer conv_u3b-c
I0421 20:12:39.545256  6760 net.cpp:100] Creating Layer conv_u3b-c
I0421 20:12:39.545260  6760 net.cpp:434] conv_u3b-c <- u3b
I0421 20:12:39.545281  6760 net.cpp:408] conv_u3b-c -> u3c
I0421 20:12:39.576030  6760 net.cpp:150] Setting up conv_u3b-c
I0421 20:12:39.576042  6760 net.cpp:157] Top shape: 1 512 36 36 (663552)
I0421 20:12:39.576045  6760 net.cpp:165] Memory required for data: 553094976
I0421 20:12:39.576050  6760 layer_factory.hpp:77] Creating layer relu_u3c
I0421 20:12:39.576056  6760 net.cpp:100] Creating Layer relu_u3c
I0421 20:12:39.576059  6760 net.cpp:434] relu_u3c <- u3c
I0421 20:12:39.576064  6760 net.cpp:395] relu_u3c -> u3c (in-place)
I0421 20:12:39.576829  6760 net.cpp:150] Setting up relu_u3c
I0421 20:12:39.576838  6760 net.cpp:157] Top shape: 1 512 36 36 (663552)
I0421 20:12:39.576841  6760 net.cpp:165] Memory required for data: 555749184
I0421 20:12:39.576844  6760 layer_factory.hpp:77] Creating layer conv_u3c-d
I0421 20:12:39.576853  6760 net.cpp:100] Creating Layer conv_u3c-d
I0421 20:12:39.576855  6760 net.cpp:434] conv_u3c-d <- u3c
I0421 20:12:39.576861  6760 net.cpp:408] conv_u3c-d -> u3d
I0421 20:12:39.592417  6760 net.cpp:150] Setting up conv_u3c-d
I0421 20:12:39.592428  6760 net.cpp:157] Top shape: 1 512 34 34 (591872)
I0421 20:12:39.592430  6760 net.cpp:165] Memory required for data: 558116672
I0421 20:12:39.592437  6760 layer_factory.hpp:77] Creating layer relu_u3d
I0421 20:12:39.592442  6760 net.cpp:100] Creating Layer relu_u3d
I0421 20:12:39.592444  6760 net.cpp:434] relu_u3d <- u3d
I0421 20:12:39.592449  6760 net.cpp:395] relu_u3d -> u3d (in-place)
I0421 20:12:39.592628  6760 net.cpp:150] Setting up relu_u3d
I0421 20:12:39.592634  6760 net.cpp:157] Top shape: 1 512 34 34 (591872)
I0421 20:12:39.592636  6760 net.cpp:165] Memory required for data: 560484160
I0421 20:12:39.592638  6760 layer_factory.hpp:77] Creating layer upconv_u3d_u2a
I0421 20:12:39.592645  6760 net.cpp:100] Creating Layer upconv_u3d_u2a
I0421 20:12:39.592648  6760 net.cpp:434] upconv_u3d_u2a <- u3d
I0421 20:12:39.592653  6760 net.cpp:408] upconv_u3d_u2a -> u2a
I0421 20:12:39.598213  6760 net.cpp:150] Setting up upconv_u3d_u2a
I0421 20:12:39.598225  6760 net.cpp:157] Top shape: 1 256 68 68 (1183744)
I0421 20:12:39.598228  6760 net.cpp:165] Memory required for data: 565219136
I0421 20:12:39.598234  6760 layer_factory.hpp:77] Creating layer relu_u2a
I0421 20:12:39.598239  6760 net.cpp:100] Creating Layer relu_u2a
I0421 20:12:39.598242  6760 net.cpp:434] relu_u2a <- u2a
I0421 20:12:39.598247  6760 net.cpp:395] relu_u2a -> u2a (in-place)
I0421 20:12:39.598420  6760 net.cpp:150] Setting up relu_u2a
I0421 20:12:39.598426  6760 net.cpp:157] Top shape: 1 256 68 68 (1183744)
I0421 20:12:39.598428  6760 net.cpp:165] Memory required for data: 569954112
I0421 20:12:39.598431  6760 layer_factory.hpp:77] Creating layer u2a_relu_u2a_0_split
I0421 20:12:39.598436  6760 net.cpp:100] Creating Layer u2a_relu_u2a_0_split
I0421 20:12:39.598439  6760 net.cpp:434] u2a_relu_u2a_0_split <- u2a
I0421 20:12:39.598444  6760 net.cpp:408] u2a_relu_u2a_0_split -> u2a_relu_u2a_0_split_0
I0421 20:12:39.598450  6760 net.cpp:408] u2a_relu_u2a_0_split -> u2a_relu_u2a_0_split_1
I0421 20:12:39.598490  6760 net.cpp:150] Setting up u2a_relu_u2a_0_split
I0421 20:12:39.598495  6760 net.cpp:157] Top shape: 1 256 68 68 (1183744)
I0421 20:12:39.598497  6760 net.cpp:157] Top shape: 1 256 68 68 (1183744)
I0421 20:12:39.598500  6760 net.cpp:165] Memory required for data: 579424064
I0421 20:12:39.598502  6760 layer_factory.hpp:77] Creating layer crop_d2c-d2cc
I0421 20:12:39.598507  6760 net.cpp:100] Creating Layer crop_d2c-d2cc
I0421 20:12:39.598510  6760 net.cpp:434] crop_d2c-d2cc <- d2c_relu_d2c_0_split_1
I0421 20:12:39.598515  6760 net.cpp:434] crop_d2c-d2cc <- u2a_relu_u2a_0_split_0
I0421 20:12:39.598518  6760 net.cpp:408] crop_d2c-d2cc -> d2cc
I0421 20:12:39.598539  6760 net.cpp:150] Setting up crop_d2c-d2cc
I0421 20:12:39.598543  6760 net.cpp:157] Top shape: 1 256 68 68 (1183744)
I0421 20:12:39.598546  6760 net.cpp:165] Memory required for data: 584159040
I0421 20:12:39.598567  6760 layer_factory.hpp:77] Creating layer concat_d2cc_u2a-b
I0421 20:12:39.598572  6760 net.cpp:100] Creating Layer concat_d2cc_u2a-b
I0421 20:12:39.598592  6760 net.cpp:434] concat_d2cc_u2a-b <- u2a_relu_u2a_0_split_1
I0421 20:12:39.598597  6760 net.cpp:434] concat_d2cc_u2a-b <- d2cc
I0421 20:12:39.598600  6760 net.cpp:408] concat_d2cc_u2a-b -> u2b
I0421 20:12:39.598626  6760 net.cpp:150] Setting up concat_d2cc_u2a-b
I0421 20:12:39.598630  6760 net.cpp:157] Top shape: 1 512 68 68 (2367488)
I0421 20:12:39.598634  6760 net.cpp:165] Memory required for data: 593628992
I0421 20:12:39.598635  6760 layer_factory.hpp:77] Creating layer conv_u2b-c
I0421 20:12:39.598642  6760 net.cpp:100] Creating Layer conv_u2b-c
I0421 20:12:39.598644  6760 net.cpp:434] conv_u2b-c <- u2b
I0421 20:12:39.598650  6760 net.cpp:408] conv_u2b-c -> u2c
I0421 20:12:39.606621  6760 net.cpp:150] Setting up conv_u2b-c
I0421 20:12:39.606631  6760 net.cpp:157] Top shape: 1 256 66 66 (1115136)
I0421 20:12:39.606633  6760 net.cpp:165] Memory required for data: 598089536
I0421 20:12:39.606639  6760 layer_factory.hpp:77] Creating layer relu_u2c
I0421 20:12:39.606644  6760 net.cpp:100] Creating Layer relu_u2c
I0421 20:12:39.606647  6760 net.cpp:434] relu_u2c <- u2c
I0421 20:12:39.606652  6760 net.cpp:395] relu_u2c -> u2c (in-place)
I0421 20:12:39.607393  6760 net.cpp:150] Setting up relu_u2c
I0421 20:12:39.607403  6760 net.cpp:157] Top shape: 1 256 66 66 (1115136)
I0421 20:12:39.607405  6760 net.cpp:165] Memory required for data: 602550080
I0421 20:12:39.607408  6760 layer_factory.hpp:77] Creating layer conv_u2c-d
I0421 20:12:39.607416  6760 net.cpp:100] Creating Layer conv_u2c-d
I0421 20:12:39.607419  6760 net.cpp:434] conv_u2c-d <- u2c
I0421 20:12:39.607424  6760 net.cpp:408] conv_u2c-d -> u2d
I0421 20:12:39.613492  6760 net.cpp:150] Setting up conv_u2c-d
I0421 20:12:39.613505  6760 net.cpp:157] Top shape: 1 256 64 64 (1048576)
I0421 20:12:39.613508  6760 net.cpp:165] Memory required for data: 606744384
I0421 20:12:39.613514  6760 layer_factory.hpp:77] Creating layer relu_u2d
I0421 20:12:39.613520  6760 net.cpp:100] Creating Layer relu_u2d
I0421 20:12:39.613523  6760 net.cpp:434] relu_u2d <- u2d
I0421 20:12:39.613528  6760 net.cpp:395] relu_u2d -> u2d (in-place)
I0421 20:12:39.613710  6760 net.cpp:150] Setting up relu_u2d
I0421 20:12:39.613716  6760 net.cpp:157] Top shape: 1 256 64 64 (1048576)
I0421 20:12:39.613719  6760 net.cpp:165] Memory required for data: 610938688
I0421 20:12:39.613723  6760 layer_factory.hpp:77] Creating layer upconv_u2d_u1a
I0421 20:12:39.613729  6760 net.cpp:100] Creating Layer upconv_u2d_u1a
I0421 20:12:39.613731  6760 net.cpp:434] upconv_u2d_u1a <- u2d
I0421 20:12:39.613737  6760 net.cpp:408] upconv_u2d_u1a -> u1a
I0421 20:12:39.614739  6760 net.cpp:150] Setting up upconv_u2d_u1a
I0421 20:12:39.614745  6760 net.cpp:157] Top shape: 1 128 128 128 (2097152)
I0421 20:12:39.614748  6760 net.cpp:165] Memory required for data: 619327296
I0421 20:12:39.614758  6760 layer_factory.hpp:77] Creating layer relu_u1a
I0421 20:12:39.614763  6760 net.cpp:100] Creating Layer relu_u1a
I0421 20:12:39.614764  6760 net.cpp:434] relu_u1a <- u1a
I0421 20:12:39.614769  6760 net.cpp:395] relu_u1a -> u1a (in-place)
I0421 20:12:39.615090  6760 net.cpp:150] Setting up relu_u1a
I0421 20:12:39.615097  6760 net.cpp:157] Top shape: 1 128 128 128 (2097152)
I0421 20:12:39.615098  6760 net.cpp:165] Memory required for data: 627715904
I0421 20:12:39.615101  6760 layer_factory.hpp:77] Creating layer u1a_relu_u1a_0_split
I0421 20:12:39.615106  6760 net.cpp:100] Creating Layer u1a_relu_u1a_0_split
I0421 20:12:39.615109  6760 net.cpp:434] u1a_relu_u1a_0_split <- u1a
I0421 20:12:39.615113  6760 net.cpp:408] u1a_relu_u1a_0_split -> u1a_relu_u1a_0_split_0
I0421 20:12:39.615119  6760 net.cpp:408] u1a_relu_u1a_0_split -> u1a_relu_u1a_0_split_1
I0421 20:12:39.615161  6760 net.cpp:150] Setting up u1a_relu_u1a_0_split
I0421 20:12:39.615165  6760 net.cpp:157] Top shape: 1 128 128 128 (2097152)
I0421 20:12:39.615169  6760 net.cpp:157] Top shape: 1 128 128 128 (2097152)
I0421 20:12:39.615183  6760 net.cpp:165] Memory required for data: 644493120
I0421 20:12:39.615187  6760 layer_factory.hpp:77] Creating layer crop_d1c-d1cc
I0421 20:12:39.615192  6760 net.cpp:100] Creating Layer crop_d1c-d1cc
I0421 20:12:39.615195  6760 net.cpp:434] crop_d1c-d1cc <- d1c_relu_d1c_0_split_1
I0421 20:12:39.615200  6760 net.cpp:434] crop_d1c-d1cc <- u1a_relu_u1a_0_split_0
I0421 20:12:39.615205  6760 net.cpp:408] crop_d1c-d1cc -> d1cc
I0421 20:12:39.615229  6760 net.cpp:150] Setting up crop_d1c-d1cc
I0421 20:12:39.615233  6760 net.cpp:157] Top shape: 1 128 128 128 (2097152)
I0421 20:12:39.615236  6760 net.cpp:165] Memory required for data: 652881728
I0421 20:12:39.615238  6760 layer_factory.hpp:77] Creating layer concat_d1cc_u1a-b
I0421 20:12:39.615242  6760 net.cpp:100] Creating Layer concat_d1cc_u1a-b
I0421 20:12:39.615244  6760 net.cpp:434] concat_d1cc_u1a-b <- u1a_relu_u1a_0_split_1
I0421 20:12:39.615247  6760 net.cpp:434] concat_d1cc_u1a-b <- d1cc
I0421 20:12:39.615252  6760 net.cpp:408] concat_d1cc_u1a-b -> u1b
I0421 20:12:39.615272  6760 net.cpp:150] Setting up concat_d1cc_u1a-b
I0421 20:12:39.615276  6760 net.cpp:157] Top shape: 1 256 128 128 (4194304)
I0421 20:12:39.615278  6760 net.cpp:165] Memory required for data: 669658944
I0421 20:12:39.615281  6760 layer_factory.hpp:77] Creating layer conv_u1b-c
I0421 20:12:39.615288  6760 net.cpp:100] Creating Layer conv_u1b-c
I0421 20:12:39.615290  6760 net.cpp:434] conv_u1b-c <- u1b
I0421 20:12:39.615295  6760 net.cpp:408] conv_u1b-c -> u1c
I0421 20:12:39.617874  6760 net.cpp:150] Setting up conv_u1b-c
I0421 20:12:39.617884  6760 net.cpp:157] Top shape: 1 128 126 126 (2032128)
I0421 20:12:39.617887  6760 net.cpp:165] Memory required for data: 677787456
I0421 20:12:39.617892  6760 layer_factory.hpp:77] Creating layer relu_u1c
I0421 20:12:39.617897  6760 net.cpp:100] Creating Layer relu_u1c
I0421 20:12:39.617900  6760 net.cpp:434] relu_u1c <- u1c
I0421 20:12:39.617905  6760 net.cpp:395] relu_u1c -> u1c (in-place)
I0421 20:12:39.618077  6760 net.cpp:150] Setting up relu_u1c
I0421 20:12:39.618083  6760 net.cpp:157] Top shape: 1 128 126 126 (2032128)
I0421 20:12:39.618084  6760 net.cpp:165] Memory required for data: 685915968
I0421 20:12:39.618088  6760 layer_factory.hpp:77] Creating layer conv_u1c-d
I0421 20:12:39.618093  6760 net.cpp:100] Creating Layer conv_u1c-d
I0421 20:12:39.618096  6760 net.cpp:434] conv_u1c-d <- u1c
I0421 20:12:39.618101  6760 net.cpp:408] conv_u1c-d -> u1d
I0421 20:12:39.619089  6760 net.cpp:150] Setting up conv_u1c-d
I0421 20:12:39.619096  6760 net.cpp:157] Top shape: 1 128 124 124 (1968128)
I0421 20:12:39.619098  6760 net.cpp:165] Memory required for data: 693788480
I0421 20:12:39.619102  6760 layer_factory.hpp:77] Creating layer relu_u1d
I0421 20:12:39.619107  6760 net.cpp:100] Creating Layer relu_u1d
I0421 20:12:39.619108  6760 net.cpp:434] relu_u1d <- u1d
I0421 20:12:39.619113  6760 net.cpp:395] relu_u1d -> u1d (in-place)
I0421 20:12:39.619843  6760 net.cpp:150] Setting up relu_u1d
I0421 20:12:39.619853  6760 net.cpp:157] Top shape: 1 128 124 124 (1968128)
I0421 20:12:39.619855  6760 net.cpp:165] Memory required for data: 701660992
I0421 20:12:39.619858  6760 layer_factory.hpp:77] Creating layer upconv_u1d_u0a
I0421 20:12:39.619864  6760 net.cpp:100] Creating Layer upconv_u1d_u0a
I0421 20:12:39.619868  6760 net.cpp:434] upconv_u1d_u0a <- u1d
I0421 20:12:39.619873  6760 net.cpp:408] upconv_u1d_u0a -> u0a
I0421 20:12:39.620532  6760 net.cpp:150] Setting up upconv_u1d_u0a
I0421 20:12:39.620538  6760 net.cpp:157] Top shape: 1 128 248 248 (7872512)
I0421 20:12:39.620540  6760 net.cpp:165] Memory required for data: 733151040
I0421 20:12:39.620545  6760 layer_factory.hpp:77] Creating layer relu_u0a
I0421 20:12:39.620550  6760 net.cpp:100] Creating Layer relu_u0a
I0421 20:12:39.620553  6760 net.cpp:434] relu_u0a <- u0a
I0421 20:12:39.620556  6760 net.cpp:395] relu_u0a -> u0a (in-place)
I0421 20:12:39.621810  6760 net.cpp:150] Setting up relu_u0a
I0421 20:12:39.621819  6760 net.cpp:157] Top shape: 1 128 248 248 (7872512)
I0421 20:12:39.621832  6760 net.cpp:165] Memory required for data: 764641088
I0421 20:12:39.621835  6760 layer_factory.hpp:77] Creating layer u0a_relu_u0a_0_split
I0421 20:12:39.621840  6760 net.cpp:100] Creating Layer u0a_relu_u0a_0_split
I0421 20:12:39.621843  6760 net.cpp:434] u0a_relu_u0a_0_split <- u0a
I0421 20:12:39.621848  6760 net.cpp:408] u0a_relu_u0a_0_split -> u0a_relu_u0a_0_split_0
I0421 20:12:39.621855  6760 net.cpp:408] u0a_relu_u0a_0_split -> u0a_relu_u0a_0_split_1
I0421 20:12:39.621897  6760 net.cpp:150] Setting up u0a_relu_u0a_0_split
I0421 20:12:39.621902  6760 net.cpp:157] Top shape: 1 128 248 248 (7872512)
I0421 20:12:39.621906  6760 net.cpp:157] Top shape: 1 128 248 248 (7872512)
I0421 20:12:39.621907  6760 net.cpp:165] Memory required for data: 827621184
I0421 20:12:39.621909  6760 layer_factory.hpp:77] Creating layer crop_d0c-d0cc
I0421 20:12:39.621914  6760 net.cpp:100] Creating Layer crop_d0c-d0cc
I0421 20:12:39.621917  6760 net.cpp:434] crop_d0c-d0cc <- d0c_relu_d0c_0_split_1
I0421 20:12:39.621920  6760 net.cpp:434] crop_d0c-d0cc <- u0a_relu_u0a_0_split_0
I0421 20:12:39.621925  6760 net.cpp:408] crop_d0c-d0cc -> d0cc
I0421 20:12:39.621948  6760 net.cpp:150] Setting up crop_d0c-d0cc
I0421 20:12:39.621953  6760 net.cpp:157] Top shape: 1 64 248 248 (3936256)
I0421 20:12:39.621953  6760 net.cpp:165] Memory required for data: 843366208
I0421 20:12:39.621955  6760 layer_factory.hpp:77] Creating layer concat_d0cc_u0a-b
I0421 20:12:39.621960  6760 net.cpp:100] Creating Layer concat_d0cc_u0a-b
I0421 20:12:39.621963  6760 net.cpp:434] concat_d0cc_u0a-b <- u0a_relu_u0a_0_split_1
I0421 20:12:39.621965  6760 net.cpp:434] concat_d0cc_u0a-b <- d0cc
I0421 20:12:39.621970  6760 net.cpp:408] concat_d0cc_u0a-b -> u0b
I0421 20:12:39.621990  6760 net.cpp:150] Setting up concat_d0cc_u0a-b
I0421 20:12:39.621994  6760 net.cpp:157] Top shape: 1 192 248 248 (11808768)
I0421 20:12:39.621996  6760 net.cpp:165] Memory required for data: 890601280
I0421 20:12:39.621999  6760 layer_factory.hpp:77] Creating layer conv_u0b-c
I0421 20:12:39.622005  6760 net.cpp:100] Creating Layer conv_u0b-c
I0421 20:12:39.622009  6760 net.cpp:434] conv_u0b-c <- u0b
I0421 20:12:39.622012  6760 net.cpp:408] conv_u0b-c -> u0c
I0421 20:12:39.622861  6760 net.cpp:150] Setting up conv_u0b-c
I0421 20:12:39.622867  6760 net.cpp:157] Top shape: 1 64 246 246 (3873024)
I0421 20:12:39.622869  6760 net.cpp:165] Memory required for data: 906093376
I0421 20:12:39.622874  6760 layer_factory.hpp:77] Creating layer relu_u0c
I0421 20:12:39.622877  6760 net.cpp:100] Creating Layer relu_u0c
I0421 20:12:39.622880  6760 net.cpp:434] relu_u0c <- u0c
I0421 20:12:39.622884  6760 net.cpp:395] relu_u0c -> u0c (in-place)
I0421 20:12:39.623049  6760 net.cpp:150] Setting up relu_u0c
I0421 20:12:39.623054  6760 net.cpp:157] Top shape: 1 64 246 246 (3873024)
I0421 20:12:39.623056  6760 net.cpp:165] Memory required for data: 921585472
I0421 20:12:39.623059  6760 layer_factory.hpp:77] Creating layer conv_u0c-d
I0421 20:12:39.623065  6760 net.cpp:100] Creating Layer conv_u0c-d
I0421 20:12:39.623067  6760 net.cpp:434] conv_u0c-d <- u0c
I0421 20:12:39.623073  6760 net.cpp:408] conv_u0c-d -> u0d
I0421 20:12:39.623543  6760 net.cpp:150] Setting up conv_u0c-d
I0421 20:12:39.623548  6760 net.cpp:157] Top shape: 1 64 244 244 (3810304)
I0421 20:12:39.623550  6760 net.cpp:165] Memory required for data: 936826688
I0421 20:12:39.623555  6760 layer_factory.hpp:77] Creating layer relu_u0d
I0421 20:12:39.623566  6760 net.cpp:100] Creating Layer relu_u0d
I0421 20:12:39.623569  6760 net.cpp:434] relu_u0d <- u0d
I0421 20:12:39.623572  6760 net.cpp:395] relu_u0d -> u0d (in-place)
I0421 20:12:39.624617  6760 net.cpp:150] Setting up relu_u0d
I0421 20:12:39.624624  6760 net.cpp:157] Top shape: 1 64 244 244 (3810304)
I0421 20:12:39.624625  6760 net.cpp:165] Memory required for data: 952067904
I0421 20:12:39.624629  6760 layer_factory.hpp:77] Creating layer conv_u0d-score
I0421 20:12:39.624635  6760 net.cpp:100] Creating Layer conv_u0d-score
I0421 20:12:39.624637  6760 net.cpp:434] conv_u0d-score <- u0d
I0421 20:12:39.624653  6760 net.cpp:408] conv_u0d-score -> score
I0421 20:12:39.624955  6760 net.cpp:150] Setting up conv_u0d-score
I0421 20:12:39.624963  6760 net.cpp:157] Top shape: 1 4 244 244 (238144)
I0421 20:12:39.624964  6760 net.cpp:165] Memory required for data: 953020480
I0421 20:12:39.624969  6760 layer_factory.hpp:77] Creating layer loss
I0421 20:12:39.624974  6760 net.cpp:100] Creating Layer loss
I0421 20:12:39.624977  6760 net.cpp:434] loss <- score
I0421 20:12:39.624980  6760 net.cpp:434] loss <- label
I0421 20:12:39.624984  6760 net.cpp:434] loss <- weights
I0421 20:12:39.624989  6760 net.cpp:408] loss -> loss
…
