…
I0422 22:26:47.901798 16565 solver.cpp:91] Creating training net from net file: ./unet_f1_3/unet_f1_3.prototxt
I0422 22:26:47.902479 16565 net.cpp:322] The NetState phase (0) differed from the phase (1) specified by a rule in layer loaddata
I0422 22:26:47.902878 16565 net.cpp:58] Initializing net from parameters: 
name: "unet_f1_3"
force_backward: true
state {
  phase: TRAIN
}
layer {
  name: "loaddata"
  type: "HDF5Data"
  top: "data"
  top: "label"
  include {
    phase: TRAIN
  }
  hdf5_data_param {
    source: "caffeHDF5_3.txt"
    batch_size: 5
  }
}
layer {
  name: "conv_d0a-b"
  type: "Convolution"
  bottom: "data"
  top: "d0b"
  param {
    lr_mult: 1
    decay_mult: 1
  }
  param {
    lr_mult: 2
    decay_mult: 0
  }
  convolution_param {
    num_output: 64
    pad: 0
    kernel_size: 3
    weight_filler {
      type: "xavier"
    }
    engine: CAFFE
  }
}
layer {
  name: "relu_d0b"
  type: "ReLU"
  bottom: "d0b"
  top: "d0b"
}
layer {
  name: "conv_d0b-c"
  type: "Convolution"
  bottom: "d0b"
  top: "d0c"
  param {
    lr_mult: 1
    decay_mult: 1
  }
  param {
    lr_mult: 2
    decay_mult: 0
  }
  convolution_param {
    num_output: 64
    pad: 0
    kernel_size: 3
    weight_filler {
      type: "xavier"
    }
    engine: CAFFE
  }
}
layer {
  name: "relu_d0c"
  type: "ReLU"
  bottom: "d0c"
  top: "d0c"
}
layer {
  name: "pool_d0c-1a"
  type: "Pooling"
  bottom: "d0c"
  top: "d1a"
  pooling_param {
    pool: MAX
    kernel_size: 2
    stride: 2
  }
}
layer {
  name: "conv_d1a-b"
  type: "Convolution"
  bottom: "d1a"
  top: "d1b"
  param {
    lr_mult: 1
    decay_mult: 1
  }
  param {
    lr_mult: 2
    decay_mult: 0
  }
  convolution_param {
    num_output: 128
    pad: 0
    kernel_size: 3
    weight_filler {
      type: "xavier"
    }
    engine: CAFFE
  }
}
layer {
  name: "relu_d1b"
  type: "ReLU"
  bottom: "d1b"
  top: "d1b"
}
layer {
  name: "conv_d1b-c"
  type: "Convolution"
  bottom: "d1b"
  top: "d1c"
  param {
    lr_mult: 1
    decay_mult: 1
  }
  param {
    lr_mult: 2
    decay_mult: 0
  }
  convolution_param {
    num_output: 128
    pad: 0
    kernel_size: 3
    weight_filler {
      type: "xavier"
    }
    engine: CAFFE
  }
}
layer {
  name: "relu_d1c"
  type: "ReLU"
  bottom: "d1c"
  top: "d1c"
}
layer {
  name: "pool_d1c-2a"
  type: "Pooling"
  bottom: "d1c"
  top: "d2a"
  pooling_param {
    pool: MAX
    kernel_size: 2
    stride: 2
  }
}
layer {
  name: "conv_d2a-b"
  type: "Convolution"
  bottom: "d2a"
  top: "d2b"
  param {
    lr_mult: 1
    decay_mult: 1
  }
  param {
    lr_mult: 2
    decay_mult: 0
  }
  convolution_param {
    num_output: 256
    pad: 0
    kernel_size: 3
    weight_filler {
      type: "xavier"
    }
    engine: CAFFE
  }
}
layer {
  name: "relu_d2b"
  type: "ReLU"
  bottom: "d2b"
  top: "d2b"
}
layer {
  name: "conv_d2b-c"
  type: "Convolution"
  bottom: "d2b"
  top: "d2c"
  param {
    lr_mult: 1
    decay_mult: 1
  }
  param {
    lr_mult: 2
    decay_mult: 0
  }
  convolution_param {
    num_output: 256
    pad: 0
    kernel_size: 3
    weight_filler {
      type: "xavier"
    }
    engine: CAFFE
  }
}
layer {
  name: "relu_d2c"
  type: "ReLU"
  bottom: "d2c"
  top: "d2c"
}
layer {
  name: "pool_d2c-3a"
  type: "Pooling"
  bottom: "d2c"
  top: "d3a"
  pooling_param {
    pool: MAX
    kernel_size: 2
    stride: 2
  }
}
layer {
  name: "conv_d3a-b"
  type: "Convolution"
  bottom: "d3a"
  top: "d3b"
  param {
    lr_mult: 1
    decay_mult: 1
  }
  param {
    lr_mult: 2
    decay_mult: 0
  }
  convolution_param {
    num_output: 512
    pad: 0
    kernel_size: 3
    weight_filler {
      type: "xavier"
    }
    engine: CAFFE
  }
}
layer {
  name: "relu_d3b"
  type: "ReLU"
  bottom: "d3b"
  top: "d3b"
}
layer {
  name: "conv_d3b-c"
  type: "Convolution"
  bottom: "d3b"
  top: "d3c"
  param {
    lr_mult: 1
    decay_mult: 1
  }
  param {
    lr_mult: 2
    decay_mult: 0
  }
  convolution_param {
    num_output: 512
    pad: 0
    kernel_size: 3
    weight_filler {
      type: "xavier"
    }
    engine: CAFFE
  }
}
layer {
  name: "relu_d3c"
  type: "ReLU"
  bottom: "d3c"
  top: "d3c"
}
layer {
  name: "dropout_d3c"
  type: "Dropout"
  bottom: "d3c"
  top: "d3c"
  include {
    phase: TRAIN
  }
  dropout_param {
    dropout_ratio: 0.5
  }
}
layer {
  name: "pool_d3c-4a"
  type: "Pooling"
  bottom: "d3c"
  top: "d4a"
  pooling_param {
    pool: MAX
    kernel_size: 2
    stride: 2
  }
}
layer {
  name: "conv_d4a-b"
  type: "Convolution"
  bottom: "d4a"
  top: "d4b"
  param {
    lr_mult: 1
    decay_mult: 1
  }
  param {
    lr_mult: 2
    decay_mult: 0
  }
  convolution_param {
    num_output: 1024
    pad: 0
    kernel_size: 3
    weight_filler {
      type: "xavier"
    }
    engine: CAFFE
  }
}
layer {
  name: "relu_d4b"
  type: "ReLU"
  bottom: "d4b"
  top: "d4b"
}
layer {
  name: "conv_d4b-c"
  type: "Convolution"
  bottom: "d4b"
  top: "d4c"
  param {
    lr_mult: 1
    decay_mult: 1
  }
  param {
    lr_mult: 2
    decay_mult: 0
  }
  convolution_param {
    num_output: 1024
    pad: 0
    kernel_size: 3
    weight_filler {
      type: "xavier"
    }
    engine: CAFFE
  }
}
layer {
  name: "relu_d4c"
  type: "ReLU"
  bottom: "d4c"
  top: "d4c"
}
layer {
  name: "dropout_d4c"
  type: "Dropout"
  bottom: "d4c"
  top: "d4c"
  include {
    phase: TRAIN
  }
  dropout_param {
    dropout_ratio: 0.5
  }
}
layer {
  name: "upconv_d4c_u3a"
  type: "Deconvolution"
  bottom: "d4c"
  top: "u3a"
  param {
    lr_mult: 1
    decay_mult: 1
  }
  param {
    lr_mult: 2
    decay_mult: 0
  }
  convolution_param {
    num_output: 512
    pad: 0
    kernel_size: 2
    stride: 2
    weight_filler {
      type: "xavier"
    }
  }
}
layer {
  name: "relu_u3a"
  type: "ReLU"
  bottom: "u3a"
  top: "u3a"
}
layer {
  name: "crop_d3c-d3cc"
  type: "Crop"
  bottom: "d3c"
  bottom: "u3a"
  top: "d3cc"
  crop_param {
    axis: 2
    offset: 4
  }
}
layer {
  name: "concat_d3cc_u3a-b"
  type: "Concat"
  bottom: "u3a"
  bottom: "d3cc"
  top: "u3b"
}
layer {
  name: "conv_u3b-c"
  type: "Convolution"
  bottom: "u3b"
  top: "u3c"
  param {
    lr_mult: 1
    decay_mult: 1
  }
  param {
    lr_mult: 2
    decay_mult: 0
  }
  convolution_param {
    num_output: 512
    pad: 0
    kernel_size: 3
    weight_filler {
      type: "xavier"
    }
    engine: CAFFE
  }
}
layer {
  name: "relu_u3c"
  type: "ReLU"
  bottom: "u3c"
  top: "u3c"
}
layer {
  name: "conv_u3c-d"
  type: "Convolution"
  bottom: "u3c"
  top: "u3d"
  param {
    lr_mult: 1
    decay_mult: 1
  }
  param {
    lr_mult: 2
    decay_mult: 0
  }
  convolution_param {
    num_output: 512
    pad: 0
    kernel_size: 3
    weight_filler {
      type: "xavier"
    }
    engine: CAFFE
  }
}
layer {
  name: "relu_u3d"
  type: "ReLU"
  bottom: "u3d"
  top: "u3d"
}
layer {
  name: "upconv_u3d_u2a"
  type: "Deconvolution"
  bottom: "u3d"
  top: "u2a"
  param {
    lr_mult: 1
    decay_mult: 1
  }
  param {
    lr_mult: 2
    decay_mult: 0
  }
  convolution_param {
    num_output: 256
    pad: 0
    kernel_size: 2
    stride: 2
    weight_filler {
      type: "xavier"
    }
  }
}
layer {
  name: "relu_u2a"
  type: "ReLU"
  bottom: "u2a"
  top: "u2a"
}
layer {
  name: "crop_d2c-d2cc"
  type: "Crop"
  bottom: "d2c"
  bottom: "u2a"
  top: "d2cc"
  crop_param {
    axis: 2
    offset: 16
  }
}
layer {
  name: "concat_d2cc_u2a-b"
  type: "Concat"
  bottom: "u2a"
  bottom: "d2cc"
  top: "u2b"
}
layer {
  name: "conv_u2b-c"
  type: "Convolution"
  bottom: "u2b"
  top: "u2c"
  param {
    lr_mult: 1
    decay_mult: 1
  }
  param {
    lr_mult: 2
    decay_mult: 0
  }
  convolution_param {
    num_output: 256
    pad: 0
    kernel_size: 3
    weight_filler {
      type: "xavier"
    }
    engine: CAFFE
  }
}
layer {
  name: "relu_u2c"
  type: "ReLU"
  bottom: "u2c"
  top: "u2c"
}
layer {
  name: "conv_u2c-d"
  type: "Convolution"
  bottom: "u2c"
  top: "u2d"
  param {
    lr_mult: 1
    decay_mult: 1
  }
  param {
    lr_mult: 2
    decay_mult: 0
  }
  convolution_param {
    num_output: 256
    pad: 0
    kernel_size: 3
    weight_filler {
      type: "xavier"
    }
    engine: CAFFE
  }
}
layer {
  name: "relu_u2d"
  type: "ReLU"
  bottom: "u2d"
  top: "u2d"
}
layer {
  name: "upconv_u2d_u1a"
  type: "Deconvolution"
  bottom: "u2d"
  top: "u1a"
  param {
    lr_mult: 1
    decay_mult: 1
  }
  param {
    lr_mult: 2
    decay_mult: 0
  }
  convolution_param {
    num_output: 128
    pad: 0
    kernel_size: 2
    stride: 2
    weight_filler {
      type: "xavier"
    }
  }
}
layer {
  name: "relu_u1a"
  type: "ReLU"
  bottom: "u1a"
  top: "u1a"
}
layer {
  name: "crop_d1c-d1cc"
  type: "Crop"
  bottom: "d1c"
  bottom: "u1a"
  top: "d1cc"
  crop_param {
    axis: 2
    offset: 40
  }
}
layer {
  name: "concat_d1cc_u1a-b"
  type: "Concat"
  bottom: "u1a"
  bottom: "d1cc"
  top: "u1b"
}
layer {
  name: "conv_u1b-c"
  type: "Convolution"
  bottom: "u1b"
  top: "u1c"
  param {
    lr_mult: 1
    decay_mult: 1
  }
  param {
    lr_mult: 2
    decay_mult: 0
  }
  convolution_param {
    num_output: 128
    pad: 0
    kernel_size: 3
    weight_filler {
      type: "xavier"
    }
    engine: CAFFE
  }
}
layer {
  name: "relu_u1c"
  type: "ReLU"
  bottom: "u1c"
  top: "u1c"
}
layer {
  name: "conv_u1c-d"
  type: "Convolution"
  bottom: "u1c"
  top: "u1d"
  param {
    lr_mult: 1
    decay_mult: 1
  }
  param {
    lr_mult: 2
    decay_mult: 0
  }
  convolution_param {
    num_output: 128
    pad: 0
    kernel_size: 3
    weight_filler {
      type: "xavier"
    }
    engine: CAFFE
  }
}
layer {
  name: "relu_u1d"
  type: "ReLU"
  bottom: "u1d"
  top: "u1d"
}
layer {
  name: "upconv_u1d_u0a"
  type: "Deconvolution"
  bottom: "u1d"
  top: "u0a"
  param {
    lr_mult: 1
    decay_mult: 1
  }
  param {
    lr_mult: 2
    decay_mult: 0
  }
  convolution_param {
    num_output: 128
    pad: 0
    kernel_size: 2
    stride: 2
    weight_filler {
      type: "xavier"
    }
  }
}
layer {
  name: "relu_u0a"
  type: "ReLU"
  bottom: "u0a"
  top: "u0a"
}
layer {
  name: "crop_d0c-d0cc"
  type: "Crop"
  bottom: "d0c"
  bottom: "u0a"
  top: "d0cc"
  crop_param {
    axis: 2
    offset: 88
  }
}
layer {
  name: "concat_d0cc_u0a-b"
  type: "Concat"
  bottom: "u0a"
  bottom: "d0cc"
  top: "u0b"
}
layer {
  name: "conv_u0b-c"
  type: "Convolution"
  bottom: "u0b"
  top: "u0c"
  param {
    lr_mult: 1
    decay_mult: 1
  }
  param {
    lr_mult: 2
    decay_mult: 0
  }
  convolution_param {
    num_output: 64
    pad: 0
    kernel_size: 3
    weight_filler {
      type: "xavier"
    }
    engine: CAFFE
  }
}
layer {
  name: "relu_u0c"
  type: "ReLU"
  bottom: "u0c"
  top: "u0c"
}
layer {
  name: "conv_u0c-d"
  type: "Convolution"
  bottom: "u0c"
  top: "u0d"
  param {
    lr_mult: 1
    decay_mult: 1
  }
  param {
    lr_mult: 2
    decay_mult: 0
  }
  convolution_param {
    num_output: 64
    pad: 0
    kernel_size: 3
    weight_filler {
      type: "xavier"
    }
    engine: CAFFE
  }
}
layer {
  name: "relu_u0d"
  type: "ReLU"
  bottom: "u0d"
  top: "u0d"
}
layer {
  name: "conv_u0d-score"
  type: "Convolution"
  bottom: "u0d"
  top: "score"
  param {
    lr_mult: 1
    decay_mult: 1
  }
  param {
    lr_mult: 2
    decay_mult: 0
  }
  convolution_param {
    num_output: 3
    pad: 0
    kernel_size: 1
    weight_filler {
      type: "xavier"
    }
    engine: CAFFE
  }
}
layer {
  name: "softmax"
  type: "Softmax"
  bottom: "score"
  top: "softmax_out"
}
layer {
  name: "reshapelab"
  type: "Reshape"
  bottom: "label"
  top: "label_flat"
  reshape_param {
    shape {
      dim: 0
      dim: -1
    }
  }
}
layer {
  name: "reshaperes"
  type: "Reshape"
  bottom: "softmax_out"
  top: "softmax_out_flat"
  reshape_param {
    shape {
      dim: 0
      dim: 0
      dim: -1
    }
  }
}
layer {
  name: "loss"
  type: "Python"
  bottom: "softmax_out_flat"
  bottom: "label_flat"
  top: "loss"
  loss_weight: 1
  python_param {
    module: "multiclass_f1_loss"
    layer: "F1Loss"
  }
}
layer {
  name: "visualize"
  type: "Softmax"
  bottom: "score"
  top: "visualize_out"
  include {
    phase: TRAIN
  }
}
layer {
  name: "fake"
  type: "Silence"
  bottom: "visualize_out"
  include {
    phase: TRAIN
  }
}
I0422 22:26:47.903211 16565 layer_factory.hpp:77] Creating layer loaddata
I0422 22:26:47.903223 16565 net.cpp:100] Creating Layer loaddata
I0422 22:26:47.903236 16565 net.cpp:408] loaddata -> data
I0422 22:26:47.903246 16565 net.cpp:408] loaddata -> label
I0422 22:26:47.903257 16565 hdf5_data_layer.cpp:79] Loading list of HDF5 filenames from: caffeHDF5_3.txt
I0422 22:26:47.909637 16565 hdf5_data_layer.cpp:93] Number of HDF5 files: 20
I0422 22:26:47.910606 16565 hdf5.cpp:32] Datatype class: H5T_FLOAT
I0422 22:26:48.857957 16565 hdf5.cpp:35] Datatype class: H5T_INTEGER
I0422 22:26:48.968624 16565 net.cpp:150] Setting up loaddata
I0422 22:26:48.968667 16565 net.cpp:157] Top shape: 5 3 428 428 (2747760)
I0422 22:26:48.968670 16565 net.cpp:157] Top shape: 5 244 244 (297680)
I0422 22:26:48.968672 16565 net.cpp:165] Memory required for data: 12181760
I0422 22:26:48.968678 16565 layer_factory.hpp:77] Creating layer conv_d0a-b
I0422 22:26:48.968695 16565 net.cpp:100] Creating Layer conv_d0a-b
I0422 22:26:48.968698 16565 net.cpp:434] conv_d0a-b <- data
I0422 22:26:48.968704 16565 net.cpp:408] conv_d0a-b -> d0b
I0422 22:26:48.972879 16565 net.cpp:150] Setting up conv_d0a-b
I0422 22:26:48.972894 16565 net.cpp:157] Top shape: 5 64 426 426 (58072320)
I0422 22:26:48.972913 16565 net.cpp:165] Memory required for data: 244471040
I0422 22:26:48.972921 16565 layer_factory.hpp:77] Creating layer relu_d0b
I0422 22:26:48.972929 16565 net.cpp:100] Creating Layer relu_d0b
I0422 22:26:48.972932 16565 net.cpp:434] relu_d0b <- d0b
I0422 22:26:48.972936 16565 net.cpp:395] relu_d0b -> d0b (in-place)
I0422 22:26:49.351893 16565 net.cpp:150] Setting up relu_d0b
I0422 22:26:49.351925 16565 net.cpp:157] Top shape: 5 64 426 426 (58072320)
I0422 22:26:49.351932 16565 net.cpp:165] Memory required for data: 476760320
I0422 22:26:49.351938 16565 layer_factory.hpp:77] Creating layer conv_d0b-c
I0422 22:26:49.351958 16565 net.cpp:100] Creating Layer conv_d0b-c
I0422 22:26:49.351964 16565 net.cpp:434] conv_d0b-c <- d0b
I0422 22:26:49.351976 16565 net.cpp:408] conv_d0b-c -> d0c
I0422 22:26:49.363385 16565 net.cpp:150] Setting up conv_d0b-c
I0422 22:26:49.363409 16565 net.cpp:157] Top shape: 5 64 424 424 (57528320)
I0422 22:26:49.363414 16565 net.cpp:165] Memory required for data: 706873600
I0422 22:26:49.363430 16565 layer_factory.hpp:77] Creating layer relu_d0c
I0422 22:26:49.363441 16565 net.cpp:100] Creating Layer relu_d0c
I0422 22:26:49.363446 16565 net.cpp:434] relu_d0c <- d0c
I0422 22:26:49.363453 16565 net.cpp:395] relu_d0c -> d0c (in-place)
I0422 22:26:49.370035 16565 net.cpp:150] Setting up relu_d0c
I0422 22:26:49.370059 16565 net.cpp:157] Top shape: 5 64 424 424 (57528320)
I0422 22:26:49.370062 16565 net.cpp:165] Memory required for data: 936986880
I0422 22:26:49.370067 16565 layer_factory.hpp:77] Creating layer d0c_relu_d0c_0_split
I0422 22:26:49.370079 16565 net.cpp:100] Creating Layer d0c_relu_d0c_0_split
I0422 22:26:49.370082 16565 net.cpp:434] d0c_relu_d0c_0_split <- d0c
I0422 22:26:49.370095 16565 net.cpp:408] d0c_relu_d0c_0_split -> d0c_relu_d0c_0_split_0
I0422 22:26:49.370107 16565 net.cpp:408] d0c_relu_d0c_0_split -> d0c_relu_d0c_0_split_1
I0422 22:26:49.370172 16565 net.cpp:150] Setting up d0c_relu_d0c_0_split
I0422 22:26:49.370182 16565 net.cpp:157] Top shape: 5 64 424 424 (57528320)
I0422 22:26:49.370187 16565 net.cpp:157] Top shape: 5 64 424 424 (57528320)
I0422 22:26:49.370192 16565 net.cpp:165] Memory required for data: 1397213440
I0422 22:26:49.370196 16565 layer_factory.hpp:77] Creating layer pool_d0c-1a
I0422 22:26:49.370208 16565 net.cpp:100] Creating Layer pool_d0c-1a
I0422 22:26:49.370211 16565 net.cpp:434] pool_d0c-1a <- d0c_relu_d0c_0_split_0
I0422 22:26:49.370220 16565 net.cpp:408] pool_d0c-1a -> d1a
I0422 22:26:49.370270 16565 net.cpp:150] Setting up pool_d0c-1a
I0422 22:26:49.370280 16565 net.cpp:157] Top shape: 5 64 212 212 (14382080)
I0422 22:26:49.370283 16565 net.cpp:165] Memory required for data: 1454741760
I0422 22:26:49.370287 16565 layer_factory.hpp:77] Creating layer conv_d1a-b
I0422 22:26:49.370301 16565 net.cpp:100] Creating Layer conv_d1a-b
I0422 22:26:49.370306 16565 net.cpp:434] conv_d1a-b <- d1a
I0422 22:26:49.370314 16565 net.cpp:408] conv_d1a-b -> d1b
I0422 22:26:49.371412 16565 net.cpp:150] Setting up conv_d1a-b
I0422 22:26:49.371424 16565 net.cpp:157] Top shape: 5 128 210 210 (28224000)
I0422 22:26:49.371428 16565 net.cpp:165] Memory required for data: 1567637760
I0422 22:26:49.371443 16565 layer_factory.hpp:77] Creating layer relu_d1b
I0422 22:26:49.371453 16565 net.cpp:100] Creating Layer relu_d1b
I0422 22:26:49.371457 16565 net.cpp:434] relu_d1b <- d1b
I0422 22:26:49.371464 16565 net.cpp:395] relu_d1b -> d1b (in-place)
I0422 22:26:49.371743 16565 net.cpp:150] Setting up relu_d1b
I0422 22:26:49.371757 16565 net.cpp:157] Top shape: 5 128 210 210 (28224000)
I0422 22:26:49.371762 16565 net.cpp:165] Memory required for data: 1680533760
I0422 22:26:49.371767 16565 layer_factory.hpp:77] Creating layer conv_d1b-c
I0422 22:26:49.371778 16565 net.cpp:100] Creating Layer conv_d1b-c
I0422 22:26:49.371786 16565 net.cpp:434] conv_d1b-c <- d1b
I0422 22:26:49.371795 16565 net.cpp:408] conv_d1b-c -> d1c
I0422 22:26:49.374778 16565 net.cpp:150] Setting up conv_d1b-c
I0422 22:26:49.374799 16565 net.cpp:157] Top shape: 5 128 208 208 (27688960)
I0422 22:26:49.374804 16565 net.cpp:165] Memory required for data: 1791289600
I0422 22:26:49.374814 16565 layer_factory.hpp:77] Creating layer relu_d1c
I0422 22:26:49.374825 16565 net.cpp:100] Creating Layer relu_d1c
I0422 22:26:49.374828 16565 net.cpp:434] relu_d1c <- d1c
I0422 22:26:49.374835 16565 net.cpp:395] relu_d1c -> d1c (in-place)
I0422 22:26:49.375120 16565 net.cpp:150] Setting up relu_d1c
I0422 22:26:49.375133 16565 net.cpp:157] Top shape: 5 128 208 208 (27688960)
I0422 22:26:49.375138 16565 net.cpp:165] Memory required for data: 1902045440
I0422 22:26:49.375143 16565 layer_factory.hpp:77] Creating layer d1c_relu_d1c_0_split
I0422 22:26:49.375152 16565 net.cpp:100] Creating Layer d1c_relu_d1c_0_split
I0422 22:26:49.375156 16565 net.cpp:434] d1c_relu_d1c_0_split <- d1c
I0422 22:26:49.375164 16565 net.cpp:408] d1c_relu_d1c_0_split -> d1c_relu_d1c_0_split_0
I0422 22:26:49.375174 16565 net.cpp:408] d1c_relu_d1c_0_split -> d1c_relu_d1c_0_split_1
I0422 22:26:49.375237 16565 net.cpp:150] Setting up d1c_relu_d1c_0_split
I0422 22:26:49.375247 16565 net.cpp:157] Top shape: 5 128 208 208 (27688960)
I0422 22:26:49.375252 16565 net.cpp:157] Top shape: 5 128 208 208 (27688960)
I0422 22:26:49.375255 16565 net.cpp:165] Memory required for data: 2123557120
I0422 22:26:49.375260 16565 layer_factory.hpp:77] Creating layer pool_d1c-2a
I0422 22:26:49.375268 16565 net.cpp:100] Creating Layer pool_d1c-2a
I0422 22:26:49.375272 16565 net.cpp:434] pool_d1c-2a <- d1c_relu_d1c_0_split_0
I0422 22:26:49.375280 16565 net.cpp:408] pool_d1c-2a -> d2a
I0422 22:26:49.375330 16565 net.cpp:150] Setting up pool_d1c-2a
I0422 22:26:49.375339 16565 net.cpp:157] Top shape: 5 128 104 104 (6922240)
I0422 22:26:49.375342 16565 net.cpp:165] Memory required for data: 2151246080
I0422 22:26:49.375346 16565 layer_factory.hpp:77] Creating layer conv_d2a-b
I0422 22:26:49.375362 16565 net.cpp:100] Creating Layer conv_d2a-b
I0422 22:26:49.375368 16565 net.cpp:434] conv_d2a-b <- d2a
I0422 22:26:49.375376 16565 net.cpp:408] conv_d2a-b -> d2b
I0422 22:26:49.379608 16565 net.cpp:150] Setting up conv_d2a-b
I0422 22:26:49.379629 16565 net.cpp:157] Top shape: 5 256 102 102 (13317120)
I0422 22:26:49.379633 16565 net.cpp:165] Memory required for data: 2204514560
I0422 22:26:49.379647 16565 layer_factory.hpp:77] Creating layer relu_d2b
I0422 22:26:49.379655 16565 net.cpp:100] Creating Layer relu_d2b
I0422 22:26:49.379662 16565 net.cpp:434] relu_d2b <- d2b
I0422 22:26:49.379673 16565 net.cpp:395] relu_d2b -> d2b (in-place)
I0422 22:26:49.379966 16565 net.cpp:150] Setting up relu_d2b
I0422 22:26:49.379981 16565 net.cpp:157] Top shape: 5 256 102 102 (13317120)
I0422 22:26:49.379986 16565 net.cpp:165] Memory required for data: 2257783040
I0422 22:26:49.379989 16565 layer_factory.hpp:77] Creating layer conv_d2b-c
I0422 22:26:49.380002 16565 net.cpp:100] Creating Layer conv_d2b-c
I0422 22:26:49.380007 16565 net.cpp:434] conv_d2b-c <- d2b
I0422 22:26:49.380028 16565 net.cpp:408] conv_d2b-c -> d2c
I0422 22:26:49.387024 16565 net.cpp:150] Setting up conv_d2b-c
I0422 22:26:49.387046 16565 net.cpp:157] Top shape: 5 256 100 100 (12800000)
I0422 22:26:49.387050 16565 net.cpp:165] Memory required for data: 2308983040
I0422 22:26:49.387060 16565 layer_factory.hpp:77] Creating layer relu_d2c
I0422 22:26:49.387073 16565 net.cpp:100] Creating Layer relu_d2c
I0422 22:26:49.387079 16565 net.cpp:434] relu_d2c <- d2c
I0422 22:26:49.387085 16565 net.cpp:395] relu_d2c -> d2c (in-place)
I0422 22:26:49.388221 16565 net.cpp:150] Setting up relu_d2c
I0422 22:26:49.388238 16565 net.cpp:157] Top shape: 5 256 100 100 (12800000)
I0422 22:26:49.388242 16565 net.cpp:165] Memory required for data: 2360183040
I0422 22:26:49.388247 16565 layer_factory.hpp:77] Creating layer d2c_relu_d2c_0_split
I0422 22:26:49.388259 16565 net.cpp:100] Creating Layer d2c_relu_d2c_0_split
I0422 22:26:49.388264 16565 net.cpp:434] d2c_relu_d2c_0_split <- d2c
I0422 22:26:49.388272 16565 net.cpp:408] d2c_relu_d2c_0_split -> d2c_relu_d2c_0_split_0
I0422 22:26:49.388281 16565 net.cpp:408] d2c_relu_d2c_0_split -> d2c_relu_d2c_0_split_1
I0422 22:26:49.388341 16565 net.cpp:150] Setting up d2c_relu_d2c_0_split
I0422 22:26:49.388351 16565 net.cpp:157] Top shape: 5 256 100 100 (12800000)
I0422 22:26:49.388356 16565 net.cpp:157] Top shape: 5 256 100 100 (12800000)
I0422 22:26:49.388360 16565 net.cpp:165] Memory required for data: 2462583040
I0422 22:26:49.388365 16565 layer_factory.hpp:77] Creating layer pool_d2c-3a
I0422 22:26:49.388372 16565 net.cpp:100] Creating Layer pool_d2c-3a
I0422 22:26:49.388376 16565 net.cpp:434] pool_d2c-3a <- d2c_relu_d2c_0_split_0
I0422 22:26:49.388384 16565 net.cpp:408] pool_d2c-3a -> d3a
I0422 22:26:49.388439 16565 net.cpp:150] Setting up pool_d2c-3a
I0422 22:26:49.388448 16565 net.cpp:157] Top shape: 5 256 50 50 (3200000)
I0422 22:26:49.388451 16565 net.cpp:165] Memory required for data: 2475383040
I0422 22:26:49.388455 16565 layer_factory.hpp:77] Creating layer conv_d3a-b
I0422 22:26:49.388468 16565 net.cpp:100] Creating Layer conv_d3a-b
I0422 22:26:49.388473 16565 net.cpp:434] conv_d3a-b <- d3a
I0422 22:26:49.388481 16565 net.cpp:408] conv_d3a-b -> d3b
I0422 22:26:49.401967 16565 net.cpp:150] Setting up conv_d3a-b
I0422 22:26:49.401986 16565 net.cpp:157] Top shape: 5 512 48 48 (5898240)
I0422 22:26:49.401989 16565 net.cpp:165] Memory required for data: 2498976000
I0422 22:26:49.401998 16565 layer_factory.hpp:77] Creating layer relu_d3b
I0422 22:26:49.402005 16565 net.cpp:100] Creating Layer relu_d3b
I0422 22:26:49.402010 16565 net.cpp:434] relu_d3b <- d3b
I0422 22:26:49.402016 16565 net.cpp:395] relu_d3b -> d3b (in-place)
I0422 22:26:49.402284 16565 net.cpp:150] Setting up relu_d3b
I0422 22:26:49.402297 16565 net.cpp:157] Top shape: 5 512 48 48 (5898240)
I0422 22:26:49.402300 16565 net.cpp:165] Memory required for data: 2522568960
I0422 22:26:49.402304 16565 layer_factory.hpp:77] Creating layer conv_d3b-c
I0422 22:26:49.402317 16565 net.cpp:100] Creating Layer conv_d3b-c
I0422 22:26:49.402320 16565 net.cpp:434] conv_d3b-c <- d3b
I0422 22:26:49.402328 16565 net.cpp:408] conv_d3b-c -> d3c
I0422 22:26:49.424672 16565 net.cpp:150] Setting up conv_d3b-c
I0422 22:26:49.424688 16565 net.cpp:157] Top shape: 5 512 46 46 (5416960)
I0422 22:26:49.424692 16565 net.cpp:165] Memory required for data: 2544236800
I0422 22:26:49.424700 16565 layer_factory.hpp:77] Creating layer relu_d3c
I0422 22:26:49.424707 16565 net.cpp:100] Creating Layer relu_d3c
I0422 22:26:49.424711 16565 net.cpp:434] relu_d3c <- d3c
I0422 22:26:49.424720 16565 net.cpp:395] relu_d3c -> d3c (in-place)
I0422 22:26:49.424973 16565 net.cpp:150] Setting up relu_d3c
I0422 22:26:49.424985 16565 net.cpp:157] Top shape: 5 512 46 46 (5416960)
I0422 22:26:49.424988 16565 net.cpp:165] Memory required for data: 2565904640
I0422 22:26:49.424993 16565 layer_factory.hpp:77] Creating layer dropout_d3c
I0422 22:26:49.425001 16565 net.cpp:100] Creating Layer dropout_d3c
I0422 22:26:49.425004 16565 net.cpp:434] dropout_d3c <- d3c
I0422 22:26:49.425012 16565 net.cpp:395] dropout_d3c -> d3c (in-place)
I0422 22:26:49.425068 16565 net.cpp:150] Setting up dropout_d3c
I0422 22:26:49.425079 16565 net.cpp:157] Top shape: 5 512 46 46 (5416960)
I0422 22:26:49.425082 16565 net.cpp:165] Memory required for data: 2587572480
I0422 22:26:49.425086 16565 layer_factory.hpp:77] Creating layer d3c_dropout_d3c_0_split
I0422 22:26:49.425092 16565 net.cpp:100] Creating Layer d3c_dropout_d3c_0_split
I0422 22:26:49.425096 16565 net.cpp:434] d3c_dropout_d3c_0_split <- d3c
I0422 22:26:49.425104 16565 net.cpp:408] d3c_dropout_d3c_0_split -> d3c_dropout_d3c_0_split_0
I0422 22:26:49.425112 16565 net.cpp:408] d3c_dropout_d3c_0_split -> d3c_dropout_d3c_0_split_1
I0422 22:26:49.425156 16565 net.cpp:150] Setting up d3c_dropout_d3c_0_split
I0422 22:26:49.425165 16565 net.cpp:157] Top shape: 5 512 46 46 (5416960)
I0422 22:26:49.425170 16565 net.cpp:157] Top shape: 5 512 46 46 (5416960)
I0422 22:26:49.425173 16565 net.cpp:165] Memory required for data: 2630908160
I0422 22:26:49.425176 16565 layer_factory.hpp:77] Creating layer pool_d3c-4a
I0422 22:26:49.425185 16565 net.cpp:100] Creating Layer pool_d3c-4a
I0422 22:26:49.425189 16565 net.cpp:434] pool_d3c-4a <- d3c_dropout_d3c_0_split_0
I0422 22:26:49.425196 16565 net.cpp:408] pool_d3c-4a -> d4a
I0422 22:26:49.425238 16565 net.cpp:150] Setting up pool_d3c-4a
I0422 22:26:49.425247 16565 net.cpp:157] Top shape: 5 512 23 23 (1354240)
I0422 22:26:49.425251 16565 net.cpp:165] Memory required for data: 2636325120
I0422 22:26:49.425253 16565 layer_factory.hpp:77] Creating layer conv_d4a-b
I0422 22:26:49.425266 16565 net.cpp:100] Creating Layer conv_d4a-b
I0422 22:26:49.425271 16565 net.cpp:434] conv_d4a-b <- d4a
I0422 22:26:49.425278 16565 net.cpp:408] conv_d4a-b -> d4b
I0422 22:26:49.466424 16565 net.cpp:150] Setting up conv_d4a-b
I0422 22:26:49.466441 16565 net.cpp:157] Top shape: 5 1024 21 21 (2257920)
I0422 22:26:49.466446 16565 net.cpp:165] Memory required for data: 2645356800
I0422 22:26:49.466459 16565 layer_factory.hpp:77] Creating layer relu_d4b
I0422 22:26:49.466470 16565 net.cpp:100] Creating Layer relu_d4b
I0422 22:26:49.466475 16565 net.cpp:434] relu_d4b <- d4b
I0422 22:26:49.466480 16565 net.cpp:395] relu_d4b -> d4b (in-place)
I0422 22:26:49.467460 16565 net.cpp:150] Setting up relu_d4b
I0422 22:26:49.467475 16565 net.cpp:157] Top shape: 5 1024 21 21 (2257920)
I0422 22:26:49.467478 16565 net.cpp:165] Memory required for data: 2654388480
I0422 22:26:49.467483 16565 layer_factory.hpp:77] Creating layer conv_d4b-c
I0422 22:26:49.467494 16565 net.cpp:100] Creating Layer conv_d4b-c
I0422 22:26:49.467497 16565 net.cpp:434] conv_d4b-c <- d4b
I0422 22:26:49.467507 16565 net.cpp:408] conv_d4b-c -> d4c
I0422 22:26:49.545971 16565 net.cpp:150] Setting up conv_d4b-c
I0422 22:26:49.545996 16565 net.cpp:157] Top shape: 5 1024 19 19 (1848320)
I0422 22:26:49.546000 16565 net.cpp:165] Memory required for data: 2661781760
I0422 22:26:49.546011 16565 layer_factory.hpp:77] Creating layer relu_d4c
I0422 22:26:49.546022 16565 net.cpp:100] Creating Layer relu_d4c
I0422 22:26:49.546030 16565 net.cpp:434] relu_d4c <- d4c
I0422 22:26:49.546036 16565 net.cpp:395] relu_d4c -> d4c (in-place)
I0422 22:26:49.546315 16565 net.cpp:150] Setting up relu_d4c
I0422 22:26:49.546329 16565 net.cpp:157] Top shape: 5 1024 19 19 (1848320)
I0422 22:26:49.546331 16565 net.cpp:165] Memory required for data: 2669175040
I0422 22:26:49.546335 16565 layer_factory.hpp:77] Creating layer dropout_d4c
I0422 22:26:49.546344 16565 net.cpp:100] Creating Layer dropout_d4c
I0422 22:26:49.546347 16565 net.cpp:434] dropout_d4c <- d4c
I0422 22:26:49.546352 16565 net.cpp:395] dropout_d4c -> d4c (in-place)
I0422 22:26:49.546388 16565 net.cpp:150] Setting up dropout_d4c
I0422 22:26:49.546396 16565 net.cpp:157] Top shape: 5 1024 19 19 (1848320)
I0422 22:26:49.546401 16565 net.cpp:165] Memory required for data: 2676568320
I0422 22:26:49.546403 16565 layer_factory.hpp:77] Creating layer upconv_d4c_u3a
I0422 22:26:49.546412 16565 net.cpp:100] Creating Layer upconv_d4c_u3a
I0422 22:26:49.546416 16565 net.cpp:434] upconv_d4c_u3a <- d4c
I0422 22:26:49.546439 16565 net.cpp:408] upconv_d4c_u3a -> u3a
I0422 22:26:49.564337 16565 net.cpp:150] Setting up upconv_d4c_u3a
I0422 22:26:49.564352 16565 net.cpp:157] Top shape: 5 512 38 38 (3696640)
I0422 22:26:49.564357 16565 net.cpp:165] Memory required for data: 2691354880
I0422 22:26:49.564370 16565 layer_factory.hpp:77] Creating layer relu_u3a
I0422 22:26:49.564385 16565 net.cpp:100] Creating Layer relu_u3a
I0422 22:26:49.564389 16565 net.cpp:434] relu_u3a <- u3a
I0422 22:26:49.564395 16565 net.cpp:395] relu_u3a -> u3a (in-place)
I0422 22:26:49.564630 16565 net.cpp:150] Setting up relu_u3a
I0422 22:26:49.564642 16565 net.cpp:157] Top shape: 5 512 38 38 (3696640)
I0422 22:26:49.564646 16565 net.cpp:165] Memory required for data: 2706141440
I0422 22:26:49.564649 16565 layer_factory.hpp:77] Creating layer u3a_relu_u3a_0_split
I0422 22:26:49.564656 16565 net.cpp:100] Creating Layer u3a_relu_u3a_0_split
I0422 22:26:49.564659 16565 net.cpp:434] u3a_relu_u3a_0_split <- u3a
I0422 22:26:49.564666 16565 net.cpp:408] u3a_relu_u3a_0_split -> u3a_relu_u3a_0_split_0
I0422 22:26:49.564673 16565 net.cpp:408] u3a_relu_u3a_0_split -> u3a_relu_u3a_0_split_1
I0422 22:26:49.564723 16565 net.cpp:150] Setting up u3a_relu_u3a_0_split
I0422 22:26:49.564730 16565 net.cpp:157] Top shape: 5 512 38 38 (3696640)
I0422 22:26:49.564734 16565 net.cpp:157] Top shape: 5 512 38 38 (3696640)
I0422 22:26:49.564738 16565 net.cpp:165] Memory required for data: 2735714560
I0422 22:26:49.564741 16565 layer_factory.hpp:77] Creating layer crop_d3c-d3cc
I0422 22:26:49.564750 16565 net.cpp:100] Creating Layer crop_d3c-d3cc
I0422 22:26:49.564754 16565 net.cpp:434] crop_d3c-d3cc <- d3c_dropout_d3c_0_split_1
I0422 22:26:49.564759 16565 net.cpp:434] crop_d3c-d3cc <- u3a_relu_u3a_0_split_0
I0422 22:26:49.564764 16565 net.cpp:408] crop_d3c-d3cc -> d3cc
I0422 22:26:49.564790 16565 net.cpp:150] Setting up crop_d3c-d3cc
I0422 22:26:49.564797 16565 net.cpp:157] Top shape: 5 512 38 38 (3696640)
I0422 22:26:49.564800 16565 net.cpp:165] Memory required for data: 2750501120
I0422 22:26:49.564805 16565 layer_factory.hpp:77] Creating layer concat_d3cc_u3a-b
I0422 22:26:49.564810 16565 net.cpp:100] Creating Layer concat_d3cc_u3a-b
I0422 22:26:49.564813 16565 net.cpp:434] concat_d3cc_u3a-b <- u3a_relu_u3a_0_split_1
I0422 22:26:49.564817 16565 net.cpp:434] concat_d3cc_u3a-b <- d3cc
I0422 22:26:49.564826 16565 net.cpp:408] concat_d3cc_u3a-b -> u3b
I0422 22:26:49.564851 16565 net.cpp:150] Setting up concat_d3cc_u3a-b
I0422 22:26:49.564857 16565 net.cpp:157] Top shape: 5 1024 38 38 (7393280)
I0422 22:26:49.564860 16565 net.cpp:165] Memory required for data: 2780074240
I0422 22:26:49.564864 16565 layer_factory.hpp:77] Creating layer conv_u3b-c
I0422 22:26:49.564874 16565 net.cpp:100] Creating Layer conv_u3b-c
I0422 22:26:49.564878 16565 net.cpp:434] conv_u3b-c <- u3b
I0422 22:26:49.564883 16565 net.cpp:408] conv_u3b-c -> u3c
I0422 22:26:49.604084 16565 net.cpp:150] Setting up conv_u3b-c
I0422 22:26:49.604101 16565 net.cpp:157] Top shape: 5 512 36 36 (3317760)
I0422 22:26:49.604105 16565 net.cpp:165] Memory required for data: 2793345280
I0422 22:26:49.604112 16565 layer_factory.hpp:77] Creating layer relu_u3c
I0422 22:26:49.604121 16565 net.cpp:100] Creating Layer relu_u3c
I0422 22:26:49.604125 16565 net.cpp:434] relu_u3c <- u3c
I0422 22:26:49.604130 16565 net.cpp:395] relu_u3c -> u3c (in-place)
I0422 22:26:49.604365 16565 net.cpp:150] Setting up relu_u3c
I0422 22:26:49.604377 16565 net.cpp:157] Top shape: 5 512 36 36 (3317760)
I0422 22:26:49.604380 16565 net.cpp:165] Memory required for data: 2806616320
I0422 22:26:49.604383 16565 layer_factory.hpp:77] Creating layer conv_u3c-d
I0422 22:26:49.604394 16565 net.cpp:100] Creating Layer conv_u3c-d
I0422 22:26:49.604399 16565 net.cpp:434] conv_u3c-d <- u3c
I0422 22:26:49.604405 16565 net.cpp:408] conv_u3c-d -> u3d
I0422 22:26:49.624367 16565 net.cpp:150] Setting up conv_u3c-d
I0422 22:26:49.624382 16565 net.cpp:157] Top shape: 5 512 34 34 (2959360)
I0422 22:26:49.624387 16565 net.cpp:165] Memory required for data: 2818453760
I0422 22:26:49.624397 16565 layer_factory.hpp:77] Creating layer relu_u3d
I0422 22:26:49.624418 16565 net.cpp:100] Creating Layer relu_u3d
I0422 22:26:49.624421 16565 net.cpp:434] relu_u3d <- u3d
I0422 22:26:49.624429 16565 net.cpp:395] relu_u3d -> u3d (in-place)
I0422 22:26:49.627099 16565 net.cpp:150] Setting up relu_u3d
I0422 22:26:49.627117 16565 net.cpp:157] Top shape: 5 512 34 34 (2959360)
I0422 22:26:49.627121 16565 net.cpp:165] Memory required for data: 2830291200
I0422 22:26:49.627132 16565 layer_factory.hpp:77] Creating layer upconv_u3d_u2a
I0422 22:26:49.627143 16565 net.cpp:100] Creating Layer upconv_u3d_u2a
I0422 22:26:49.627146 16565 net.cpp:434] upconv_u3d_u2a <- u3d
I0422 22:26:49.627156 16565 net.cpp:408] upconv_u3d_u2a -> u2a
I0422 22:26:49.632138 16565 net.cpp:150] Setting up upconv_u3d_u2a
I0422 22:26:49.632154 16565 net.cpp:157] Top shape: 5 256 68 68 (5918720)
I0422 22:26:49.632158 16565 net.cpp:165] Memory required for data: 2853966080
I0422 22:26:49.632174 16565 layer_factory.hpp:77] Creating layer relu_u2a
I0422 22:26:49.632184 16565 net.cpp:100] Creating Layer relu_u2a
I0422 22:26:49.632187 16565 net.cpp:434] relu_u2a <- u2a
I0422 22:26:49.632194 16565 net.cpp:395] relu_u2a -> u2a (in-place)
I0422 22:26:49.632416 16565 net.cpp:150] Setting up relu_u2a
I0422 22:26:49.632427 16565 net.cpp:157] Top shape: 5 256 68 68 (5918720)
I0422 22:26:49.632431 16565 net.cpp:165] Memory required for data: 2877640960
I0422 22:26:49.632433 16565 layer_factory.hpp:77] Creating layer u2a_relu_u2a_0_split
I0422 22:26:49.632441 16565 net.cpp:100] Creating Layer u2a_relu_u2a_0_split
I0422 22:26:49.632446 16565 net.cpp:434] u2a_relu_u2a_0_split <- u2a
I0422 22:26:49.632453 16565 net.cpp:408] u2a_relu_u2a_0_split -> u2a_relu_u2a_0_split_0
I0422 22:26:49.632467 16565 net.cpp:408] u2a_relu_u2a_0_split -> u2a_relu_u2a_0_split_1
I0422 22:26:49.632519 16565 net.cpp:150] Setting up u2a_relu_u2a_0_split
I0422 22:26:49.632529 16565 net.cpp:157] Top shape: 5 256 68 68 (5918720)
I0422 22:26:49.632532 16565 net.cpp:157] Top shape: 5 256 68 68 (5918720)
I0422 22:26:49.632535 16565 net.cpp:165] Memory required for data: 2924990720
I0422 22:26:49.632539 16565 layer_factory.hpp:77] Creating layer crop_d2c-d2cc
I0422 22:26:49.632547 16565 net.cpp:100] Creating Layer crop_d2c-d2cc
I0422 22:26:49.632551 16565 net.cpp:434] crop_d2c-d2cc <- d2c_relu_d2c_0_split_1
I0422 22:26:49.632555 16565 net.cpp:434] crop_d2c-d2cc <- u2a_relu_u2a_0_split_0
I0422 22:26:49.632561 16565 net.cpp:408] crop_d2c-d2cc -> d2cc
I0422 22:26:49.632589 16565 net.cpp:150] Setting up crop_d2c-d2cc
I0422 22:26:49.632596 16565 net.cpp:157] Top shape: 5 256 68 68 (5918720)
I0422 22:26:49.632599 16565 net.cpp:165] Memory required for data: 2948665600
I0422 22:26:49.632602 16565 layer_factory.hpp:77] Creating layer concat_d2cc_u2a-b
I0422 22:26:49.632608 16565 net.cpp:100] Creating Layer concat_d2cc_u2a-b
I0422 22:26:49.632611 16565 net.cpp:434] concat_d2cc_u2a-b <- u2a_relu_u2a_0_split_1
I0422 22:26:49.632616 16565 net.cpp:434] concat_d2cc_u2a-b <- d2cc
I0422 22:26:49.632622 16565 net.cpp:408] concat_d2cc_u2a-b -> u2b
I0422 22:26:49.632648 16565 net.cpp:150] Setting up concat_d2cc_u2a-b
I0422 22:26:49.632655 16565 net.cpp:157] Top shape: 5 512 68 68 (11837440)
I0422 22:26:49.632658 16565 net.cpp:165] Memory required for data: 2996015360
I0422 22:26:49.632661 16565 layer_factory.hpp:77] Creating layer conv_u2b-c
I0422 22:26:49.632673 16565 net.cpp:100] Creating Layer conv_u2b-c
I0422 22:26:49.632678 16565 net.cpp:434] conv_u2b-c <- u2b
I0422 22:26:49.632683 16565 net.cpp:408] conv_u2b-c -> u2c
I0422 22:26:49.642901 16565 net.cpp:150] Setting up conv_u2b-c
I0422 22:26:49.642918 16565 net.cpp:157] Top shape: 5 256 66 66 (5575680)
I0422 22:26:49.642921 16565 net.cpp:165] Memory required for data: 3018318080
I0422 22:26:49.642935 16565 layer_factory.hpp:77] Creating layer relu_u2c
I0422 22:26:49.642942 16565 net.cpp:100] Creating Layer relu_u2c
I0422 22:26:49.642947 16565 net.cpp:434] relu_u2c <- u2c
I0422 22:26:49.642952 16565 net.cpp:395] relu_u2c -> u2c (in-place)
I0422 22:26:49.643182 16565 net.cpp:150] Setting up relu_u2c
I0422 22:26:49.643208 16565 net.cpp:157] Top shape: 5 256 66 66 (5575680)
I0422 22:26:49.643213 16565 net.cpp:165] Memory required for data: 3040620800
I0422 22:26:49.643215 16565 layer_factory.hpp:77] Creating layer conv_u2c-d
I0422 22:26:49.643225 16565 net.cpp:100] Creating Layer conv_u2c-d
I0422 22:26:49.643229 16565 net.cpp:434] conv_u2c-d <- u2c
I0422 22:26:49.643236 16565 net.cpp:408] conv_u2c-d -> u2d
I0422 22:26:49.648675 16565 net.cpp:150] Setting up conv_u2c-d
I0422 22:26:49.648691 16565 net.cpp:157] Top shape: 5 256 64 64 (5242880)
I0422 22:26:49.648694 16565 net.cpp:165] Memory required for data: 3061592320
I0422 22:26:49.648702 16565 layer_factory.hpp:77] Creating layer relu_u2d
I0422 22:26:49.648710 16565 net.cpp:100] Creating Layer relu_u2d
I0422 22:26:49.648712 16565 net.cpp:434] relu_u2d <- u2d
I0422 22:26:49.648720 16565 net.cpp:395] relu_u2d -> u2d (in-place)
I0422 22:26:49.648955 16565 net.cpp:150] Setting up relu_u2d
I0422 22:26:49.648967 16565 net.cpp:157] Top shape: 5 256 64 64 (5242880)
I0422 22:26:49.648969 16565 net.cpp:165] Memory required for data: 3082563840
I0422 22:26:49.648972 16565 layer_factory.hpp:77] Creating layer upconv_u2d_u1a
I0422 22:26:49.648983 16565 net.cpp:100] Creating Layer upconv_u2d_u1a
I0422 22:26:49.648986 16565 net.cpp:434] upconv_u2d_u1a <- u2d
I0422 22:26:49.648993 16565 net.cpp:408] upconv_u2d_u1a -> u1a
I0422 22:26:49.651221 16565 net.cpp:150] Setting up upconv_u2d_u1a
I0422 22:26:49.651237 16565 net.cpp:157] Top shape: 5 128 128 128 (10485760)
I0422 22:26:49.651240 16565 net.cpp:165] Memory required for data: 3124506880
I0422 22:26:49.651262 16565 layer_factory.hpp:77] Creating layer relu_u1a
I0422 22:26:49.651270 16565 net.cpp:100] Creating Layer relu_u1a
I0422 22:26:49.651275 16565 net.cpp:434] relu_u1a <- u1a
I0422 22:26:49.651280 16565 net.cpp:395] relu_u1a -> u1a (in-place)
I0422 22:26:49.657116 16565 net.cpp:150] Setting up relu_u1a
I0422 22:26:49.657135 16565 net.cpp:157] Top shape: 5 128 128 128 (10485760)
I0422 22:26:49.657140 16565 net.cpp:165] Memory required for data: 3166449920
I0422 22:26:49.657143 16565 layer_factory.hpp:77] Creating layer u1a_relu_u1a_0_split
I0422 22:26:49.657150 16565 net.cpp:100] Creating Layer u1a_relu_u1a_0_split
I0422 22:26:49.657155 16565 net.cpp:434] u1a_relu_u1a_0_split <- u1a
I0422 22:26:49.657165 16565 net.cpp:408] u1a_relu_u1a_0_split -> u1a_relu_u1a_0_split_0
I0422 22:26:49.657173 16565 net.cpp:408] u1a_relu_u1a_0_split -> u1a_relu_u1a_0_split_1
I0422 22:26:49.657227 16565 net.cpp:150] Setting up u1a_relu_u1a_0_split
I0422 22:26:49.657232 16565 net.cpp:157] Top shape: 5 128 128 128 (10485760)
I0422 22:26:49.657238 16565 net.cpp:157] Top shape: 5 128 128 128 (10485760)
I0422 22:26:49.657240 16565 net.cpp:165] Memory required for data: 3250336000
I0422 22:26:49.657243 16565 layer_factory.hpp:77] Creating layer crop_d1c-d1cc
I0422 22:26:49.657250 16565 net.cpp:100] Creating Layer crop_d1c-d1cc
I0422 22:26:49.657256 16565 net.cpp:434] crop_d1c-d1cc <- d1c_relu_d1c_0_split_1
I0422 22:26:49.657261 16565 net.cpp:434] crop_d1c-d1cc <- u1a_relu_u1a_0_split_0
I0422 22:26:49.657266 16565 net.cpp:408] crop_d1c-d1cc -> d1cc
I0422 22:26:49.657294 16565 net.cpp:150] Setting up crop_d1c-d1cc
I0422 22:26:49.657301 16565 net.cpp:157] Top shape: 5 128 128 128 (10485760)
I0422 22:26:49.657305 16565 net.cpp:165] Memory required for data: 3292279040
I0422 22:26:49.657307 16565 layer_factory.hpp:77] Creating layer concat_d1cc_u1a-b
I0422 22:26:49.657313 16565 net.cpp:100] Creating Layer concat_d1cc_u1a-b
I0422 22:26:49.657317 16565 net.cpp:434] concat_d1cc_u1a-b <- u1a_relu_u1a_0_split_1
I0422 22:26:49.657321 16565 net.cpp:434] concat_d1cc_u1a-b <- d1cc
I0422 22:26:49.657328 16565 net.cpp:408] concat_d1cc_u1a-b -> u1b
I0422 22:26:49.657351 16565 net.cpp:150] Setting up concat_d1cc_u1a-b
I0422 22:26:49.657357 16565 net.cpp:157] Top shape: 5 256 128 128 (20971520)
I0422 22:26:49.657361 16565 net.cpp:165] Memory required for data: 3376165120
I0422 22:26:49.657363 16565 layer_factory.hpp:77] Creating layer conv_u1b-c
I0422 22:26:49.657394 16565 net.cpp:100] Creating Layer conv_u1b-c
I0422 22:26:49.657399 16565 net.cpp:434] conv_u1b-c <- u1b
I0422 22:26:49.657407 16565 net.cpp:408] conv_u1b-c -> u1c
I0422 22:26:49.659806 16565 net.cpp:150] Setting up conv_u1b-c
I0422 22:26:49.659817 16565 net.cpp:157] Top shape: 5 128 126 126 (10160640)
I0422 22:26:49.659821 16565 net.cpp:165] Memory required for data: 3416807680
I0422 22:26:49.659837 16565 layer_factory.hpp:77] Creating layer relu_u1c
I0422 22:26:49.659844 16565 net.cpp:100] Creating Layer relu_u1c
I0422 22:26:49.659848 16565 net.cpp:434] relu_u1c <- u1c
I0422 22:26:49.659854 16565 net.cpp:395] relu_u1c -> u1c (in-place)
I0422 22:26:49.660068 16565 net.cpp:150] Setting up relu_u1c
I0422 22:26:49.660079 16565 net.cpp:157] Top shape: 5 128 126 126 (10160640)
I0422 22:26:49.660081 16565 net.cpp:165] Memory required for data: 3457450240
I0422 22:26:49.660085 16565 layer_factory.hpp:77] Creating layer conv_u1c-d
I0422 22:26:49.660096 16565 net.cpp:100] Creating Layer conv_u1c-d
I0422 22:26:49.660099 16565 net.cpp:434] conv_u1c-d <- u1c
I0422 22:26:49.660106 16565 net.cpp:408] conv_u1c-d -> u1d
I0422 22:26:49.665782 16565 net.cpp:150] Setting up conv_u1c-d
I0422 22:26:49.665801 16565 net.cpp:157] Top shape: 5 128 124 124 (9840640)
I0422 22:26:49.665804 16565 net.cpp:165] Memory required for data: 3496812800
I0422 22:26:49.665817 16565 layer_factory.hpp:77] Creating layer relu_u1d
I0422 22:26:49.665824 16565 net.cpp:100] Creating Layer relu_u1d
I0422 22:26:49.665827 16565 net.cpp:434] relu_u1d <- u1d
I0422 22:26:49.665835 16565 net.cpp:395] relu_u1d -> u1d (in-place)
I0422 22:26:49.666060 16565 net.cpp:150] Setting up relu_u1d
I0422 22:26:49.666072 16565 net.cpp:157] Top shape: 5 128 124 124 (9840640)
I0422 22:26:49.666076 16565 net.cpp:165] Memory required for data: 3536175360
I0422 22:26:49.666079 16565 layer_factory.hpp:77] Creating layer upconv_u1d_u0a
I0422 22:26:49.666088 16565 net.cpp:100] Creating Layer upconv_u1d_u0a
I0422 22:26:49.666095 16565 net.cpp:434] upconv_u1d_u0a <- u1d
I0422 22:26:49.666101 16565 net.cpp:408] upconv_u1d_u0a -> u0a
I0422 22:26:49.666913 16565 net.cpp:150] Setting up upconv_u1d_u0a
I0422 22:26:49.666923 16565 net.cpp:157] Top shape: 5 128 248 248 (39362560)
I0422 22:26:49.666927 16565 net.cpp:165] Memory required for data: 3693625600
I0422 22:26:49.666942 16565 layer_factory.hpp:77] Creating layer relu_u0a
I0422 22:26:49.666947 16565 net.cpp:100] Creating Layer relu_u0a
I0422 22:26:49.666951 16565 net.cpp:434] relu_u0a <- u0a
I0422 22:26:49.666960 16565 net.cpp:395] relu_u0a -> u0a (in-place)
I0422 22:26:49.667176 16565 net.cpp:150] Setting up relu_u0a
I0422 22:26:49.667186 16565 net.cpp:157] Top shape: 5 128 248 248 (39362560)
I0422 22:26:49.667189 16565 net.cpp:165] Memory required for data: 3851075840
I0422 22:26:49.667193 16565 layer_factory.hpp:77] Creating layer u0a_relu_u0a_0_split
I0422 22:26:49.667199 16565 net.cpp:100] Creating Layer u0a_relu_u0a_0_split
I0422 22:26:49.667202 16565 net.cpp:434] u0a_relu_u0a_0_split <- u0a
I0422 22:26:49.667209 16565 net.cpp:408] u0a_relu_u0a_0_split -> u0a_relu_u0a_0_split_0
I0422 22:26:49.667218 16565 net.cpp:408] u0a_relu_u0a_0_split -> u0a_relu_u0a_0_split_1
I0422 22:26:49.667266 16565 net.cpp:150] Setting up u0a_relu_u0a_0_split
I0422 22:26:49.667274 16565 net.cpp:157] Top shape: 5 128 248 248 (39362560)
I0422 22:26:49.667279 16565 net.cpp:157] Top shape: 5 128 248 248 (39362560)
I0422 22:26:49.667282 16565 net.cpp:165] Memory required for data: 4165976320
I0422 22:26:49.667285 16565 layer_factory.hpp:77] Creating layer crop_d0c-d0cc
I0422 22:26:49.667291 16565 net.cpp:100] Creating Layer crop_d0c-d0cc
I0422 22:26:49.667295 16565 net.cpp:434] crop_d0c-d0cc <- d0c_relu_d0c_0_split_1
I0422 22:26:49.667300 16565 net.cpp:434] crop_d0c-d0cc <- u0a_relu_u0a_0_split_0
I0422 22:26:49.667307 16565 net.cpp:408] crop_d0c-d0cc -> d0cc
I0422 22:26:49.667332 16565 net.cpp:150] Setting up crop_d0c-d0cc
I0422 22:26:49.667337 16565 net.cpp:157] Top shape: 5 64 248 248 (19681280)
I0422 22:26:49.667341 16565 net.cpp:165] Memory required for data: 4244701440
I0422 22:26:49.667361 16565 layer_factory.hpp:77] Creating layer concat_d0cc_u0a-b
I0422 22:26:49.667369 16565 net.cpp:100] Creating Layer concat_d0cc_u0a-b
I0422 22:26:49.667373 16565 net.cpp:434] concat_d0cc_u0a-b <- u0a_relu_u0a_0_split_1
I0422 22:26:49.667379 16565 net.cpp:434] concat_d0cc_u0a-b <- d0cc
I0422 22:26:49.667385 16565 net.cpp:408] concat_d0cc_u0a-b -> u0b
I0422 22:26:49.667412 16565 net.cpp:150] Setting up concat_d0cc_u0a-b
I0422 22:26:49.667419 16565 net.cpp:157] Top shape: 5 192 248 248 (59043840)
I0422 22:26:49.667423 16565 net.cpp:165] Memory required for data: 4480876800
I0422 22:26:49.667426 16565 layer_factory.hpp:77] Creating layer conv_u0b-c
I0422 22:26:49.667436 16565 net.cpp:100] Creating Layer conv_u0b-c
I0422 22:26:49.667440 16565 net.cpp:434] conv_u0b-c <- u0b
I0422 22:26:49.667448 16565 net.cpp:408] conv_u0b-c -> u0c
I0422 22:26:49.668552 16565 net.cpp:150] Setting up conv_u0b-c
I0422 22:26:49.668562 16565 net.cpp:157] Top shape: 5 64 246 246 (19365120)
I0422 22:26:49.668565 16565 net.cpp:165] Memory required for data: 4558337280
I0422 22:26:49.668572 16565 layer_factory.hpp:77] Creating layer relu_u0c
I0422 22:26:49.668589 16565 net.cpp:100] Creating Layer relu_u0c
I0422 22:26:49.668596 16565 net.cpp:434] relu_u0c <- u0c
I0422 22:26:49.668601 16565 net.cpp:395] relu_u0c -> u0c (in-place)
I0422 22:26:49.669600 16565 net.cpp:150] Setting up relu_u0c
I0422 22:26:49.669615 16565 net.cpp:157] Top shape: 5 64 246 246 (19365120)
I0422 22:26:49.669620 16565 net.cpp:165] Memory required for data: 4635797760
I0422 22:26:49.669625 16565 layer_factory.hpp:77] Creating layer conv_u0c-d
I0422 22:26:49.669636 16565 net.cpp:100] Creating Layer conv_u0c-d
I0422 22:26:49.669643 16565 net.cpp:434] conv_u0c-d <- u0c
I0422 22:26:49.669651 16565 net.cpp:408] conv_u0c-d -> u0d
I0422 22:26:49.670279 16565 net.cpp:150] Setting up conv_u0c-d
I0422 22:26:49.670289 16565 net.cpp:157] Top shape: 5 64 244 244 (19051520)
I0422 22:26:49.670291 16565 net.cpp:165] Memory required for data: 4712003840
I0422 22:26:49.670305 16565 layer_factory.hpp:77] Creating layer relu_u0d
I0422 22:26:49.670311 16565 net.cpp:100] Creating Layer relu_u0d
I0422 22:26:49.670315 16565 net.cpp:434] relu_u0d <- u0d
I0422 22:26:49.670320 16565 net.cpp:395] relu_u0d -> u0d (in-place)
I0422 22:26:49.670541 16565 net.cpp:150] Setting up relu_u0d
I0422 22:26:49.670550 16565 net.cpp:157] Top shape: 5 64 244 244 (19051520)
I0422 22:26:49.670554 16565 net.cpp:165] Memory required for data: 4788209920
I0422 22:26:49.670557 16565 layer_factory.hpp:77] Creating layer conv_u0d-score
I0422 22:26:49.670567 16565 net.cpp:100] Creating Layer conv_u0d-score
I0422 22:26:49.670570 16565 net.cpp:434] conv_u0d-score <- u0d
I0422 22:26:49.670578 16565 net.cpp:408] conv_u0d-score -> score
I0422 22:26:49.670928 16565 net.cpp:150] Setting up conv_u0d-score
I0422 22:26:49.670936 16565 net.cpp:157] Top shape: 5 3 244 244 (893040)
I0422 22:26:49.670939 16565 net.cpp:165] Memory required for data: 4791782080
I0422 22:26:49.670954 16565 layer_factory.hpp:77] Creating layer score_conv_u0d-score_0_split
I0422 22:26:49.670963 16565 net.cpp:100] Creating Layer score_conv_u0d-score_0_split
I0422 22:26:49.670965 16565 net.cpp:434] score_conv_u0d-score_0_split <- score
I0422 22:26:49.670972 16565 net.cpp:408] score_conv_u0d-score_0_split -> score_conv_u0d-score_0_split_0
I0422 22:26:49.670980 16565 net.cpp:408] score_conv_u0d-score_0_split -> score_conv_u0d-score_0_split_1
I0422 22:26:49.671025 16565 net.cpp:150] Setting up score_conv_u0d-score_0_split
I0422 22:26:49.671031 16565 net.cpp:157] Top shape: 5 3 244 244 (893040)
I0422 22:26:49.671036 16565 net.cpp:157] Top shape: 5 3 244 244 (893040)
I0422 22:26:49.671039 16565 net.cpp:165] Memory required for data: 4798926400
I0422 22:26:49.671041 16565 layer_factory.hpp:77] Creating layer softmax
I0422 22:26:49.671047 16565 net.cpp:100] Creating Layer softmax
I0422 22:26:49.671051 16565 net.cpp:434] softmax <- score_conv_u0d-score_0_split_0
I0422 22:26:49.671056 16565 net.cpp:408] softmax -> softmax_out
I0422 22:26:49.671347 16565 net.cpp:150] Setting up softmax
I0422 22:26:49.671357 16565 net.cpp:157] Top shape: 5 3 244 244 (893040)
I0422 22:26:49.671360 16565 net.cpp:165] Memory required for data: 4802498560
I0422 22:26:49.671365 16565 layer_factory.hpp:77] Creating layer reshapelab
I0422 22:26:49.671377 16565 net.cpp:100] Creating Layer reshapelab
I0422 22:26:49.671381 16565 net.cpp:434] reshapelab <- label
I0422 22:26:49.671386 16565 net.cpp:408] reshapelab -> label_flat
I0422 22:26:49.671418 16565 net.cpp:150] Setting up reshapelab
I0422 22:26:49.671425 16565 net.cpp:157] Top shape: 5 59536 (297680)
I0422 22:26:49.671428 16565 net.cpp:165] Memory required for data: 4803689280
I0422 22:26:49.671432 16565 layer_factory.hpp:77] Creating layer reshaperes
I0422 22:26:49.671437 16565 net.cpp:100] Creating Layer reshaperes
I0422 22:26:49.671440 16565 net.cpp:434] reshaperes <- softmax_out
I0422 22:26:49.671447 16565 net.cpp:408] reshaperes -> softmax_out_flat
I0422 22:26:49.671475 16565 net.cpp:150] Setting up reshaperes
I0422 22:26:49.671483 16565 net.cpp:157] Top shape: 5 3 59536 (893040)
I0422 22:26:49.671486 16565 net.cpp:165] Memory required for data: 4807261440
I0422 22:26:49.671489 16565 layer_factory.hpp:77] Creating layer loss
I0422 22:26:49.687530 16565 net.cpp:100] Creating Layer loss
I0422 22:26:49.687547 16565 net.cpp:434] loss <- softmax_out_flat
I0422 22:26:49.687564 16565 net.cpp:434] loss <- label_flat
I0422 22:26:49.687572 16565 net.cpp:408] loss -> loss
I0422 22:26:49.698870 16565 net.cpp:150] Setting up loss
I0422 22:26:49.698889 16565 net.cpp:157] Top shape: 3 (3)
I0422 22:26:49.698892 16565 net.cpp:160]     with loss weight 1
I0422 22:26:49.698911 16565 net.cpp:165] Memory required for data: 4807261452
I0422 22:26:49.698915 16565 layer_factory.hpp:77] Creating layer visualize
I0422 22:26:49.698925 16565 net.cpp:100] Creating Layer visualize
I0422 22:26:49.698928 16565 net.cpp:434] visualize <- score_conv_u0d-score_0_split_1
I0422 22:26:49.698935 16565 net.cpp:408] visualize -> visualize_out
I0422 22:26:49.700057 16565 net.cpp:150] Setting up visualize
I0422 22:26:49.700073 16565 net.cpp:157] Top shape: 5 3 244 244 (893040)
I0422 22:26:49.700076 16565 net.cpp:165] Memory required for data: 4810833612
I0422 22:26:49.700080 16565 layer_factory.hpp:77] Creating layer fake
I0422 22:26:49.700091 16565 net.cpp:100] Creating Layer fake
I0422 22:26:49.700096 16565 net.cpp:434] fake <- visualize_out
I0422 22:26:49.700103 16565 net.cpp:150] Setting up fake
I0422 22:26:49.700106 16565 net.cpp:165] Memory required for data: 4810833612
…
I0422 22:26:49.701311 16565 net.cpp:322] The NetState phase (1) differed from the phase (0) specified by a rule in layer visualize
I0422 22:26:49.701318 16565 net.cpp:322] The NetState phase (1) differed from the phase (0) specified by a rule in layer fake
I0422 22:26:49.701704 16565 net.cpp:58] Initializing net from parameters: 
name: "unet_f1_3"
force_backward: true
state {
  phase: TEST
}
layer {
  name: "loaddata"
  type: "HDF5Data"
  top: "data"
  top: "label"
  include {
    phase: TEST
  }
  hdf5_data_param {
    source: "caffeHDF5_validation_3.txt"
    batch_size: 1
  }
}
layer {
  name: "conv_d0a-b"
  type: "Convolution"
  bottom: "data"
  top: "d0b"
  param {
    lr_mult: 1
    decay_mult: 1
  }
  param {
    lr_mult: 2
    decay_mult: 0
  }
  convolution_param {
    num_output: 64
    pad: 0
    kernel_size: 3
    weight_filler {
      type: "xavier"
    }
    engine: CAFFE
  }
}
layer {
  name: "relu_d0b"
  type: "ReLU"
  bottom: "d0b"
  top: "d0b"
}
layer {
  name: "conv_d0b-c"
  type: "Convolution"
  bottom: "d0b"
  top: "d0c"
  param {
    lr_mult: 1
    decay_mult: 1
  }
  param {
    lr_mult: 2
    decay_mult: 0
  }
  convolution_param {
    num_output: 64
    pad: 0
    kernel_size: 3
    weight_filler {
      type: "xavier"
    }
    engine: CAFFE
  }
}
layer {
  name: "relu_d0c"
  type: "ReLU"
  bottom: "d0c"
  top: "d0c"
}
layer {
  name: "pool_d0c-1a"
  type: "Pooling"
  bottom: "d0c"
  top: "d1a"
  pooling_param {
    pool: MAX
    kernel_size: 2
    stride: 2
  }
}
layer {
  name: "conv_d1a-b"
  type: "Convolution"
  bottom: "d1a"
  top: "d1b"
  param {
    lr_mult: 1
    decay_mult: 1
  }
  param {
    lr_mult: 2
    decay_mult: 0
  }
  convolution_param {
    num_output: 128
    pad: 0
    kernel_size: 3
    weight_filler {
      type: "xavier"
    }
    engine: CAFFE
  }
}
layer {
  name: "relu_d1b"
  type: "ReLU"
  bottom: "d1b"
  top: "d1b"
}
layer {
  name: "conv_d1b-c"
  type: "Convolution"
  bottom: "d1b"
  top: "d1c"
  param {
    lr_mult: 1
    decay_mult: 1
  }
  param {
    lr_mult: 2
    decay_mult: 0
  }
  convolution_param {
    num_output: 128
    pad: 0
    kernel_size: 3
    weight_filler {
      type: "xavier"
    }
    engine: CAFFE
  }
}
layer {
  name: "relu_d1c"
  type: "ReLU"
  bottom: "d1c"
  top: "d1c"
}
layer {
  name: "pool_d1c-2a"
  type: "Pooling"
  bottom: "d1c"
  top: "d2a"
  pooling_param {
    pool: MAX
    kernel_size: 2
    stride: 2
  }
}
layer {
  name: "conv_d2a-b"
  type: "Convolution"
  bottom: "d2a"
  top: "d2b"
  param {
    lr_mult: 1
    decay_mult: 1
  }
  param {
    lr_mult: 2
    decay_mult: 0
  }
  convolution_param {
    num_output: 256
    pad: 0
    kernel_size: 3
    weight_filler {
      type: "xavier"
    }
    engine: CAFFE
  }
}
layer {
  name: "relu_d2b"
  type: "ReLU"
  bottom: "d2b"
  top: "d2b"
}
layer {
  name: "conv_d2b-c"
  type: "Convolution"
  bottom: "d2b"
  top: "d2c"
  param {
    lr_mult: 1
    decay_mult: 1
  }
  param {
    lr_mult: 2
    decay_mult: 0
  }
  convolution_param {
    num_output: 256
    pad: 0
    kernel_size: 3
    weight_filler {
      type: "xavier"
    }
    engine: CAFFE
  }
}
layer {
  name: "relu_d2c"
  type: "ReLU"
  bottom: "d2c"
  top: "d2c"
}
layer {
  name: "pool_d2c-3a"
  type: "Pooling"
  bottom: "d2c"
  top: "d3a"
  pooling_param {
    pool: MAX
    kernel_size: 2
    stride: 2
  }
}
layer {
  name: "conv_d3a-b"
  type: "Convolution"
  bottom: "d3a"
  top: "d3b"
  param {
    lr_mult: 1
    decay_mult: 1
  }
  param {
    lr_mult: 2
    decay_mult: 0
  }
  convolution_param {
    num_output: 512
    pad: 0
    kernel_size: 3
    weight_filler {
      type: "xavier"
    }
    engine: CAFFE
  }
}
layer {
  name: "relu_d3b"
  type: "ReLU"
  bottom: "d3b"
  top: "d3b"
}
layer {
  name: "conv_d3b-c"
  type: "Convolution"
  bottom: "d3b"
  top: "d3c"
  param {
    lr_mult: 1
    decay_mult: 1
  }
  param {
    lr_mult: 2
    decay_mult: 0
  }
  convolution_param {
    num_output: 512
    pad: 0
    kernel_size: 3
    weight_filler {
      type: "xavier"
    }
    engine: CAFFE
  }
}
layer {
  name: "relu_d3c"
  type: "ReLU"
  bottom: "d3c"
  top: "d3c"
}
layer {
  name: "pool_d3c-4a"
  type: "Pooling"
  bottom: "d3c"
  top: "d4a"
  pooling_param {
    pool: MAX
    kernel_size: 2
    stride: 2
  }
}
layer {
  name: "conv_d4a-b"
  type: "Convolution"
  bottom: "d4a"
  top: "d4b"
  param {
    lr_mult: 1
    decay_mult: 1
  }
  param {
    lr_mult: 2
    decay_mult: 0
  }
  convolution_param {
    num_output: 1024
    pad: 0
    kernel_size: 3
    weight_filler {
      type: "xavier"
    }
    engine: CAFFE
  }
}
layer {
  name: "relu_d4b"
  type: "ReLU"
  bottom: "d4b"
  top: "d4b"
}
layer {
  name: "conv_d4b-c"
  type: "Convolution"
  bottom: "d4b"
  top: "d4c"
  param {
    lr_mult: 1
    decay_mult: 1
  }
  param {
    lr_mult: 2
    decay_mult: 0
  }
  convolution_param {
    num_output: 1024
    pad: 0
    kernel_size: 3
    weight_filler {
      type: "xavier"
    }
    engine: CAFFE
  }
}
layer {
  name: "relu_d4c"
  type: "ReLU"
  bottom: "d4c"
  top: "d4c"
}
layer {
  name: "upconv_d4c_u3a"
  type: "Deconvolution"
  bottom: "d4c"
  top: "u3a"
  param {
    lr_mult: 1
    decay_mult: 1
  }
  param {
    lr_mult: 2
    decay_mult: 0
  }
  convolution_param {
    num_output: 512
    pad: 0
    kernel_size: 2
    stride: 2
    weight_filler {
      type: "xavier"
    }
  }
}
layer {
  name: "relu_u3a"
  type: "ReLU"
  bottom: "u3a"
  top: "u3a"
}
layer {
  name: "crop_d3c-d3cc"
  type: "Crop"
  bottom: "d3c"
  bottom: "u3a"
  top: "d3cc"
  crop_param {
    axis: 2
    offset: 4
  }
}
layer {
  name: "concat_d3cc_u3a-b"
  type: "Concat"
  bottom: "u3a"
  bottom: "d3cc"
  top: "u3b"
}
layer {
  name: "conv_u3b-c"
  type: "Convolution"
  bottom: "u3b"
  top: "u3c"
  param {
    lr_mult: 1
    decay_mult: 1
  }
  param {
    lr_mult: 2
    decay_mult: 0
  }
  convolution_param {
    num_output: 512
    pad: 0
    kernel_size: 3
    weight_filler {
      type: "xavier"
    }
    engine: CAFFE
  }
}
layer {
  name: "relu_u3c"
  type: "ReLU"
  bottom: "u3c"
  top: "u3c"
}
layer {
  name: "conv_u3c-d"
  type: "Convolution"
  bottom: "u3c"
  top: "u3d"
  param {
    lr_mult: 1
    decay_mult: 1
  }
  param {
    lr_mult: 2
    decay_mult: 0
  }
  convolution_param {
    num_output: 512
    pad: 0
    kernel_size: 3
    weight_filler {
      type: "xavier"
    }
    engine: CAFFE
  }
}
layer {
  name: "relu_u3d"
  type: "ReLU"
  bottom: "u3d"
  top: "u3d"
}
layer {
  name: "upconv_u3d_u2a"
  type: "Deconvolution"
  bottom: "u3d"
  top: "u2a"
  param {
    lr_mult: 1
    decay_mult: 1
  }
  param {
    lr_mult: 2
    decay_mult: 0
  }
  convolution_param {
    num_output: 256
    pad: 0
    kernel_size: 2
    stride: 2
    weight_filler {
      type: "xavier"
    }
  }
}
layer {
  name: "relu_u2a"
  type: "ReLU"
  bottom: "u2a"
  top: "u2a"
}
layer {
  name: "crop_d2c-d2cc"
  type: "Crop"
  bottom: "d2c"
  bottom: "u2a"
  top: "d2cc"
  crop_param {
    axis: 2
    offset: 16
  }
}
layer {
  name: "concat_d2cc_u2a-b"
  type: "Concat"
  bottom: "u2a"
  bottom: "d2cc"
  top: "u2b"
}
layer {
  name: "conv_u2b-c"
  type: "Convolution"
  bottom: "u2b"
  top: "u2c"
  param {
    lr_mult: 1
    decay_mult: 1
  }
  param {
    lr_mult: 2
    decay_mult: 0
  }
  convolution_param {
    num_output: 256
    pad: 0
    kernel_size: 3
    weight_filler {
      type: "xavier"
    }
    engine: CAFFE
  }
}
layer {
  name: "relu_u2c"
  type: "ReLU"
  bottom: "u2c"
  top: "u2c"
}
layer {
  name: "conv_u2c-d"
  type: "Convolution"
  bottom: "u2c"
  top: "u2d"
  param {
    lr_mult: 1
    decay_mult: 1
  }
  param {
    lr_mult: 2
    decay_mult: 0
  }
  convolution_param {
    num_output: 256
    pad: 0
    kernel_size: 3
    weight_filler {
      type: "xavier"
    }
    engine: CAFFE
  }
}
layer {
  name: "relu_u2d"
  type: "ReLU"
  bottom: "u2d"
  top: "u2d"
}
layer {
  name: "upconv_u2d_u1a"
  type: "Deconvolution"
  bottom: "u2d"
  top: "u1a"
  param {
    lr_mult: 1
    decay_mult: 1
  }
  param {
    lr_mult: 2
    decay_mult: 0
  }
  convolution_param {
    num_output: 128
    pad: 0
    kernel_size: 2
    stride: 2
    weight_filler {
      type: "xavier"
    }
  }
}
layer {
  name: "relu_u1a"
  type: "ReLU"
  bottom: "u1a"
  top: "u1a"
}
layer {
  name: "crop_d1c-d1cc"
  type: "Crop"
  bottom: "d1c"
  bottom: "u1a"
  top: "d1cc"
  crop_param {
    axis: 2
    offset: 40
  }
}
layer {
  name: "concat_d1cc_u1a-b"
  type: "Concat"
  bottom: "u1a"
  bottom: "d1cc"
  top: "u1b"
}
layer {
  name: "conv_u1b-c"
  type: "Convolution"
  bottom: "u1b"
  top: "u1c"
  param {
    lr_mult: 1
    decay_mult: 1
  }
  param {
    lr_mult: 2
    decay_mult: 0
  }
  convolution_param {
    num_output: 128
    pad: 0
    kernel_size: 3
    weight_filler {
      type: "xavier"
    }
    engine: CAFFE
  }
}
layer {
  name: "relu_u1c"
  type: "ReLU"
  bottom: "u1c"
  top: "u1c"
}
layer {
  name: "conv_u1c-d"
  type: "Convolution"
  bottom: "u1c"
  top: "u1d"
  param {
    lr_mult: 1
    decay_mult: 1
  }
  param {
    lr_mult: 2
    decay_mult: 0
  }
  convolution_param {
    num_output: 128
    pad: 0
    kernel_size: 3
    weight_filler {
      type: "xavier"
    }
    engine: CAFFE
  }
}
layer {
  name: "relu_u1d"
  type: "ReLU"
  bottom: "u1d"
  top: "u1d"
}
layer {
  name: "upconv_u1d_u0a"
  type: "Deconvolution"
  bottom: "u1d"
  top: "u0a"
  param {
    lr_mult: 1
    decay_mult: 1
  }
  param {
    lr_mult: 2
    decay_mult: 0
  }
  convolution_param {
    num_output: 128
    pad: 0
    kernel_size: 2
    stride: 2
    weight_filler {
      type: "xavier"
    }
  }
}
layer {
  name: "relu_u0a"
  type: "ReLU"
  bottom: "u0a"
  top: "u0a"
}
layer {
  name: "crop_d0c-d0cc"
  type: "Crop"
  bottom: "d0c"
  bottom: "u0a"
  top: "d0cc"
  crop_param {
    axis: 2
    offset: 88
  }
}
layer {
  name: "concat_d0cc_u0a-b"
  type: "Concat"
  bottom: "u0a"
  bottom: "d0cc"
  top: "u0b"
}
layer {
  name: "conv_u0b-c"
  type: "Convolution"
  bottom: "u0b"
  top: "u0c"
  param {
    lr_mult: 1
    decay_mult: 1
  }
  param {
    lr_mult: 2
    decay_mult: 0
  }
  convolution_param {
    num_output: 64
    pad: 0
    kernel_size: 3
    weight_filler {
      type: "xavier"
    }
    engine: CAFFE
  }
}
layer {
  name: "relu_u0c"
  type: "ReLU"
  bottom: "u0c"
  top: "u0c"
}
layer {
  name: "conv_u0c-d"
  type: "Convolution"
  bottom: "u0c"
  top: "u0d"
  param {
    lr_mult: 1
    decay_mult: 1
  }
  param {
    lr_mult: 2
    decay_mult: 0
  }
  convolution_param {
    num_output: 64
    pad: 0
    kernel_size: 3
    weight_filler {
      type: "xavier"
    }
    engine: CAFFE
  }
}
layer {
  name: "relu_u0d"
  type: "ReLU"
  bottom: "u0d"
  top: "u0d"
}
layer {
  name: "conv_u0d-score"
  type: "Convolution"
  bottom: "u0d"
  top: "score"
  param {
    lr_mult: 1
    decay_mult: 1
  }
  param {
    lr_mult: 2
    decay_mult: 0
  }
  convolution_param {
    num_output: 3
    pad: 0
    kernel_size: 1
    weight_filler {
      type: "xavier"
    }
    engine: CAFFE
  }
}
layer {
  name: "softmax"
  type: "Softmax"
  bottom: "score"
  top: "softmax_out"
}
layer {
  name: "reshapelab"
  type: "Reshape"
  bottom: "label"
  top: "label_flat"
  reshape_param {
    shape {
      dim: 0
      dim: -1
    }
  }
}
layer {
  name: "reshaperes"
  type: "Reshape"
  bottom: "softmax_out"
  top: "softmax_out_flat"
  reshape_param {
    shape {
      dim: 0
      dim: 0
      dim: -1
    }
  }
}
layer {
  name: "loss"
  type: "Python"
  bottom: "softmax_out_flat"
  bottom: "label_flat"
  top: "loss"
  loss_weight: 1
  python_param {
    module: "multiclass_f1_loss"
    layer: "F1Loss"
  }
}
I0422 22:26:49.701987 16565 layer_factory.hpp:77] Creating layer loaddata
I0422 22:26:49.701998 16565 net.cpp:100] Creating Layer loaddata
I0422 22:26:49.702003 16565 net.cpp:408] loaddata -> data
I0422 22:26:49.702011 16565 net.cpp:408] loaddata -> label
I0422 22:26:49.702018 16565 hdf5_data_layer.cpp:79] Loading list of HDF5 filenames from: caffeHDF5_validation_3.txt
I0422 22:26:49.702247 16565 hdf5_data_layer.cpp:93] Number of HDF5 files: 10
I0422 22:26:50.003304 16565 net.cpp:150] Setting up loaddata
I0422 22:26:50.003342 16565 net.cpp:157] Top shape: 1 3 428 428 (549552)
I0422 22:26:50.003348 16565 net.cpp:157] Top shape: 1 244 244 (59536)
I0422 22:26:50.003352 16565 net.cpp:165] Memory required for data: 2436352
I0422 22:26:50.003360 16565 layer_factory.hpp:77] Creating layer conv_d0a-b
I0422 22:26:50.003379 16565 net.cpp:100] Creating Layer conv_d0a-b
I0422 22:26:50.003383 16565 net.cpp:434] conv_d0a-b <- data
I0422 22:26:50.003391 16565 net.cpp:408] conv_d0a-b -> d0b
I0422 22:26:50.003994 16565 net.cpp:150] Setting up conv_d0a-b
I0422 22:26:50.004005 16565 net.cpp:157] Top shape: 1 64 426 426 (11614464)
I0422 22:26:50.004009 16565 net.cpp:165] Memory required for data: 48894208
I0422 22:26:50.004029 16565 layer_factory.hpp:77] Creating layer relu_d0b
I0422 22:26:50.004047 16565 net.cpp:100] Creating Layer relu_d0b
I0422 22:26:50.004051 16565 net.cpp:434] relu_d0b <- d0b
I0422 22:26:50.004056 16565 net.cpp:395] relu_d0b -> d0b (in-place)
I0422 22:26:50.004345 16565 net.cpp:150] Setting up relu_d0b
I0422 22:26:50.004356 16565 net.cpp:157] Top shape: 1 64 426 426 (11614464)
I0422 22:26:50.004359 16565 net.cpp:165] Memory required for data: 95352064
I0422 22:26:50.004364 16565 layer_factory.hpp:77] Creating layer conv_d0b-c
I0422 22:26:50.004371 16565 net.cpp:100] Creating Layer conv_d0b-c
I0422 22:26:50.004375 16565 net.cpp:434] conv_d0b-c <- d0b
I0422 22:26:50.004381 16565 net.cpp:408] conv_d0b-c -> d0c
I0422 22:26:50.005132 16565 net.cpp:150] Setting up conv_d0b-c
I0422 22:26:50.005142 16565 net.cpp:157] Top shape: 1 64 424 424 (11505664)
I0422 22:26:50.005146 16565 net.cpp:165] Memory required for data: 141374720
I0422 22:26:50.005164 16565 layer_factory.hpp:77] Creating layer relu_d0c
I0422 22:26:50.005172 16565 net.cpp:100] Creating Layer relu_d0c
I0422 22:26:50.005175 16565 net.cpp:434] relu_d0c <- d0c
I0422 22:26:50.005180 16565 net.cpp:395] relu_d0c -> d0c (in-place)
I0422 22:26:50.005424 16565 net.cpp:150] Setting up relu_d0c
I0422 22:26:50.005441 16565 net.cpp:157] Top shape: 1 64 424 424 (11505664)
I0422 22:26:50.005446 16565 net.cpp:165] Memory required for data: 187397376
I0422 22:26:50.005460 16565 layer_factory.hpp:77] Creating layer d0c_relu_d0c_0_split
I0422 22:26:50.005466 16565 net.cpp:100] Creating Layer d0c_relu_d0c_0_split
I0422 22:26:50.005470 16565 net.cpp:434] d0c_relu_d0c_0_split <- d0c
I0422 22:26:50.005476 16565 net.cpp:408] d0c_relu_d0c_0_split -> d0c_relu_d0c_0_split_0
I0422 22:26:50.005484 16565 net.cpp:408] d0c_relu_d0c_0_split -> d0c_relu_d0c_0_split_1
I0422 22:26:50.005534 16565 net.cpp:150] Setting up d0c_relu_d0c_0_split
I0422 22:26:50.005542 16565 net.cpp:157] Top shape: 1 64 424 424 (11505664)
I0422 22:26:50.005548 16565 net.cpp:157] Top shape: 1 64 424 424 (11505664)
I0422 22:26:50.005550 16565 net.cpp:165] Memory required for data: 279442688
I0422 22:26:50.005553 16565 layer_factory.hpp:77] Creating layer pool_d0c-1a
I0422 22:26:50.005560 16565 net.cpp:100] Creating Layer pool_d0c-1a
I0422 22:26:50.005564 16565 net.cpp:434] pool_d0c-1a <- d0c_relu_d0c_0_split_0
I0422 22:26:50.005587 16565 net.cpp:408] pool_d0c-1a -> d1a
I0422 22:26:50.005633 16565 net.cpp:150] Setting up pool_d0c-1a
I0422 22:26:50.005641 16565 net.cpp:157] Top shape: 1 64 212 212 (2876416)
I0422 22:26:50.005645 16565 net.cpp:165] Memory required for data: 290948352
I0422 22:26:50.005648 16565 layer_factory.hpp:77] Creating layer conv_d1a-b
I0422 22:26:50.005657 16565 net.cpp:100] Creating Layer conv_d1a-b
I0422 22:26:50.005661 16565 net.cpp:434] conv_d1a-b <- d1a
I0422 22:26:50.005667 16565 net.cpp:408] conv_d1a-b -> d1b
I0422 22:26:50.007540 16565 net.cpp:150] Setting up conv_d1a-b
I0422 22:26:50.007556 16565 net.cpp:157] Top shape: 1 128 210 210 (5644800)
I0422 22:26:50.007560 16565 net.cpp:165] Memory required for data: 313527552
I0422 22:26:50.007571 16565 layer_factory.hpp:77] Creating layer relu_d1b
I0422 22:26:50.007580 16565 net.cpp:100] Creating Layer relu_d1b
I0422 22:26:50.007582 16565 net.cpp:434] relu_d1b <- d1b
I0422 22:26:50.007588 16565 net.cpp:395] relu_d1b -> d1b (in-place)
I0422 22:26:50.007822 16565 net.cpp:150] Setting up relu_d1b
I0422 22:26:50.007833 16565 net.cpp:157] Top shape: 1 128 210 210 (5644800)
I0422 22:26:50.007835 16565 net.cpp:165] Memory required for data: 336106752
I0422 22:26:50.007839 16565 layer_factory.hpp:77] Creating layer conv_d1b-c
I0422 22:26:50.007848 16565 net.cpp:100] Creating Layer conv_d1b-c
I0422 22:26:50.007851 16565 net.cpp:434] conv_d1b-c <- d1b
I0422 22:26:50.007858 16565 net.cpp:408] conv_d1b-c -> d1c
I0422 22:26:50.010201 16565 net.cpp:150] Setting up conv_d1b-c
I0422 22:26:50.010218 16565 net.cpp:157] Top shape: 1 128 208 208 (5537792)
I0422 22:26:50.010232 16565 net.cpp:165] Memory required for data: 358257920
I0422 22:26:50.010239 16565 layer_factory.hpp:77] Creating layer relu_d1c
I0422 22:26:50.010246 16565 net.cpp:100] Creating Layer relu_d1c
I0422 22:26:50.010251 16565 net.cpp:434] relu_d1c <- d1c
I0422 22:26:50.010257 16565 net.cpp:395] relu_d1c -> d1c (in-place)
I0422 22:26:50.011283 16565 net.cpp:150] Setting up relu_d1c
I0422 22:26:50.011298 16565 net.cpp:157] Top shape: 1 128 208 208 (5537792)
I0422 22:26:50.011302 16565 net.cpp:165] Memory required for data: 380409088
I0422 22:26:50.011314 16565 layer_factory.hpp:77] Creating layer d1c_relu_d1c_0_split
I0422 22:26:50.011320 16565 net.cpp:100] Creating Layer d1c_relu_d1c_0_split
I0422 22:26:50.011324 16565 net.cpp:434] d1c_relu_d1c_0_split <- d1c
I0422 22:26:50.011332 16565 net.cpp:408] d1c_relu_d1c_0_split -> d1c_relu_d1c_0_split_0
I0422 22:26:50.011340 16565 net.cpp:408] d1c_relu_d1c_0_split -> d1c_relu_d1c_0_split_1
I0422 22:26:50.011392 16565 net.cpp:150] Setting up d1c_relu_d1c_0_split
I0422 22:26:50.011404 16565 net.cpp:157] Top shape: 1 128 208 208 (5537792)
I0422 22:26:50.011409 16565 net.cpp:157] Top shape: 1 128 208 208 (5537792)
I0422 22:26:50.011412 16565 net.cpp:165] Memory required for data: 424711424
I0422 22:26:50.011415 16565 layer_factory.hpp:77] Creating layer pool_d1c-2a
I0422 22:26:50.011421 16565 net.cpp:100] Creating Layer pool_d1c-2a
I0422 22:26:50.011425 16565 net.cpp:434] pool_d1c-2a <- d1c_relu_d1c_0_split_0
I0422 22:26:50.011431 16565 net.cpp:408] pool_d1c-2a -> d2a
I0422 22:26:50.011472 16565 net.cpp:150] Setting up pool_d1c-2a
I0422 22:26:50.011481 16565 net.cpp:157] Top shape: 1 128 104 104 (1384448)
I0422 22:26:50.011483 16565 net.cpp:165] Memory required for data: 430249216
I0422 22:26:50.011487 16565 layer_factory.hpp:77] Creating layer conv_d2a-b
I0422 22:26:50.011497 16565 net.cpp:100] Creating Layer conv_d2a-b
I0422 22:26:50.011499 16565 net.cpp:434] conv_d2a-b <- d2a
I0422 22:26:50.011507 16565 net.cpp:408] conv_d2a-b -> d2b
I0422 22:26:50.013876 16565 net.cpp:150] Setting up conv_d2a-b
I0422 22:26:50.013887 16565 net.cpp:157] Top shape: 1 256 102 102 (2663424)
I0422 22:26:50.013890 16565 net.cpp:165] Memory required for data: 440902912
I0422 22:26:50.013911 16565 layer_factory.hpp:77] Creating layer relu_d2b
I0422 22:26:50.013917 16565 net.cpp:100] Creating Layer relu_d2b
I0422 22:26:50.013921 16565 net.cpp:434] relu_d2b <- d2b
I0422 22:26:50.013941 16565 net.cpp:395] relu_d2b -> d2b (in-place)
I0422 22:26:50.014154 16565 net.cpp:150] Setting up relu_d2b
I0422 22:26:50.014165 16565 net.cpp:157] Top shape: 1 256 102 102 (2663424)
I0422 22:26:50.014168 16565 net.cpp:165] Memory required for data: 451556608
I0422 22:26:50.014173 16565 layer_factory.hpp:77] Creating layer conv_d2b-c
I0422 22:26:50.014181 16565 net.cpp:100] Creating Layer conv_d2b-c
I0422 22:26:50.014185 16565 net.cpp:434] conv_d2b-c <- d2b
I0422 22:26:50.014191 16565 net.cpp:408] conv_d2b-c -> d2c
I0422 22:26:50.019656 16565 net.cpp:150] Setting up conv_d2b-c
I0422 22:26:50.019673 16565 net.cpp:157] Top shape: 1 256 100 100 (2560000)
I0422 22:26:50.019677 16565 net.cpp:165] Memory required for data: 461796608
I0422 22:26:50.019691 16565 layer_factory.hpp:77] Creating layer relu_d2c
I0422 22:26:50.019701 16565 net.cpp:100] Creating Layer relu_d2c
I0422 22:26:50.019706 16565 net.cpp:434] relu_d2c <- d2c
I0422 22:26:50.019711 16565 net.cpp:395] relu_d2c -> d2c (in-place)
I0422 22:26:50.019951 16565 net.cpp:150] Setting up relu_d2c
I0422 22:26:50.019963 16565 net.cpp:157] Top shape: 1 256 100 100 (2560000)
I0422 22:26:50.019966 16565 net.cpp:165] Memory required for data: 472036608
I0422 22:26:50.019969 16565 layer_factory.hpp:77] Creating layer d2c_relu_d2c_0_split
I0422 22:26:50.019974 16565 net.cpp:100] Creating Layer d2c_relu_d2c_0_split
I0422 22:26:50.019979 16565 net.cpp:434] d2c_relu_d2c_0_split <- d2c
I0422 22:26:50.019984 16565 net.cpp:408] d2c_relu_d2c_0_split -> d2c_relu_d2c_0_split_0
I0422 22:26:50.019992 16565 net.cpp:408] d2c_relu_d2c_0_split -> d2c_relu_d2c_0_split_1
I0422 22:26:50.020040 16565 net.cpp:150] Setting up d2c_relu_d2c_0_split
I0422 22:26:50.020048 16565 net.cpp:157] Top shape: 1 256 100 100 (2560000)
I0422 22:26:50.020053 16565 net.cpp:157] Top shape: 1 256 100 100 (2560000)
I0422 22:26:50.020056 16565 net.cpp:165] Memory required for data: 492516608
I0422 22:26:50.020059 16565 layer_factory.hpp:77] Creating layer pool_d2c-3a
I0422 22:26:50.020066 16565 net.cpp:100] Creating Layer pool_d2c-3a
I0422 22:26:50.020078 16565 net.cpp:434] pool_d2c-3a <- d2c_relu_d2c_0_split_0
I0422 22:26:50.020084 16565 net.cpp:408] pool_d2c-3a -> d3a
I0422 22:26:50.020129 16565 net.cpp:150] Setting up pool_d2c-3a
I0422 22:26:50.020138 16565 net.cpp:157] Top shape: 1 256 50 50 (640000)
I0422 22:26:50.020141 16565 net.cpp:165] Memory required for data: 495076608
I0422 22:26:50.020144 16565 layer_factory.hpp:77] Creating layer conv_d3a-b
I0422 22:26:50.020153 16565 net.cpp:100] Creating Layer conv_d3a-b
I0422 22:26:50.020155 16565 net.cpp:434] conv_d3a-b <- d3a
I0422 22:26:50.020162 16565 net.cpp:408] conv_d3a-b -> d3b
I0422 22:26:50.030437 16565 net.cpp:150] Setting up conv_d3a-b
I0422 22:26:50.030452 16565 net.cpp:157] Top shape: 1 512 48 48 (1179648)
I0422 22:26:50.030455 16565 net.cpp:165] Memory required for data: 499795200
I0422 22:26:50.030472 16565 layer_factory.hpp:77] Creating layer relu_d3b
I0422 22:26:50.030479 16565 net.cpp:100] Creating Layer relu_d3b
I0422 22:26:50.030483 16565 net.cpp:434] relu_d3b <- d3b
I0422 22:26:50.030489 16565 net.cpp:395] relu_d3b -> d3b (in-place)
I0422 22:26:50.030714 16565 net.cpp:150] Setting up relu_d3b
I0422 22:26:50.030725 16565 net.cpp:157] Top shape: 1 512 48 48 (1179648)
I0422 22:26:50.030728 16565 net.cpp:165] Memory required for data: 504513792
I0422 22:26:50.030731 16565 layer_factory.hpp:77] Creating layer conv_d3b-c
I0422 22:26:50.030741 16565 net.cpp:100] Creating Layer conv_d3b-c
I0422 22:26:50.030745 16565 net.cpp:434] conv_d3b-c <- d3b
I0422 22:26:50.030751 16565 net.cpp:408] conv_d3b-c -> d3c
I0422 22:26:50.050492 16565 net.cpp:150] Setting up conv_d3b-c
I0422 22:26:50.050509 16565 net.cpp:157] Top shape: 1 512 46 46 (1083392)
I0422 22:26:50.050513 16565 net.cpp:165] Memory required for data: 508847360
I0422 22:26:50.050528 16565 layer_factory.hpp:77] Creating layer relu_d3c
I0422 22:26:50.050534 16565 net.cpp:100] Creating Layer relu_d3c
I0422 22:26:50.050539 16565 net.cpp:434] relu_d3c <- d3c
I0422 22:26:50.050557 16565 net.cpp:395] relu_d3c -> d3c (in-place)
I0422 22:26:50.051592 16565 net.cpp:150] Setting up relu_d3c
I0422 22:26:50.051609 16565 net.cpp:157] Top shape: 1 512 46 46 (1083392)
I0422 22:26:50.051612 16565 net.cpp:165] Memory required for data: 513180928
I0422 22:26:50.051625 16565 layer_factory.hpp:77] Creating layer d3c_relu_d3c_0_split
I0422 22:26:50.051631 16565 net.cpp:100] Creating Layer d3c_relu_d3c_0_split
I0422 22:26:50.051635 16565 net.cpp:434] d3c_relu_d3c_0_split <- d3c
I0422 22:26:50.051643 16565 net.cpp:408] d3c_relu_d3c_0_split -> d3c_relu_d3c_0_split_0
I0422 22:26:50.051651 16565 net.cpp:408] d3c_relu_d3c_0_split -> d3c_relu_d3c_0_split_1
I0422 22:26:50.051714 16565 net.cpp:150] Setting up d3c_relu_d3c_0_split
I0422 22:26:50.051723 16565 net.cpp:157] Top shape: 1 512 46 46 (1083392)
I0422 22:26:50.051728 16565 net.cpp:157] Top shape: 1 512 46 46 (1083392)
I0422 22:26:50.051731 16565 net.cpp:165] Memory required for data: 521848064
I0422 22:26:50.051734 16565 layer_factory.hpp:77] Creating layer pool_d3c-4a
I0422 22:26:50.051740 16565 net.cpp:100] Creating Layer pool_d3c-4a
I0422 22:26:50.051745 16565 net.cpp:434] pool_d3c-4a <- d3c_relu_d3c_0_split_0
I0422 22:26:50.051750 16565 net.cpp:408] pool_d3c-4a -> d4a
I0422 22:26:50.051792 16565 net.cpp:150] Setting up pool_d3c-4a
I0422 22:26:50.051800 16565 net.cpp:157] Top shape: 1 512 23 23 (270848)
I0422 22:26:50.051805 16565 net.cpp:165] Memory required for data: 522931456
I0422 22:26:50.051806 16565 layer_factory.hpp:77] Creating layer conv_d4a-b
I0422 22:26:50.051816 16565 net.cpp:100] Creating Layer conv_d4a-b
I0422 22:26:50.051820 16565 net.cpp:434] conv_d4a-b <- d4a
I0422 22:26:50.051827 16565 net.cpp:408] conv_d4a-b -> d4b
I0422 22:26:50.090747 16565 net.cpp:150] Setting up conv_d4a-b
I0422 22:26:50.090764 16565 net.cpp:157] Top shape: 1 1024 21 21 (451584)
I0422 22:26:50.090778 16565 net.cpp:165] Memory required for data: 524737792
I0422 22:26:50.090791 16565 layer_factory.hpp:77] Creating layer relu_d4b
I0422 22:26:50.090798 16565 net.cpp:100] Creating Layer relu_d4b
I0422 22:26:50.090802 16565 net.cpp:434] relu_d4b <- d4b
I0422 22:26:50.090808 16565 net.cpp:395] relu_d4b -> d4b (in-place)
I0422 22:26:50.091037 16565 net.cpp:150] Setting up relu_d4b
I0422 22:26:50.091047 16565 net.cpp:157] Top shape: 1 1024 21 21 (451584)
I0422 22:26:50.091050 16565 net.cpp:165] Memory required for data: 526544128
I0422 22:26:50.091053 16565 layer_factory.hpp:77] Creating layer conv_d4b-c
I0422 22:26:50.091064 16565 net.cpp:100] Creating Layer conv_d4b-c
I0422 22:26:50.091068 16565 net.cpp:434] conv_d4b-c <- d4b
I0422 22:26:50.091074 16565 net.cpp:408] conv_d4b-c -> d4c
I0422 22:26:50.168447 16565 net.cpp:150] Setting up conv_d4b-c
I0422 22:26:50.168473 16565 net.cpp:157] Top shape: 1 1024 19 19 (369664)
I0422 22:26:50.168485 16565 net.cpp:165] Memory required for data: 528022784
I0422 22:26:50.168494 16565 layer_factory.hpp:77] Creating layer relu_d4c
I0422 22:26:50.168503 16565 net.cpp:100] Creating Layer relu_d4c
I0422 22:26:50.168509 16565 net.cpp:434] relu_d4c <- d4c
I0422 22:26:50.168516 16565 net.cpp:395] relu_d4c -> d4c (in-place)
I0422 22:26:50.168792 16565 net.cpp:150] Setting up relu_d4c
I0422 22:26:50.168802 16565 net.cpp:157] Top shape: 1 1024 19 19 (369664)
I0422 22:26:50.168807 16565 net.cpp:165] Memory required for data: 529501440
I0422 22:26:50.168809 16565 layer_factory.hpp:77] Creating layer upconv_d4c_u3a
I0422 22:26:50.168818 16565 net.cpp:100] Creating Layer upconv_d4c_u3a
I0422 22:26:50.168823 16565 net.cpp:434] upconv_d4c_u3a <- d4c
I0422 22:26:50.168830 16565 net.cpp:408] upconv_d4c_u3a -> u3a
I0422 22:26:50.186728 16565 net.cpp:150] Setting up upconv_d4c_u3a
I0422 22:26:50.186743 16565 net.cpp:157] Top shape: 1 512 38 38 (739328)
I0422 22:26:50.186746 16565 net.cpp:165] Memory required for data: 532458752
I0422 22:26:50.186754 16565 layer_factory.hpp:77] Creating layer relu_u3a
I0422 22:26:50.186761 16565 net.cpp:100] Creating Layer relu_u3a
I0422 22:26:50.186764 16565 net.cpp:434] relu_u3a <- u3a
I0422 22:26:50.186770 16565 net.cpp:395] relu_u3a -> u3a (in-place)
I0422 22:26:50.187038 16565 net.cpp:150] Setting up relu_u3a
I0422 22:26:50.187049 16565 net.cpp:157] Top shape: 1 512 38 38 (739328)
I0422 22:26:50.187052 16565 net.cpp:165] Memory required for data: 535416064
I0422 22:26:50.187055 16565 layer_factory.hpp:77] Creating layer u3a_relu_u3a_0_split
I0422 22:26:50.187063 16565 net.cpp:100] Creating Layer u3a_relu_u3a_0_split
I0422 22:26:50.187067 16565 net.cpp:434] u3a_relu_u3a_0_split <- u3a
I0422 22:26:50.187072 16565 net.cpp:408] u3a_relu_u3a_0_split -> u3a_relu_u3a_0_split_0
I0422 22:26:50.187079 16565 net.cpp:408] u3a_relu_u3a_0_split -> u3a_relu_u3a_0_split_1
I0422 22:26:50.187129 16565 net.cpp:150] Setting up u3a_relu_u3a_0_split
I0422 22:26:50.187136 16565 net.cpp:157] Top shape: 1 512 38 38 (739328)
I0422 22:26:50.187140 16565 net.cpp:157] Top shape: 1 512 38 38 (739328)
I0422 22:26:50.187144 16565 net.cpp:165] Memory required for data: 541330688
I0422 22:26:50.187146 16565 layer_factory.hpp:77] Creating layer crop_d3c-d3cc
I0422 22:26:50.187160 16565 net.cpp:100] Creating Layer crop_d3c-d3cc
I0422 22:26:50.187163 16565 net.cpp:434] crop_d3c-d3cc <- d3c_relu_d3c_0_split_1
I0422 22:26:50.187167 16565 net.cpp:434] crop_d3c-d3cc <- u3a_relu_u3a_0_split_0
I0422 22:26:50.187175 16565 net.cpp:408] crop_d3c-d3cc -> d3cc
I0422 22:26:50.187201 16565 net.cpp:150] Setting up crop_d3c-d3cc
I0422 22:26:50.187207 16565 net.cpp:157] Top shape: 1 512 38 38 (739328)
I0422 22:26:50.187211 16565 net.cpp:165] Memory required for data: 544288000
I0422 22:26:50.187214 16565 layer_factory.hpp:77] Creating layer concat_d3cc_u3a-b
I0422 22:26:50.187219 16565 net.cpp:100] Creating Layer concat_d3cc_u3a-b
I0422 22:26:50.187222 16565 net.cpp:434] concat_d3cc_u3a-b <- u3a_relu_u3a_0_split_1
I0422 22:26:50.187227 16565 net.cpp:434] concat_d3cc_u3a-b <- d3cc
I0422 22:26:50.187233 16565 net.cpp:408] concat_d3cc_u3a-b -> u3b
I0422 22:26:50.187258 16565 net.cpp:150] Setting up concat_d3cc_u3a-b
I0422 22:26:50.187265 16565 net.cpp:157] Top shape: 1 1024 38 38 (1478656)
I0422 22:26:50.187268 16565 net.cpp:165] Memory required for data: 550202624
I0422 22:26:50.187273 16565 layer_factory.hpp:77] Creating layer conv_u3b-c
I0422 22:26:50.187281 16565 net.cpp:100] Creating Layer conv_u3b-c
I0422 22:26:50.187284 16565 net.cpp:434] conv_u3b-c <- u3b
I0422 22:26:50.187290 16565 net.cpp:408] conv_u3b-c -> u3c
I0422 22:26:50.223232 16565 net.cpp:150] Setting up conv_u3b-c
I0422 22:26:50.223248 16565 net.cpp:157] Top shape: 1 512 36 36 (663552)
I0422 22:26:50.223251 16565 net.cpp:165] Memory required for data: 552856832
I0422 22:26:50.223261 16565 layer_factory.hpp:77] Creating layer relu_u3c
I0422 22:26:50.223268 16565 net.cpp:100] Creating Layer relu_u3c
I0422 22:26:50.223273 16565 net.cpp:434] relu_u3c <- u3c
I0422 22:26:50.223278 16565 net.cpp:395] relu_u3c -> u3c (in-place)
I0422 22:26:50.224182 16565 net.cpp:150] Setting up relu_u3c
I0422 22:26:50.224197 16565 net.cpp:157] Top shape: 1 512 36 36 (663552)
I0422 22:26:50.224200 16565 net.cpp:165] Memory required for data: 555511040
I0422 22:26:50.224203 16565 layer_factory.hpp:77] Creating layer conv_u3c-d
I0422 22:26:50.224220 16565 net.cpp:100] Creating Layer conv_u3c-d
I0422 22:26:50.224223 16565 net.cpp:434] conv_u3c-d <- u3c
I0422 22:26:50.224230 16565 net.cpp:408] conv_u3c-d -> u3d
I0422 22:26:50.241017 16565 net.cpp:150] Setting up conv_u3c-d
I0422 22:26:50.241031 16565 net.cpp:157] Top shape: 1 512 34 34 (591872)
I0422 22:26:50.241035 16565 net.cpp:165] Memory required for data: 557878528
I0422 22:26:50.241041 16565 layer_factory.hpp:77] Creating layer relu_u3d
I0422 22:26:50.241046 16565 net.cpp:100] Creating Layer relu_u3d
I0422 22:26:50.241050 16565 net.cpp:434] relu_u3d <- u3d
I0422 22:26:50.241055 16565 net.cpp:395] relu_u3d -> u3d (in-place)
I0422 22:26:50.241247 16565 net.cpp:150] Setting up relu_u3d
I0422 22:26:50.241257 16565 net.cpp:157] Top shape: 1 512 34 34 (591872)
I0422 22:26:50.241259 16565 net.cpp:165] Memory required for data: 560246016
I0422 22:26:50.241263 16565 layer_factory.hpp:77] Creating layer upconv_u3d_u2a
I0422 22:26:50.241283 16565 net.cpp:100] Creating Layer upconv_u3d_u2a
I0422 22:26:50.241288 16565 net.cpp:434] upconv_u3d_u2a <- u3d
I0422 22:26:50.241294 16565 net.cpp:408] upconv_u3d_u2a -> u2a
I0422 22:26:50.245347 16565 net.cpp:150] Setting up upconv_u3d_u2a
I0422 22:26:50.245362 16565 net.cpp:157] Top shape: 1 256 68 68 (1183744)
I0422 22:26:50.245363 16565 net.cpp:165] Memory required for data: 564980992
I0422 22:26:50.245369 16565 layer_factory.hpp:77] Creating layer relu_u2a
I0422 22:26:50.245375 16565 net.cpp:100] Creating Layer relu_u2a
I0422 22:26:50.245378 16565 net.cpp:434] relu_u2a <- u2a
I0422 22:26:50.245383 16565 net.cpp:395] relu_u2a -> u2a (in-place)
I0422 22:26:50.245580 16565 net.cpp:150] Setting up relu_u2a
I0422 22:26:50.245591 16565 net.cpp:157] Top shape: 1 256 68 68 (1183744)
I0422 22:26:50.245594 16565 net.cpp:165] Memory required for data: 569715968
I0422 22:26:50.245597 16565 layer_factory.hpp:77] Creating layer u2a_relu_u2a_0_split
I0422 22:26:50.245602 16565 net.cpp:100] Creating Layer u2a_relu_u2a_0_split
I0422 22:26:50.245606 16565 net.cpp:434] u2a_relu_u2a_0_split <- u2a
I0422 22:26:50.245612 16565 net.cpp:408] u2a_relu_u2a_0_split -> u2a_relu_u2a_0_split_0
I0422 22:26:50.245625 16565 net.cpp:408] u2a_relu_u2a_0_split -> u2a_relu_u2a_0_split_1
I0422 22:26:50.245667 16565 net.cpp:150] Setting up u2a_relu_u2a_0_split
I0422 22:26:50.245676 16565 net.cpp:157] Top shape: 1 256 68 68 (1183744)
I0422 22:26:50.245679 16565 net.cpp:157] Top shape: 1 256 68 68 (1183744)
I0422 22:26:50.245682 16565 net.cpp:165] Memory required for data: 579185920
I0422 22:26:50.245683 16565 layer_factory.hpp:77] Creating layer crop_d2c-d2cc
I0422 22:26:50.245690 16565 net.cpp:100] Creating Layer crop_d2c-d2cc
I0422 22:26:50.245693 16565 net.cpp:434] crop_d2c-d2cc <- d2c_relu_d2c_0_split_1
I0422 22:26:50.245697 16565 net.cpp:434] crop_d2c-d2cc <- u2a_relu_u2a_0_split_0
I0422 22:26:50.245702 16565 net.cpp:408] crop_d2c-d2cc -> d2cc
I0422 22:26:50.245726 16565 net.cpp:150] Setting up crop_d2c-d2cc
I0422 22:26:50.245733 16565 net.cpp:157] Top shape: 1 256 68 68 (1183744)
I0422 22:26:50.245735 16565 net.cpp:165] Memory required for data: 583920896
I0422 22:26:50.245738 16565 layer_factory.hpp:77] Creating layer concat_d2cc_u2a-b
I0422 22:26:50.245743 16565 net.cpp:100] Creating Layer concat_d2cc_u2a-b
I0422 22:26:50.245745 16565 net.cpp:434] concat_d2cc_u2a-b <- u2a_relu_u2a_0_split_1
I0422 22:26:50.245749 16565 net.cpp:434] concat_d2cc_u2a-b <- d2cc
I0422 22:26:50.245754 16565 net.cpp:408] concat_d2cc_u2a-b -> u2b
I0422 22:26:50.245775 16565 net.cpp:150] Setting up concat_d2cc_u2a-b
I0422 22:26:50.245782 16565 net.cpp:157] Top shape: 1 512 68 68 (2367488)
I0422 22:26:50.245784 16565 net.cpp:165] Memory required for data: 593390848
I0422 22:26:50.245787 16565 layer_factory.hpp:77] Creating layer conv_u2b-c
I0422 22:26:50.245796 16565 net.cpp:100] Creating Layer conv_u2b-c
I0422 22:26:50.245798 16565 net.cpp:434] conv_u2b-c <- u2b
I0422 22:26:50.245803 16565 net.cpp:408] conv_u2b-c -> u2c
I0422 22:26:50.254169 16565 net.cpp:150] Setting up conv_u2b-c
I0422 22:26:50.254184 16565 net.cpp:157] Top shape: 1 256 66 66 (1115136)
I0422 22:26:50.254186 16565 net.cpp:165] Memory required for data: 597851392
I0422 22:26:50.254194 16565 layer_factory.hpp:77] Creating layer relu_u2c
I0422 22:26:50.254199 16565 net.cpp:100] Creating Layer relu_u2c
I0422 22:26:50.254202 16565 net.cpp:434] relu_u2c <- u2c
I0422 22:26:50.254206 16565 net.cpp:395] relu_u2c -> u2c (in-place)
I0422 22:26:50.255059 16565 net.cpp:150] Setting up relu_u2c
I0422 22:26:50.255072 16565 net.cpp:157] Top shape: 1 256 66 66 (1115136)
I0422 22:26:50.255076 16565 net.cpp:165] Memory required for data: 602311936
I0422 22:26:50.255079 16565 layer_factory.hpp:77] Creating layer conv_u2c-d
I0422 22:26:50.255087 16565 net.cpp:100] Creating Layer conv_u2c-d
I0422 22:26:50.255090 16565 net.cpp:434] conv_u2c-d <- u2c
I0422 22:26:50.255097 16565 net.cpp:408] conv_u2c-d -> u2d
I0422 22:26:50.259582 16565 net.cpp:150] Setting up conv_u2c-d
I0422 22:26:50.259610 16565 net.cpp:157] Top shape: 1 256 64 64 (1048576)
I0422 22:26:50.259613 16565 net.cpp:165] Memory required for data: 606506240
I0422 22:26:50.259620 16565 layer_factory.hpp:77] Creating layer relu_u2d
I0422 22:26:50.259626 16565 net.cpp:100] Creating Layer relu_u2d
I0422 22:26:50.259629 16565 net.cpp:434] relu_u2d <- u2d
I0422 22:26:50.259634 16565 net.cpp:395] relu_u2d -> u2d (in-place)
I0422 22:26:50.259819 16565 net.cpp:150] Setting up relu_u2d
I0422 22:26:50.259827 16565 net.cpp:157] Top shape: 1 256 64 64 (1048576)
I0422 22:26:50.259830 16565 net.cpp:165] Memory required for data: 610700544
I0422 22:26:50.259834 16565 layer_factory.hpp:77] Creating layer upconv_u2d_u1a
I0422 22:26:50.259840 16565 net.cpp:100] Creating Layer upconv_u2d_u1a
I0422 22:26:50.259843 16565 net.cpp:434] upconv_u2d_u1a <- u2d
I0422 22:26:50.259848 16565 net.cpp:408] upconv_u2d_u1a -> u1a
I0422 22:26:50.264178 16565 net.cpp:150] Setting up upconv_u2d_u1a
I0422 22:26:50.264195 16565 net.cpp:157] Top shape: 1 128 128 128 (2097152)
I0422 22:26:50.264199 16565 net.cpp:165] Memory required for data: 619089152
I0422 22:26:50.264214 16565 layer_factory.hpp:77] Creating layer relu_u1a
I0422 22:26:50.264220 16565 net.cpp:100] Creating Layer relu_u1a
I0422 22:26:50.264223 16565 net.cpp:434] relu_u1a <- u1a
I0422 22:26:50.264228 16565 net.cpp:395] relu_u1a -> u1a (in-place)
I0422 22:26:50.264413 16565 net.cpp:150] Setting up relu_u1a
I0422 22:26:50.264423 16565 net.cpp:157] Top shape: 1 128 128 128 (2097152)
I0422 22:26:50.264426 16565 net.cpp:165] Memory required for data: 627477760
I0422 22:26:50.264430 16565 layer_factory.hpp:77] Creating layer u1a_relu_u1a_0_split
I0422 22:26:50.264434 16565 net.cpp:100] Creating Layer u1a_relu_u1a_0_split
I0422 22:26:50.264437 16565 net.cpp:434] u1a_relu_u1a_0_split <- u1a
I0422 22:26:50.264442 16565 net.cpp:408] u1a_relu_u1a_0_split -> u1a_relu_u1a_0_split_0
I0422 22:26:50.264449 16565 net.cpp:408] u1a_relu_u1a_0_split -> u1a_relu_u1a_0_split_1
I0422 22:26:50.264490 16565 net.cpp:150] Setting up u1a_relu_u1a_0_split
I0422 22:26:50.264497 16565 net.cpp:157] Top shape: 1 128 128 128 (2097152)
I0422 22:26:50.264502 16565 net.cpp:157] Top shape: 1 128 128 128 (2097152)
I0422 22:26:50.264503 16565 net.cpp:165] Memory required for data: 644254976
I0422 22:26:50.264506 16565 layer_factory.hpp:77] Creating layer crop_d1c-d1cc
I0422 22:26:50.264513 16565 net.cpp:100] Creating Layer crop_d1c-d1cc
I0422 22:26:50.264515 16565 net.cpp:434] crop_d1c-d1cc <- d1c_relu_d1c_0_split_1
I0422 22:26:50.264519 16565 net.cpp:434] crop_d1c-d1cc <- u1a_relu_u1a_0_split_0
I0422 22:26:50.264524 16565 net.cpp:408] crop_d1c-d1cc -> d1cc
I0422 22:26:50.264546 16565 net.cpp:150] Setting up crop_d1c-d1cc
I0422 22:26:50.264554 16565 net.cpp:157] Top shape: 1 128 128 128 (2097152)
I0422 22:26:50.264556 16565 net.cpp:165] Memory required for data: 652643584
I0422 22:26:50.264559 16565 layer_factory.hpp:77] Creating layer concat_d1cc_u1a-b
I0422 22:26:50.264562 16565 net.cpp:100] Creating Layer concat_d1cc_u1a-b
I0422 22:26:50.264566 16565 net.cpp:434] concat_d1cc_u1a-b <- u1a_relu_u1a_0_split_1
I0422 22:26:50.264569 16565 net.cpp:434] concat_d1cc_u1a-b <- d1cc
I0422 22:26:50.264574 16565 net.cpp:408] concat_d1cc_u1a-b -> u1b
I0422 22:26:50.264595 16565 net.cpp:150] Setting up concat_d1cc_u1a-b
I0422 22:26:50.264600 16565 net.cpp:157] Top shape: 1 256 128 128 (4194304)
I0422 22:26:50.264602 16565 net.cpp:165] Memory required for data: 669420800
I0422 22:26:50.264605 16565 layer_factory.hpp:77] Creating layer conv_u1b-c
I0422 22:26:50.264612 16565 net.cpp:100] Creating Layer conv_u1b-c
I0422 22:26:50.264616 16565 net.cpp:434] conv_u1b-c <- u1b
I0422 22:26:50.264621 16565 net.cpp:408] conv_u1b-c -> u1c
I0422 22:26:50.266470 16565 net.cpp:150] Setting up conv_u1b-c
I0422 22:26:50.266479 16565 net.cpp:157] Top shape: 1 128 126 126 (2032128)
I0422 22:26:50.266482 16565 net.cpp:165] Memory required for data: 677549312
I0422 22:26:50.266489 16565 layer_factory.hpp:77] Creating layer relu_u1c
I0422 22:26:50.266494 16565 net.cpp:100] Creating Layer relu_u1c
I0422 22:26:50.266507 16565 net.cpp:434] relu_u1c <- u1c
I0422 22:26:50.266513 16565 net.cpp:395] relu_u1c -> u1c (in-place)
I0422 22:26:50.266693 16565 net.cpp:150] Setting up relu_u1c
I0422 22:26:50.266702 16565 net.cpp:157] Top shape: 1 128 126 126 (2032128)
I0422 22:26:50.266705 16565 net.cpp:165] Memory required for data: 685677824
I0422 22:26:50.266707 16565 layer_factory.hpp:77] Creating layer conv_u1c-d
I0422 22:26:50.266716 16565 net.cpp:100] Creating Layer conv_u1c-d
I0422 22:26:50.266717 16565 net.cpp:434] conv_u1c-d <- u1c
I0422 22:26:50.266723 16565 net.cpp:408] conv_u1c-d -> u1d
I0422 22:26:50.268615 16565 net.cpp:150] Setting up conv_u1c-d
I0422 22:26:50.268628 16565 net.cpp:157] Top shape: 1 128 124 124 (1968128)
I0422 22:26:50.268630 16565 net.cpp:165] Memory required for data: 693550336
I0422 22:26:50.268636 16565 layer_factory.hpp:77] Creating layer relu_u1d
I0422 22:26:50.268642 16565 net.cpp:100] Creating Layer relu_u1d
I0422 22:26:50.268646 16565 net.cpp:434] relu_u1d <- u1d
I0422 22:26:50.268649 16565 net.cpp:395] relu_u1d -> u1d (in-place)
I0422 22:26:50.269505 16565 net.cpp:150] Setting up relu_u1d
I0422 22:26:50.269520 16565 net.cpp:157] Top shape: 1 128 124 124 (1968128)
I0422 22:26:50.269537 16565 net.cpp:165] Memory required for data: 701422848
I0422 22:26:50.269541 16565 layer_factory.hpp:77] Creating layer upconv_u1d_u0a
I0422 22:26:50.269548 16565 net.cpp:100] Creating Layer upconv_u1d_u0a
I0422 22:26:50.269552 16565 net.cpp:434] upconv_u1d_u0a <- u1d
I0422 22:26:50.269558 16565 net.cpp:408] upconv_u1d_u0a -> u0a
I0422 22:26:50.270241 16565 net.cpp:150] Setting up upconv_u1d_u0a
I0422 22:26:50.270248 16565 net.cpp:157] Top shape: 1 128 248 248 (7872512)
I0422 22:26:50.270252 16565 net.cpp:165] Memory required for data: 732912896
I0422 22:26:50.270273 16565 layer_factory.hpp:77] Creating layer relu_u0a
I0422 22:26:50.270277 16565 net.cpp:100] Creating Layer relu_u0a
I0422 22:26:50.270280 16565 net.cpp:434] relu_u0a <- u0a
I0422 22:26:50.270285 16565 net.cpp:395] relu_u0a -> u0a (in-place)
I0422 22:26:50.270455 16565 net.cpp:150] Setting up relu_u0a
I0422 22:26:50.270464 16565 net.cpp:157] Top shape: 1 128 248 248 (7872512)
I0422 22:26:50.270467 16565 net.cpp:165] Memory required for data: 764402944
I0422 22:26:50.270470 16565 layer_factory.hpp:77] Creating layer u0a_relu_u0a_0_split
I0422 22:26:50.270476 16565 net.cpp:100] Creating Layer u0a_relu_u0a_0_split
I0422 22:26:50.270478 16565 net.cpp:434] u0a_relu_u0a_0_split <- u0a
I0422 22:26:50.270483 16565 net.cpp:408] u0a_relu_u0a_0_split -> u0a_relu_u0a_0_split_0
I0422 22:26:50.270490 16565 net.cpp:408] u0a_relu_u0a_0_split -> u0a_relu_u0a_0_split_1
I0422 22:26:50.270532 16565 net.cpp:150] Setting up u0a_relu_u0a_0_split
I0422 22:26:50.270539 16565 net.cpp:157] Top shape: 1 128 248 248 (7872512)
I0422 22:26:50.270543 16565 net.cpp:157] Top shape: 1 128 248 248 (7872512)
I0422 22:26:50.270546 16565 net.cpp:165] Memory required for data: 827383040
I0422 22:26:50.270548 16565 layer_factory.hpp:77] Creating layer crop_d0c-d0cc
I0422 22:26:50.270555 16565 net.cpp:100] Creating Layer crop_d0c-d0cc
I0422 22:26:50.270556 16565 net.cpp:434] crop_d0c-d0cc <- d0c_relu_d0c_0_split_1
I0422 22:26:50.270561 16565 net.cpp:434] crop_d0c-d0cc <- u0a_relu_u0a_0_split_0
I0422 22:26:50.270566 16565 net.cpp:408] crop_d0c-d0cc -> d0cc
I0422 22:26:50.270591 16565 net.cpp:150] Setting up crop_d0c-d0cc
I0422 22:26:50.270596 16565 net.cpp:157] Top shape: 1 64 248 248 (3936256)
I0422 22:26:50.270599 16565 net.cpp:165] Memory required for data: 843128064
I0422 22:26:50.270602 16565 layer_factory.hpp:77] Creating layer concat_d0cc_u0a-b
I0422 22:26:50.270606 16565 net.cpp:100] Creating Layer concat_d0cc_u0a-b
I0422 22:26:50.270609 16565 net.cpp:434] concat_d0cc_u0a-b <- u0a_relu_u0a_0_split_1
I0422 22:26:50.270613 16565 net.cpp:434] concat_d0cc_u0a-b <- d0cc
I0422 22:26:50.270617 16565 net.cpp:408] concat_d0cc_u0a-b -> u0b
I0422 22:26:50.270639 16565 net.cpp:150] Setting up concat_d0cc_u0a-b
I0422 22:26:50.270643 16565 net.cpp:157] Top shape: 1 192 248 248 (11808768)
I0422 22:26:50.270658 16565 net.cpp:165] Memory required for data: 890363136
I0422 22:26:50.270661 16565 layer_factory.hpp:77] Creating layer conv_u0b-c
I0422 22:26:50.270669 16565 net.cpp:100] Creating Layer conv_u0b-c
I0422 22:26:50.270673 16565 net.cpp:434] conv_u0b-c <- u0b
I0422 22:26:50.270678 16565 net.cpp:408] conv_u0b-c -> u0c
I0422 22:26:50.271592 16565 net.cpp:150] Setting up conv_u0b-c
I0422 22:26:50.271600 16565 net.cpp:157] Top shape: 1 64 246 246 (3873024)
I0422 22:26:50.271602 16565 net.cpp:165] Memory required for data: 905855232
I0422 22:26:50.271623 16565 layer_factory.hpp:77] Creating layer relu_u0c
I0422 22:26:50.271628 16565 net.cpp:100] Creating Layer relu_u0c
I0422 22:26:50.271631 16565 net.cpp:434] relu_u0c <- u0c
I0422 22:26:50.271636 16565 net.cpp:395] relu_u0c -> u0c (in-place)
I0422 22:26:50.271811 16565 net.cpp:150] Setting up relu_u0c
I0422 22:26:50.271821 16565 net.cpp:157] Top shape: 1 64 246 246 (3873024)
I0422 22:26:50.271822 16565 net.cpp:165] Memory required for data: 921347328
I0422 22:26:50.271826 16565 layer_factory.hpp:77] Creating layer conv_u0c-d
I0422 22:26:50.271833 16565 net.cpp:100] Creating Layer conv_u0c-d
I0422 22:26:50.271836 16565 net.cpp:434] conv_u0c-d <- u0c
I0422 22:26:50.271842 16565 net.cpp:408] conv_u0c-d -> u0d
I0422 22:26:50.272356 16565 net.cpp:150] Setting up conv_u0c-d
I0422 22:26:50.272366 16565 net.cpp:157] Top shape: 1 64 244 244 (3810304)
I0422 22:26:50.272367 16565 net.cpp:165] Memory required for data: 936588544
I0422 22:26:50.272388 16565 layer_factory.hpp:77] Creating layer relu_u0d
I0422 22:26:50.272400 16565 net.cpp:100] Creating Layer relu_u0d
I0422 22:26:50.272403 16565 net.cpp:434] relu_u0d <- u0d
I0422 22:26:50.272408 16565 net.cpp:395] relu_u0d -> u0d (in-place)
I0422 22:26:50.272578 16565 net.cpp:150] Setting up relu_u0d
I0422 22:26:50.272586 16565 net.cpp:157] Top shape: 1 64 244 244 (3810304)
I0422 22:26:50.272590 16565 net.cpp:165] Memory required for data: 951829760
I0422 22:26:50.272593 16565 layer_factory.hpp:77] Creating layer conv_u0d-score
I0422 22:26:50.272600 16565 net.cpp:100] Creating Layer conv_u0d-score
I0422 22:26:50.272603 16565 net.cpp:434] conv_u0d-score <- u0d
I0422 22:26:50.272608 16565 net.cpp:408] conv_u0d-score -> score
I0422 22:26:50.272917 16565 net.cpp:150] Setting up conv_u0d-score
I0422 22:26:50.272924 16565 net.cpp:157] Top shape: 1 3 244 244 (178608)
I0422 22:26:50.272927 16565 net.cpp:165] Memory required for data: 952544192
I0422 22:26:50.272948 16565 layer_factory.hpp:77] Creating layer softmax
I0422 22:26:50.272953 16565 net.cpp:100] Creating Layer softmax
I0422 22:26:50.272955 16565 net.cpp:434] softmax <- score
I0422 22:26:50.272959 16565 net.cpp:408] softmax -> softmax_out
I0422 22:26:50.273865 16565 net.cpp:150] Setting up softmax
I0422 22:26:50.273879 16565 net.cpp:157] Top shape: 1 3 244 244 (178608)
I0422 22:26:50.273881 16565 net.cpp:165] Memory required for data: 953258624
I0422 22:26:50.273883 16565 layer_factory.hpp:77] Creating layer reshapelab
I0422 22:26:50.273893 16565 net.cpp:100] Creating Layer reshapelab
I0422 22:26:50.273895 16565 net.cpp:434] reshapelab <- label
I0422 22:26:50.273901 16565 net.cpp:408] reshapelab -> label_flat
I0422 22:26:50.273929 16565 net.cpp:150] Setting up reshapelab
I0422 22:26:50.273934 16565 net.cpp:157] Top shape: 1 59536 (59536)
I0422 22:26:50.273937 16565 net.cpp:165] Memory required for data: 953496768
I0422 22:26:50.273939 16565 layer_factory.hpp:77] Creating layer reshaperes
I0422 22:26:50.273943 16565 net.cpp:100] Creating Layer reshaperes
I0422 22:26:50.273947 16565 net.cpp:434] reshaperes <- softmax_out
I0422 22:26:50.273952 16565 net.cpp:408] reshaperes -> softmax_out_flat
I0422 22:26:50.273973 16565 net.cpp:150] Setting up reshaperes
I0422 22:26:50.273978 16565 net.cpp:157] Top shape: 1 3 59536 (178608)
I0422 22:26:50.273982 16565 net.cpp:165] Memory required for data: 954211200
I0422 22:26:50.273983 16565 layer_factory.hpp:77] Creating layer loss
I0422 22:26:50.274024 16565 net.cpp:100] Creating Layer loss
I0422 22:26:50.274029 16565 net.cpp:434] loss <- softmax_out_flat
I0422 22:26:50.274049 16565 net.cpp:434] loss <- label_flat
I0422 22:26:50.274055 16565 net.cpp:408] loss -> loss
I0422 22:26:50.275192 16565 net.cpp:150] Setting up loss
I0422 22:26:50.275202 16565 net.cpp:157] Top shape: 3 (3)
I0422 22:26:50.275205 16565 net.cpp:160]     with loss weight 1
I0422 22:26:50.275221 16565 net.cpp:165] Memory required for data: 954211212
I0422 22:26:50.275224 16565 net.cpp:226] loss needs backward computation.
I0422 22:26:50.275228 16565 net.cpp:226] reshaperes needs backward computation.
I0422 22:26:50.275233 16565 net.cpp:228] reshapelab does not need backward computation.
I0422 22:26:50.275235 16565 net.cpp:226] softmax needs backward computation.
…
